continous_state/pretrained/dqn/dqnMLE10_128.pt (torch, 6403 bytes, 4 tensors)

linear1.weight f4 [128, 5]
0	0x3eb2f2cd	0.34950867
1	0xc01b7c5f	-2.429466
2	0xbfc57898	-1.5427427
3	0xbfe8a890	-1.8176441
4	0x3d0c3f1f	0.034239884
5	0xbeb5d681	-0.35515216
6	0x403d0cc3	2.953904
7	0x40b79bf0	5.7377853
8	0x3ff4b05e	1.9116323
9	0x3f519735	0.8187135
10	0xbf587f9e	-0.8456973
11	0x4010e7ec	2.2641554
12	0x40bab6f6	5.834834
13	0x3fddd1ad	1.7329613
14	0x3f2829c4	0.6568873
15	0xbdd49ff5	-0.10382072
16	0x3fa38ccc	1.2777343
17	0xbddebc3e	-0.10875748
18	0x3f908e01	1.1293336
19	0x3ea01acc	0.31270444
20	0x3f870b63	1.055035
21	0x3fd49c90	1.6610279
22	0x3ecf298d	0.40461388
23	0x3f960d82	1.1722872
24	0x3e112111	0.1417277
25	0x3f267c35	0.65033275
26	0xc034f956	-2.8277183
27	0xc043c0ca	-3.058642
28	0xc0005f3b	-2.0058124
29	0x3ede23fc	0.4338683
30	0x40271fc9	2.611315
31	0xbeed90b5	-0.46399465
32	0xc0803db7	-4.0075336
33	0xbfa01445	-1.2506186
34	0x3f529fe5	0.8227523
35	0x3ee06247	0.4382498
36	0xbfb1518b	-1.385301
37	0xbf1e8080	-0.61914825
38	0xbef83629	-0.4847882
39	0x39a6fb9f	0.0003184946
40	0xc018f589	-2.3899863
41	0xbe1ae879	-0.15127744
42	0xbefeb4aa	-0.4974721
43	0x3f9be0b7	1.2177953
44	0x3f3de50a	0.7417761
45	0xbfcbf740	-1.593483
46	0xbfe4a2b2	-1.7862151
47	0xbf6c964c	-0.92416835
48	0xbf8b7b3c	-1.0896983
49	0x3eb8d51f	0.36100098
50	0x3fc112c5	1.5083853
51	0xbf585ea5	-0.84519416
52	0xc0a8216a	-5.254079
53	0xbf997ecb	-1.1991819
54	0xbf2f973d	-0.68590146
55	0xbe286c2c	-0.16447514
56	0xbf3a491f	-0.72767824
57	0x3f1d6646	0.6148418
58	0xbf625893	-0.88416404
59	0xbd69faac	-0.057123825
60	0x3f9aaa09	1.2083141
61	0xbfa5b200	-1.2944946
62	0xc0b17d35	-5.546534
63	0xbfd0079d	-1.6252323
64	0xbf6959c7	-0.91152614
65	0xbf009a42	-0.5023538
66	0xbffa7f9a	-1.9570191
67	0xbf67a594	-0.9048703
68	0xbfcc5bf2	-1.596556
69	0x3f011b24	0.5043204
70	0xbecb57e9	-0.39715508
71	0xc0106478	-2.2561321
72	0xc0a3ed72	-5.122735
73	0xbfc5a5e5	-1.5441252
74	0xbf6a1f27	-0.91453785
75	0xbeb52a8e	-0.3538403
76	0xc03c6d86	-2.9441848
77	0xc008d3cc	-2.137927
78	0xc008dc42	-2.1384435
79	0x3d8e6893	0.0695354
80	0xbef93212	-0.48671013
81	0x402ce7e1	2.7016528
82	0x40d0df3d	6.527251
83	0x4003481e	2.0512767
84	0x3f343fcf	0.70409864
85	0x3f66ae80	0.90110016
86	0xbfe81772	-1.8132155
87	0xc0c79b6e	-6.2377234
88	0xbfb29a00	-1.3953247
89	0xbf8b20a7	-1.086934
90	0xbf85b918	-1.0447111
91	0x3ead85a4	0.33891022
92	0x40a6bcd7	5.2105517
93	0x3f3fd400	0.7493286
94	0x3f28e9ad	0.6598156
95	0xbfbb3765	-1.462628
96	0x3f5e2ae3	0.8678419
97	0x40ae13d9	5.439923
98	0x3f861a2b	1.0476736
99	0x3f706a90	0.939126
100	0xbf1a8601	-0.60360724
101	0x3f129557	0.57259125
102	0x40a06998	5.01289
103	0x3fcd6ebf	1.6049422
104	0x3f57c206	0.8428043
105	0x3ef9d64a	0.48796302
106	0xc029fe99	-2.6561644
107	0xc012458a	-2.2854943
108	0x3fa63bd7	1.2987012
109	0xbf8bbfc0	-1.0917892
110	0xbf1645cd	-0.5870026
111	0x4024806b	2.570338
112	0x40e1b38c	7.0531673
113	0x3fe3a0d4	1.7783456
114	0x3f6febe2	0.93719304
115	0x3e6d1a5e	0.2315459
116	0x3ff9df45	1.9521261
117	0x3fc10d69	1.5082217
118	0x3e6a5125	0.22882517
119	0x3d10c395	0.03534277
120	0xbf530ceb	-0.82441586
121	0x3fd471b9	1.6597205
122	0x40afe8fd	5.497191
123	0x3fba7b58	1.4568892
124	0x3f7cef1a	0.9880234
125	0x3ebb8d1e	0.366311
126	0x401a6cf2	2.4128995
127	0x3f8e4649	1.1115199
128	0x3fd38fba	1.6528237
129	0xbf17f907	-0.5936436
130	0x3f28464a	0.6573225
131	0xbf939e55	-1.1532694
132	0x3e8bb12b	0.27283606
133	0xbf9f79ea	-1.245908
134	0xbf0974e3	-0.5369398
135	0x3f831cbc	1.0243144
136	0x3fde0a74	1.734694
137	0x3ef7d468	0.4840424
138	0x3fa56ab7	1.2923192
139	0x3d28e3fd	0.04123305
140	0xc041757a	-3.0227952
141	0xbd88211b	-0.06646939
142	0x3fe0b239	1.7554389
143	0x3f88245f	1.06361
144	0x3c20c106	0.009811645
145	0x3ebbb0da	0.36658365
146	0xc046a5d7	-3.103872
147	0xc09d724d	-4.9202027
148	0xbff00ea0	-1.8754463
149	0xbf4ea574	-0.8072121
150	0x3d6c1704	0.057639137
151	0xc00caafc	-2.197936
152	0xc0a9397a	-5.288266
153	0xbfc68212	-1.5508444
154	0xbf90a743	-1.1301044
155	0x3fcb8011	1.5898458
156	0xc0227efe	-2.539001
157	0xc0b6d1da	-5.7131166
158	0xbfd9c5b4	-1.7013459
159	0xbf4682c9	-0.7754331
160	0x3e742043	0.23840432
161	0xc0173645	-2.3626873
162	0xbfa96969	-1.3235294
163	0x3e0ef8da	0.13962117
164	0xbe6bfc0f	-0.23045371
165	0x3eb18099	0.34668425
166	0xbfb5a505	-1.4190985
167	0x3ec2f315	0.38076082
168	0xbfa0b828	-1.25562
169	0xbed03143	-0.40662584
170	0xbf11c95a	-0.56947863
171	0xc016b904	-2.3550425
172	0xbf9b3542	-1.2125628
173	0xbfdd03ae	-1.7266748
174	0x3e58dd0e	0.21178076
175	0x3dcae5d4	0.099071175
176	0xc0501b7d	-3.2516778
177	0xc0b658c8	-5.6983376
178	0xc0005dc2	-2.0057225
179	0xbf879273	-1.0591568
180	0xbf2bfcb7	-0.6718249
181	0x3fe21a6a	1.7664311
182	0x3e8e68c8	0.27814317
183	0x3fa97216	1.3237941
184	0xbe68e932	-0.22745207
185	0xbfae6026	-1.3623092
186	0x40039f57	2.0566003
187	0x40d65b4b	6.698644
188	0x3fd90919	1.6955901
189	0x3f43e24d	0.7651718
190	0x3f4e084b	0.80481404
191	0xbe185036	-0.14874348
192	0xc083bd6d	-4.1168733
193	0xbf0b1ffe	-0.5434569
194	0xbf1f1d93	-0.621545
195	0x3f544469	0.82916886
196	0x402254e1	2.5364306
197	0x3fd313d2	1.6490424
198	0x3ff9fec6	1.9530876
199	0xbe9aa80e	-0.3020634
200	0x3eed415d	0.4633893
201	0xbf5fe297	-0.87455124
202	0x3df193df	0.11795782
203	0xbf8c6672	-1.0968764
204	0xbf1bc6df	-0.6085033
205	0xbf1db18e	-0.6159905
206	0x3ffdce94	1.9828668
207	0x40bb5509	5.8541303
208	0x3fd76c1c	1.6829867
209	0x3f6d1f3a	0.9262577
210	0xbd7ee0c4	-0.062226072
211	0xc0454298	-3.0821896
212	0xc0a28529	-5.078755
213	0xc007ddcf	-2.1229131
214	0xbf569a27	-0.8382897
215	0x3ebc2267	0.36744997
216	0x4039a0a6	2.9004302
217	0x40d26609	6.5749555
218	0x406bdf24	3.6854944
219	0x3f6ca6fd	0.92442304
220	0x3f8630c9	1.0483638
221	0x3fbab9ce	1.4587953
222	0x3f185192	0.59499466
223	0x3f9cda84	1.2254186
224	0x3e58c553	0.21169023
225	0xbfad6820	-1.3547401
226	0x402053b6	2.5051093
227	0x3f7ddd99	0.99166256
228	0x3fa8673b	1.3156503
229	0xbf110d61	-0.5666104
230	0xbf420235	-0.7578462
231	0x40355d02	2.8338017
232	0x40cd3d55	6.413737
233	0x400f8305	2.2423718
234	0x3f49d18d	0.78835374
235	0x405a7990	3.4136696
236	0x3ec182b4	0.3779503
237	0xc080a760	-4.0204315
238	0xbebb5653	-0.36589298
239	0x3ef49ad0	0.47774363
240	0x3f0adfa8	0.5424752
241	0xbfac457a	-1.3458703
242	0xbe85e607	-0.2615206
243	0xbf9f5c3e	-1.2450025
244	0xbeb597a2	-0.3546725
245	0x3f8a731c	1.0816379
246	0x4000644f	2.0061224
247	0x40d1dbea	6.558095
248	0x40552e23	3.330941
249	0x3f344e6f	0.7043218
250	0xbf31ad7e	-0.69405353
251	0x401758c6	2.3647933
252	0x40ceb2a4	6.4593067
253	0x3fc5a61f	1.5441321
254	0x3f82e646	1.0226524
255	0xbf12c031	-0.5732451

linear1.bias f4 [128]
0	0x3e7cac3d	0.24675079
1	0x3eea713a	0.4578951
2	0x3f517063	0.81812114
3	0x3ea68d44	0.32529652
4	0x3e9468bb	0.28986153
5	0x3df979e1	0.1218145
6	0x3e0a510b	0.13507478
7	0xbe8a444c	-0.2700523
8	0xbe2c17bf	-0.16805933
9	0xbef5b051	-0.4798608
10	0xbf86029f	-1.046955
11	0xbdc9ef06	-0.09860043
12	0xbf500a29	-0.81265503
13	0xbe1a0bab	-0.15043513
14	0xbf022c98	-0.50849295
15	0x3ea2e333	0.31813964
16	0x3f3c7b42	0.73625576
17	0xbf1c0623	-0.60946864
18	0x3f7a2e81	0.9772721
19	0x3f53e364	0.82768846
20	0x3f518ec0	0.81858444
21	0xbf3dfab5	-0.74210674
22	0x3f191102	0.59791577
23	0x3ef4555c	0.47721374
24	0x3f38c556	0.7217611
25	0x3e1ec869	0.15506138
26	0x3dba2f71	0.0909108
27	0x3e00a43f	0.12562655
28	0xbe920fc6	-0.2852766
29	0xbec0ae86	-0.3763315
30	0xbee30d06	-0.44345874
31	0xbf1c311b	-0.6101243
32	0xbed6e452	-0.4197107
33	0xbea6d58a	-0.32584792
34	0x3e05f9a1	0.13083507
35	0xbe518a8c	-0.20463008
36	0x3e0d1651	0.13778044
37	0x3f5e6f9d	0.8688906
38	0xbf5ce4ed	-0.86286813
39	0xbd80b862	-0.06285168
40	0x3e06b44d	0.13154717
41	0x3f38ce94	0.72190213
42	0xbeaaccd8	-0.33359408
43	0x3eee09e4	0.4649192
44	0x3c5cf7fe	0.01348686
45	0x3d17de91	0.03707749
46	0x3f06c88d	0.52649766
47	0x3c95f079	0.018303143
48	0x3e15bc4b	0.1462261
49	0x3f0e6f1f	0.5563831
50	0x3f01813a	0.5058781
51	0xbd211870	-0.039329946
52	0xbd269121	-0.04066575
53	0xbf5304db	-0.82429284
54	0x3dd79a27	0.10527449
55	0xbdb37107	-0.08761793
56	0x3e96798c	0.29389608
57	0xbf4d6a85	-0.8024066
58	0x3e94ac4a	0.29037696
59	0x3f660d5a	0.8986412
60	0x3f0e78f6	0.5565332
61	0xbc48e51b	-0.012261654
62	0x3f014bd4	0.5050633
63	0x3eb483bf	0.35256764
64	0x3e2a7eb3	0.16649894
65	0xbe165e81	-0.14684488
66	0xbf4d6121	-0.8022633
67	0x3f4fb0da	0.8112923
68	0x3f2f9aa0	0.68595314
69	0xbea8b7f4	-0.32952845
70	0x3f43a942	0.7643014
71	0x3cf39fac	0.029739223
72	0xbf03c4e4	-0.51472306
73	0xbf51b191	-0.8191157
74	0xbe4e2050	-0.20129514
75	0x3f50d73f	0.8157844
76	0x3f0837ad	0.53209955
77	0x3e347cbd	0.17625709
78	0xbe439375	-0.19099219
79	0xbf01c5bd	-0.5069235
80	0x3f532c27	0.82489246
81	0x3f53590b	0.82557744
82	0x3ed4dd2c	0.4157499
83	0xbc7cd091	-0.0154305855
84	0xbf5375cc	-0.8260162
85	0x3ef6fbd4	0.48239005
86	0xbe81ab76	-0.25326127
87	0x3f3bc1e0	0.73342705
88	0x3ed5f40d	0.41787758
89	0x3db35281	0.08755971
90	0xbf6725e8	-0.90292215
91	0xbf2c0739	-0.6719852
92	0xbf2a0a9b	-0.6642243
93	0x3f01c448	0.50690126
94	0xbe5d3c0d	-0.21604939
95	0x3e60af0e	0.21941778
96	0x3f1c6ddc	0.6110513
97	0xbe3ad57f	-0.18245505
98	0xbf285123	-0.65748805
99	0xbf61e1ff	-0.8823547
100	0x3ef12c6e	0.4710421
101	0x3e48b5da	0.19600621
102	0x3ebfec9b	0.37485203
103	0x3f45700b	0.7712409
104	0xbe3bffd6	-0.18359312
105	0x3df0afd4	0.117522866
106	0xbf0ad21a	-0.5422684
107	0xbe5d2639	-0.21596612
108	0xbddcc67f	-0.107800476
109	0x3e527fad	0.20556517
110	0xbf912904	-1.1340642
111	0x3f371a82	0.7152482
112	0xbf26a95a	-0.6510216
113	0xbee6c034	-0.45068514
114	0x3f47de37	0.7807345
115	0xbf82fcef	-1.0233439
116	0xbf325085	-0.69654113
117	0xbe030cf8	-0.12797916
118	0x3f42327c	0.75858283
119	0xbd86bb48	-0.0657869
120	0xbf674b47	-0.9034924
121	0x3ee01857	0.4376857
122	0x3d841e60	0.06451106
123	0xbf7044ad	-0.9385479
124	0x3ec3f0b6	0.38269585
125	0xbd50cbcb	-0.050975602
126	0x3f21bc62	0.63178074
127	0xbe70ce7d	-0.23516269

linear2.weight f4 [3, 128]
0	0x3fdd696f	1.7297801
1	0x3f94d288	1.1626749
2	0x3fa35960	1.276165
3	0xbf913660	-1.1344719
4	0xbfbe2b1f	-1.485691
5	0x40023e87	2.0350664
6	0x3ff3b7a8	1.9040422
7	0x3f805ccd	1.002832
8	0xbecb7dbb	-0.39744362
9	0x3f83d12c	1.0298209
10	0xbfa90352	-1.3204138
11	0x3f37360a	0.7156683
12	0xbf80fcf3	-1.0077194
13	0x3f9f1f55	1.2431437
14	0xbec1c046	-0.37842005
15	0x3fcc376c	1.5954413
16	0x3ffd7242	1.9800494
17	0xbf9223a4	-1.1417127
18	0x3fbd6541	1.4796525
19	0x3fed2761	1.8527642
20	0x3f8f3633	1.1188415
21	0x3f9541c1	1.1660691
22	0x3ff11af3	1.8836349
23	0xbf9be2e3	-1.2178615
24	0x3f41b58e	0.75667655
25	0xbfe55b83	-1.7918552
26	0x3fd95523	1.6979107
27	0xbfacbc64	-1.3494992
28	0xbf5dbcdb	-0.86616296
29	0xbf2db19e	-0.6784915
30	0xbf0ea10b	-0.5571448
31	0xbfc692bf	-1.5513533
32	0x3f2c4f13	0.6730816
33	0x3ff1fb36	1.8904788
34	0x3fe79e4c	1.8095183
35	0xbf798d4c	-0.97481227
36	0xbfd2866c	-1.6447272
37	0x40136ab6	2.303388
38	0xbfe80e3e	-1.8129346
39	0xbfcbb224	-1.5913739
40	0x3f83585e	1.0261343
41	0x3fc105df	1.5079917
42	0xbf42b65a	-0.76059496
43	0x402df9b0	2.7183647
44	0xbfc25e50	-1.5185032
45	0xc00eb731	-2.229931
46	0x3fd31899	1.6491882
47	0x3fc7a183	1.5596164
48	0x3fdcde95	1.7255427
49	0x40098902	2.1489873
50	0x3faaa0fe	1.3330381
51	0x3fe2b233	1.7710632
52	0x3fc52717	1.5402554
53	0xbfbbea35	-1.4680849
54	0x3fe41977	1.7820271
55	0xbfc74aad	-1.5569664
56	0x3f4ae489	0.79254967
57	0xbe99a68f	-0.30009887
58	0xc01b0dbc	-2.4227133
59	0x3fc99cd3	1.5750984
60	0x40000049	2.0000174
61	0x4000286a	2.0024667
62	0x3ee42fb9	0.4456766
63	0xbff8856d	-1.9415718
64	0x3fcd8925	1.6057478
65	0xbfebf52e	-1.8434198
66	0xbf925f38	-1.1435308
67	0x3fa8c04f	1.3183688
68	0x3fd46b85	1.6595312
69	0xbf6bf64a	-0.9217268
70	0x3faa4090	1.3300953
71	0xbfd98334	-1.6993165
72	0xbfc90fa0	-1.5707893
73	0xbec381db	-0.3818501
74	0xbecc859d	-0.3994569
75	0x3fa06c00	1.2532959
76	0x3fd36382	1.6514742
77	0x3fb65509	1.4244701
78	0x3e5d1880	0.21591377
79	0xbfe0a1f6	-1.7549427
80	0x3fc3168d	1.5241257
81	0x3fff3bc1	1.994011
82	0x3f956500	1.1671448
83	0xbf5c6383	-0.8608934
84	0xbfd3e090	-1.6552906
85	0xbf472e5c	-0.77805114
86	0xbfc8711a	-1.5659516
87	0xbf8acad3	-1.0843147
88	0x3faee5ea	1.3663914
89	0xbfa7957e	-1.3092496
90	0xbfd7a675	-1.6847674
91	0xbfe02515	-1.7511317
92	0xc0015d69	-2.0213263
93	0x3f9428d5	1.1574961
94	0xbfe91af2	-1.8211348
95	0x3fb08459	1.3790389
96	0x3eb42a4e	0.35188526
97	0xbf9e8310	-1.2383747
98	0xbfd77870	-1.683363
99	0xbfb2ac0a	-1.3958752
100	0x3f81c778	1.0138998
101	0xbfc0a934	-1.5051637
102	0x4006dc26	2.1071868
103	0x3f9a8ef7	1.207488
104	0xbfedea44	-1.8587117
105	0x3fb73d7f	1.4315642
106	0xbeeffb89	-0.46871594
107	0xbf5eff95	-0.8710874
108	0x3f911160	1.1333427
109	0x3f20a388	0.6274953
110	0x3ef483de	0.47756857
111	0x400b588a	2.177279
112	0xbfe01cd6	-1.75088
113	0xbec2bd58	-0.38035083
114	0x3e155baa	0.14585748
115	0xc019a83a	-2.4008927
116	0xc003bc29	-2.0583594
117	0xbfa1be0f	-1.2636126
118	0x3ffda38f	1.9815539
119	0x3f81f6d6	1.0153453
120	0xbf35cdd3	-0.7101719
121	0x3fb9a0bb	1.4502176
122	0x3e95c3be	0.29250902
123	0xbfc50359	-1.5391647
124	0x3d115581	0.035481934
125	0x3f868e94	1.0512261
126	0xbf0dd0d9	-0.553968
127	0xbf9dde4a	-1.2333462
128	0x40142a45	2.31508
129	0x3f9da4d4	1.2315927
130	0x3fa0a136	1.2549198
131	0xbef9172f	-0.486505
132	0xbf4c31e9	-0.79763657
133	0x4005837a	2.0861497
134	0x3fb22b64	1.3919492
135	0x3f17fbc6	0.5936855
136	0xbfe64c2d	-1.7991997
137	0x3f5e0619	0.86728054
138	0xbfb87587	-1.4410866
139	0xbeecaac8	-0.46224046
140	0xbf05773b	-0.52135056
141	0x3f801a77	1.0008076
142	0xbf77fb83	-0.9686815
143	0x4010dc96	2.2634635
144	0x3fac9d21	1.3485452
145	0xbfa62773	-1.2980789
146	0x3fdf8160	1.7461357
147	0x4020c6e9	2.5121405
148	0x3e9b050b	0.30277285
149	0x3cc9141a	0.024545718
150	0x3fc737e2	1.5563929
151	0xbf3127c4	-0.692013
152	0x3f7eb427	0.9949364
153	0xbfc36382	-1.5264742
154	0x4004c36c	2.0744276
155	0xbf6d4124	-0.9267752
156	0xbfbb30d3	-1.4624275
157	0xbf8ee48e	-1.1163499
158	0xbfb950d6	-1.4477794
159	0xbfaebfa0	-1.3652229
160	0x3f2a9a33	0.6664154
161	0x3f9075a4	1.1285901
162	0x3ff163fe	1.885864
163	0xbf911f9d	-1.1337773
164	0xbf9ba55d	-1.215984
165	0x3fbaeb7c	1.4603114
166	0xc0236f2d	-2.5536606
167	0xbffc2e52	-1.9701636
168	0x3f5c9675	0.8616708
169	0x3fd038c1	1.626732
170	0xbf338d62	-0.7013761
171	0xbf31047c	-0.6914747
172	0xbfa0ce7b	-1.2563013
173	0xbfc3516c	-1.5259223
174	0x3f0a1991	0.5394526
175	0x3fa97b8e	1.3240831
176	0x401e3aec	2.4723463
177	0xbf4b2fda	-0.7936989
178	0x3fc9c1d0	1.5762272
179	0x3fd87daa	1.691335
180	0x3fb6ebf0	1.4290752
181	0xbfd284ab	-1.6446737
182	0x40092180	2.1426697
183	0xbffb99ae	-1.9656274
184	0x3faef954	1.3669839
185	0xbf4ede45	-0.80807906
186	0xc00a3779	-2.1596358
187	0x3ff771c9	1.93316
188	0x3feac201	1.8340455
189	0x40175ac7	2.3649156
190	0x3f84a5f4	1.0363145
191	0xbf9534fc	-1.1656795
192	0x3fe1008d	1.7578293
193	0xc006be59	-2.105368
194	0xbfc8fc85	-1.5702063
195	0x3fd25207	1.6431283
196	0x4000648c	2.006137
197	0xbf8880c6	-1.0664299
198	0x3f952de6	1.1654632
199	0xbfd8000b	-1.6875013
200	0xbfaee304	-1.366303
201	0xbf4683bd	-0.77544767
202	0xbf834ec9	-1.0258418
203	0x3fc5cdd2	1.5453436
204	0x3fda5d36	1.7059696
205	0x3fbd03a3	1.4766735
206	0x3dff26fc	0.124586076
207	0xc0063669	-2.097071
208	0x3f5e0871	0.8673163
209	0xbf690647	-0.91025203
210	0x3fbe329a	1.4859192
211	0xbf7d2768	-0.98888254
212	0x3f4ddbcc	0.8041351
213	0xbf7fbef4	-0.99900746
214	0xbfe13e11	-1.7597066
215	0xbebac4d1	-0.36478284
216	0x3fa3f86a	1.2810185
217	0xbf92f08f	-1.1479663
218	0xc00c2e16	-2.1903129
219	0xbfd46636	-1.6593692
220	0xbfe8d55b	-1.8190111
221	0x3f9a5e53	1.2060035
222	0xc00484c2	-2.070603
223	0x3fc7ddc0	1.5614548
224	0x3f65c25e	0.89749706
225	0xbfcb02ec	-1.5860267
226	0x3e21e6d4	0.1581071
227	0xbfe5734e	-1.7925813
228	0x3f924c59	1.142955
229	0xbfb8c0cc	-1.4433837
230	0x3f367e64	0.71286607
231	0x3fb9dcf3	1.4520553
232	0xc01db8a1	-2.4643939
233	0x3ff25199	1.8931152
234	0xbf73cf59	-0.9523826
235	0xbf915fa5	-1.1357313
236	0x3f5175fa	0.8182064
237	0x3f06d994	0.5267575
238	0x3fb70e9f	1.4301337
239	0x3fba3515	1.4547449
240	0xbfef2a67	-1.8684815
241	0xbf2bb984	-0.6707995
242	0x3f4cf070	0.8005438
243	0xc03409a2	-2.813088
244	0xc021e8b3	-2.5298278
245	0xbfa11755	-1.2585245
246	0x3fd6f973	1.6794876
247	0x3f9f2c8c	1.243547
248	0xbf421ac8	-0.75822115
249	0x3fa2b2f8	1.2710867
250	0x3f3f75fa	0.7478939
251	0xc00c24df	-2.1897504
252	0x3f6f5604	0.93490624
253	0x3f6fafbb	0.9362752
254	0xbf5dee49	-0.8669172
255	0xbfd362de	-1.6514547

linear2.bias f4 [3]
0	0x3e110f9a	0.14166108
1	0x3ecfac94	0.40561354
2	0x3d827356	0.06369655
