continous_state/pretrained/dqn/dqnMLE20_128.pt (torch, 6403 bytes, 4 tensors)

linear1.weight f4 [128, 5]
000000 b0 6d 35 3f 4c 29 22 3f c2 a9 0c 40 53 41 46 3e
       0.70870495 0.63344264 2.1978612 0.19360857
000010 af 7d a3 3f 0b c5 c4 3e 45 61 0c 40 a8 91 ac 3e
       1.277273 0.38431582 2.1934369 0.33704877
000020 a3 16 f2 3e 9c 84 37 3f db c2 9b 3f b4 e1 06 c0
       0.47282895 0.7168672 1.216884 -2.1075258
000030 c6 df eb c0 bb ce 0d c0 1f 31 8e bf 71 48 a8 3e
       -7.371066 -2.2157428 -1.110874 0.32867768
000040 09 4e b7 bf ee bd 2a 3f 22 52 1c bf 5a 7d b0 be
       -1.432069 0.6669606 -0.61062825 -0.34470636
000050 d3 81 b5 bf 4c 34 42 3f 04 2f 18 c0 d1 3e bf be
       -1.4180244 0.7586105 -2.3778696 -0.37352613
000060 2f 9d 57 be f0 ac 5a bf bd 53 98 3f 66 85 cb 40
       -0.21056055 -0.8542013 1.1900555 6.360034
000070 5a 5f c9 3f 1a 85 9d 3f 5d 88 68 3e 2d ac f3 bf
       1.5732224 1.2306244 0.22708268 -1.9036919
000080 a2 23 16 bf 9b 9f d9 bf 8f 0f 8b 3f 24 87 3c 3d
       -0.5864812 -1.7001833 1.0864123 0.046027318
000090 5d 89 8f bf bb a1 0e 3f 1c ab 94 be d9 c3 93 3d
       -1.1213795 0.5571553 -0.29036796 0.07215089
0000a0 01 6f b4 bf 33 5b 7a be a1 fa b6 40 88 fa 03 40
       -1.4096376 -0.24448852 5.7180943 2.0621662
0000b0 8a 90 d3 3f 66 ad 15 c0 d1 3f b9 3f fc b2 11 3f
       1.6528485 -2.3387084 1.44726 0.56913733
0000c0 ca a0 fc 3f 50 17 0c bf 89 97 09 be 2a 1f ba bf
       1.9736569 -0.5472307 -0.13436712 -1.454076
0000d0 c8 f5 26 3f 8a 3b 8f bf 43 30 1f 3f 0d 6b 61 3e
       0.6521878 -1.1190045 0.62183017 0.22013493
0000e0 c0 f8 19 c0 a0 af d5 c0 52 5e 25 c0 d8 13 8b be
       -2.4058075 -6.6776886 -2.5838819 -0.27163577
0000f0 23 1a f9 bd 28 a7 ff bf 25 f9 ca bf 5c 64 af bf
       -0.12163188 -1.9972887 -1.5857283 -1.3702502
000100 ae 61 e8 be e4 87 ff bf 99 39 38 c0 cf 00 b0 c0
       -0.45387024 -1.9963346 -2.8785155 -5.5000987
000110 85 34 ba bf d9 31 14 bf 52 a0 fc be 17 dc 23 40
       -1.4547278 -0.5788856 -0.49341065 2.5603082
000120 38 21 42 3f 64 a0 5b 3e 5c e9 4f 3f 44 93 a3 3e
       0.7583194 0.21447903 0.81215453 0.31948292
000130 2d 21 5b c0 71 5a 76 bf 3d b3 0d c0 c4 9f a6 be
       -3.4239 -0.9623175 -2.2140648 -0.32543766
000140 8a 9f 22 3f 16 36 3e 40 81 4a b6 40 f7 18 e0 3f
       0.6352469 2.9720511 5.6965947 1.7507619
000150 c0 dd 50 3f ac 18 aa be 88 a6 23 c0 7d 3e d4 c0
       0.81588364 -0.33221948 -2.5570393 -6.632628
000160 bb f0 f8 bf df 83 5c bf 09 73 55 3d 35 dd bf bf
       -1.9448465 -0.8613872 0.05211166 -1.4989382
000170 8b 9a 05 c0 b8 86 eb bf 7f cb 87 3f f1 bb a2 3e
       -2.0875576 -1.8400488 1.0608977 0.31784013
000180 e5 3b 65 40 27 73 02 40 46 ef 54 be 56 64 fc 3e
       3.5817807 2.0382783 -0.207944 0.492953
000190 2e 07 76 be 8f 10 e4 bf 81 98 81 3e 6c 21 25 bf
       -0.24026176 -1.7817553 0.25311664 -0.6450412
0001a0 ac c7 1a bf 5b 78 b6 bf 71 55 61 c0 48 6f 8f c0
       -0.60460925 -1.425548 -3.52084 -4.482334
0001b0 1f 1b e6 bf 95 8b 87 be f5 92 b0 3f b3 8f ed bf
       -1.7977027 -0.2647368 1.3794848 -1.8559479
0001c0 7b 9e 5f c1 a9 ed 1c c0 0f b8 1f bf 1e 1a db 3f
       -13.9761915 -2.4520056 -0.62390226 1.7117345
0001d0 03 22 3d 3f 71 4d de 3f 96 b2 1c 3f 7f 28 8b 3f
       0.7388002 1.7367383 0.6121 1.0871733
0001e0 0a 9a e8 be 19 bf 73 3f 69 c9 b8 40 ae 52 bc 3f
       -0.45430022 0.95213467 5.774586 1.4712732
0001f0 3d 11 a2 3f a6 58 c0 3e 03 6c 9f 3f cc c3 f3 bd
       1.2661511 0.37567633 1.2454838 -0.1190258
000200 73 c0 cb 3e bf 86 89 be 12 bc 5e 3f b2 2c 37 bf
       0.39795265 -0.26860616 0.8700572 -0.71552575
000210 d1 99 d7 c0 2a ec 93 bf db 66 67 bf 14 d2 fa bc
       -6.7375264 -1.1556447 -0.9039132 -0.030617751
000220 45 42 86 3f d2 e3 c2 40 39 d7 9e 3f 40 c6 78 3f
       1.0488974 6.09031 1.2409431 0.97177505
000230 12 f3 46 be 0d 2f a9 bf 18 d0 60 3f 19 d5 59 bf
       -0.19428661 -1.3217484 0.87817526 -0.85090786
000240 8c f9 87 3e 43 ed 23 3d 88 06 11 c0 4b 7c 65 3f
       0.26557577 0.040021192 -2.2660236 0.8964278
000250 5a 5f 75 bf 03 c2 7f 3f db d6 37 bf cf ad 58 bf
       -0.9584862 0.99905413 -0.7181222 -0.8464021
000260 08 f5 11 3f 2e ef cf bf 89 63 af bf 20 1a 51 3d
       0.57014513 -1.6244867 -1.3702251 0.051050305
000270 f3 35 18 c0 44 2c 93 c0 b9 1a 11 c0 70 28 10 bf
       -2.3782928 -4.5991535 -2.267256 -0.563117
000280 b5 18 09 40 de cb 10 40 4e 96 b7 40 94 e9 b2 3f
       2.142133 2.262443 5.7370977 1.3977532
000290 92 bc a2 3e 73 be 34 3e 55 80 9b 3d fe d8 c7 40
       0.31784493 0.17650776 0.07592837 6.2452383
0002a0 b2 f0 b0 3e 95 04 2c 3f 8b f5 87 bf bb 3b 27 40
       0.34558636 0.6719449 -1.0621809 2.6130207
0002b0 10 7a 3e 40 8d c2 0b 40 8a 5c c0 3e 58 c5 1a 40
       2.9762 2.1837494 0.37570602 2.418295
0002c0 25 6f 9e 3f 31 f3 af 40 2b f9 82 3f 42 f3 08 3f
       1.2377669 5.4984365 1.023229 0.5349618
0002d0 c5 5e 0b 40 23 7d fb 3f d1 4e c0 40 dc 0d 9d 3f
       2.1776593 1.9647564 6.009621 1.2269855
0002e0 5c c1 fe 3e 63 fa 07 bf 49 f6 fe bf 86 ca e9 c0
       0.49756896 -0.53116435 -1.991891 -7.305972
0002f0 fb 7f 16 c0 60 28 78 bf f7 3c b4 3f 4c 59 8b 3f
       -2.3515613 -0.9693661 1.4081105 1.0886626
000300 4a 99 88 bf 8c a8 2c 3f 35 7d ae be 99 a3 05 bf
       -1.067178 0.6744468 -0.340799 -0.52202755
000310 57 43 84 3f c3 3f ac 40 e4 d7 21 40 9c 74 f9 bf
       1.033305 5.3827834 2.528802 -1.9488711
000320 c5 ea 63 3f 66 06 a8 bf 7c cf dc c0 82 29 c7 bf
       0.89030105 -1.3126953 -6.9003277 -1.5559542
000330 21 81 87 bf af cc 4a 3d 69 75 2a bf 5e 21 5b 3f
       -1.0586282 0.049511608 -0.66585404 0.8559779
000340 1d 73 31 bf 71 a8 ba bd 23 06 4b bd fc c5 83 bf
       -0.69316274 -0.09114159 -0.0495664 -1.0294795
000350 20 20 fa c0 b7 a0 97 bf 10 61 a7 bf 1f 5b 18 40
       -7.8164215 -1.1845921 -1.3076496 2.3805616
000360 d4 6c a9 3f 38 7d 91 40 1d bf 76 3f c1 87 0c 3f
       1.3236337 4.5465355 0.96385366 0.54894644
000370 95 da 49 3e 42 1a ad bf f0 88 5d 3e ed 00 89 be
       0.19712289 -1.3523638 0.21634269 -0.2675852
000380 e2 12 96 be 5b 08 b6 be 83 0f a1 bf a9 e9 ca 3f
       -0.2931128 -0.3555325 -1.2582859 1.5852557
000390 53 11 98 bf 01 7e 13 3f 16 26 53 3e 27 2d 66 bf
       -1.1880287 0.5761414 0.20619997 -0.89912647
0003a0 87 52 de c0 fc 65 9e bf d8 08 6c bf cd 4a 92 3e
       -6.947574 -1.2374873 -0.92200994 0.28572693
0003b0 4a 9e 1d 3e 59 b3 9b 40 9f 35 81 3f 83 23 4b 3f
       0.15392414 4.865643 1.0094489 0.7935106
0003c0 4e 8b 49 c0 57 48 6a 3f c2 5f d1 40 1d 52 66 3f
       -3.1491275 0.9151663 6.542939 0.89969045
0003d0 2c 91 aa 3f 98 5a ab 3f f9 2c 91 bf e8 14 e8 c0
       1.3325553 1.3387022 -1.134185 -7.252552
0003e0 3f 93 a5 bf 58 b1 a6 bf 88 31 91 3d ea 63 c0 bf
       -1.2935561 -1.3022871 0.070895255 -1.5030491
0003f0 60 d5 c4 c0 1e c0 a9 bf c6 b9 9e bf f7 c5 14 bf
       -6.1510468 -1.3261755 -1.2400444 -0.5811457

linear1.bias f4 [128]
000000 dd b8 9a 3f 0e 0a 47 3e c0 f8 b1 bf 62 69 02 be
       1.2087666 0.1943743 -1.3904037 -0.12735513
000010 8c 3d af be 6e 2c 84 3f 3d 3f 66 3f 1d ca cc 3d
       -0.34226644 1.0326059 0.89940244 0.099994875
000020 79 23 29 3f e0 38 ba be 13 64 28 3f 4c 5f 32 bf
       0.6606975 -0.36371517 0.657777 -0.6967666
000030 38 39 0d 3e 9e cc b0 bd cc 2d 38 3f 22 16 4f bf
       0.13791358 -0.08632778 0.7194488 -0.80893147
000040 3a 86 be 3e e4 7d 7c bf 65 a9 7b 3f c7 06 30 3f
       0.37211782 -0.98629594 0.9830535 0.6876034
000050 54 11 47 be 7a c6 66 3d 3e 0a 4b bf f7 35 50 3f
       -0.19440204 0.056341626 -0.79312503 0.81332344
000060 f3 99 5a 3f 00 5b 90 be 0f 22 95 bf 24 c8 70 3f
       0.8539116 -0.28194427 -1.1651019 0.9405539
000070 24 24 16 3f 96 a3 26 3f 62 55 51 3e d1 5d 8a be
       0.58648896 0.6509336 0.20442727 -0.270247
000080 af cd 09 3f d5 31 6f 3f 97 36 ba 3e 6b d3 ed 3e
       0.53829473 0.9343541 0.36369774 0.46450362
000090 d5 b1 ef 3e cf 8a 89 bf 41 22 11 bf 8d ef 01 bf
       0.46815363 -1.0745486 -0.5669289 -0.5075615
0000a0 d5 54 99 bf 7d 76 0c bf 25 ce 70 bf ec 24 80 3e
       -1.1979014 -0.548683 -0.9406455 0.2502817
0000b0 0d dd 22 be 05 a3 f9 3e eb ae 99 bf f5 45 53 3f
       -0.15904637 0.48757187 -1.2006506 0.8252862
0000c0 fd 12 32 3f 26 22 7e bf 10 18 40 bf 18 63 2f bf
       0.69560224 -0.99270856 -0.75036716 -0.6851058
0000d0 c8 e6 5d 3e af 2c 4a 3f 90 cc 96 3f 04 56 eb be
       0.21670067 0.7897443 1.1781178 -0.45964062
0000e0 b2 d1 a7 3e 2a 44 7a bf a1 9a d5 be cb 10 3b 3f
       0.32777172 -0.9776026 -0.41719535 0.730725
0000f0 a3 1e 99 3f 04 54 0c bf e1 09 82 bf b0 5a fa be
       1.1962475 -0.548157 -1.0159265 -0.48897314
000100 bf 32 c8 be a3 d0 25 3f d7 57 31 3f 99 70 cc be
       -0.39101216 0.6477148 0.6927466 -0.39929655
000110 2d d4 32 bf 3c 3a 86 bf ab a6 81 bf 08 52 da be
       -0.69855005 -1.0486522 -1.0128988 -0.4264071
000120 76 21 86 3f 48 d5 ed 3e e8 26 82 bf 41 41 95 be
       1.0478961 0.46451783 -1.0168123 -0.29151347
000130 35 75 42 bf ca 5a 62 3f 95 d7 8a bf e4 df 0a 3e
       -0.75960094 0.88419783 -1.084704 0.1356197
000140 32 4e 9b be 84 b5 23 be de cb 34 3f d9 09 5d 3f
       -0.30333096 -0.15987211 0.70623577 0.8634315
000150 f5 c8 a1 3f 63 06 52 bf e0 25 b1 be a7 a5 4e bf
       1.2639452 -0.82040995 -0.3459921 -0.80721515
000160 d4 87 7f 3e ce 14 24 bf 3e 70 df 3e 3e 6c 9b bf
       0.24954158 -0.64094245 0.43640321 -1.2142408
000170 da 34 40 bf df 54 24 3f 95 3a 0b 3e 99 4f a1 be
       -0.75080645 0.64192003 0.13596566 -0.3150604
000180 e1 ac 6e 3f c2 98 82 be 9f fb 45 bf 20 8b 29 be
       0.9323254 -0.2550717 -0.7733707 -0.16556978
000190 70 06 56 bf 4e 9c 80 bf 9e ac 79 3f 65 69 09 3f
       -0.8360357 -1.00477 0.9752902 0.53676444
0001a0 0e 4a 4d bf 34 0d 1c bf 71 d0 76 3d 66 55 8e 3f
       -0.80191123 -0.60957646 0.06025738 1.1119812
0001b0 28 21 02 bf 3f 4f 32 be 34 92 1e 3e b3 b6 26 bf
       -0.5083184 -0.17413042 0.1548546 -0.65122527
0001c0 bc fd 75 bf db ba 52 bf 66 93 7f 3f e8 48 7c bf
       -0.9609029 -0.8231637 0.9983429 -0.98548746
0001d0 ae 32 7d bf 05 7f 81 bf b7 fa 0e bf bd 52 54 bf
       -0.98905456 -1.0116888 -0.5585131 -0.8293875
0001e0 2c 9a 13 be 00 67 71 bf ba 90 dd 3e 15 86 57 3f
       -0.1441428 -0.9429779 0.4327448 0.8418897
0001f0 00 22 5e 3c e4 b8 e6 3c fa 8f 0d 3e 80 d3 f0 3c
       0.013557911 0.028164335 0.13824454 0.029397726

linear2.weight f4 [3, 128]
000000 62 84 ca be 1d ff 89 bf 8e ad 2e c0 e8 79 e2 3f
       -0.39554125 -1.0780979 -2.729343 1.7693453
000010 e1 46 a3 bf 34 61 07 40 8d b4 af 3f 1d fc 91 3f
       -1.2756006 2.1153078 1.3726975 1.1405064
000020 af 63 fd 3f ea 36 1c c0 fc 1f bb 3f c6 2d 96 3f
       1.9796046 -2.4408517 1.4619136 1.1732719
000030 fd a2 6b 3f a0 cb c4 bf 11 cf b6 bf f8 0e 00 40
       0.92045575 -1.5374641 -1.4281942 2.0009136
000040 56 4c df 3f 60 01 13 c0 7f df 47 3f 2a 60 4c bf
       1.7445171 -2.296959 0.780754 -0.79834235
000050 da 6b 46 3f a3 f6 a9 bf ca ca d7 3f 9b 0e 07 be
       0.7750832 -1.3278393 1.6858761 -0.13189165
000060 04 17 91 3f d7 3b 41 bf 25 13 2a c0 89 e7 b5 3f
       1.1335149 -0.75481933 -2.6574185 1.4211284
000070 2f 59 c7 3f 01 93 11 40 76 fa 5f 3f 61 c5 9e 3f
       1.5574092 2.2745974 0.8749155 1.2403985
000080 9d 2d 02 40 93 63 1d 40 90 34 ba bf 10 dc b1 3f
       2.034034 2.4592025 -1.4547291 1.3895283
000090 cc fa dd 3f 09 c5 69 c0 4b f7 fa bf 42 ab 16 c0
       1.7342162 -3.652651 -1.9606718 -2.3542027
0000a0 a3 3b f4 bf e1 ec 6d 3f e8 33 0f c0 eb 10 3e 3f
       -1.90807 0.92939574 -2.237543 0.74244565
0000b0 75 2f 82 3f 39 0f b1 3f be fa 2a c0 0b 94 5e 3f
       1.0170733 1.383277 -2.671554 0.86944646
0000c0 3f 67 0c 40 4b c1 4b c0 a6 27 b7 bf 9d df c8 bf
       2.1938016 -3.1836727 -1.4308975 -1.5693241
0000d0 c8 82 87 bf a8 04 3b 3f 6e d5 10 40 af 6f 68 3f
       -1.0586786 0.7305398 2.2630267 0.90795416
0000e0 bb f0 8c 3f 8e 71 d5 bf be 34 e5 bf 4f 69 09 40
       1.1010965 -1.6675279 -1.7906721 2.1470525
0000f0 e9 b5 b2 3f 84 62 f4 bf e7 05 0f c0 4a 4a fb bf
       1.3961765 -1.9092565 -2.2347353 -1.9632046
000100 54 1f b9 bf 58 39 12 bf 6e 29 16 40 f2 e5 f3 bf
       -1.4462686 -0.5711875 2.3462787 -1.9054549
000110 22 a0 f2 bf c0 b2 0d c0 04 46 fd bf 0d 47 c9 3f
       -1.8955119 -2.214035 -1.9786992 1.5724808
000120 76 83 0d 40 dc c6 85 3f 56 e5 cc bf ef ba f5 3f
       2.2111487 1.0451312 -1.6007488 1.9197673
000130 8c 7b c3 3f 47 e1 99 3f 9c 4c 18 c0 4f ef c5 bf
       1.5272079 1.2021874 -2.3796759 -1.5463656
000140 ba 77 68 3f a9 06 da 3f c6 ca a0 3f f2 2d a9 3f
       0.9080769 1.7033283 1.2561882 1.3217146
000150 ef 2c fc be 5d d1 d2 bf 98 52 d2 3f 9d c0 c0 bf
       -0.49253032 -1.6470143 1.6431456 -1.5058781
000160 20 52 55 3f 6c 1a d7 bf 4e 1a da 3f f0 b7 39 c0
       0.8332844 -1.6804938 1.7039278 -2.9018517
000170 ec 0c c2 bf e0 9e b5 3f 81 87 75 3f 00 cc 28 be
       -1.5160193 1.418911 0.9590989 -0.1648407
000180 d4 bf c8 3f 24 1b 10 bf d0 5f 4b bf 96 d9 85 3f
       1.5683541 -0.56291413 -0.79443073 1.0457027
000190 a3 24 a5 bf c5 a3 eb bf 84 e4 04 40 08 f3 a0 3f
       -1.2901806 -1.8409353 2.0764475 1.2574167
0001a0 b1 92 ad bf 2c 03 e0 3f 1f 86 e3 bf b4 19 53 40
       -1.3560392 1.7500968 -1.7775306 3.2984438
0001b0 08 cb de bf a0 b4 96 3f 06 20 d3 3e 37 eb ce bf
       -1.740571 1.1773872 0.4123537 -1.6165532
0001c0 43 62 f5 bf 3a 07 d0 bf 03 cc 9c 40 9b ac de bf
       -1.9170612 -1.6252205 4.899904 -1.7396425
0001d0 fc bf 7d bf e9 d2 a9 bf 09 d1 6a 3f bd dc 56 bf
       -0.9912107 -1.326749 0.9172521 -0.8393057
0001e0 6a 43 65 3f da 34 f1 bf a5 46 5f 3f b9 75 fa 3f
       0.8955599 -1.8844254 0.8721717 1.9567176
0001f0 bc 7b 84 3f dd c1 98 bf 0a 29 73 bf b2 06 de 3f
       1.0350261 -1.1934162 -0.94984496 1.7345793
000200 6a f8 83 3f a4 68 76 bf e1 33 ef bf f4 b9 82 3f
       1.0310185 -0.9625342 -1.8687707 1.0212998
000210 1f f8 6d bf 98 3a 27 40 39 e1 df 3f 40 d1 48 3f
       -0.9295673 2.6129513 1.7490608 0.7844429
000220 66 35 89 bf f6 77 15 c0 68 a7 ca 3f 8b 44 ed 3f
       -1.0719421 -2.3354468 1.5832338 1.8536543
000230 0f 6f df 3f e8 b5 b5 bf 93 94 39 bd 6e 84 c1 3f
       1.7455767 -1.4196138 -0.045307707 1.5118539
000240 60 37 99 3f 2d a6 a6 bf 74 df e0 3f 81 b9 93 bf
       1.1970024 -1.3019463 1.7568192 -1.1540986
000250 e2 71 04 3f 03 d9 b2 bf 6a 9e 1a 40 c2 94 75 3f
       0.5173627 -1.3972477 2.4159188 0.9593011
000260 f8 4b b1 3f 8a c4 86 bf bc 2a 1f c0 6b d3 a2 3f
       1.3851309 -1.0528729 -2.4869833 1.272077
000270 0f bf e0 3f 21 c1 90 3f 19 4e 0c 3f 6e 37 ea 3f
       1.7558306 1.1308938 0.5480667 1.8298166
000280 42 02 a2 3f b3 c3 3b 40 08 bf ec bf e2 bb 5c 3f
       1.2656939 2.9338195 -1.8495798 0.86224186
000290 b4 c4 c9 3f 7f bf 5e be 9c c9 ca bf 02 65 88 bf
       1.5763154 -0.21752737 -1.5842776 -1.0655825
0002a0 4f 4e f0 bf 09 01 a5 be 06 2d 1b c0 e1 4f 16 3f
       -1.8773898 -0.32227352 -2.424623 0.58715636
0002b0 de 4a 07 3f b8 78 ce 3f f2 10 42 c0 78 40 4f 3f
       0.52848613 1.613059 -3.0322843 0.80957747
0002c0 8f 00 e3 3f e0 c4 73 c0 85 e2 dc bf af 67 93 bf
       1.7734545 -3.8088913 -1.7256628 -1.1516017
0002d0 95 c7 8c be 85 39 ea 3f 6d 7e 28 40 55 93 2d 3e
       -0.2749602 1.8298804 2.6327164 0.16950734
0002e0 97 25 95 3f 8f 91 4a bf 21 2a 4f bf 1d fe b3 3f
       1.1652097 -0.79128355 -0.8092366 1.4061924
0002f0 2a 73 0e 40 a1 1d a6 bf cc d3 e4 bf 34 9d bf bf
       2.225779 -1.2977792 -1.7877135 -1.496985
000300 20 ea 99 bf 11 37 80 3f b5 0a 08 40 48 09 0a c0
       -1.2024574 1.0016805 2.1256535 -2.1568165
000310 d2 35 fd bf 76 91 25 c0 bc 27 1d c0 db 2a 06 40
       -1.978205 -2.5870032 -2.4555502 2.0963657
000320 1d 6b 27 40 02 5b 90 3f c5 12 cf bf 06 a4 2c 40
       2.6159127 1.1277773 -1.6177603 2.6975112
000330 c0 a6 8c bd b9 47 ca 3f 88 ab 4d c0 f3 c7 bb bf
       -0.068677425 1.5803138 -3.2135944 -1.4670395
000340 e7 7b da 3e 00 0f 51 3f b3 6d d2 3f e4 42 da 3f
       0.42672655 0.81663513 1.6439728 1.7051663
000350 fc fd 91 3f 62 41 e7 bf 3b 07 ff 3f 92 00 b3 bf
       1.1405635 -1.8066828 1.9924082 -1.3984549
000360 1e 6f a2 3f cc 3e 21 c0 75 f7 dc 3f 93 0f 09 c0
       1.269016 -2.5194578 1.7263018 -2.1415756
000370 53 47 cd bf 10 20 b1 3f 9c bd 8a 3f 3c a8 54 bf
       -1.6037391 1.383791 1.0839114 -0.83069205
000380 f3 6d 0f 40 7c a4 de bf 7b bf c8 bf 37 44 9c 3f
       2.2410858 -1.7393947 -1.5683435 1.2208318
000390 ff b5 c0 bf 8d 53 bc bf 2d d7 20 40 2e 25 b7 3f
       -1.5055541 -1.4712998 2.5131333 1.4308221
0003a0 0d a5 c9 bf 9d e1 ef 3e 9e 70 4c bf 4e 15 83 40
       -1.5753495 0.46851817 -0.7985934 4.0963507
0003b0 95 0a 05 c0 d0 85 a6 3f 93 6f 9a 3f 7a d9 b7 bf
       -2.0787709 1.3009586 1.20653 -1.4363244
0003c0 2a b7 0c c0 e1 67 af bf fb 05 29 c0 d2 cb ba bf
       -2.1986794 -1.3703576 -2.64099 -1.4593451
0003d0 40 fc e0 bf 55 0f d1 bf ed cf e1 3f 20 a2 dd bf
       -1.757698 -1.6332804 1.7641579 -1.7315102
0003e0 69 6a d0 3e ec bd a9 bf 16 74 97 bd 87 75 0f 40
       0.40706185 -1.3261085 -0.073951885 2.2415483
0003f0 ad 0b fa 3f 29 18 7e bf a0 94 af be b5 11 8e 3f
       1.9534813 -0.99255615 -0.3429308 1.1099154

linear2.bias f4 [3]
000000 a8 eb f7 be 3b 1b 80 3f 85 c2 ca bc
       -0.4842198 1.000831 -0.024750957
