continous_state/pretrained/dqn/dqnMLE16_128.pt (torch, 6403 bytes, 4 tensors)

linear1.weight f4 [128, 5]
0	0xc05ba664	-3.4320307
1	0xc03b7eda	-2.9296174
2	0xc0c8a106	-6.269656
3	0xbff285f4	-1.8947129
4	0xbfb3d073	-1.4047989
5	0xc00f0c0b	-2.23511
6	0xbe4c64b3	-0.19960289
7	0x4048ea5f	3.1393049
8	0xbf252ad0	-0.6451845
9	0x3e2f3cef	0.17113088
10	0xbe3ab6e9	-0.18233837
11	0xbfb67909	-1.4255687
12	0x3edaf5d0	0.42765665
13	0xbfc8c45e	-1.5684927
14	0x3f99d6b2	1.2018645
15	0xbf4682fc	-0.77543616
16	0x3fc460f6	1.534209
17	0xbf923848	-1.1423426
18	0x3e9872f2	0.29775196
19	0x3f362442	0.71149075
20	0xbf1f7086	-0.6228107
21	0xbf5b254f	-0.85603803
22	0xc0cbdc90	-6.370674
23	0xbfb0981b	-1.3796419
24	0xbf8fb02d	-1.122564
25	0xbe3ac1a6	-0.18237934
26	0xbf9a29bf	-1.204399
27	0xc1195d3d	-9.585263
28	0xc0822da3	-4.068071
29	0xbfe299cc	-1.7703185
30	0xbef79ab0	-0.48360205
31	0xbf1d0bc3	-0.6134607
32	0xc0e251a4	-7.072466
33	0xbf83aa3f	-1.028633
34	0xbfc2fe2f	-1.5233821
35	0xbf7eecfb	-0.99580353
36	0x40085df6	2.130735
37	0x40014cce	2.0203128
38	0x3fdaef8d	1.7104355
39	0x3f4f76cf	0.8104066
40	0xc00b4c93	-2.1765487
41	0x40081f2c	2.1269026
42	0x405522c0	3.330246
43	0x403e357b	2.9720142
44	0xbfb4055d	-1.4064137
45	0xbf321d28	-0.6957574
46	0x3ef36d1c	0.4754418
47	0x40ed3d13	7.4137053
48	0x3f926188	1.1436014
49	0x3f7a1542	0.97688687
50	0x40373a32	2.862927
51	0x406550b0	3.5830498
52	0x409f3ad3	4.9759307
53	0x400cea6f	2.2018087
54	0x3f8d44a2	1.103657
55	0x3fa7639f	1.3077277
56	0xc010a161	-2.2598498
57	0xc03ca839	-2.9477675
58	0xc03657b7	-2.8491037
59	0xbf3fe70c	-0.74961925
60	0x400a6fe3	2.163079
61	0xbe1f9edf	-0.15587948
62	0xc0bcf9eb	-5.9055076
63	0xbe2cd471	-0.16877915
64	0xbf48174b	-0.7816054
65	0x3eacf8c6	0.3378355
66	0x3f9cc0f4	1.2246385
67	0x3f81ed68	1.0150576
68	0x3f8b84c3	1.0899891
69	0xbfbddeb9	-1.4833595
70	0x3efaa7e6	0.4895622
71	0xbed8c07b	-0.4233435
72	0xc0e7e837	-7.2470965
73	0xbf802591	-1.0011464
74	0xbf9199b9	-1.1375037
75	0x3f53200b	0.8247077
76	0xbf974145	-1.1816794
77	0x3ee64f4a	0.44982368
78	0xba9f2335	-0.001214123
79	0xbe94fd22	-0.29099375
80	0x3f6a4f67	0.9152741
81	0xbf98a9d0	-1.1926823
82	0xbf4320c4	-0.7622187
83	0x3fbb97f5	1.4655749
84	0xbeb9519f	-0.36195084
85	0xc03ebbd1	-2.9802134
86	0xc042282e	-3.0337024
87	0xc0ac7286	-5.38898
88	0xc0042b00	-2.0651245
89	0xbf2017d4	-0.6253636
90	0xbfc61014	-1.5473657
91	0x402aa1ef	2.6661336
92	0x40983a34	4.757105
93	0x40222544	2.5335245
94	0x3f0e780d	0.5565193
95	0xbfebfe31	-1.8436948
96	0x3fb5cbbe	1.4202802
97	0x404c9765	3.1967404
98	0x3fef9d97	1.8719968
99	0xbf84a856	-1.0363872
100	0x3e9444d3	0.2895876
101	0x3f127315	0.5720685
102	0x40c8991b	6.2686896
103	0x3f900747	1.1252221
104	0x3f841060	1.0317497
105	0xbec207b4	-0.37896502
106	0xbf20564f	-0.62631696
107	0xc0af42ed	-5.4769197
108	0xbf6ac013	-0.9169933
109	0xbf9187e8	-1.13696
110	0xbf502cfb	-0.81318635
111	0x3f96292e	1.1731317
112	0xbf23e274	-0.64017415
113	0x3f8eaaf0	1.1145916
114	0x3f3c07bc	0.734493
115	0xbef8fac1	-0.4862881
116	0xbef4742a	-0.47744876
117	0xc0d9bf5c	-6.8046093
118	0xbf8183be	-1.011833
119	0xbf8d078e	-1.101793
120	0x3eca8558	0.39554858
121	0x3f67b93e	0.9051703
122	0x406372ca	3.5538812
123	0x3f5bbe1a	0.85836947
124	0x3f8d204a	1.1025479
125	0xbfb1bd9d	-1.388599
126	0x3f2bfed1	0.67185694
127	0x4098c83b	4.774442
128	0x3fcb6067	1.5888795
129	0xbf531c52	-0.8246509
130	0x3fc1f4c3	1.515282
131	0xbf4edcd2	-0.80805695
132	0xc0a6f6ee	-5.217643
133	0xbfbeca27	-1.4905442
134	0x3f930c0f	1.1488055
135	0xbeee6f3d	-0.46569243
136	0xbf7e7ba0	-0.99407387
137	0xc0aa757c	-5.3268414
138	0xbf87d07c	-1.0610499
139	0xbfe2b39e	-1.7711065
140	0xbffd81ca	-1.9805233
141	0x3f9369c4	1.1516652
142	0x404cc603	3.1995857
143	0x3fd41d35	1.6571413
144	0xbed9397a	-0.42426664
145	0x3f0ad320	0.542284
146	0x3e9e6dd1	0.30943158
147	0x40a19852	5.049844
148	0x3f415b05	0.7552951
149	0x3f40a5a8	0.7525277
150	0x3f88f2dc	1.0699115
151	0xbff04b6c	-1.8773017
152	0xbdb8c627	-0.090221696
153	0x3fcdeeb4	1.6088471
154	0xbe382b01	-0.17985155
155	0x3f12412d	0.571307
156	0x3f23b939	0.639545
157	0x40c737d9	6.2255673
158	0x3f922a2b	1.1419119
159	0x3f916fd4	1.1362252
160	0xbe8d5c7e	-0.27609628
161	0x3efdf6aa	0.49602252
162	0x40bd7c94	5.9214573
163	0x3f821075	1.0161272
164	0x3f8a877f	1.08226
165	0xbfb9c6cb	-1.4513792
166	0x3fa6e143	1.3037494
167	0x408fd4e7	4.494739
168	0x4015accf	2.3386724
169	0xbfc8423b	-1.5645212
170	0x3f640282	0.89066327
171	0xbfd7ad83	-1.6849827
172	0x3f7f59bd	0.99746305
173	0xbe5df5b5	-0.21675761
174	0xbf1e95cc	-0.6194732
175	0x407ccfde	3.9501872
176	0x3f00864f	0.5020494
177	0xc000cc7a	-2.0124803
178	0x3fd32131	1.6494504
179	0x3f053457	0.5203299
180	0xbed05409	-0.40689114
181	0xbf7c5856	-0.9857229
182	0xc08e324c	-4.4436398
183	0xbf89a838	-1.0754461
184	0xbfb042ec	-1.3770423
185	0x3f5b2a31	0.85611254
186	0xbf35fb99	-0.7108703
187	0xc0ebc98c	-7.368353
188	0xbfb29551	-1.3951818
189	0xbf9896fd	-1.1921078
190	0x403d5113	2.9580734
191	0x402ce073	2.7011993
192	0x40b10b35	5.532618
193	0x3fd365f7	1.6515492
194	0x3f6bf2db	0.92167443
195	0xbe24b0a8	-0.16083014
196	0x3eba6dfe	0.36412042
197	0x40c84ed0	6.2596207
198	0x3f59a171	0.85011965
199	0x3f8bc776	1.0920246
200	0xbf06411d	-0.52443105
201	0x3f60de41	0.8783913
202	0xbf79aba5	-0.97527534
203	0x3fadd590	1.3580799
204	0x3f5b7936	0.8573183
205	0xbec27554	-0.3798014
206	0xbebb02c0	-0.36525536
207	0xc0b94826	-5.790057
208	0xbf485386	-0.78252447
209	0xbf51bc3a	-0.81927836
210	0x3ebb7430	0.36612082
211	0x3fa0b147	1.2554101
212	0x3ed33719	0.41252974
213	0x3fbc1338	1.4693365
214	0xbf8dccf8	-1.1078176
215	0xc0258e0b	-2.5867946
216	0x3eab7bc9	0.33492878
217	0x40a1c33b	5.055082
218	0x3edb3cbf	0.42819783
219	0x3f0467e6	0.51721036
220	0x3fd6161a	1.6725495
221	0xbfb50fa0	-1.4145393
222	0xc06b2eab	-3.6747234
223	0xc00077b3	-2.0073059
224	0x3fa9c727	1.3263901
225	0xc034f2c7	-2.827318
226	0xc00e4656	-2.223043
227	0xc0aed713	-5.463754
228	0xbfafd5d5	-1.3737131
229	0xbf5c077e	-0.8594893
230	0xbef9476f	-0.48687312
231	0x3f415c7b	0.7553174
232	0x40c2f880	6.0928345
233	0x3f8cca5e	1.0999258
234	0x3fd888d2	1.6916754
235	0xbfb57798	-1.4177122
236	0x3a81238f	0.0009852516
237	0x40e5c2df	7.180038
238	0x3f6d55af	0.9270887
239	0x3f58d05f	0.8469295
240	0xbfa713b0	-1.3052883
241	0x400559b6	2.0836005
242	0xbe2056c3	-0.15658097
243	0xc005dd3f	-2.0916288
244	0xbe077469	-0.13228
245	0x3f3960f4	0.72413564
246	0xbb646481	-0.0034849944
247	0x4097130a	4.721074
248	0x3f4111bd	0.7541769
249	0x3ef86be2	0.48519808
250	0x3fa4b24a	1.286691
251	0xc0000318	-2.0001888
252	0xbf85f251	-1.0464574
253	0x3ff0f3a6	1.8824356
254	0xbf226f77	-0.6345133
255	0x40280cf3	2.6257904

linear1.bias f4 [128]
0	0xbeab455f	-0.33451363
1	0x3e560013	0.20898466
2	0x3f4f5218	0.8098464
3	0x3f460bd1	0.7736178
4	0xbf971ee6	-1.1806304
5	0xbf953b18	-1.1658659
6	0xbf51436c	-0.817435
7	0x3ecf3bb5	0.4047524
8	0xbf93114e	-1.1489656
9	0x3fa0c012	1.2558615
10	0xbdabc577	-0.08387273
11	0xbef489ac	-0.47761285
12	0xbf21f3a8	-0.63262415
13	0xbf0341ba	-0.51272166
14	0xbf852741	-1.0402604
15	0xbea59575	-0.3234059
16	0xbf52887d	-0.82239515
17	0xbedc5151	-0.4303079
18	0x3f687124	0.9079764
19	0xbf0ee4fc	-0.5581815
20	0x3f93bc8a	1.1541913
21	0xbf66dd29	-0.90181214
22	0xbdf14e12	-0.11782469
23	0xbf890a94	-1.0706353
24	0x3f811012	1.0083029
25	0xbec04111	-0.37549642
26	0x3e81a59b	0.2532166
27	0xbf13165e	-0.57456005
28	0xbf0cd58b	-0.5501334
29	0x3f5cfd8e	0.86324394
30	0xbf475a43	-0.77872103
31	0x3f85f10b	1.0464185
32	0x3f789c07	0.9711308
33	0xbf2c6c21	-0.6735249
34	0xbf10b2b4	-0.5652268
35	0xbe374237	-0.17896353
36	0xbf5fecfa	-0.8747097
37	0xbf9fcfcb	-1.2485288
38	0x3d831087	0.06399637
39	0x3f64f2cc	0.8943298
40	0x3e328ac5	0.17435749
41	0xbf83efe9	-1.030759
42	0xbf25fd2f	-0.6483945
43	0x3f4d40da	0.8017708
44	0x3f1aca25	0.604647
45	0xbe62a92b	-0.22134845
46	0x3f17ed43	0.5934641
47	0x3f971bc7	1.1805352
48	0x3de37efd	0.111082055
49	0x3f200d69	0.6252046
50	0xbf8237a4	-1.017323
51	0x3f11d989	0.5697256
52	0xbdb6bae1	-0.08922363
53	0x3f6fd3b6	0.9368242
54	0x3f4b100f	0.7932138
55	0x3fc452f4	1.5337815
56	0x3f87c879	1.0608054
57	0x3be5e09f	0.0070153023
58	0x3f1cceac	0.61252856
59	0x3ec33c17	0.38131782
60	0xbf3b7aa8	-0.73234034
61	0xbee7c8c7	-0.45270368
62	0xbdcdbf94	-0.10046306
63	0x3f43b8cc	0.7645385
64	0x3e9a7d62	0.30173784
65	0xbf5bc132	-0.8584167
66	0xbdb56796	-0.08857648
67	0x3f3c1309	0.73466545
68	0xbf847c83	-1.0350498
69	0xbf44b4cb	-0.7683837
70	0xbf3071e1	-0.68923765
71	0x3fa1316a	1.2593205
72	0x3f152b98	0.58269644
73	0xbeb6b708	-0.35686517
74	0x3fbf4c43	1.4945148
75	0xbe8a51db	-0.27015576
76	0xbf92364c	-1.142282
77	0x3f91cb5d	1.1390187
78	0x3e561077	0.20904718
79	0xbf28ff57	-0.6601462
80	0x3f07137d	0.5276411
81	0x3f84fbba	1.0389321
82	0xbf04c593	-0.51863974
83	0x3f7cd1a7	0.98757404
84	0xbf784154	-0.9697468
85	0x3ed5f9f7	0.4179227
86	0xbe51654d	-0.204488
87	0x3f49ddff	0.78854364
88	0x3f46f1cf	0.7771272
89	0x3f943d11	1.1581136
90	0xbf7d7fdd	-0.9902323
91	0xbedcf8e2	-0.43158633
92	0xbf3a5a71	-0.7279425
93	0x3dc3701b	0.09542867
94	0x3f4e3794	0.80553555
95	0xbf8f5079	-1.1196433
96	0xbf243e10	-0.641572
97	0xbee01cc1	-0.43771937
98	0xbf63a454	-0.8892262
99	0x3d8abdbf	0.067744724
100	0xbf98a7f2	-1.1926253
101	0x3e59fbbf	0.2128744
102	0xbf870474	-1.0548234
103	0x3cc9a956	0.024616878
104	0xbf951bf9	-1.1649162
105	0x3f18e46d	0.5972355
106	0x3dbf8fde	0.09353612
107	0xbda31a17	-0.079639606
108	0xbf411c50	-0.75433826
109	0xbedbc1ab	-0.42921194
110	0xbfb4483e	-1.4084547
111	0xbf68c5f3	-0.90927047
112	0x3f464515	0.7744916
113	0xbf732594	-0.94979215
114	0xbf9c66f0	-1.2218914
115	0x3f984a7b	1.189773
116	0xbed4fe38	-0.41600204
117	0x3f5e4ed6	0.86839044
118	0xbe6e4aa0	-0.23270655
119	0xbf33aa45	-0.70181686
120	0x3f772c6e	0.9655217
121	0xbefaabd6	-0.48959225
122	0xbf7ad2ca	-0.9797789
123	0x3d88469b	0.06654092
124	0xbf6f1040	-0.9338417
125	0xbf922991	-1.1418935
126	0xbf8821c4	-1.0635304
127	0xbf7b3074	-0.9812081

linear2.weight f4 [3, 128]
0	0xc02ad80a	-2.669436
1	0x3fdcc9cc	1.7249084
2	0x4000c3f2	2.0119596
3	0xc01dd5b4	-2.4661684
4	0xbfffe884	-1.9992833
5	0xc084e811	-4.1533284
6	0xbfffe6f7	-1.999236
7	0xbf94d9db	-1.1628984
8	0xc04f9ff4	-3.2441378
9	0x40378806	2.8676772
10	0x3fe1858e	1.7618883
11	0x401dc89e	2.4653697
12	0xc0415e2d	-3.021373
13	0xbfb64f7d	-1.4243008
14	0xc015e87b	-2.3423145
15	0x3f96ee3e	1.1791456
16	0x3fcd74ad	1.6051232
17	0xbfe8feb8	-1.8202734
18	0xc00b2ed6	-2.1747336
19	0xc0025773	-2.0365875
20	0x3fb7cdb0	1.4359646
21	0xbf8c002f	-1.0937556
22	0xc00fb057	-2.245138
23	0xc002395b	-2.0347507
24	0x3d79c1d9	0.060975883
25	0xbf9a8e63	-1.2074703
26	0x3ff3d206	1.9048469
27	0xbf8a6946	-1.0813377
28	0xbf146976	-0.5797342
29	0x3f82ac61	1.0208856
30	0x3fe4c395	1.7872187
31	0x3ffc10a2	1.9692576
32	0x3f83cd9e	1.0297124
33	0xc05de1ff	-3.4669187
34	0x3fe0bd81	1.7557832
35	0xbfab52e6	-1.3384674
36	0xbee6703f	-0.45007512
37	0xc015dead	-2.341716
38	0x3fce7bba	1.6131508
39	0x3fb1ae69	1.3881351
40	0xbff16995	-1.8860346
41	0xbfada4ef	-1.3565959
42	0xbf485081	-0.7824784
43	0x4031fdd7	2.7811182
44	0x40393cc1	2.8943331
45	0xbfcfde56	-1.6239727
46	0x3f722a8d	0.9459618
47	0x40522584	3.2835398
48	0xbf80a0af	-1.0049037
49	0x3fc3212b	1.5244497
50	0x40205f8e	2.5058322
51	0x3fcb924c	1.5904021
52	0x4012f364	2.2961054
53	0x3fdb63ba	1.7139809
54	0x408d8b7f	4.4232783
55	0x408746d6	4.227397
56	0x40157f98	2.3359127
57	0xbf02fb04	-0.5116427
58	0xbfde16f2	-1.7350752
59	0x40287187	2.6319292
60	0xc0080e5e	-2.125877
61	0xbfaaa219	-1.3330718
62	0xc000c63f	-2.0121
63	0x3fffd0f1	1.9985639
64	0xc007daaf	-2.1227224
65	0xbf8a869a	-1.0822327
66	0x3fd832d0	1.6890507
67	0x3f5bfac8	0.85929537
68	0xc02fae3a	-2.745009
69	0xbf50473c	-0.81358695
70	0x401ce221	2.4513018
71	0x401ed159	2.4815276
72	0x40225a0a	2.5367455
73	0x3fe4efdb	1.7885698
74	0x4088ff02	4.281129
75	0x3fc2a9e2	1.5208094
76	0xc02a3d3e	-2.659988
77	0x4034cf0e	2.8251376
78	0xbf3a6924	-0.7281668
79	0x401038a4	2.253457
80	0x3fa76dae	1.3080347
81	0x40309f39	2.7597182
82	0xc06dfad0	-3.7184334
83	0x400c0ed5	2.1884053
84	0x3fb3d0ab	1.4048055
85	0x3e7d1e7e	0.24718663
86	0xbfc319e1	-1.5242273
87	0x4026a53e	2.6038356
88	0x3f9eeaea	1.241544
89	0x3fbcfcfc	1.4764705
90	0xbfb4c454	-1.4122415
91	0xc02d25b1	-2.7054255
92	0xc0221943	-2.5327919
93	0xbff80e5e	-1.9379385
94	0x4021e8f4	2.5298433
95	0xbfd62b29	-1.6731921
96	0xc05c6afb	-3.4440296
97	0xbff1dd3c	-1.889564
98	0xbfcc8706	-1.5978706
99	0x3fd3407e	1.6504056
100	0xc0132da3	-2.2996604
101	0xc004ef33	-2.0770996
102	0xbf8fc193	-1.1230949
103	0x3fc3a3d4	1.5284371
104	0xc00edba5	-2.232156
105	0x403bdc4a	2.9353204
106	0xbfe35ed5	-1.7763315
107	0x3f6930fd	0.91090375
108	0x401f3d62	2.4881215
109	0xc0484d58	-3.1297207
110	0xc071d25b	-3.778464
111	0xc045a8ad	-3.0884202
112	0x40051500	2.0794067
113	0xc0229476	-2.5403113
114	0xbfe4f5a1	-1.788746
115	0x40266cdb	2.600394
116	0x3fea04b3	1.8282684
117	0x3fa14905	1.2600409
118	0xbfe09429	-1.7545215
119	0x40123a14	2.2847948
120	0x3ff19cd5	1.8875986
121	0x4006d21b	2.1065738
122	0xbf0380c8	-0.5136838
123	0x3fddda68	1.7332277
124	0xc0461dc2	-3.0955663
125	0xc006c56b	-2.1057994
126	0xc00204ae	-2.0315356
127	0xbfb14c09	-1.3851329
128	0xbfc91dbd	-1.57122
129	0x3fb2fcf1	1.3983442
130	0x4010ade5	2.2606137
131	0xc0015e39	-2.021376
132	0xbf8b9b5c	-1.0906787
133	0x40465436	3.0988898
134	0xc0064b77	-2.098356
135	0xc006c368	-2.1056767
136	0xc04b6aec	-3.178401
137	0x4051219c	3.2676764
138	0x3ff0f1fb	1.8823847
139	0x3ff14bf6	1.8851306
140	0xc0307c36	-2.7575812
141	0xbfb176d8	-1.3864393
142	0xc03e8e8c	-2.9774504
143	0x3f97d2a2	1.1861155
144	0x3e66249b	0.22474901
145	0xbff33c11	-1.9002706
146	0xc0171682	-2.3607488
147	0xc02f6852	-2.7407422
148	0x40036e2d	2.0535996
149	0xc0016368	-2.0216923
150	0xc02f8aa2	-2.7428365
151	0xc009aad6	-2.151052
152	0x3fad6261	1.3545648
153	0xc009f6f3	-2.1556976
154	0x40386e62	2.8817372
155	0xbfdb7723	-1.7145733
156	0xc00a5511	-2.161442
157	0x3f813324	1.0093732
158	0x3f87b0fa	1.0600884
159	0x3fdfb3ae	1.7476709
160	0x4012047b	2.2815235
161	0xc022889c	-2.539588
162	0x3fc9717d	1.5737759
163	0xbf3baa19	-0.73306423
164	0xbfb6c242	-1.4278033
165	0xc0545302	-3.3175664
166	0x3ff02263	1.8760494
167	0x40282135	2.6270268
168	0xbfc731fc	-1.5562129
169	0xc00cc311	-2.199406
170	0xbfdb3bcf	-1.7127627
171	0x4026ff5a	2.6093354
172	0x4029f864	2.6557856
173	0xbfcbece8	-1.5931673
174	0x40128ccc	2.2898436
175	0x401d603f	2.4589994
176	0xbff8cb9f	-1.943714
177	0x3f62f264	0.8865111
178	0x3eb44d67	0.35215303
179	0x3f345894	0.7044766
180	0x4010fe5a	2.2655244
181	0x4017d9bd	2.3726647
182	0x404724fd	3.1116326
183	0xc082d697	-4.088695
184	0x404c418a	3.1915002
185	0xbfa7db60	-1.3113823
186	0xbfa5a7e1	-1.2941858
187	0x4006e70a	2.1078515
188	0xbfb39551	-1.4029943
189	0xbf85d69f	-1.0456122
190	0xbffd68f5	-1.9797655
191	0x3fd0e1ec	1.6318946
192	0xbfdd2ce9	-1.727933
193	0xc0197d90	-2.3982887
194	0x3fd4a5d1	1.6613103
195	0x40066f1b	2.1005313
196	0xc04e3233	-3.221814
197	0xbfcb821b	-1.589908
198	0x400ad6ab	2.1693523
199	0x3f85fbf0	1.046751
200	0x3fcf0577	1.6173543
201	0x3fa16315	1.2608362
202	0xc066d43d	-3.606704
203	0x3f4342dd	0.762739
204	0xc04630b9	-3.0967238
205	0x40527aa6	3.2887359
206	0xbf3f3696	-0.74692667
207	0x40284158	2.6289883
208	0x3fea381c	1.8298373
209	0x40413a9b	3.019202
210	0xc045d171	-3.0909083
211	0x3fc9e864	1.5774045
212	0x3f7b821f	0.98245424
213	0x3fa4f7c2	1.288811
214	0xbf91e6da	-1.1398575
215	0x40584d9c	3.379737
216	0x3ff9739a	1.9488404
217	0x4005a443	2.0881507
218	0xc007c243	-2.1212318
219	0xc00cf844	-2.202653
220	0xc0064915	-2.0982106
221	0xbfb247dc	-1.392818
222	0x404a9ec1	3.1659396
223	0xc025c546	-2.5901656
224	0xc011fd23	-2.2810752
225	0xbff162c2	-1.8858263
226	0xc00021f3	-2.002072
227	0x3fdfeeb6	1.7494724
228	0xc0251ef3	-2.580014
229	0xc000faaf	-2.0153005
230	0xbfecc1d0	-1.8496647
231	0x3fd04cb7	1.6273412
232	0xc02fcd1c	-2.746894
233	0x3ff40009	1.9062511
234	0xbff5ce9e	-1.920368
235	0xbe9c18b0	-0.30487585
236	0x4006085c	2.0942602
237	0xbdb714c8	-0.089395106
238	0xc0774e8f	-3.8641698
239	0xc050bcc4	-3.2615213
240	0x3fbaa57d	1.4581753
241	0xc04819a1	-3.1265643
242	0xc00a4e7a	-2.1610398
243	0x40396acc	2.8971434
244	0x4009f91e	2.15583
245	0x3ff0e797	1.8820676
246	0xbfa466eb	-1.2843908
247	0x3fc7f64b	1.5622038
248	0x401706a8	2.3597813
249	0x40021375	2.0324376
250	0xc02fa659	-2.744528
251	0x3ff71818	1.9304228
252	0xbf3deb56	-0.7418722
253	0xbff71f0d	-1.9306351
254	0xbfa44bff	-1.2835692
255	0xc0233378	-2.5500164

linear2.bias f4 [3]
0	0xbeb550d8	-0.3541324
1	0x3f542b3f	0.8287849
2	0x3c833c9e	0.016020115
