continous_state/pretrained/dqn/dqnMLE10_64.pt (torch, 4099 bytes, 4 tensors)

linear1.weight f4 [64, 5]
000000 64 89 01 3f c9 f0 f0 3f 2e 46 8c 40 b7 55 9a 3f
       0.50600266 1.8823482 4.383567 1.2057408
000010 0b 8a 2f bf 51 95 30 3f 24 7a 8f 3f 22 da ad 40
       -0.6857001 0.6897784 1.1209149 5.4328775
000020 a2 2d 0f 40 a0 51 fc 3f 80 4b 34 3f c9 04 65 3f
       2.2371602 1.971241 0.70427704 0.89460427
000030 29 30 7d 40 e2 03 5c 3f bb 28 ab 3f a6 46 3c bf
       3.9560645 0.85943425 1.3371805 -0.735453
000040 53 35 2c bf ec 2a a6 c0 4f 16 8e bf 3c 40 e0 bf
       -0.67268866 -5.1927395 -1.1100558 -1.7519603
000050 01 44 0b bf b5 19 b8 bf f9 b1 a3 c0 d4 48 65 bf
       -0.5440064 -1.4382845 -5.115475 -0.8956425
000060 3d 86 09 3f e5 e6 3b bf 9d fa f7 bf db 8d 90 c0
       0.53720456 -0.7339919 -1.9373356 -4.5173163
000070 7c bf d5 bf ea 97 ae 3f 42 bb c9 be 47 d9 dd bf
       -1.6699061 1.364011 -0.3940068 -1.7331933
000080 ad af 93 c0 20 97 b4 bf 2b 06 1d be af 0c cd bf
       -4.615195 -1.410862 -0.15334384 -1.6019496
000090 62 88 bf be 94 99 f1 3e 39 56 8a 3f be 2f 00 c0
       -0.3740874 0.47187483 1.0807563 -2.002914
0000a0 04 de 45 40 b5 7e d0 bf d1 73 89 c0 ae 1b 57 bf
       3.0916758 -1.6288668 -4.2953877 -0.8402661
0000b0 c5 1a 9d 3e 96 13 88 bf a3 96 18 bf 15 63 14 3f
       0.30684486 -1.0630977 -0.59604853 0.5796369
0000c0 5f 7a a3 3e e5 ec d0 bf a5 2e 8c bf e0 a3 06 bf
       0.319293 -1.6322294 -1.0951735 -0.52593803
0000d0 48 a6 b6 c0 b0 fb d7 bf bd 1f cf 3f 10 49 32 bf
       -5.707798 -1.6873684 1.6181561 -0.69642735
0000e0 46 9a f3 bf 20 f3 da 3f 0c 5e a6 3f fc dc c7 3f
       -1.9031456 1.7105446 1.2997451 1.5614314
0000f0 14 e3 df be de bd 08 c0 b9 b2 97 c0 43 ff 94 bf
       -0.43727934 -2.1365886 -4.7405667 -1.16404
000100 21 bf fa 3e c4 19 dd bf ba b8 79 3f 47 f4 9a 40
       0.48973945 -1.7273488 0.97547495 4.842319
000110 99 31 fc 3f 43 dc 9a bf 67 26 c6 3f b3 94 5b bf
       1.9702636 -1.2098469 1.548047 -0.8577377
000120 a3 33 b9 c0 85 bb ee bf 93 fa d5 bf 1f 89 75 bf
       -5.7875533 -1.8650976 -1.6717094 -0.95912355
000130 8e 54 b0 bf 7a 1c a2 c0 c2 76 04 c0 3f ec dd 3f
       -1.3775804 -5.065976 -2.0697484 1.7337722
000140 1a d0 03 bf c9 1b a3 bf 25 7f 93 c0 c6 44 56 bf
       -0.5148941 -1.2742854 -4.6092706 -0.8369869
000150 9c 84 04 3f ed 71 3e 3f 8c e1 95 3f 22 bb b9 40
       0.51764846 0.74392587 1.1709456 5.8040934
000160 46 c9 19 40 dc b8 da 3f dc 8c 15 3f b0 da 94 3f
       2.4029098 1.7087665 0.5841806 1.1629238
000170 14 8b a0 40 6b f3 4d 3f 1b 31 4b bf 19 3e b4 3f
       5.0169773 0.8044955 -0.79371804 1.4081451
000180 41 84 78 bf f6 91 b3 c0 5e b2 0f c0 ec 5f e3 bf
       -0.97076803 -5.6115675 -2.2452617 -1.7763648
000190 d7 1d 2b 3f f6 78 5a 3f 82 f7 ac 40 50 e4 e8 3f
       0.66842407 0.8534082 5.4052134 1.8194675
0001a0 c4 89 fc 3f 92 7e e8 be 63 df 74 3f f8 1d c2 40
       1.9729543 -0.45409065 0.9565336 6.0661583
0001b0 39 c0 3d 40 f9 ab 06 40 0c a2 4a bf 9d 4c 6c bf
       2.9648573 2.1042464 -0.79153514 -0.923044
0001c0 9b 76 97 c0 4a ed 1c c0 28 f7 cf bf 40 05 24 bf
       -4.733228 -2.451983 -1.6247301 -0.6407051
0001d0 17 8e ad bf 96 19 41 c0 d7 7a a8 bf 43 99 12 3f
       -1.3558987 -3.0171866 -1.3162488 0.5726511
0001e0 4c 75 4c 3f 52 37 af 3f a0 44 aa 40 25 c3 b4 3f
       0.7986648 1.3688757 5.320877 1.4122053
0001f0 08 e7 ae bf 13 76 46 bf c7 eb 5f bf 92 25 6a c0
       -1.3664255 -0.77523917 -0.8746914 -3.658543
000200 ee cd 8b bf ba ab 79 3f 2d 11 8e 3f 60 41 17 3e
       -1.092222 0.9752766 1.1098992 0.14771032
000210 ae 1f b3 40 4d b1 ac 3f 29 e6 ce bf 4b 69 9a 40
       5.597617 1.3491608 -1.6163989 4.825353
000220 78 72 49 bf e3 19 92 c0 65 e0 3c bf e5 44 99 bf
       -0.7869029 -4.56566 -0.737799 -1.197415
000230 fa 0c 37 3f e2 2d c7 3f 11 a5 76 40 52 7b cd 3f
       0.71504176 1.5560877 3.8538249 1.6053259
000240 4e a7 b6 3f 61 29 3d 3f 9e a1 3a 3f b5 ef 43 40
       1.4269807 0.73891264 0.7290286 3.0615056
000250 da ec 8d 3e 13 3d dc 3f 8e 6e 66 3f 8b 54 67 3f
       0.27719766 1.7206138 0.90012443 0.9036338
000260 98 d1 51 c0 30 85 03 c0 7c ed 05 40 32 7d 3d bf
       -3.2784176 -2.0550041 2.09262 -0.7401916
000270 9c 39 d5 bf ef ce 08 c0 ee 13 17 bf 91 5f be bf
       -1.6658206 -2.1376302 -0.59014785 -1.4872915
000280 47 b4 b6 3b a1 24 38 bf 9a e2 c2 c0 58 65 11 c0
       0.00557569 -0.7193089 -6.0901613 -2.2718105
000290 aa 84 e4 bf 16 db 47 3f 68 f0 70 3f 3e d1 ae 40
       -1.7852986 0.78068674 0.9411683 5.4630423
0002a0 46 62 8d 3f cd 94 96 bf 2f 75 3f c0 15 84 da 3f
       1.1045616 -1.176416 -2.9915273 1.7071558
0002b0 21 5d 8e 40 03 99 77 3f c7 1a 92 3d 06 b8 40 3f
       4.4488683 0.9671785 0.071340136 0.752808
0002c0 06 6f 2d 3f 41 9e bb 40 d9 92 ee 3f 47 41 ce 3f
       0.67747533 5.863068 1.8638564 1.6113671
0002d0 50 e2 03 3f c9 86 7e 3f 35 48 c3 40 8b e6 22 40
       0.515172 0.99424416 6.1025643 2.5453212
0002e0 79 5b 09 40 69 bf 9b 3f 71 67 5c 3f f1 8d 7d bf
       2.146208 1.2167789 0.8609534 -0.9904471
0002f0 92 03 7b be a5 ff 01 c0 8c b3 32 3f 91 df af 3f
       -0.2451308 -2.0312283 0.69805217 1.3740102
000300 07 0a a8 40 e3 b3 12 40 2d 2b dd 3f 55 c9 f7 be
       5.251224 2.2922294 1.7278801 -0.48395792
000310 cc fb a9 bf 49 5c 92 c0 29 26 62 bf 30 1e b3 3e
       -1.3279967 -4.5737653 -0.8833948 0.3498397
000320 6f c5 48 3f 5d 31 24 3f 10 b6 a4 40 d9 85 75 3f
       0.7842626 0.6413782 5.1472244 0.9590736
000330 38 e9 94 bf 2d 02 30 3f 64 08 58 3f 99 66 b2 40
       -1.1633673 0.6875332 0.84387803 5.575024
000340 00 3d f3 3f 8f da e1 3f a8 12 18 3f 10 27 91 3d
       1.9002991 1.7644824 0.5940347 0.07087529
000350 2c 5d 11 3f 6d b4 1c 40 06 dd 36 be 21 03 92 bf
       0.56782794 2.4485123 -0.17857751 -1.1407205
000360 92 5f 00 3f 96 4e 8c 40 22 61 6f 3f aa 0a 8d 3f
       0.5014583 4.384593 0.9350759 1.101888
000370 37 fb 69 40 6f 4d df bf 68 50 8f c0 05 dc 67 bf
       3.655958 -1.7445506 -4.478565 -0.905701
000380 7a f9 11 3f 5d b5 15 3f 5a ed cf 3f 99 48 a7 40
       0.57021296 0.58479863 1.6244309 5.227612
000390 55 52 7b 3f 9e 68 8a bf 51 29 79 3f 11 36 71 3f
       0.98172504 -1.0813177 0.9732867 0.94223124
0003a0 7a 46 40 c0 c0 df c1 bf 57 e9 e8 bf 34 5f 23 3f
       -3.0043015 -1.5146408 -1.819621 0.63817143
0003b0 33 79 4e bf 1c 83 b1 c0 95 87 1a c0 17 01 db bf
       -0.80653685 -5.5472546 -2.4145253 -1.7109708
0003c0 c5 ef 34 bf 3a 68 84 bf a8 00 52 c0 1e bb 16 bf
       -0.7067836 -1.0344307 -3.28129 -0.5887927
0003d0 eb 50 b7 bf c1 73 a5 bf 0b 34 b4 be df 35 2a c0
       -1.4321569 -1.292595 -0.35195956 -2.659538
0003e0 b4 57 60 bf 60 4e a4 3f 2e 04 4a 3f 0c 1a 1f 3f
       -0.87633824 1.2836418 0.7891263 0.6214912
0003f0 0d c4 ab 40 17 9d ba 3f a5 1b e3 3f ee 16 3d bf
       5.367682 1.457919 1.7742811 -0.7386311

linear1.bias f4 [64]
000000 13 1f c8 be 3e fd 22 3f 34 f2 5b 3f d1 75 fb be
       -0.39086208 0.63667667 0.8591645 -0.49113324
000010 f3 cf 0c 3f 01 8d cc 3e 12 de 2f 3e 23 0b e7 bf
       0.55004805 0.39951327 0.17174557 -1.8050274
000020 4c af 8b 3e dc d2 96 bf ef e8 38 3f f2 c1 65 3e
       0.27282178 -1.1783099 0.7223043 0.22437266
000030 f6 7b 8f 3e e5 ba 46 bf f7 21 29 bf ab 83 10 3f
       0.28024262 -0.7762893 -0.6606745 0.5645091
000040 bb 61 f2 3e 55 16 5d 3f 21 c1 d0 be 72 fa 4c bf
       0.47340187 0.863622 -0.40772346 -0.8006965
000050 75 30 10 3f 9e 10 61 3f ca b1 5b bf 52 15 32 3f
       0.5632394 0.8791598 -0.8581816 0.6956378
000060 ec d6 e8 be 43 7a 27 3f 1f 7a 19 bf 82 bb 5e be
       -0.45476472 0.6542093 -0.59951967 -0.21751216
000070 d3 be 26 3f f5 fe 43 3f 1c fb ba 3e 7f d2 a5 bf
       0.65134925 0.7656091 0.36519706 -1.2954863
000080 52 a3 6f bf f1 23 02 bf 8e f9 8f be 03 03 64 3f
       -0.9360858 -0.5083609 -0.28120083 0.89067096
000090 1f 8b 3e 3f 38 80 7c bf f0 75 3d 3f cb a7 f9 3e
       0.7443103 -0.98633146 0.74008083 0.48760828
0000a0 66 42 fe be c5 3b 3e 3f 64 9e 45 be 19 84 4b 3f
       -0.49660033 0.7430995 -0.19298702 0.7949844
0000b0 73 68 ad 3e d0 77 7d be 7f bd 27 bf c7 fc 74 bf
       0.3386875 -0.24752736 -0.65523523 -0.9569821
0000c0 e9 06 61 bf 84 c9 ac 3f a3 4b 0e 3f 18 61 31 bf
       -0.8790117 1.3498998 0.5558416 -0.6928878
0000d0 5f 43 55 bf ca 2c 46 bf e4 2c b7 3e e3 68 e9 be
       -0.83305925 -0.7741209 0.35776436 -0.45587835
0000e0 ff fd 63 3f 23 f9 45 bf 0a db 38 3f 34 32 1f 3f
       0.8905944 -0.7733328 0.7220923 0.6218598
0000f0 fd ed ae 3f bf bf 29 3f 9c 83 66 3f 18 f7 15 bf
       1.3666378 0.66308206 0.9004457 -0.5858016

linear2.weight f4 [3, 64]
000000 ac 89 40 c0 fa e9 34 40 7b ba d0 3f db 89 07 c0
       -3.0084028 2.8267808 1.6306909 -2.117789
000010 d0 43 59 40 07 5f d9 3f 07 67 01 40 fc 13 57 c0
       3.394764 1.6982125 2.0219133 -3.3605947
000020 3e 8d 32 40 c3 0c c2 bf 20 e4 2a 40 4c 78 43 40
       2.7898707 -1.5160145 2.6701736 3.0542173
000030 25 69 18 40 a4 9b 66 c0 84 2f 24 c0 a7 36 40 40
       2.3814175 -3.6032495 -2.5654001 3.0033357
000040 fc 1d 3f 40 e6 8b 5c 40 6f ce 42 c0 fc af f9 bf
       2.986205 3.4460387 -3.0438497 -1.9506831
000050 44 14 0d 40 9f 35 05 40 1c f8 22 c0 3f 12 23 40
       2.204362 2.0813978 -2.5463934 2.5479887
000060 ab 84 26 c0 11 7f 22 40 74 1d 18 c0 a8 b3 02 c0
       -2.6018474 2.5390055 -2.3767977 -2.0422153
000070 06 a0 1a 40 ea 63 88 3f 48 a6 3a be 8e 41 92 bf
       2.416017 1.0655491 -0.18227494 -1.1426256
000080 81 61 ec bf 95 e4 10 c0 39 e5 24 c0 5f 1b 22 40
       -1.8467256 -2.2639515 -2.5764906 2.5329206
000090 0e e3 1f 40 a4 78 00 c0 f7 60 54 40 c6 88 2d 40
       2.4982333 -2.0073633 3.3184183 2.711473
0000a0 51 01 37 c0 9a 09 1e 40 14 df 60 40 82 96 ea 3f
       -2.8594553 2.469336 3.5136156 1.8327181
0000b0 13 32 3f 40 64 27 20 c0 69 a4 f8 bf 7d 80 e0 bf
       2.9874313 -2.5024042 -1.9425174 -1.7539212
0000c0 3a bb b5 bf 09 11 01 40 93 03 22 40 1e 9c 7f c0
       -1.4197762 2.0166647 2.5314682 -3.9939036
0000d0 f7 b7 54 c0 b8 88 d2 bf 7c e5 23 c0 f7 67 a0 bf
       -3.3237283 -1.6447973 -2.5608816 -1.2531728
0000e0 ad 18 8f 40 3b cd 16 c0 72 c7 25 40 d5 71 05 40
       4.471762 -2.3562763 2.5902982 2.0850728
0000f0 f6 f4 e0 3f 9b b1 1d 40 d5 12 15 40 50 30 3f 3f
       1.7574756 2.4639652 2.3292744 0.74683094
000100 ea c1 2b c0 aa 21 c8 3f 3a db 21 40 cd 27 33 c0
       -2.6837106 1.5635273 2.5290055 -2.7993042
000110 0c 0d 3b 40 63 b5 5d 40 cd d6 55 40 50 ef 27 c0
       2.9226713 3.464196 3.3412354 -2.6239815
000120 1f e4 4a 40 4c 9f 38 c0 59 97 3c 40 f6 24 f8 bd
       3.1701734 -2.8847227 2.9467375 -0.12116425
000130 8f 50 48 40 54 b2 52 c0 9a c9 81 bf 9f 20 1f 40
       3.129917 -3.2921343 -1.0139649 2.486366
000140 ba 7e 11 40 ba 16 48 3e 02 b2 28 c0 7a 51 2e c0
       2.2733598 0.1953992 -2.6358647 -2.723723
000150 f8 9b 20 40 8d 51 e1 3f ba ee 0f bf 14 0c 23 40
       2.5095196 1.7603012 -0.5622364 2.5476122
000160 b6 f3 37 c0 70 ea 1f 40 1f 04 2c c0 bc 2f eb bf
       -2.87425 2.498684 -2.6877515 -1.8373942
000170 47 7f e5 3f 3c 48 4d 40 1c ea 26 40 60 68 38 c0
       1.7929467 3.2075338 2.608039 -2.8813705
000180 61 74 29 c0 32 03 2a c0 3d 12 59 c0 36 5e 19 40
       -2.6477282 -2.656445 -3.3917382 2.3963752
000190 bb 78 0a 40 04 8f d2 bf 6e 47 24 3f de 2f 2a 40
       2.1636188 -1.6449895 0.64171493 2.6591716
0001a0 be a9 28 c0 4e 59 11 40 4c 75 57 c0 2a ad 08 40
       -2.6353602 2.2710757 -3.3665342 2.135569
0001b0 30 6f 55 40 32 8f 42 c0 17 3f db be 9e 6b 16 c0
       3.3349113 -3.03999 -0.4282157 -2.3503184
0001c0 f3 27 32 c0 fb 70 1e 40 c0 1a 28 40 78 c7 e0 3e
       -2.7836883 2.4756458 2.6266327 0.43902183
0001d0 38 21 df bf 0c 3b 4e bf f2 ff 43 c0 ba 1d 26 c0
       -1.7432013 -0.8055885 -3.0624967 -2.5955644
0001e0 6e 9e 2b 40 3b 06 25 c0 67 0c 33 40 63 fe 2d 40
       2.6815448 -2.5785053 2.797632 2.7186515
0001f0 b1 56 07 40 28 89 3c 40 e7 7d 46 40 73 18 32 c0
       2.1146662 2.9458714 3.1014345 -2.7827423
000200 1c 45 1b c0 eb 8e 40 40 27 f8 98 3f ce 55 f5 bf
       -2.426093 3.008723 1.195073 -1.916681
000210 6e 2d 05 40 7e e2 50 40 37 d1 50 40 3a 45 49 bf
       2.0808978 3.263824 3.2627695 -0.78621256
000220 5f b2 33 40 89 2d 26 bf cb 7c 81 40 a4 ee a8 3f
       2.807762 -0.6491323 4.0464835 1.3197827
000230 15 21 62 40 42 f4 66 c0 3c 5c 54 c0 7a 81 70 40
       3.5332692 -3.6086583 -3.3181295 3.7579026
000240 12 c4 cf 3f ab 69 3f 40 ea bd f6 bf 38 4f 23 c0
       1.6231711 2.9908245 -1.9276707 -2.5517101
000250 b4 92 1d 40 bd 18 68 40 9d 1f 1d c0 a9 37 9d 3f
       2.462079 3.62651 -2.4550545 1.2282611
000260 c6 cd 60 c0 94 b5 9b 3f 20 1c 5b c0 da 54 20 c0
       -3.5125594 1.2164788 -3.4235916 -2.505179
000270 de c2 a3 3f f7 ea 84 3e bf e7 22 40 f5 1b 21 bf
       1.2793844 0.25960514 2.5453947 -0.62933284
000280 aa 02 2a c0 57 1c 56 c0 7f be 3f c0 a5 8d 47 40
       -2.6564126 -3.3454797 -2.996002 3.1180203
000290 9f 28 7e 40 3e a5 b7 bf cc a3 19 40 6c e2 00 40
       3.9712293 -1.4347303 2.4006224 2.0138197
0002a0 a7 ef 16 c0 8e a6 41 40 79 b1 c2 bd 97 2c 4a 3f
       -2.3583772 3.0257907 -0.095065065 0.7897429
0002b0 ed 45 5e 40 50 2c 47 c0 65 d5 01 c0 5d 36 06 c0
       3.473018 -3.1120796 -2.0286496 -2.097068
0002c0 8a de 7d bf 28 49 52 3f f1 3a 19 40 a7 2b 01 c0
       -0.9916769 0.8214288 2.3942225 -2.0182893
0002d0 30 b6 16 c0 a5 b3 e6 bf d3 09 82 c0 27 52 f5 bf
       -2.3548698 -1.8023573 -4.0636992 -1.9165696
0002e0 50 47 86 40 b4 dc 19 c0 ad 3f 5b 40 90 c5 69 40
       4.196205 -2.4040956 3.4257615 3.6526833
0002f0 a9 ad 22 3f ff de 66 40 d8 69 51 40 82 58 07 c0
       0.63546234 3.6073606 3.2720852 -2.114777

linear2.bias f4 [3]
000000 8a 96 0a 3f e7 b3 f4 3f 31 8e 31 bf
       0.54135954 1.9117402 -0.6935759
