continous_state/pretrained/dqn/dqnMLE10_500.pt (torch, 19715 bytes, 4 tensors)

linear1.weight f4 [500, 5]
0	0xbf1daf38	-0.6159549
1	0xbe57ae86	-0.21062669
2	0xc0189b4d	-2.3844788
3	0xbe713ef6	-0.23559174
4	0xbea7e4ad	-0.32791653
5	0x3f47c83f	0.78039926
6	0x3f67a0a5	0.904795
7	0x3f81f840	1.0153885
8	0x3f7a6cce	0.9782227
9	0xbef31ee6	-0.4748451
10	0xbed5276d	-0.41631642
11	0x3f18d052	0.5969287
12	0x3fcae004	1.5849614
13	0xbfa21766	-1.2663391
14	0x3f379eb1	0.7172652
15	0xbf7519fa	-0.9574276
16	0xbf69267a	-0.91074336
17	0xbf01a08c	-0.506356
18	0xbf565a76	-0.8373178
19	0x3e28f04f	0.1649792
20	0xbe649726	-0.22323284
21	0x3dfef813	0.1244966
22	0x3fcfc85b	1.6233019
23	0x3e835568	0.25651097
24	0x3ea94a6a	0.33064586
25	0x3f40c1c5	0.7529567
26	0x3e9ce35b	0.30642208
27	0x405a5add	3.4117959
28	0x3eb4121c	0.35170066
29	0x3f20accc	0.6276367
30	0x3fbad2ab	1.4595541
31	0xbd5006b5	-0.050787646
32	0xbfa9d365	-1.3267637
33	0xbf5e5aa8	-0.8685708
34	0x3d4aa400	0.04947281
35	0x3f4e09d3	0.8048374
36	0x3f94ccb6	1.1624973
37	0x40309524	2.7591028
38	0x3f97ba95	1.1853815
39	0x3f62bc95	0.88569003
40	0xc030f790	-2.76511
41	0xbf0b0be2	-0.54315007
42	0x3fc95acd	1.5730835
43	0xbef41650	-0.47673273
44	0x3d2b28c7	0.041786935
45	0xbefe4903	-0.4966508
46	0xbf1dd815	-0.6165784
47	0x3da13123	0.078707
48	0xbf12e5b2	-0.5738174
49	0x3eb2afcb	0.34899744
50	0x3f6e9833	0.9320099
51	0x3f9e2f1f	1.235813
52	0x4050a4bd	3.2600548
53	0x3faf183f	1.3679274
54	0x3f7f2643	0.9966776
55	0x3f379e06	0.717255
56	0xc003daa0	-2.0602188
57	0xc04e11e1	-3.2198412
58	0xc0040236	-2.062635
59	0xbf399ec2	-0.7250787
60	0xbf9d0984	-1.2268529
61	0xbf068164	-0.52541184
62	0xbfefb488	-1.8726969
63	0x3e15b798	0.14620817
64	0xbead5f74	-0.33861887
65	0xbe3dc3b0	-0.1853168
66	0x3e873ff9	0.26415995
67	0xbec347c5	-0.38140693
68	0x3f132581	0.574791
69	0x3efc64b5	0.49295583
70	0x3f43a86c	0.76428866
71	0x3f9d57e5	1.2292448
72	0x403b12bb	2.9230182
73	0x3fb31355	1.3990275
74	0x3f5d9c4c	0.86566615
75	0xbf07305f	-0.52808183
76	0x3f0dcc96	0.553903
77	0x3e2ad2fb	0.16682045
78	0x3e77d7be	0.24203393
79	0x3f241df0	0.6410818
80	0x3f55eca8	0.83564234
81	0x3ec95dc6	0.39329356
82	0x3f285f16	0.6577009
83	0x3c713840	0.014722884
84	0x3e184009	0.14868177
85	0xbe5391b6	-0.20661053
86	0xbe19f917	-0.15036426
87	0xbecc2ff0	-0.39880323
88	0xbe843b52	-0.25826508
89	0x3de23a64	0.110462934
90	0x3ec64ccd	0.3873047
91	0x3ef0775d	0.46966067
92	0xc044c704	-3.074647
93	0xbea8196f	-0.32831904
94	0xbf093d50	-0.5360918
95	0xbecf0033	-0.4042984
96	0xbeabc7fe	-0.3355102
97	0x404e2c53	3.2214553
98	0x3f510352	0.8164569
99	0x3ee1ab18	0.44075847
100	0x3f17ae7a	0.59250605
101	0x3edcc7ef	0.43121287
102	0x3fdea4de	1.7394063
103	0x3f0877ec	0.53307986
104	0xbea11ec4	-0.31468785
105	0xbfeda7bf	-1.8566817
106	0xbfaa9fae	-1.332998
107	0xbffc2356	-1.9698284
108	0xbf947c7a	-1.1600487
109	0x3ec308e9	0.38092735
110	0x3e6f24e3	0.23353915
111	0x3f53fe1e	0.8280963
112	0x4084be5c	4.148237
113	0x3fa68c24	1.3011518
114	0x3fa263bd	1.2686688
115	0x3f26a611	0.6509715
116	0xbf69c022	-0.91308796
117	0xbf87831d	-1.0586888
118	0x3f23727b	0.6384656
119	0xbf7a1754	-0.97691846
120	0x3f17dd57	0.5932211
121	0x3f30f9f3	0.6913139
122	0x3f3459d7	0.70449585
123	0x3f388e58	0.720922
124	0xbf37b9d6	-0.7176794
125	0xbf453f5a	-0.7704979
126	0xbf256379	-0.6460491
127	0xbfb0b762	-1.3805964
128	0xbf1001ec	-0.5625293
129	0x3ea730df	0.32654473
130	0xbf36ca3b	-0.7140233
131	0xbf342ace	-0.70377815
132	0xc02c3fa0	-2.6913834
133	0xbf9e667d	-1.2375027
134	0x3f795558	0.9739585
135	0x4040cf61	3.0126574
136	0x3f7d099f	0.98842806
137	0x3ddaf403	0.10691073
138	0x3f65df69	0.8979402
139	0xbe50ee1a	-0.20403329
140	0xc006ec47	-2.1081712
141	0xbf735831	-0.95056444
142	0xbf257c18	-0.6464248
143	0xbe05911f	-0.1304364
144	0xbeb70449	-0.35745457
145	0x3fce2070	1.6103649
146	0x3f716e6b	0.9430911
147	0x402d796a	2.7105355
148	0x3f180d5d	0.5939539
149	0x3f132131	0.5747252
150	0x3d266dc1	0.040632013
151	0xbe020a57	-0.12699257
152	0x3f337b61	0.70110136
153	0xbd31f8fa	-0.043450333
154	0x3e7dc68f	0.24782775
155	0x3f0d5ae7	0.5521683
156	0x3f067489	0.5252157
157	0xc0220bfb	-2.5319812
158	0xbfafc55d	-1.3732105
159	0xbfa0a5d5	-1.2550608
160	0x3f1ce7af	0.6129102
161	0x3e7aec17	0.24504124
162	0x404a4ab8	3.1608105
163	0x3f82a0e7	1.0205353
164	0xbfac4744	-1.3459249
165	0xbee0cba2	-0.4390536
166	0xbda68e03	-0.08132555
167	0xbf201376	-0.62529695
168	0xbf2ed19e	-0.682886
169	0x3e970d1c	0.2950219
170	0xbf12150d	-0.5706337
171	0xbf28c940	-0.65932083
172	0xbf8abc48	-1.0838709
173	0xbe6bbfe5	-0.2302242
174	0x3edec76f	0.4351153
175	0xbf005f22	-0.5014516
176	0xbe79ba75	-0.24387534
177	0x402d9b93	2.7126205
178	0x3fafeb5d	1.3743702
179	0xbf8d1773	-1.1022781
180	0x3f160a4f	0.5860948
181	0x3da23fd0	0.079223275
182	0x405093aa	3.2590127
183	0x3f3d1524	0.73860383
184	0xbf7d55e2	-0.9895917
185	0x4014100e	2.31348
186	0xbf758e37	-0.9592013
187	0xbfea899d	-1.8323246
188	0xbf8e9510	-1.113924
189	0x3eeff8a7	0.46869394
190	0x406838af	3.6284597
191	0x3f937160	1.1518974
192	0x400d54ad	2.2082932
193	0x3f85d21c	1.0454745
194	0xbf1f5d44	-0.6225169
195	0xbf1cdb63	-0.6127226
196	0xbed4f87c	-0.4159583
197	0x3fa6f406	1.304322
198	0xbe6e3751	-0.23263289
199	0xbdfbd78f	-0.12296974
200	0x3f2734a7	0.65314716
201	0x3f3afd53	0.7304279
202	0x3fea92da	1.8326066
203	0x3f831eb6	1.0243747
204	0xbf5c8154	-0.8613484
205	0x40400b45	3.0006878
206	0xbf31aa25	-0.69400245
207	0xc021c7ff	-2.5278318
208	0xbf8448ce	-1.0334718
209	0x3f2cd868	0.6751771
210	0xbf306460	-0.6890316
211	0xbe8f6ae6	-0.28011245
212	0xbe8bdb23	-0.27315626
213	0x3e32b5ef	0.17452215
214	0xbe25c64e	-0.16188928
215	0x3fc83693	1.5641655
216	0x3f500066	0.8125061
217	0x404a2bda	3.1589265
218	0x3efbab78	0.49154258
219	0x3f440023	0.7656271
220	0x3fea3407	1.8297127
221	0x3f861b27	1.0477036
222	0x4002cb9c	2.0436773
223	0x3f060f6c	0.5236728
224	0x3f3aae38	0.72922087
225	0xbf41c83c	-0.7569616
226	0xbea5cbe0	-0.32382107
227	0x3edcd82e	0.43133682
228	0x3e861f79	0.26195887
229	0xbe6dcdfa	-0.23223105
230	0x40032fd7	2.049795
231	0xbe3aadaf	-0.18230318
232	0xc030796b	-2.7574108
233	0xbf2ce8ca	-0.6754271
234	0x3ee5a8e3	0.44855413
235	0x3e213e05	0.15746315
236	0x3d191e83	0.037382614
237	0xc0a70727	-5.219623
238	0xbf3a3e92	-0.72751725
239	0xbf633696	-0.88755167
240	0xbf1cfb21	-0.6132069
241	0xbeaa4fb0	-0.33263922
242	0xc058b7e9	-3.386225
243	0xbfa70f0a	-1.3051465
244	0x3f80a55d	1.0050465
245	0xbf6cba34	-0.92471623
246	0xbf3fe2cc	-0.7495544
247	0xc0151dfa	-2.3299546
248	0xbf4e9489	-0.80695397
249	0x3f191ea3	0.5981237
250	0xbfe5ec1a	-1.7962677
251	0xbf7a9aea	-0.9789263
252	0xc014c710	-2.3246498
253	0xbf007a96	-0.5018705
254	0xbf0e46ec	-0.5557697
255	0x400ae6fc	2.1703482

linear1.bias f4 [500]
0	0xbe93b19d	-0.28846446
1	0xbee26034	-0.44214022
2	0x3eec2244	0.46119893
3	0x3ef8bd56	0.48581952
4	0xbe65d2dd	-0.22443719
5	0x3f0d7649	0.55258614
6	0xbe025260	-0.12726736
7	0x3f34cb07	0.70622295
8	0x3f2e9cf2	0.6820823
9	0x3eb56346	0.35427302
10	0x3f3e05af	0.7422742
11	0xbe319b20	-0.17344332
12	0xbe8f50f1	-0.2799144
13	0x3efb4148	0.49073243
14	0x3f5bb116	0.85817087
15	0xbd75a072	-0.059967466
16	0x3e99718d	0.29969445
17	0xbe72e2da	-0.2371935
18	0xbeeb46d9	-0.4595249
19	0x3f36c936	0.71400774
20	0xbe971f1f	-0.2951593
21	0x3e973fb8	0.295408
22	0x3f55809b	0.8339936
23	0xbe1deb8f	-0.1542189
24	0xbeb599d7	-0.35468933
25	0x3e9325d3	0.28739795
26	0x3f0ba8c9	0.5455442
27	0xbf21c136	-0.6318544
28	0xbf027ad1	-0.5096865
29	0x3ef98e8c	0.48741567
30	0xbdcb729b	-0.09933969
31	0xbdea7715	-0.11448494
32	0xbe128826	-0.14309749
33	0xbdabdbbf	-0.083915226
34	0xbe239416	-0.15974459
35	0xbebbd984	-0.3668939
36	0xbe3876ad	-0.18014021
37	0x3e8bb440	0.27285957
38	0xbea5b66b	-0.32365736
39	0x3f13f4f8	0.5779567
40	0xbe9db9b4	-0.30805743
41	0x3ed7af92	0.42126137
42	0xbe83662c	-0.25663888
43	0x3ea85d99	0.3288391
44	0x3ea62adc	0.32454574
45	0xbe7e25ae	-0.24819061
46	0x3ecd3785	0.4008142
47	0xbf4d9937	-0.8031191
48	0x3f13b01d	0.576906
49	0x3e875706	0.2643358
50	0xbef561e2	-0.4792624
51	0xbe8a0137	-0.26954052
52	0xbf8342cd	-1.0254761
53	0xbf1f5b0c	-0.622483
54	0xbf5fd0f6	-0.87428224
55	0xbe8d74b7	-0.2762811
56	0xbefb475c	-0.4907788
57	0xbed9fbb9	-0.42574862
58	0x3e4715d2	0.19441918
59	0x3e0afad0	0.1357224
60	0xbdcb114d	-0.09915409
61	0xbe9e393d	-0.30903044
62	0xbed35954	-0.4127909
63	0xbea4d464	-0.3219329
64	0xbe6e0d5a	-0.2324728
65	0xbf1e455b	-0.6182458
66	0xbd00669e	-0.031347863
67	0xbeefa651	-0.46806577
68	0x3ec45f3c	0.38353908
69	0x3ebf686f	0.37384364
70	0xbf0aa699	-0.5416046
71	0xbf221b53	-0.63322943
72	0x3f4ebf77	0.807609
73	0x3e52d0f8	0.20587528
74	0xbf4278ef	-0.7596578
75	0x3f0e02e8	0.55473185
76	0xbf6a0aa7	-0.91422504
77	0x3ee5f7be	0.44915575
78	0xbf269069	-0.650641
79	0x3f19c1be	0.6006125
80	0xbefb9047	-0.49133512
81	0x3bf45935	0.0074569234
82	0xbf18db20	-0.5970936
83	0xbe860959	-0.26179007
84	0x3f34ee68	0.7067628
85	0xbefec856	-0.4976222
86	0xbf2fdd3a	-0.6869694
87	0xbf2bdf23	-0.67137355
88	0x3e87890a	0.2647174
89	0xbefa62c2	-0.4890347
90	0xbdc0eecc	-0.09420547
91	0xbf644a63	-0.89176005
92	0x3e64db5d	0.22349305
93	0x3c4b6f19	0.012416624
94	0x3f06ca04	0.52652
95	0xbedca804	-0.43096936
96	0x3e1c1e87	0.1524602
97	0x3f0466e2	0.51719487
98	0x3e8ae7f9	0.27130106
99	0xbeaf2f24	-0.34215653
100	0x3f2f45af	0.68465704
101	0xbf6a4418	-0.9151015
102	0x3dfa5f77	0.1222524
103	0x3e0fcf20	0.14043856
104	0x3eb5c4d9	0.35501745
105	0x3f00d63c	0.50326896
106	0xbb8acc41	-0.0042357747
107	0x3f0a8684	0.54111505
108	0xbf0dce72	-0.55393136
109	0x3e88a511	0.26688436
110	0x3f029324	0.5100577
111	0xbea9878a	-0.3311122
112	0x3f20cb0e	0.62809837
113	0x3f331154	0.69948316
114	0xbeab1d5e	-0.33420843
115	0xbe82809e	-0.25488752
116	0x3ed78438	0.42093062
117	0xbf220800	-0.6329346
118	0x3eeeabc8	0.46615434
119	0xbc1aa347	-0.009438342
120	0x3ed718ad	0.42011014
121	0xbed9abe6	-0.4251396
122	0x3ea19af0	0.3156352
123	0x3f2532e5	0.64530784
124	0xbf14ab47	-0.5807385
125	0x3f47dcd0	0.7807131
126	0xbeeba3be	-0.46023363
127	0x3eddf5d2	0.4335161
128	0x3e2c36aa	0.16817728
129	0x3ede413f	0.43409154
130	0x3c49cc23	0.012316736
131	0x3f0adb2b	0.54240674
132	0xbe973cbe	-0.2953853
133	0xbf6239b5	-0.88369304
134	0x3f0ae14c	0.54250026
135	0x3f4a0b11	0.78923136
136	0xbf74aba3	-0.95574397
137	0x3eed6c74	0.46371806
138	0x3ecd50c0	0.4010067
139	0x3f0f4a3f	0.55972666
140	0xbedae6f3	-0.42754325
141	0xbd74c20e	-0.059755377
142	0xbf604b99	-0.8761535
143	0x3f57c42f	0.8428373
144	0xbe8b40bb	-0.27197823
145	0x3f21b707	0.631699
146	0x3e8cecad	0.2752432
147	0x3e546087	0.20739947
148	0x3ea2ccc2	0.31796843
149	0x3e97d959	0.2965801
150	0x3e367983	0.1781979
151	0xbe18500b	-0.14874284
152	0xbf42fba0	-0.761652
153	0xbe56d024	-0.20977837
154	0xbec64107	-0.38721487
155	0xbe8c1762	-0.2736159
156	0x3f50c309	0.815476
157	0xbe8ffe2d	-0.28123608
158	0x3f414ae9	0.7550493
159	0x3eb6f77a	0.35735685
160	0x3e9c8679	0.30571344
161	0xbf5db602	-0.86605847
162	0x3e86fbeb	0.26364073
163	0x3f40f1ea	0.7536913
164	0x3f029e1f	0.51022524
165	0xbdcee812	-0.10102858
166	0x3e804034	0.25048983
167	0x3efbb51c	0.49161613
168	0xbe25ca86	-0.16190538
169	0xbf88c0c8	-1.0683832
170	0x3ed62d32	0.41831356
171	0xbed6ecb8	-0.41977477
172	0x3eebba47	0.46040556
173	0x3f25b594	0.6473019
174	0xbe5a3789	-0.21310247
175	0x3f1d72dc	0.61503386
176	0x3ea54b02	0.3228379
177	0xbe39f182	-0.18158534
178	0xbe697ba9	-0.22801079
179	0xbe770df4	-0.24126416
180	0x3efe58cc	0.49677122
181	0x3e6d7d83	0.2319241
182	0xbf011bad	-0.50432855
183	0xbf4217ca	-0.7581755
184	0xbedbd2b2	-0.42934185
185	0xbea241aa	-0.31690723
186	0xbf7fa523	-0.99861354
187	0x3edbeeb2	0.42955548
188	0xbeb32357	-0.349879
189	0x3f0e8690	0.55674076
190	0xbed43b5c	-0.41451538
191	0xbe032c3b	-0.12809841
192	0x3f3116be	0.69175327
193	0x3f033040	0.512455
194	0xbeda91ad	-0.42689267
195	0xbf359842	-0.7093545
196	0x3f0d7342	0.55253994
197	0xbd58a6d8	-0.05289349
198	0x3eef1336	0.46694344
199	0xbc381d20	-0.011237413
200	0xbe312b2a	-0.17301622
201	0x3efa9031	0.48938134
202	0xbeb7bcf5	-0.3588635
203	0x3eb90d3c	0.3614291
204	0xbea9bbd1	-0.33151105
205	0x3f2b3774	0.6688149
206	0xbf116286	-0.5679096
207	0xbe553961	-0.2082267
208	0x3f0476fc	0.51744056
209	0xbd3d700e	-0.04624944
210	0xbe9d9701	-0.3077927
211	0xbc214cee	-0.009845002
212	0xbec0edd3	-0.37681445
213	0x3d0c1e30	0.034208477
214	0x3d97e2b5	0.07416288
215	0x3f55a2ad	0.8345135
216	0x3e1e78a7	0.15475713
217	0xbef16c0a	-0.4715274
218	0x3deeef2d	0.11666713
219	0xbdb1eecc	-0.08688125
220	0x3ec43caa	0.38327533
221	0xbe7419c3	-0.23837952
222	0x3f0bedeb	0.5465991
223	0x3e09289a	0.13394395
224	0x3ebd2075	0.36938825
225	0x3f126511	0.57185465
226	0x3e31decc	0.17370147
227	0x3d9e9067	0.07742386
228	0x3f090fa8	0.53539515
229	0x3f219209	0.63113457
230	0x3f0da9b0	0.5533705
231	0x3dc3734c	0.095434755
232	0xbf418a40	-0.7560158
233	0xbec01194	-0.3751341
234	0xbecebc09	-0.40377834
235	0x3f2ce4a6	0.6753639
236	0x3ebf651b	0.37381825
237	0x3ea19401	0.3155823
238	0xbea6d3bc	-0.32583416
239	0x3f5b2407	0.8560185
240	0x3ebfd50b	0.37467226
241	0x3e4a97be	0.19784448
242	0xbed83cee	-0.42233986
243	0x3eaf8ea9	0.3428853
244	0x3eb47b99	0.35250548
245	0xbda007b5	-0.0781397
246	0x3f483d18	0.7821822
247	0x3e7f58f7	0.24936281
248	0x3eb068c6	0.34454936
249	0x3e84c0d7	0.25928375
250	0x3ebd62f6	0.36989564
251	0xbef8c58c	-0.48588216
252	0xbdc8e895	-0.098099865
253	0x3ebedce5	0.37277904
254	0x3e055626	0.13021144
255	0x3f6d5dc7	0.9272122

linear2.weight f4 [3, 500]
0	0xbe8393e4	-0.2569877
1	0xbf1a2148	-0.60207033
2	0xbf66544d	-0.8997238
3	0x3eec4713	0.46147975
4	0xbe0383be	-0.12843224
5	0x3f177869	0.59168106
6	0xbea1eb79	-0.31624964
7	0x3f1389fe	0.57632434
8	0x3f1db548	0.6160474
9	0x3e823b35	0.25435796
10	0x3f2dfb6e	0.67961776
11	0x3f56d6cd	0.8392151
12	0xbe1118a7	-0.1416956
13	0xbebb70a5	-0.36609378
14	0x3f2b004f	0.66797346
15	0xbeee1b2e	-0.4650511
16	0x3e03a2ac	0.12855023
17	0xbcae4148	-0.021271363
18	0xbf0339b7	-0.5125994
19	0x3f0bbb52	0.54582703
20	0xbe2e5ee1	-0.17028381
21	0x3f4de5c5	0.80428725
22	0x3f31a79c	0.69396377
23	0x3f1ac522	0.6045705
24	0xbebefa6e	-0.37300438
25	0x3e5e7883	0.21725659
26	0x3f3a1f22	0.72703755
27	0xbf037609	-0.5135198
28	0xbeb0909f	-0.34485337
29	0x3f0b3447	0.54376644
30	0xbda10285	-0.07861809
31	0xbe232843	-0.15933327
32	0xbf0ebb71	-0.5575476
33	0xbe563131	-0.20917203
34	0xbd143d49	-0.03619126
35	0xbf3e15e1	-0.74252135
36	0xbef69018	-0.4815681
37	0x3f684b7c	0.9074018
38	0xbf3adb2f	-0.729907
39	0x3eeb3d35	0.45945135
40	0xbf08b45e	-0.5340022
41	0x3f8f55fc	1.1198115
42	0xbd8ad5ac	-0.06779036
43	0x3f0c348b	0.54767674
44	0x3ee876ae	0.45403045
45	0xbbc5e2e2	-0.0060390094
46	0x3f100c6d	0.5626896
47	0xbf6c31f1	-0.92263705
48	0x3f50cc40	0.8156166
49	0x3eedb2a3	0.46425352
50	0xbefa30a1	-0.48865226
51	0xbe3b145d	-0.18269487
52	0xbf803c06	-1.0018318
53	0x3ea6eb26	0.3260128
54	0xbf488c65	-0.78339225
55	0x3ef6f0c9	0.4823058
56	0xbecc67b1	-0.3992286
57	0xbee5e1d2	-0.4489885
58	0xbeb7006f	-0.35742518
59	0xbf17aa1e	-0.59243953
60	0x3f34cf1a	0.7062851
61	0xbe215852	-0.15756348
62	0xbf37afd0	-0.71752644
63	0xbf2defdb	-0.67944115
64	0x3f212fb8	0.6296344
65	0xbf42d48e	-0.7610558
66	0xbe548d04	-0.20756918
67	0xbf20f82d	-0.62878686
68	0x3f065270	0.5246954
69	0x3f4ee46c	0.80817294
70	0x3efd7435	0.4950272
71	0xbf241f8b	-0.6411063
72	0x3f1010cd	0.56275636
73	0x3d624f2e	0.055251293
74	0xbf1cec65	-0.6129821
75	0x3f030cd1	0.5119143
76	0xbf999601	-1.1998903
77	0x3f399dc4	0.72506356
78	0x3e295da0	0.16539621
79	0xbf3d82f6	-0.74027956
80	0xbea74d38	-0.326761
81	0x3d3ed6e2	0.046591647
82	0xbe82590b	-0.2545856
83	0xbe953c02	-0.29147345
84	0x3f2a035c	0.66411376
85	0x3f2a25df	0.66464037
86	0xbf856cf8	-1.042388
87	0xbfad0121	-1.351597
88	0x3c84db55	0.016217867
89	0x3f046b0f	0.5172586
90	0x3ea21cc6	0.31662577
91	0xbf71f28a	-0.9451071
92	0x3f68786c	0.9080875
93	0xbc0e5908	-0.008688219
94	0x3f2a5640	0.6653786
95	0xbf1cf354	-0.6130879
96	0xbeaff9a8	-0.3437016
97	0xbe018135	-0.12646945
98	0x3ec42d22	0.38315684
99	0xbea44cc2	-0.32089812
100	0xbe4c01fa	-0.19922629
101	0xbf95ab7c	-1.1692958
102	0xbef1708d	-0.47156182
103	0x3e072b6b	0.13200156
104	0x3e540f25	0.20708902
105	0xbf6a55a7	-0.91536945
106	0x3ee33d5f	0.4438276
107	0x3edd27ce	0.4319443
108	0x3f65bbb0	0.89739513
109	0x3da9c85c	0.08290169
110	0x3f2dc85a	0.6788384
111	0x3d720d6d	0.059094835
112	0x3f2023e1	0.62554747
113	0x3f270957	0.65248626
114	0xbf3e9e30	-0.74460125
115	0xbf0b34df	-0.5437755
116	0x3f587447	0.84552425
117	0xbe8732b6	-0.26405877
118	0x3f6ddc08	0.92913866
119	0x3e00616d	0.12537165
120	0x3e8c9f8e	0.2746548
121	0xbf2e15bc	-0.68001914
122	0x3e717a19	0.23581733
123	0x3ed80542	0.4219151
124	0xbee69248	-0.4503348
125	0x3f3afa40	0.730381
126	0x3f81e960	1.0149345
127	0x3f237e7b	0.6386487
128	0x3edf5286	0.43617648
129	0x3eb2fc3b	0.34958062
130	0xbd195982	-0.037438877
131	0xbee9ed53	-0.45688877
132	0xbe853672	-0.260181
133	0xbf3dd956	-0.74159753
134	0xbdca9bf5	-0.09893028
135	0xbed4b16c	-0.41541612
136	0xbf5ce4c0	-0.86286545
137	0x3f058901	0.52162176
138	0x3f44ebc5	0.76922256
139	0x3ed3c2bd	0.4135951
140	0x3f4b1482	0.7932817
141	0x3ee60b59	0.44930533
142	0xbf83eeeb	-1.0307287
143	0x3f5b1136	0.85573137
144	0xbf2d2343	-0.6763193
145	0x3f7cef34	0.98802495
146	0xbe04b0dd	-0.12958093
147	0x3e1f15a3	0.15535598
148	0x3ec540ed	0.38526097
149	0x3f20d709	0.6282812
150	0xbe9ce465	-0.30643
151	0xbf1c65d0	-0.61092854
152	0xbf5d1732	-0.8636352
153	0xbed83d18	-0.4223411
154	0xbe6ac6e1	-0.22927429
155	0xbeaaf6fb	-0.33391556
156	0x3f577094	0.84156156
157	0xbf5a9fda	-0.85400164
158	0x3f336694	0.70078397
159	0x3fafe7fd	1.3742672
160	0x3ecf43cf	0.4048142
161	0xbf6f1e78	-0.93405867
162	0x3f39bd55	0.7255452
163	0x3f3f2c73	0.746772
164	0x3e411fa0	0.1885972
165	0xbea79120	-0.3272791
166	0x3eba3569	0.36368874
167	0x3e832cff	0.25620267
168	0x3de5f9e1	0.11229301
169	0xbf871b3f	-1.055519
170	0xbc8bb4c7	-0.017053975
171	0xbf035845	-0.51306564
172	0x3f230b61	0.6368924
173	0x3f2641eb	0.6494433
174	0x3ee52d81	0.4476128
175	0x3f30fe2b	0.6913783
176	0x3dbb41c4	0.09143403
177	0xbe155d3d	-0.14586349
178	0x3db4143c	0.08792922
179	0xbf0f5d75	-0.5600198
180	0x3eb46c6f	0.35238978
181	0x3ea3395a	0.31879693
182	0xbf0427f3	-0.5162346
183	0xbf1bd9c0	-0.60879135
184	0xbebbf06e	-0.3670687
185	0x3eccc679	0.39995173
186	0xbf601434	-0.8753083
187	0x3eb6f771	0.35735658
188	0xbf6139d3	-0.8797886
189	0xbef7f0cf	-0.4842591
190	0xbf1060f1	-0.5639792
191	0xbf219d6e	-0.63130844
192	0x3f6af2e9	0.917769
193	0xbf4246ef	-0.75889486
194	0x3b49d8b5	0.0030799333
195	0x3f17d163	0.59303874
196	0xbf33b630	-0.7019987
197	0x3d8b0edc	0.067899436
198	0x3f91611e	1.1357763
199	0x3edf61ff	0.43629453
200	0xbf1af2b8	-0.6052661
201	0xbe134a06	-0.14383706
202	0xbe54f186	-0.20795259
203	0x3f00ac41	0.5026284
204	0xbf155246	-0.58328664
205	0x3f2fc4d6	0.6865972
206	0xbf30f3f5	-0.6912225
207	0x3e2c9eb2	0.16857412
208	0xbea012cc	-0.3126434
209	0x3e806b10	0.25081682
210	0xbf231648	-0.63705873
211	0xbe17d370	-0.14826751
212	0xbec84293	-0.39113292
213	0x3ec0c86c	0.3765291
214	0xbc88aecd	-0.016684914
215	0x3f58a4c9	0.8462644
216	0x3e05cf7e	0.13067433
217	0xbf1bcc8f	-0.60859007
218	0x3e08f46a	0.13374487
219	0xbf2417ba	-0.64098704
220	0x3ee004d1	0.43753675
221	0xbf27eda6	-0.65597
222	0x3eda4993	0.42634258
223	0x3e4895b5	0.19588359
224	0x3f4655a2	0.77474415
225	0x3f91f117	1.14017
226	0xbebb8cdc	-0.36630905
227	0xbdb6e524	-0.08930424
228	0xbf4af031	-0.79272753
229	0xbe32f82e	-0.17477486
230	0x3f419802	0.7562257
231	0xbd4a62e4	-0.049410716
232	0xbf497334	-0.7869141
233	0x3ea66471	0.32498506
234	0xbf065482	-0.524727
235	0x3f094a57	0.5362906
236	0x3ef640a4	0.48096192
237	0x3f0c64a5	0.5484107
238	0x3dc43843	0.095810436
239	0x3f8666e7	1.0500153
240	0x3edc2a63	0.43001089
241	0xbf6570ea	-0.8962542
242	0xbf864a11	-1.0491353
243	0x3ec2781a	0.37982255
244	0x3eafcd9a	0.3433655
245	0xbf1acc8a	-0.6046835
246	0x3f529014	0.82251096
247	0x3ee9c5dd	0.4565877
248	0x3e9d3da3	0.30711088
249	0x3ec41a0e	0.38301128
250	0x3e404ee7	0.18780099
251	0xbf128a46	-0.5724224
252	0xbd611ca0	-0.05495894
253	0x3f62f11c	0.88649154
254	0x3edf0a0a	0.43562347
255	0x3f525b3e	0.82170475

linear2.bias f4 [3]
0	0x3d3832ef	0.04497045
1	0x3ecb616c	0.39722764
2	0xbf01b48e	-0.5066613
