continous_state/pretrained/dqn/dqnMLE10_256.pt (torch, 11011 bytes, 4 tensors)

linear1.weight f4 [256, 5]
0	0xbdd3438b	-0.10315617
1	0x3eba93ec	0.3644098
2	0x40c3ed1e	6.122695
3	0x3f9c069b	1.2189516
4	0x3f485d12	0.78267014
5	0xc0616191	-3.52158
6	0xbe7f74d6	-0.24946913
7	0x40888842	4.266633
8	0xbe29cbdd	-0.16581674
9	0x3ead8337	0.3388917
10	0x3f27f2d7	0.6560492
11	0xbf904f3e	-1.1274183
12	0xc0b6182b	-5.69045
13	0xc006665e	-2.099998
14	0xbfa05ae8	-1.2527742
15	0xc02d8929	-2.7114966
16	0xbf7feb1c	-0.99968123
17	0xc037e428	-2.8733006
18	0xbf163530	-0.5867491
19	0xbe3def5b	-0.18548338
20	0x3e7db665	0.24776609
21	0xbed49da0	-0.41526508
22	0xc0c4a80e	-6.1455145
23	0xbf692df3	-0.9108574
24	0xbf8ba4f9	-1.0909721
25	0xc01f1931	-2.4859126
26	0xbe6ae342	-0.22938254
27	0xc0a546a9	-5.1648755
28	0x3e878958	0.26471972
29	0xbe87cd8f	-0.26524016
30	0xbec3daa0	-0.38252735
31	0x3f1e1fde	0.61767375
32	0x40cb8a1c	6.360609
33	0x3f9408a4	1.1565137
34	0x3fa4f729	1.2887927
35	0x3f45e043	0.7729532
36	0x3e9eb773	0.30999336
37	0xc085ea3e	-4.184844
38	0xbf316411	-0.69293314
39	0xbeef6c22	-0.46762186
40	0x3f0c19cb	0.54726857
41	0x3daebfa8	0.08532649
42	0x401afdb1	2.421734
43	0x3eac0630	0.3359847
44	0x3f69adff	0.9128112
45	0xbea8327b	-0.32851014
46	0x3f2539ae	0.6454114
47	0x40d65d37	6.698879
48	0x3fbbe139	1.4678108
49	0x3f6c133b	0.92216843
50	0xbe6144ff	-0.21998976
51	0x3e107a0a	0.14109054
52	0x40b44dc4	5.634493
53	0x3f3dd64a	0.74155104
54	0x3f62930d	0.8850563
55	0xbf51a90f	-0.8189859
56	0x401c783d	2.4448388
57	0xbd0b1f1b	-0.03396521
58	0xbf91e8cf	-1.1399173
59	0xbe81d6c1	-0.25359157
60	0xc08ef481	-4.4673467
61	0xbd2e3a44	-0.042536035
62	0x403c776b	2.9447887
63	0xbed8270b	-0.42217287
64	0x3ee9167a	0.4552496
65	0x3f765ccc	0.96235347
66	0xbfebb111	-1.8413411
67	0xbf36fa05	-0.7147525
68	0x3f3909a9	0.72280365
69	0xbec370c7	-0.3817198
70	0xbf123254	-0.57108045
71	0x3e6a22a0	0.22864771
72	0xc0aa0192	-5.3126917
73	0xbe362936	-0.17789158
74	0xbf34927f	-0.70536035
75	0xbc94d9b1	-0.01817021
76	0x3f25c9a7	0.6476082
77	0xbf861812	-1.0476096
78	0x3e8cf223	0.27528486
79	0xbdbf91bf	-0.09353971
80	0x3e959758	0.2921703
81	0xbf4a4cb3	-0.79023284
82	0x3ff6caaf	1.9280604
83	0xbfc0a49b	-1.5050234
84	0xbef52074	-0.47876322
85	0xbf0fcc85	-0.5617145
86	0xbe1cc1c7	-0.15308295
87	0xc0a2076a	-5.063405
88	0xbf31ddeb	-0.69479245
89	0xbf4e0c0c	-0.8048713
90	0x4042d953	3.0445144
91	0x3f60309c	0.8757417
92	0x4059afff	3.401367
93	0x3e7088a9	0.23489632
94	0x3e8114e8	0.25211263
95	0x3efe8afe	0.49715418
96	0x3f485dcf	0.7826814
97	0xbfa0baed	-1.2557045
98	0x3f8104d6	1.0079601
99	0xbf2b900a	-0.6701666
100	0xbf85c7e5	-1.0451628
101	0x3fffa540	1.9972305
102	0x3f538270	0.82620907
103	0xbf47e94d	-0.78090364
104	0x3e46d21d	0.1941609
105	0x3f365cb7	0.7123522
106	0x3f0bbbb3	0.5458328
107	0xc040fa3c	-3.015273
108	0xbf54c1e5	-0.8310836
109	0xbf65d746	-0.89781606
110	0x3eff8f58	0.4991405
111	0xbf4e3914	-0.80555844
112	0xc0c16842	-6.043977
113	0xbfc0b9fc	-1.5056758
114	0xbfa1f958	-1.2654219
115	0xc072d92f	-3.7945058
116	0xbe0422ef	-0.12903951
117	0x408c63d6	4.387187
118	0x3e4761d9	0.1947092
119	0x3f1df5f1	0.617034
120	0xc05543f5	-3.3322728
121	0xbf261a28	-0.6488366
122	0x4053f0f9	3.3115828
123	0xbf5e40d1	-0.8681765
124	0x3e933bcf	0.28756568
125	0xbedb95e2	-0.4288779
126	0x3f6424fb	0.8911893
127	0xbf222942	-0.63344204
128	0x3f95612e	1.1670282
129	0x3ef0ca07	0.47029135
130	0xc0428744	-3.039506
131	0xbfc26b2e	-1.5188959
132	0xc040ea73	-3.0143096
133	0xbf47f57c	-0.78108954
134	0xbf083810	-0.53210545
135	0x405f3be9	3.4880316
136	0x3f861a7d	1.0476834
137	0x3fe13abb	1.7596048
138	0x3e655d58	0.22398889
139	0x3e859e37	0.2609727
140	0x3e769080	0.2407856
141	0xbec3ec46	-0.382662
142	0xc0c10618	-6.031994
143	0xbf70fb13	-0.9413311
144	0xbf6ef964	-0.9334929
145	0x4072b5d6	3.7923484
146	0x3ff9d949	1.9519435
147	0x405074f4	3.2571383
148	0x3f6d16b3	0.9261276
149	0x3f4a650d	0.7906044
150	0x3e6af7f1	0.22946145
151	0xbf93af73	-1.1537918
152	0x3f7f0aa7	0.9962563
153	0x40198638	2.398817
154	0x3f46f485	0.7771686
155	0x3f53c235	0.8271821
156	0x3e8f32c7	0.27968428
157	0xc0867c6e	-4.202689
158	0xbe8c1156	-0.27356976
159	0xbf1ec848	-0.62024355
160	0x4082626c	4.0745144
161	0xbe0957ff	-0.13412474
162	0xc03a265e	-2.9085917
163	0xbda84a99	-0.082173534
164	0xbe848192	-0.25880104
165	0xbf14cbad	-0.58123285
166	0xbf46ec90	-0.77704716
167	0xc017e7ed	-2.3735306
168	0xc00f1948	-2.235918
169	0x3fd20cd3	1.6410164
170	0xbdd02359	-0.10162992
171	0x3edd42c4	0.43215
172	0x409fdb9b	4.9955573
173	0x3f6d0a14	0.92593503
174	0x3f82c1e6	1.0215423
175	0x3f873338	1.0562506
176	0x3ec26c32	0.3797317
177	0xc09e4dfe	-4.9470205
178	0xbe185bbc	-0.14878744
179	0xbf58d48f	-0.8469934
180	0x3f169c1a	0.5883194
181	0x3f363599	0.71175534
182	0x403e7ef6	2.976499
183	0x4004fce7	2.077936
184	0xbfb2bbec	-1.3963599
185	0xbe99e373	-0.30056342
186	0x3eda1292	0.42592293
187	0x40f0da64	7.526659
188	0x3f5a65b9	0.85311466
189	0x3f92bc6d	1.1463753
190	0x40136dfe	2.3035884
191	0x3f17ebf7	0.5934443
192	0xc03dbcf7	-2.9646585
193	0x3ee78cfb	0.45224747
194	0xbe95eb45	-0.2928106
195	0xbe6aef5c	-0.22942871
196	0x3ea96065	0.33081356
197	0x40c21721	6.0653234
198	0x3f497301	0.7869111
199	0x3f662053	0.8989307
200	0x3f96ffc6	1.1796806
201	0xbf69b894	-0.9129727
202	0x405f757b	3.4915454
203	0x4000a458	2.0100307
204	0x3f51d705	0.8196872
205	0xba98e892	-0.0011665991
206	0xbe8d7ba2	-0.27633387
207	0xc0a179a4	-5.0460987
208	0xbf31670f	-0.6929788
209	0xbf70e730	-0.94102764
210	0xc024655d	-2.5686867
211	0xbf08b110	-0.53395176
212	0xc083c979	-4.118344
213	0xbd60921b	-0.054826837
214	0xbe89570d	-0.26824227
215	0xc0594c89	-3.3952963
216	0xbf6c43d1	-0.9229098
217	0xc02bfa08	-2.6871357
218	0xbc2b8997	-0.010469816
219	0xbecfeb49	-0.40609196
220	0xc040e40f	-3.0139196
221	0xbf6e4e8d	-0.9308861
222	0x3ff5fa83	1.9217075
223	0xbf8c3e89	-1.0956584
224	0x3eeed41c	0.46646202
225	0x4012023d	2.2813866
226	0x3f04d18b	0.5188224
227	0xc025554c	-2.583331
228	0x3ef0619e	0.46949476
229	0xbe24705b	-0.16058485
230	0x3f29f59b	0.6639039
231	0xbe7229ff	-0.23648833
232	0x40a56afe	5.1693106
233	0x3ed4c0cd	0.41553345
234	0x3ec0fa89	0.37691143
235	0x3ea2c353	0.31789646
236	0x3f665e72	0.8998786
237	0x3e138f70	0.14410186
238	0x3fe54fde	1.7914999
239	0xbf3ae8e2	-0.730116
240	0x3ec3c1c7	0.38233778
241	0xbf894438	-1.0723944
242	0xc0d1a548	-6.551426
243	0xbff50edd	-1.9145161
244	0xbfd0d9ec	-1.6316504
245	0x3f9d7128	1.2300158
246	0xbebeb742	-0.3724919
247	0xc0b85411	-5.760262
248	0xbf586919	-0.84535366
249	0xbf559639	-0.83432347
250	0x405b0725	3.422311
251	0x3ffa1d99	1.9540282
252	0x40477279	3.1163619
253	0x3f7207ae	0.9454297
254	0x3f082444	0.53180337
255	0x3f33d4ce	0.7024659

linear1.bias f4 [256]
0	0x3f943f92	1.15819
1	0x3f3b3cb3	0.73139495
2	0xbf96f813	-1.1794456
3	0xbe56a8f4	-0.20962888
4	0xbf7a6410	-0.97808933
5	0xbea2af6e	-0.31774467
6	0x3f76233b	0.9614751
7	0xbf6f615f	-0.9350795
8	0x3eb36995	0.3504149
9	0x3fa3304b	1.2749113
10	0x3f6af571	0.91780764
11	0x3f2c1e07	0.6723332
12	0x3eff4f61	0.4986525
13	0xbf30435a	-0.6885277
14	0xbf4442d9	-0.766645
15	0xbe88908c	-0.2667278
16	0xbe3070b0	-0.17230487
17	0xbf5ec111	-0.87013346
18	0x3e65c956	0.22440085
19	0xbec2295a	-0.37922174
20	0x3f2b867a	0.6700207
21	0xbd47a3bb	-0.04874013
22	0xbf8826ac	-1.0636802
23	0x3f237bd6	0.63860834
24	0x3f20e04c	0.6284225
25	0xbda541f9	-0.08069224
26	0x3a8da428	0.0010806369
27	0x3e9ffe63	0.3124877
28	0xbf8b2d5d	-1.0873219
29	0xbdb8fb36	-0.0903229
30	0x3e53f99b	0.20700686
31	0xbf35a140	-0.7094917
32	0xbf32266b	-0.6958987
33	0x3e22e622	0.15908101
34	0x3f612aea	0.87956107
35	0xbeef8808	-0.4678347
36	0xbeb10fa2	-0.3458224
37	0x3f8e8c14	1.1136498
38	0xbeeb5479	-0.45962885
39	0x3f8e3abf	1.1111678
40	0x3daba58c	0.08381185
41	0xbf5e43bc	-0.86822104
42	0xbe6666c7	-0.22500144
43	0xbdcf6ea1	-0.10128523
44	0x3f194b9b	0.5988099
45	0xbf0266a1	-0.5093785
46	0x3f7bab68	0.9830842
47	0xbf2c181b	-0.6722428
48	0xbf600779	-0.875114
49	0xbf8ba845	-1.0910727
50	0x3d9394ad	0.07206092
51	0x3f510288	0.8164449
52	0xbf48d12d	-0.78444177
53	0xbf200196	-0.6250242
54	0xbf6576ff	-0.896347
55	0xbea197ea	-0.31561214
56	0x3e3cc0c1	0.18432905
57	0xbf240ed8	-0.6408515
58	0xbeb43812	-0.35199028
59	0xbeadc4f0	-0.33939314
60	0xbf350487	-0.70710033
61	0xbef7cd37	-0.48398754
62	0x3f914a8d	1.1350876
63	0xbf4b1fb2	-0.7934524
64	0x3ed1132d	0.40834942
65	0xbefc3e8f	-0.49266478
66	0x3ee59788	0.44842172
67	0x3dbfd944	0.09367612
68	0xbecfd0ca	-0.4058898
69	0xbf85eea6	-1.0463455
70	0xbf0c4339	-0.54790074
71	0xbf069caa	-0.525828
72	0xbf21b063	-0.6315977
73	0x3f606f5a	0.8766991
74	0xbf392ab0	-0.7233076
75	0xbe94f74d	-0.29094926
76	0xbf9b0b17	-1.2112759
77	0x3ed9883e	0.42486757
78	0x3e642835	0.22280963
79	0x3edadc9d	0.4274644
80	0x3f41bee7	0.7568192
81	0xbdf372fd	-0.11887167
82	0xbeaddacc	-0.3395599
83	0xbf374fb0	-0.7160597
84	0x3f5d28c0	0.86390305
85	0xbe956c74	-0.29184306
86	0xbf87561e	-1.0573156
87	0x3f6d4c50	0.9269457
88	0x3f69722c	0.9118984
89	0xbf037c3f	-0.5136146
90	0xbc265c72	-0.010153877
91	0x3eb6a10c	0.35669744
92	0xbf659ea9	-0.8969522
93	0x3f24df10	0.64402866
94	0x3f4ad969	0.7923799
95	0x3ebfc854	0.37457526
96	0x3f64bee6	0.8935379
97	0xbf490efc	-0.7853849
98	0xbf2c0602	-0.6719667
99	0xbf745fd1	-0.95458704
100	0xbf018004	-0.5058596
101	0x3f5d52a2	0.8645421
102	0x3e902ce6	0.28159255
103	0x3eea5012	0.45764214
104	0x3f33babf	0.70206827
105	0x3f19b9ec	0.6004932
106	0x3fa80635	1.3126894
107	0x3f8f8f0b	1.1215528
108	0xbf47e8e1	-0.7808972
109	0xbde5662b	-0.112011276
110	0x3f00a12c	0.5024593
111	0xbf0596bb	-0.5218312
112	0x3ee96927	0.45588037
113	0x3f78c71b	0.9717881
114	0xbf7aeb06	-0.9801487
115	0xbf9a37fd	-1.2048336
116	0x3f09bdbe	0.5380515
117	0xbf015507	-0.50520366
118	0xbea4fcec	-0.32224214
119	0x3f7dafb0	0.990962
120	0x3d40d646	0.047079347
121	0xbf4525e5	-0.7701095
122	0xbf785311	-0.9700175
123	0xbf197df7	-0.5995783
124	0xbebc8924	-0.3682338
125	0xbe8c386b	-0.27386793
126	0xbf2ca040	-0.6743202
127	0x3f87d387	1.0611428
128	0xbf2e5fea	-0.68115103
129	0x3e7a6b93	0.24455099
130	0xbf99d162	-1.2017024
131	0x3f171777	0.5902018
132	0x3f641274	0.8909066
133	0x3f27c621	0.65536696
134	0xbe314851	-0.17312743
135	0x3f1a66d9	0.60313183
136	0xbcb1722f	-0.021660892
137	0xbea16e7b	-0.31529602
138	0xbf80078d	-1.0002304
139	0x3ea6976a	0.32537395
140	0x3de089ab	0.10963758
141	0x3f36156c	0.7112644
142	0x3f8e1a5d	1.1101795
143	0x3f684597	0.90731186
144	0x3ef00460	0.46878338
145	0xbf196c16	-0.5993055
146	0x3eb9dc86	0.3630106
147	0xbf3e91dc	-0.74441314
148	0x3f3d8d9b	0.740442
149	0xbf2e9e12	-0.68209946
150	0xbeb02176	-0.3440053
151	0x3eb8b45d	0.36075106
152	0xbdb644ab	-0.08899816
153	0x3f5ac6c2	0.8545953
154	0x3f43e9fa	0.76528895
155	0x3f0fd974	0.5619118
156	0x3e7f5ddf	0.24938153
157	0xbf8dd6cb	-1.1081175
158	0xbf112216	-0.56692636
159	0x3f20875a	0.6270653
160	0x3f02e464	0.51129746
161	0x3ee5d7f6	0.44891328
162	0xbf095038	-0.5363803
163	0xbecfdc59	-0.405978
164	0xbf9f2801	-1.2434083
165	0xbf2af8cf	-0.667859
166	0xbe8b4ba0	-0.27206135
167	0x3e234f8d	0.15948315
168	0x3f377256	0.7165884
169	0xbec788dc	-0.38971603
170	0x3f8fcb87	1.1233987
171	0x3f816615	1.0109278
172	0xbf9d8316	-1.2305629
173	0x3e850c46	0.25985926
174	0x3e863d9c	0.2621888
175	0xbf3e8ded	-0.7443531
176	0xbf830c90	-1.0238209
177	0xbe6e6b90	-0.2328322
178	0x3f5e6778	0.8687663
179	0xbe06fbee	-0.13182041
180	0x3b1654c8	0.0022938717
181	0xbf3f62fc	-0.74760413
182	0x3dd41b23	0.103567384
183	0xbf89c46c	-1.0763068
184	0x3f5999bb	0.850002
185	0x3f6d9b77	0.92815346
186	0xbecd7042	-0.40124708
187	0xbf93ec01	-1.1556398
188	0x3eb1a15c	0.3469342
189	0xbe8e3659	-0.2777584
190	0x3f6ea710	0.9322367
191	0xbcf7d6e1	-0.03025383
192	0x3f00b20f	0.50271696
193	0xbde1aa69	-0.11018831
194	0xbf41a569	-0.7564302
195	0x3f5a2fd7	0.8522925
196	0x3e8fef4c	0.28112257
197	0xbf5c9f08	-0.8618016
198	0xbef22b96	-0.47298878
199	0x3f401494	0.750314
200	0xbf2ea387	-0.6821827
201	0xbf9e873d	-1.2385021
202	0x3eb645c7	0.3560011
203	0x3f028f58	0.50999975
204	0x3f99b2af	1.2007655
205	0x3e89a9ce	0.26887363
206	0x3e9be04b	0.3044456
207	0xbf2d5d77	-0.6772074
208	0x3f67f774	0.9061196
209	0xbec8c45d	-0.39212313
210	0x3f168c4e	0.5880784
211	0x3f5a8920	0.85365486
212	0x3f2c874a	0.67393935
213	0x3f08ce64	0.5343993
214	0x3dc16a05	0.0944405
215	0x3d13d3e2	0.03609074
216	0xbeb98b2f	-0.36239
217	0xbefff3c8	-0.49990678
218	0x3e532e60	0.2062316
219	0xbf275c47	-0.6537518
220	0x3ea212fd	0.31655112
221	0x3f142cc2	0.57880795
222	0x3db6798d	0.08909903
223	0xbec8acc8	-0.39194322
224	0xbf0043f6	-0.501037
225	0xbeb4fd7e	-0.3534965
226	0xbf4eb033	-0.8073761
227	0x3f85f5b8	1.0465612
228	0x3df5532d	0.11978755
229	0xbea3c227	-0.31984064
230	0x3e5a0eda	0.21294728
231	0xbec9e7a5	-0.39434543
232	0xbd046bd5	-0.0323294
233	0x3f22bded	0.63571054
234	0xbf09c5fc	-0.53817725
235	0xbf1a1185	-0.6018298
236	0xbf28c0e7	-0.65919346
237	0xbf99c5cb	-1.2013487
238	0xbf224726	-0.63389814
239	0xbf1c1cd8	-0.6098151
240	0xbeac8a6b	-0.33699355
241	0xbc9ec641	-0.019381644
242	0x3e53739f	0.20649575
243	0x3f35a60d	0.709565
244	0x3ed31533	0.4122711
245	0xbe545214	-0.20734435
246	0xbea12549	-0.3147376
247	0x3df87e77	0.12133496
248	0x3f8266f7	1.0187672
249	0x3f3660cc	0.7124145
250	0xbd33b533	-0.043873977
251	0x3ec5faf5	0.38668028
252	0xbe3a3a46	-0.18186292
253	0xbec388bc	-0.38190258
254	0xbefaea07	-0.49006674
255	0x3e8c0762	0.27349383

linear2.weight f4 [3, 256]
0	0x3fbf76c1	1.4958116
1	0x3fce7a7e	1.6131132
2	0xbfa6d828	-1.3034716
3	0xbf3d0dd1	-0.7384921
4	0xbfb32c72	-1.3997939
5	0xbff90a04	-1.9456182
6	0x3faa3eb1	1.3300382
7	0xbf823df8	-1.0175161
8	0x3d515f52	0.051116295
9	0x3fe2df7a	1.772445
10	0x3f91f28c	1.1402144
11	0xbf2d3ffe	-0.6767577
12	0x3fa65f55	1.2997843
13	0x3fbab5cd	1.4586731
14	0xbfca5f31	-1.58103
15	0xbf0c22ee	-0.547408
16	0x3fd61f77	1.6728352
17	0xbfadc9d7	-1.3577222
18	0x3f8f28de	1.1184347
19	0xbeb46dfd	-0.35240164
20	0xbfb51034	-1.414557
21	0xbf0bcefa	-0.54612696
22	0xbfa349cc	-1.2756896
23	0x3fbab68c	1.4586959
24	0x3faddfd2	1.358393
25	0xbf893af8	-1.0721121
26	0xbf8c9f1a	-1.0986054
27	0x3f89a187	1.0752419
28	0xbfa03047	-1.2514733
29	0x3fd9736a	1.6988347
30	0x3ee9f1a9	0.45692185
31	0xbf9a2e18	-1.2045317
32	0xbf8d516c	-1.1040473
33	0x3f3fcc4d	0.74921113
34	0x3f62a064	0.88525987
35	0xbfb2005b	-1.3906358
36	0xbf52e5c4	-0.82381845
37	0x400a6fd9	2.1630766
38	0xbf80ed0d	-1.0072342
39	0x3ff2b2a0	1.8960762
40	0x3febfc70	1.8436413
41	0xbf811f12	-1.0087607
42	0xbfa8ed21	-1.3197366
43	0xbf886c5c	-1.0658069
44	0x3f463aee	0.7743367
45	0xbf977f21	-1.1835672
46	0x3fd62578	1.6730185
47	0xbf1cb563	-0.61214274
48	0xbfdee03c	-1.7412181
49	0xbfbf6944	-1.4954
50	0x3fd213ab	1.6412252
51	0x3f9bf400	1.2183838
52	0x3f894f38	1.0727301
53	0xbf6e3846	-0.93054616
54	0xbf9b755a	-1.2145188
55	0xbf4dfc8b	-0.80463475
56	0x3f1a1271	0.6018439
57	0xbf68b843	-0.9090616
58	0xbeca15b0	-0.3946967
59	0x3fb4ff62	1.4140437
60	0xbfc19ad5	-1.5125376
61	0xbf31a5a5	-0.6939338
62	0x3fb2ffdb	1.3984331
63	0xbf0b3fa6	-0.54393995
64	0x3fabca72	1.3421156
65	0xbf58673b	-0.8453252
66	0x3f34756c	0.7049167
67	0x3f71ddb6	0.9447893
68	0xbf749e91	-0.95554453
69	0xbfd418f1	-1.6570112
70	0xbf8431f0	-1.032774
71	0x3f967d53	1.1756996
72	0xbfa7be67	-1.3104981
73	0x3fb7a26c	1.4346442
74	0xbe193a34	-0.14963609
75	0xbf16bc8d	-0.58881456
76	0xbfbec29a	-1.4903138
77	0x3f15242d	0.58258325
78	0xbf959aee	-1.1687906
79	0x3f641a66	0.8910278
80	0xbdd9d6f1	-0.106367
81	0xc016ca88	-2.3561115
82	0xbf11ba21	-0.56924635
83	0xbfd8336b	-1.6890692
84	0xbf4dc7a6	-0.80382764
85	0xbffd7f14	-1.9804406
86	0xbfcb1180	-1.5864716
87	0x3fa57254	1.2925515
88	0xbfca9df4	-1.5829453
89	0xbf3a58b0	-0.72791576
90	0xbf410a60	-0.75406456
91	0x3fdf6189	1.745164
92	0xbf9d46db	-1.2287248
93	0x3f6c2d61	0.9225674
94	0x3f89bdc9	1.0761043
95	0x3f5cb35c	0.8621118
96	0x3fa619ab	1.2976583
97	0xbf833b78	-1.0252523
98	0xc008796f	-2.1324117
99	0x3fbf9ed9	1.4970351
100	0xbfb235c1	-1.3922654
101	0x3f9b413e	1.2129285
102	0x3f23155d	0.6370447
103	0x3e4b4524	0.19850594
104	0x40126981	2.2876894
105	0x3faab113	1.3335289
106	0x3fc9a2e7	1.5752839
107	0x3fce50a7	1.6118363
108	0xbfdb9383	-1.7154392
109	0xbf915924	-1.1355329
110	0x3e04a82c	0.12954777
111	0xbf498e96	-0.78733194
112	0x3fb4be7c	1.4120631
113	0x40216142	2.5215611
114	0xbf84b617	-1.036807
115	0xbfced10b	-1.6157545
116	0x3f786d58	0.97041845
117	0xbf70a99f	-0.9400882
118	0xbf27bc19	-0.6552139
119	0x3f7cff78	0.98827314
120	0xbff5c78b	-1.9201521
121	0xbf213c24	-0.6298239
122	0x3fc4b0e8	1.5366488
123	0xbed4e054	-0.415774
124	0xbf8bdd34	-1.0926881
125	0xbf963793	-1.173571
126	0xbf981f49	-1.1884547
127	0x3fc4b175	1.5366656
128	0xbf119029	-0.56860596
129	0x3ee435e4	0.44572365
130	0xbfdce319	-1.7256805
131	0x3eae0d0c	0.3399433
132	0x3faab957	1.3337811
133	0x3f4c3eed	0.7978352
134	0xbf22919a	-0.6350342
135	0x3ff6ac45	1.9271322
136	0xc0106a07	-2.2564714
137	0x3f59d880	0.8509598
138	0xbf6ab0dd	-0.9167612
139	0x3fd88921	1.6916848
140	0xbe0a95a2	-0.13533643
141	0xbdea51de	-0.11441396
142	0x3fe46881	1.7844392
143	0x3fb77ff6	1.4335926
144	0x3f1212c5	0.5705989
145	0x3f9eb60e	1.2399309
146	0xbf99d8af	-1.2019252
147	0xbf580ca1	-0.8439427
148	0x3f180851	0.5938769
149	0xbe4d06a9	-0.20022072
150	0x3f0cd115	0.55006534
151	0x3f535316	0.82548654
152	0xbf3bde24	-0.73385835
153	0x40211fb1	2.5175593
154	0x3f8876ea	1.066129
155	0x3f0a6be5	0.54070884
156	0xbf3dc8f9	-0.74134785
157	0xc010378d	-2.2533906
158	0xbec83322	-0.3910151
159	0x3fc924cc	1.5714355
160	0x3fcdb02d	1.606939
161	0x3f4cb725	0.79966956
162	0xbf65fe65	-0.898413
163	0xbf9cecac	-1.2259727
164	0xbff60bef	-1.9222392
165	0xbf8a5552	-1.0807288
166	0xbec284b7	-0.37991878
167	0x3c9d0a10	0.019169837
168	0xbc21822e	-0.009857697
169	0xbfad2bd6	-1.3529003
170	0x3fac38d8	1.3454847
171	0x3fa90730	1.3205318
172	0xbfc5685a	-1.542247
173	0xbf480c4f	-0.7814378
174	0x3f6ba37d	0.9204634
175	0xbf98fdf6	-1.1952503
176	0xbf97ca36	-1.1858585
177	0xbeeff443	-0.46866044
178	0x3fa61fa0	1.2978401
179	0x3f897754	1.0739541
180	0x3f7e11c8	0.9924588
181	0xbfce6b19	-1.6126434
182	0x3f8a3746	1.0798118
183	0xbfcbf654	-1.5934548
184	0x3fcb624e	1.5889375
185	0x3fe0652e	1.7530878
186	0xbfced43a	-1.6158516
187	0xc021c0bb	-2.5273883
188	0x3f0f7af2	0.56046975
189	0xbf7cddcd	-0.9877594
190	0x3fa85d59	1.3153487
191	0xbf35dc6b	-0.71039456
192	0x3fd68b2d	1.6761223
193	0xbf4c20a4	-0.79737306
194	0x3d87b911	0.066270955
195	0x3fe358a6	1.7761428
196	0x3f8be350	1.0928745
197	0x3e885101	0.266243
198	0xbf9a84af	-1.2071742
199	0x3f7ecd7e	0.99532306
200	0xbfaca092	-1.3486502
201	0xbfb15941	-1.3855363
202	0x3ec13358	0.37734485
203	0x3f1e3995	0.61806613
204	0x3fb09550	1.3795567
205	0x3f12609e	0.57178676
206	0x3ff04315	1.8770472
207	0xbeee7182	-0.46570975
208	0x3fab23e0	1.3370323
209	0xbff6cd86	-1.9281471
210	0x3fbc8292	1.4727347
211	0x3fb9dec5	1.4521109
212	0xbf88bda7	-1.0682877
213	0x3f351fb6	0.7075151
214	0x3fac7512	1.3473227
215	0x3fbbc4f1	1.4669477
216	0xbf073a81	-0.52823645
217	0x3f8bf249	1.0933315
218	0x3fcc5899	1.5964538
219	0xbee58c04	-0.44833386
220	0x3f58232c	0.8442867
221	0x400bb6fd	2.1830437
222	0xbf908204	-1.1289678
223	0x3fa78691	1.3087941
224	0xbf729f07	-0.94773906
225	0xbfa33902	-1.2751772
226	0xbfb518af	-1.4148158
227	0x3fe56979	1.7922813
228	0x3f14dd8c	0.58150554
229	0xbfaa4427	-1.3302048
230	0x3fe9249b	1.8214296
231	0x3f2fa491	0.68610483
232	0xbf906703	-1.1281437
233	0x3ff20794	1.8908563
234	0xbf989098	-1.1919127
235	0x4000626e	2.0060077
236	0xbf4d152a	-0.8011042
237	0xc01a0257	-2.4063928
238	0x3f7d853c	0.99031425
239	0xbfb5349e	-1.4156682
240	0xbf78752e	-0.970538
241	0xbeaeb610	-0.34123278
242	0x3f5e4a5b	0.8683221
243	0xbeeed7d4	-0.4664904
244	0x3f8ae282	1.0850375
245	0x3cd3baec	0.025845967
246	0xbfd81c4f	-1.6883639
247	0xbf939e5b	-1.1532701
248	0x3f9ddeaa	1.2333577
249	0x3fa9b6a4	1.3258862
250	0xbf33d40a	-0.7024542
251	0xbf8b6112	-1.0888999
252	0xbf364fef	-0.7121572
253	0xbf8ba540	-1.0909805
254	0xbee064ed	-0.43827
255	0x3f26dc61	0.6518002

linear2.bias f4 [3]
0	0xbd834418	-0.06409472
1	0x3f72c4c6	0.948315
2	0xbe743d05	-0.23851402
