continous_state/pretrained/dqn/dqnMLE6_128.pt (torch, 6403 bytes, 4 tensors)

linear1.weight f4 [128, 5]
00000000: 778a 4d3f 73a7 e23e e878 8740 78d6 923f
00000010: 97a9 afbf 6432 213f 4fee 653f 9762 8e40
00000020: e0ee 8a3f b6e7 b73f 943e 55bf 6fb0 e3bf
00000030: b618 d73d fbb1 1040 d537 37bf 6ce8 3bbf
00000040: c8fb 8bbf 704d a2c0 f0bc 36c0 675b 0b40
00000050: e36f babf 7f37 2dbf 8847 41c0 da7f 8bbf
00000060: 6e62 483f 498b 1c3f 7c75 843f 89e8 8040
00000070: e0c2 993f ce88 f23f 08d4 64c0 d918 ae3e
00000080: f6e1 4440 e7bc 5f3f 193d 0bbf 6956 27c0
00000090: b95c f5bd c5f3 2c40 4f1b 803f 66dd 073f
000000a0: 1162 13bf 63c3 e8bf f3d5 8ec0 6387 b9bf
000000b0: abc1 c9bf 36ec 3340 e983 87be 5943 a8c0
000000c0: 941f cdbf 9abf b6bf fb11 14bf 9419 6bbf
000000d0: 5213 5cc0 9e00 6dbf f4a8 a4bf e780 29bf
000000e0: 4a78 5fbf 82dd 31c0 13c2 03be 68ff a3bf
000000f0: 0da7 7c3f da77 6fbe 0529 cbc0 6b1d eebf
00000100: 4057 dfbf 9290 2d3f f3ee 693f c17c a940
00000110: a2e4 c33f 30a4 ae3f 981a 3fbf 1159 58bf
00000120: 2c37 aec0 4c5f efbf c9f5 d2bf 2c7a 1d3f
00000130: a14d 5b3f 39fd 8740 275a 7d3f e8ce c03f
00000140: 065b eebe 4970 28c0 6ef9 67c0 df67 c0bf
00000150: 8e34 cdbf d9cf 2a3f 126a 883f c3e6 b240
00000160: 00c2 b73f 4270 d53f 6049 5a3f 107d 163f
00000170: aee0 4740 e822 783f d801 b6bf 4d9a 503f
00000180: 1631 103f d068 8340 9a8c 893f 8bf7 9ebf
00000190: 5217 5b40 547b 3dbe e8a7 7ac0 bdb1 38bf
000001a0: 9267 7abf f30a a63f db34 af3f 98c7 4d40
000001b0: 28c6 9d3f bbe0 b1bf 0940 273f 4e3c cb3e
000001c0: a99e 68c0 a3b8 b6bf e065 913f a7a7 36bf
000001d0: ee8b cabe d9cc 6fc0 bb6d 4dbf 8783 a33f
000001e0: 6e64 953f 0b83 6d3f 5c1d 7840 6dcd 493f
000001f0: dbea 40bf ce6b 723f fe47 9f3f a253 503f
00000200: 064a 55bf d427 e63f 2072 6cbf 4cdf d7be
00000210: 7a6e 2540 8c5a d13e 7d53 ef3e 0380 4bbe
00000220: c8bd 27c0 8c5a 3dc0 eceb d7bc 927f 08bf
00000230: 64f1 2d3f 679e 9a3f 258f 9740 8029 ee3f
00000240: 23c2 a93f 6a97 81bf e4c5 30bf 2e97 3ac0
00000250: 234a 79bf 8488 793f c0be 9cbf 20aa 3e3e
00000260: ddea a240 5532 e53f 6203 d63f 196e 5dbf
00000270: df46 253f df86 b140 ad2a 2140 fc99 f53f
00000280: bc2d 5b3f 43a3 803f 0d9a 5240 7f61 8740
00000290: f3c3 373f 6acf 8a3f c8a3 263f e86b ee3f
000002a0: 4296 633f 5264 c3be ce9f 46bf 3db0 b93f
000002b0: cbc8 883e 1345 1dbf b39a 3c3f 3ffb 2bbf
000002c0: a940 62bf ce83 9dc0 6538 c0bf 6e65 c6bf
000002d0: 6846 643f 4dab 733e e2a3 8d3f 7630 aabd
000002e0: d533 a23f ee41 2c3f 7782 763f aa7e 8e40
000002f0: e88a c73f 2f6f c83f dc23 c5bf a177 0ac0
00000300: 1489 6bc0 a440 82bf 919e 203f 4b8d 40bf
00000310: 6982 bfbe 06df 98c0 a2dd 9abf 3595 9f3f
00000320: d09d 35bf 7176 11bf 2b30 8fc0 4fee f2bf
00000330: 0d48 d73f 85d3 2bbf 3ed8 3bbf ddc4 86c0
00000340: 3acd a7bf 5f31 bdbf 9361 c0bf 3061 a8bf
00000350: 5db8 3ec0 a682 9bbf dec2 4f3f f520 4fbf
00000360: 2835 33bf a584 7ac0 b297 ffbf ee45 cd3f
00000370: 4d0d 2e40 b242 03be 77af c3bf 39e1 c4be
00000380: 1a87 2abf 47cb 453f 98ad c03f ddc1 9b40
00000390: 3ad3 0c40 9935 a53f cbdf 46bf 2c3a d8bf
000003a0: 2921 fbbf 14e1 f2bf 1a78 20bf 4ac6 803e
000003b0: 55dd 4640 b5b4 4340 9c9f 473f ba09 7f3f
000003c0: f765 85bf 8626 773f 47e5 9040 b762 f83f
000003d0: 551d c2bf acf3 13bf 95ca 43bf 1df8 8140
000003e0: d539 843f 2e3c 873f 7410 2f3f 1f94 ac3f
000003f0: be4f 9e40 6073 0140 f1bd b93f 7c95 fcbf
0.80289406 0.4426838 4.233509 1.1471701 -1.372363 0.62967515 0.89816755 4.449535
1.0854149 1.4367588 -0.8329861 -1.7788218 0.1050276 2.260863 -0.7156957 -0.7340152
-1.0936213 -5.071953 -2.8552818 2.1774538 -1.4565395 -0.67662805 -3.019991 -1.0898392
0.7827519 0.6115003 1.0348353 4.0283856 1.2012596 1.8948 -3.5754414 0.34003332
3.0762916 0.8739762 -0.543901 -2.614649 -0.11980576 2.7023785 1.0008334 0.530722
-0.5757151 -1.8184627 -4.463617 -1.4494442 -1.5762228 2.8112922 -0.26467827 -5.258221
-1.6025262 -1.4277222 -0.57839936 -0.91835904 -3.4386792 -0.92579067 -1.286406 -0.66212314
-0.8729292 -2.7791448 -0.12867002 -1.2812319 0.986924 -0.23385563 -6.3487573 -1.8602728
-1.7448502 0.6779872 0.9138023 5.2964787 1.5304148 1.3643856 -0.74649954 -0.84510905
-5.444235 -1.8700957 -1.6481258 0.61514544 0.8566533 4.249661 0.98965687 1.5063143
-0.4655382 -2.6318533 -3.624599 -1.5031699 -1.6031663 0.667234 1.065737 5.590669
1.4356079 1.6674883 0.8526821 0.5878458 3.1230884 0.9692826 -1.4219313 0.81485444
0.563249 4.1065445 1.0746033 -1.2419294 3.4232984 -0.18504077 -3.9164982 -0.7214621
-0.97814286 1.2972091 1.3688005 3.2153072 1.2326097 -1.3896707 0.65332085 0.39694446
-3.6346838 -1.4275097 1.1359215 -0.7134957 -0.39559883 -3.746878 -0.8024556 1.2774514
1.1671274 0.9277808 3.876792 0.7882908 -0.7535836 0.94695747 1.2443845 0.81377614
-0.83316076 1.7980905 -0.9236164 -0.4216255 2.584868 0.40889394 0.46743384 -0.19873051
-2.6209583 -2.9586515 -0.026357614 -0.53319657 0.6794646 1.207959 4.7362237 1.8606415
1.3262371 -1.0124333 -0.6905196 -2.9154773 -0.9737875 0.9747393 -1.2245712 0.18619585
5.09117 1.7905985 1.6719782 -0.8649612 0.64561266 5.5477138 2.5182297 1.9187617
0.8561666 1.0049824 3.2906525 4.2306514 0.7178337 1.0844548 0.6509366 1.862668
0.8890115 -0.38162476 -0.7758759 1.4506909 0.26715693 -0.61433524 0.7367355 -0.67180246
-0.88379914 -4.9223394 -1.501721 -1.5499704 0.8916993 0.23795815 1.1065638 -0.083100244
1.2672068 0.672881 0.96292824 4.452962 1.5589266 1.565893 -1.5401568 -2.1635516
-3.6802416 -1.0175977 0.62741953 -0.75215596 -0.37404183 -4.7772245 -1.2098887 1.2467409
-0.7094393 -0.5682135 -4.47463 -1.8978976 1.6818863 -0.6711963 -0.73376834 -4.211531
-1.3109505 -1.4780692 -1.5029777 -1.3154659 -2.9800026 -1.2149246 0.8115672 -0.80909663
-0.70002985 -3.914346 -1.9968169 1.6036966 2.7195618 -0.12818411 -1.5287923 -0.3845308
-0.666124 0.772633 1.5052977 4.867415 2.2003922 1.2906982 -0.7768523 -1.6892753
-1.9619495 -1.8974938 -0.6268326 0.25151283 3.107259 3.0579045 0.7797792 0.99624217
-1.0421742 0.9654316 4.527988 1.9405125 -1.5165201 -0.5779369 -0.7648099 4.0615373
1.0330149 1.056524 0.6838448 1.3482703 4.947234 2.022667 1.451109 -1.9733119

linear1.bias f4 [128]
00000000: 6c21 60be 0438 233f c78a 4abf 3b14 e23e
00000010: 8c83 7d3d 5c98 503e fb43 88bd eb6a 863d
00000020: fb90 f9be 96fe f5be 6bdb 09bf 0a4a 39bf
00000030: 183e 0cbf c47e 563f c717 43bf 894e f73e
00000040: fdd7 97be 6985 0c3f 40ab 383e c518 8bbe
00000050: 7013 cfbc 2c4d 053e 622d b33e 52a2 cd3d
00000060: ab68 86be 78a1 643f 6a85 9a3c 54a0 d8be
00000070: 232f 4d3f b9b4 f83d 568c f43e cd4d 193f
00000080: bb42 433f aed5 f03d 022b 873f e3c1 19bf
00000090: e1ff 4d3f c8dc d23e 3757 0a3a 9ef8 cf3e
000000a0: 66bb c73e 834b d4be 81f0 323e d942 d13e
000000b0: af96 003e 87e0 4c3f 9131 01bf f9e9 d43e
000000c0: 83db 0fbf 6b03 9d3d 74a1 4c3f ecc3 963e
000000d0: 92c7 cf3e d481 9f3e f0a5 6a3d add6 183d
000000e0: 7802 353f 975f 303f a0a1 0fbf 616e b2be
000000f0: 274b 8e3f f04a 803e c496 2fbf 8c18 26be
00000100: 509e 103f e393 283e bf65 49bf 90ad ff3b
00000110: 93ec e63e 7973 8cbe 14f4 33bf 294d 4b3f
00000120: d93c 07bf 4c22 9cbd 8f1d c1be e800 28bf
00000130: 2a45 1e3e dc7c d23e 5f99 bf3e aaee 4c3f
00000140: 6c44 053f 79bd 65be e2de 4ebe b4c8 273f
00000150: 3f12 143d 6965 0dbf a23f efbd 4e73 fc3d
00000160: 97b8 14bf 433b 313f 8be1 193f b0a1 15bf
00000170: d4e3 1b3f 6d73 df3d cc92 2fbf 79cd f6be
00000180: 2ff3 203f 7d4d 4b3f 7e56 103f 9bd7 f7be
00000190: ef0b 123f f55a 73bd 570f 373f 2cb2 eabe
000001a0: 6937 cb3e f649 e33e 5a0f 463d 1776 5fbe
000001b0: f936 423e f250 be3d bab3 d9be e62b 31bf
000001c0: f1c2 a3be 83fe b9bd f966 3abf 267a 35bf
000001d0: fdf1 2c3f d542 1fbf cf5c 0b3f be5b 71be
000001e0: 2344 2fbd 42bb 19bf 6147 083f 179f b1bd
000001f0: 58d1 143f a359 3f3e e9ec ee3e 4b83 a4bd
-0.2188775 0.6375735 -0.7911801 0.4415606 0.06189303 0.2037062 -0.06653591 0.06563362
-0.48743424 -0.48045796 -0.5385043 -0.723786 -0.5478225 0.8378718 -0.76208156 0.48302105
-0.29656973 0.5489107 0.18034077 -0.27167335 -0.025277823 0.1301772 0.34995562 0.10040726
-0.2625173 0.8930888 0.018862445 -0.4230982 0.8015005 0.12143845 0.47763318 0.5988434
0.762737 0.11759506 1.056 -0.6006147 0.80468565 0.41184068 0.0005277278 0.40619367
0.3901016 -0.4146386 0.17474557 0.40871313 0.12557481 0.800301 -0.5046626 0.41584757
-0.56194323 0.076666676 0.7993386 0.29446352 0.40581948 0.31153738 0.057287157 0.037314106
0.7070689 0.6889586 -0.56105995 -0.34849837 1.1116685 0.25057173 -0.68589425 -0.16220301
0.56491566 0.16462664 -0.7867088 0.0078026727 0.45102367 -0.2743185 -0.7029431 0.7941461
-0.5282722 -0.07623729 -0.37717864 -0.6562638 0.15456071 0.41110885 0.374217 0.8005167
0.5205753 -0.2243556 -0.2020221 0.65540624 0.036150213 -0.55232865 -0.11682059 0.1232668
-0.5809416 0.6923105 0.60109776 -0.5844984 0.60894513 0.109106876 -0.6858337 -0.48203638
0.6287107 0.7941511 0.56381977 -0.4840668 0.5704946 -0.059412915 0.7150778 -0.4583906
0.39690712 0.44392365 0.048354484 -0.21822391 0.18966283 0.09292783 -0.42519933 -0.6920761
-0.31984666 -0.090817474 -0.72813374 -0.7088951 0.67556745 -0.6221135 0.5443849 -0.23570153
-0.04278959 -0.6005136 0.53233916 -0.08672922 0.58131933 0.18686537 0.46665123 -0.08032855

linear2.weight f4 [3, 128]
00000000: ae3d b4bf 05c2 943f ed7c e43f 81bf 913f
00000010: 87f2 f23e 89d9 763f e435 dabf 6340 d73f
00000020: 39ed cdbf 8427 7bbf b32d 7fbf 2873 02bf
00000030: b802 bdbf a71c be3f 7ddd d9bf b8a0 903f
00000040: 9911 d2bf 6d8f e03f 36fd 41bf 1d72 9abf
00000050: 0165 96bf 75bf 53bf e4df 223f 8e53 a03f
00000060: 25a6 5fbf 71e5 d83d bcd4 943f 7f2e b4be
00000070: 96c8 df3f c821 5e3f 519a 823f 3922 973f
00000080: 4b5b 773f e19a 83be 5182 8bbf bb53 c4bf
00000090: 9066 7e3f e6f3 c63f 949c 703f 3e88 973f
000000a0: c1c7 ce3f 6024 bebf 0614 043f af3f a23f
000000b0: d6bc 5abf 8343 1240 c4a0 32be 8747 773f
000000c0: 494d 07c0 663e c13f a0da f13f d8b8 db3f
000000d0: e5b0 963f 394f 823f e310 8ebf 92de ecbe
000000e0: cfe0 da3f da0e b93e 59ca c1bf 9f61 97bf
000000f0: 89bf e03f 7b8d 973f 7243 f3bf 75a4 61bf
00000100: 4cee 923f cf6d 393f 4fba 3bbe 3ad0 4abf
00000110: ab5c 623f 068d 0ec0 11d3 e4bf 431e 4abd
00000120: 4c46 35bf c522 3a3f 457e 0bc0 f4e1 c1bf
00000130: 2c69 9a3f 3e7c 103f 79c4 713f 4020 e03f
00000140: 9cd4 ce3f 227a d1bf 6306 80bf 7888 c13f
00000150: a47a 883f d491 d1bf a2b4 2fbf 677b 7b3f
00000160: 0277 1540 69e3 b93f 9176 e83f 1e0c c4bf
00000170: 7c08 d93f b8f7 253e cc66 b73f d4f6 ccbf
00000180: 4030 a03f 8db5 b53f 6d75 923f ed31 c0bf
00000190: 70f0 b93f 757f 4bbf 0465 1b40 53f2 b8bf
000001a0: 9647 a43f 4279 8c3f ef6f 7f3f f5e7 62bf
000001b0: 8fb4 37bf 2f54 ddbe 55c9 babf 77a8 f2bf
000001c0: 69a3 27bf 4910 60bf 1483 c4bf 249f b4bf
000001d0: 27b0 9a3f d5a1 03c0 79aa af3f 3fb7 b6bd
000001e0: 5933 56bf d8b2 10c0 0657 ab3f a16b 3cbf
000001f0: c00c ae3f b830 3abf e120 9c3f a683 13bf
00000200: 0b4a b9bf 314c ff3f b7fe 56bf 7658 cc3f
00000210: b355 903f a9f4 c73f dfcd dcbf 578a 4dbf
00000220: 2a1a 67bf 953c 02c0 3459 b9bf 4a06 02c0
00000230: 46d8 04c0 2cf1 b53f c097 05c0 bedf 0040
00000240: 1cfd 25bf 1673 9f3f a50f 5ebf 37e1 b2bf
00000250: aafd 70bf 5b17 a8bf 2c37 bd3f 2d41 7a3f
00000260: 4c5b 85bf 1c6b f23f 3888 823e 86c1 6bbf
00000270: 1dad 173f f031 923f 388f e33f 69e3 c93f
00000280: fc7a afbf 5ba4 87bf 1618 85be 90f2 c9bf
00000290: 9ba6 a73f 2631 2e3f 2326 d23f 6ed1 a33f
000002a0: 6ee1 963f d264 99bf 66d8 ab3f 4b67 b33f
000002b0: 0d07 33bf 8878 9cbe e033 cb3f b07a 733f
000002c0: cad8 ccbf 48df 41be c4da 163f bb23 c2bf
000002d0: 9bb9 cd3f 4bde 8f3f ae6e 13bf ae14 54bf
000002e0: 5f83 a83f efd6 d23f 6849 eebf 860f a6bf
000002f0: fbb1 1e40 7d05 9d3f 1143 1ac0 65ca 6cbf
00000300: 0d13 4d3f 6739 6d3f 4d1f c9bf 2443 47bf
00000310: 0839 923f c682 9bbf 225f 9abf 2cf3 17bf
00000320: 1e8b d5bf ffd4 253f 396b b1bf 3f91 0cc0
00000330: c74a f53e 19c7 ee3f 8f75 1e3f ab0e 23c0
00000340: 0985 813f a3b8 67bf 1c6a 8dbf efe7 443f
00000350: 8d5a bb3e 94d1 a83e 955b 95bf 7881 f33e
00000360: c590 12bf 7a4f ff3f 8e8c 1d40 aad8 9cbf
00000370: 8a5a 823f 5172 bbbf bd99 fdbe 1a6b a7bf
00000380: d9cd ca3f ed3a ec3f 8ab2 0a40 ea2b 42bf
00000390: dac6 af3e bb63 3ebf 6337 fa3f 9da6 9dbf
000003a0: d03d ac3f 1e12 933f b947 443f 491e d3bf
000003b0: 4621 abbf 8205 64bf 8fd2 b2bf 9521 64bf
000003c0: d741 b4bf fca8 3abf 7502 11c0 dbe1 8dbf
000003d0: a4a2 a93f e602 a8bf d6a5 b73f c6ff 9cbf
000003e0: 0af1 82bf 1885 e4bf ce35 1340 5e21 85bf
000003f0: 385f 8a3f b67e 57bf ebcc ea3f 8439 74be
-1.4081323 1.162171 1.7850624 1.1386567 0.4745066 0.9642568 -1.7047696 1.6816524
-1.608802 -0.9810717 -0.99679106 -0.50956964 -1.4766455 1.4852494 -1.7020718 1.1299047
-1.641162 1.754377 -0.75776994 -1.2066075 -1.1749574 -0.82714015 0.6362288 1.2525499
-0.8736289 0.105906375 1.1627421 -0.35191724 1.7483089 0.86770296 1.0203344 1.1807319
0.96623677 -0.257041 -1.0899144 -1.5338053 0.9937525 1.5543182 0.9398892 1.1838453
1.615471 -1.4854851 0.51593053 1.2675685 -0.8544439 2.2853706 -0.1744414 0.9659352
-2.114092 1.5097167 1.8894844 1.7165785 1.1772734 1.0180427 -1.1098903 -0.46263558
1.7099856 0.36144143 -1.5139877 -1.1826667 1.7558452 1.1840051 -1.9004958 -0.88141567
1.1478972 0.7243318 -0.1833279 -0.7922398 0.8842265 -2.2273574 -1.7876912 -0.049345266
-0.7081039 0.72709304 -2.1795819 -1.514708 1.2063346 0.5643958 0.9444042 1.7509842
1.6158633 -1.6365397 -1.0001949 1.5119772 1.0662427 -1.6372628 -0.68635 0.9823517
2.3353887 1.4522525 1.8161184 -1.5316198 1.6955714 0.16207778 1.4328246 -1.6012826
1.2514725 1.419603 1.1442086 -1.5015236 1.4526501 -0.7949136 2.4280405 -1.4448951
1.2834346 1.0974505 0.9978017 -0.8863519 -0.71759886 -0.4322829 -1.4592692 -1.8957661
-0.6548372 -0.8752485 -1.5352502 -1.4111066 1.2085007 -2.0567524 1.3723899 -0.0892167
-0.836721 -2.2609158 1.3385932 -0.7360173 1.3597641 -0.7273059 1.2197534 -0.57622755
-1.4475721 1.9945127 -0.83982414 1.5964496 1.1276153 1.5621539 -1.7250327 -0.80289215
-0.902743 -2.0349476 -1.4480348 -2.0316339 -2.0757003 1.4214225 -2.087387 2.0136561
-0.6483934 1.2456996 -0.8674262 -1.397498 -0.9413706 -1.3132128 1.4782462 0.977557
-1.0418487 1.8938937 0.25494552 -0.9209217 0.59248525 1.142149 1.7778082 1.5772525
-1.3709407 -1.0597032 -0.2599494 -1.5777149 1.3097719 0.68043745 1.6417888 1.2798288
1.1787546 -1.1983893 1.3425415 1.4015898 -0.69932634 -0.30560708 1.5875206 0.9510908
-1.6003659 -0.18932831 0.5892756 -1.5167154 1.6072267 1.1239713 -0.5759076 -0.82844055
1.3165091 1.6471843 -1.8616152 -1.2973487 2.479613 1.22673 -2.4103434 -0.9249633
0.80107194 0.92665714 -1.5712677 -0.77836823 1.1423655 -1.2149284 -1.2060282 -0.59355426
-1.668308 0.6477813 -1.3860847 -2.196365 0.47908613 1.865451 0.6189813 -2.5477703
1.0118724 -0.9051611 -1.1048007 0.769164 0.36592522 0.32972395 -1.1668574 0.47559714
-0.5725215 1.9946129 2.4617038 -1.2253621 1.018388 -1.4644262 -0.49531356 -1.307956
1.584407 1.8455483 2.1671472 -0.7584826 0.343314 -0.74370927 1.9548153 -1.2316471
1.3456364 1.1489904 0.7667194 -1.6493617 -1.3369529 -0.89070904 -1.3970507 -0.8911374
-1.4082593 -0.729141 -2.265775 -1.1084551 1.3252759 -1.3125885 1.4347484 -1.2265556
-1.0229809 -1.7853117 2.300159 -1.0400808 1.0810308 -0.8417772 1.8343786 -0.23850065

linear2.bias f4 [3]
00000000: 4401 e13d 5538 9c3e 7b41 a9bf
0.109865695 0.30511728 -1.3223108
