continous_state/pretrained/dqn/dqnMLE10_32.pt (torch, 2943 bytes, 4 tensors)

linear1.weight f4 [32, 5]
0	0xbe6f69c6	-0.23380193
1	0x3fca1678	1.5788107
2	0x40cba79d	6.3642106
3	0x402f5542	2.7395787
4	0x3dc23133	0.0948204
5	0x3ea0b571	0.3138843
6	0x3f204682	0.62607586
7	0x40c7f530	6.24868
8	0x401c8077	2.4453409
9	0x3fedb356	1.8570354
10	0xbeb3ce5a	-0.3511837
11	0xbfc49eeb	-1.5360998
12	0xc0b02468	-5.504444
13	0xbfff3879	-1.9939109
14	0x3fda6fa7	1.7065324
15	0x3f489ab4	0.7836106
16	0x3f9c14b2	1.2193816
17	0x40967489	4.7017255
18	0x3ff643a6	1.9239395
19	0xbfb542a1	-1.4160959
20	0x3eb28a3c	0.3487109
21	0x401d0146	2.4532027
22	0x40b25a8a	5.573552
23	0x3fbca038	1.4736395
24	0xbf79b858	-0.9754691
25	0x40116601	2.2718508
26	0xbea363a9	-0.31911972
27	0xc0afd3b3	-5.494592
28	0xc02e1bbb	-2.7204425
29	0x3ff18615	1.8869044
30	0xbf49f647	-0.78891414
31	0xbf22d71d	-0.63609487
32	0xc0aa0a07	-5.313724
33	0xc01ef53f	-2.4837186
34	0xbff87a3f	-1.9412307
35	0xbe985131	-0.29749444
36	0xbf8d00c5	-1.101586
37	0xc0a08695	-5.0164285
38	0xc002224a	-2.0333428
39	0xbfcbe775	-1.593001
40	0xbe693e99	-0.22777785
41	0xbfeef53e	-1.8668592
42	0xc0be1364	-5.939867
43	0xbfec72e3	-1.8472561
44	0x3fd88eea	1.6918614
45	0xbfb454d1	-1.4088384
46	0x3f01e6f1	0.50743014
47	0x407c4ecc	3.9423094
48	0x3fb8f315	1.4449183
49	0x3f8c2c75	1.0951067
50	0xbf9484c1	-1.1603013
51	0xbe3b2ab6	-0.18278012
52	0xc09b0467	-4.8442874
53	0xbff0e917	-1.8821133
54	0xbff29f83	-1.8954929
55	0x3fcd9539	1.6061164
56	0x3e0d06cb	0.13772123
57	0xc090c91f	-4.524551
58	0xbffd2173	-1.9775833
59	0x3fff6b8e	1.9954698
60	0xbfad0eb7	-1.3520116
61	0x3f798022	0.9746114
62	0x40ce8ac8	6.454441
63	0x3fed4048	1.8535242
64	0x3ffc1c3a	1.9696114
65	0x4005ca98	2.0904903
66	0xbeda30ff	-0.42615506
67	0xc0afe708	-5.496952
68	0xbfe8259e	-1.813648
69	0x3fdff744	1.7497334
70	0x3fd80655	1.6876932
71	0xbf897fbf	-1.074211
72	0xc0c9dae2	-6.307969
73	0xbfe89f0d	-1.8173538
74	0xbfd1d75f	-1.6393851
75	0xbf70159b	-0.9378297
76	0xc08dfa0a	-4.4367723
77	0xc06fd987	-3.7476518
78	0xbfd6996a	-1.6765568
79	0xbfbf0166	-1.4922302
80	0xbd7f4a8c	-0.062326953
81	0xbf3d9b8e	-0.7406548
82	0xc0cf74d1	-6.48301
83	0xc03012f1	-2.751156
84	0xc0006054	-2.0058794
85	0x3eef48d2	0.46735245
86	0x402aa297	2.6661737
87	0x40bc4f47	5.8846774
88	0x3ff7444b	1.9317716
89	0xbf988419	-1.1915313
90	0xbe0a41e2	-0.13501695
91	0xbfeaad63	-1.8334163
92	0xc0adc6dc	-5.430525
93	0xbf97b54f	-1.1852206
94	0x3f433063	0.7624571
95	0xbea97693	-0.33098277
96	0xc00d0db0	-2.2039604
97	0xc0acfd49	-5.4059186
98	0xbfa012ac	-1.2505698
99	0x3f4bfd64	0.7968352
100	0x3e5c7adf	0.21531247
101	0xbfa14bd3	-1.2601265
102	0xc0bb8278	-5.8596764
103	0xc021cddd	-2.52819
104	0xc0036c60	-2.0534897
105	0xbf0af80c	-0.5428474
106	0xbf97d1e1	-1.1860925
107	0xc053e6b7	-3.3109567
108	0xbedb670c	-0.42852056
109	0xc01a3c1b	-2.4099185
110	0xbe12b588	-0.14327061
111	0x4008620e	2.1309848
112	0x40b6152c	5.6900845
113	0x4028cee5	2.6376278
114	0x3fe71d2e	1.805578
115	0xbf122b32	-0.5709716
116	0xbf4822f4	-0.78178334
117	0xc0b3586b	-5.604543
118	0xc02cb578	-2.698576
119	0xbfec5e3b	-1.8466257
120	0x3ebc6aa6	0.36800116
121	0x40082d90	2.127781
122	0x3e9e8900	0.30963898
123	0xbf047141	-0.5173531
124	0xbe92a33e	-0.2864017
125	0x3fb8cc9f	1.4437445
126	0xbedbea83	-0.42952356
127	0xc067ec28	-3.6237888
128	0xbf32fcd8	-0.6991706
129	0xbf7e1622	-0.9925252
130	0x3ef57fad	0.4794897
131	0x3f87fd27	1.0624131
132	0x40b77ca5	5.7339654
133	0x4010990c	2.2593412
134	0x3ff3d4eb	1.9049352
135	0xbff3153d	-1.8990856
136	0x3e303795	0.17208703
137	0x40ab601b	5.3554816
138	0x3ffd477a	1.9787438
139	0xbfd9f206	-1.7026985
140	0x3fdbd648	1.7174768
141	0xbf204289	-0.62601525
142	0xc07d40ae	-3.9570727
143	0xbff65d12	-1.9247153
144	0xbfae5e9d	-1.3622624
145	0x3f9acd2a	1.2093861
146	0xbf87b506	-1.0602119
147	0xc0ade390	-5.4340286
148	0xc01e426e	-2.4728045
149	0xbfca71b7	-1.5815953
150	0x3e7141b2	0.23560217
151	0x400a85ac	2.1644087
152	0x40c9b397	6.3031726
153	0x4009926e	2.1495624
154	0xbfd8527c	-1.6900172
155	0x3fcaedd4	1.5853829
156	0xbf042b4e	-0.5162858
157	0xc09adedc	-4.8397045
158	0xbf7e57c4	-0.9935267
159	0xbfd14037	-1.6347722

linear1.bias f4 [32]
0	0x3eb7f731	0.3593078
1	0x3f80f820	1.0075722
2	0x3ee17623	0.44035444
3	0xbe59e3b4	-0.21278268
4	0xbeeeba34	-0.46626437
5	0x3f8bd809	1.0925304
6	0xbf2bd3e1	-0.67120177
7	0xbf9e183e	-1.2351148
8	0x3edc56c5	0.4303495
9	0x3f535dd9	0.82565075
10	0xbf2d17dd	-0.6761454
11	0x3f26686b	0.6500308
12	0x3f186c2c	0.5954006
13	0x3f19e5c4	0.6011622
14	0xbf5827d6	-0.84435785
15	0xbf005234	-0.5012543
16	0xbf6bac0f	-0.92059416
17	0xbf1bb555	-0.60823566
18	0x3f47a140	0.7798042
19	0x3e9b69f2	0.30354267
20	0xbf4b0e97	-0.7931914
21	0xbf7dafdd	-0.9909647
22	0x3f4bd77e	0.7962569
23	0xbf6751bf	-0.9035911
24	0xbe2eb921	-0.17062809
25	0xbf6a6a99	-0.91568905
26	0x3f2c39d4	0.6727574
27	0xbf4c9ce0	-0.7992687
28	0xbeb9391e	-0.3617639
29	0xbf8521b5	-1.0400912
30	0xbf1bbc18	-0.60833883
31	0xbe75b318	-0.239941

linear2.weight f4 [3, 32]
0	0xc0273d0a	-2.6131005
1	0x4067cf43	3.6220253
2	0x408ab6bc	4.3348064
3	0xbfa1418a	-1.2598126
4	0xc09df64a	-4.9363146
5	0x40665cbb	3.5994098
6	0xc0bdf1de	-5.935775
7	0xc084b356	-4.1468916
8	0x40b5e770	5.6845016
9	0x4075f7cd	3.8432496
10	0xc0a22d3b	-5.0680213
11	0x4082fe56	4.093547
12	0x401d2c8f	2.4558446
13	0x407ca3e8	3.947504
14	0xc039178d	-2.8920624
15	0xc0389331	-2.8839839
16	0xc05cb7d9	-3.4487212
17	0xc08a4b37	-4.3216815
18	0x40d705a2	6.7194376
19	0x406cc6b9	3.699629
20	0xc094d9e9	-4.6516004
21	0xc03188d0	-2.7739754
22	0x40c6fbfd	6.2182603
23	0xc0b1d1d9	-5.556866
24	0xc0ba0a30	-5.8137436
25	0xc01786d0	-2.3676033
26	0x40b008d4	5.5010777
27	0xc05be108	-3.4356098
28	0xc0a13677	-5.0378985
29	0xc0446f1f	-3.0692823
30	0xc0b2cf51	-5.587807
31	0xc06a9345	-3.6652386
32	0xc0c16c15	-6.0444436
33	0x40aaf992	5.342965
34	0x409905de	4.781966
35	0xc0d99019	-6.79884
36	0xc0abe5ae	-5.371787
37	0x40ca3e75	6.320124
38	0xbffed0c0	-1.9907455
39	0xc092f8dd	-4.592879
40	0x40963961	4.6945043
41	0x402e1495	2.7200062
42	0xc085bbe5	-4.1791863
43	0x40a7a4c3	5.2388625
44	0x409cc49e	4.899001
45	0x40c3e8f2	6.1221857
46	0xc0a4a93d	-5.145659
47	0xc0312949	-2.7681448
48	0xc076e144	-3.8574991
49	0xc0bd4c90	-5.915596
50	0x407f7c36	3.9919562
51	0x40b09333	5.5179687
52	0xc05eceb0	-3.4813652
53	0xc0ad196f	-5.4093547
54	0x3fa6aab4	1.3020844
55	0xc011e5ca	-2.2796502
56	0xbfa18038	-1.2617254
57	0xc057422c	-3.3634138
58	0x401095b4	2.2591372
59	0xc0bf395f	-5.9757533
60	0x3f91a0d8	1.1377211
61	0xc07a6978	-3.9126873
62	0xc0b3d237	-5.619411
63	0xc05f8adc	-3.4928503
64	0xc0a69a7c	-5.206358
65	0x40a016a7	5.002765
66	0x40a81f52	5.2538233
67	0xc0919ee1	-4.5506444
68	0xc0b35668	-5.6042976
69	0x40e14449	7.0395856
70	0xc0920ff5	-4.564448
71	0xc00c79ef	-2.1949422
72	0x40accbe8	5.399891
73	0x400e135f	2.2199323
74	0xc060e752	-3.5141187
75	0x4057be49	3.370989
76	0x40a691b3	5.2052855
77	0x40a8be1c	5.2732067
78	0xc0a73ea1	-5.226395
79	0xc004fdf2	-2.0779996
80	0xc0b975b6	-5.795619
81	0xc0c5b362	-6.1781473
82	0x402f5e99	2.7401488
83	0x4097cc5b	4.7436957
84	0xc0836c10	-4.106941
85	0xbfd8cbb5	-1.6937166
86	0x406f6892	3.7407575
87	0xc0a80d1d	-5.2516007
88	0xbfd47410	-1.659792
89	0xbfab6f60	-1.3393364
90	0x40475da5	3.1150906
91	0xc0abaf12	-5.365121
92	0xc08678f9	-4.202267
93	0xc09cbc91	-4.8980184
94	0xc0cd602d	-6.41799
95	0xc02bc2a9	-2.683756

linear2.bias f4 [3]
0	0x3f9b2476	1.2120502
1	0x405c03d8	3.4377346
2	0x3f8c675f	1.0969046
