continous_state/pretrained/dqn/dqnVE6_128.pt (torch, 6403 bytes, 4 tensors)

linear1.weight f4 [128, 5]
0	0x3f467400	0.7752075
1	0x3cd9642e	0.026537027
2	0xc014b660	-2.3236313
3	0xbf634e67	-0.8879151
4	0xbfa157d8	-1.2604933
5	0x3cc9dada	0.02464049
6	0x3ff2a418	1.8956327
7	0x409526d6	4.6609907
8	0x3ff3168a	1.8991253
9	0x3fd945de	1.6974447
10	0xc0048c0b	-2.0710475
11	0xbfbfd760	-1.4987602
12	0xc08886fe	-4.2664785
13	0xbfdf6c35	-1.7454897
14	0xbfa90bcb	-1.3206724
15	0xbefe8f96	-0.49718922
16	0xbf2b2e01	-0.6686707
17	0xc028ea74	-2.63931
18	0xbf84a1f4	-1.0361924
19	0x3fa401dd	1.2813069
20	0xc0054036	-2.0820441
21	0xbfc2e5c4	-1.5226369
22	0xc056acaf	-3.3542898
23	0xbfc31782	-1.5241549
24	0xbfb076b7	-1.3786229
25	0x3f2ef44a	0.68341506
26	0x3f8dad5b	1.1068529
27	0x3f11b320	0.5691395
28	0x3fa1cab8	1.263999
29	0xbeacb36f	-0.33730647
30	0xbde61b6d	-0.112357
31	0xbf09fa71	-0.5389777
32	0xc06da5ae	-3.7132373
33	0xc010944c	-2.2590513
34	0xbfcefb25	-1.6170393
35	0x3e8636cc	0.26213682
36	0x3efaab0c	0.48958623
37	0x4082b9a7	4.0851626
38	0x40060f84	2.094697
39	0x3fba26ed	1.4543129
40	0x3f8747a5	1.0568739
41	0xbf910ad2	-1.1331427
42	0xc099cbcf	-4.806129
43	0xbfefe40a	-1.8741467
44	0xbfbababb	-1.4588236
45	0x3ed8b0fb	0.42322525
46	0x3f4d6177	0.80226845
47	0x401e63f2	2.4748502
48	0x3fa3a947	1.2786034
49	0xbf72b37f	-0.9480514
50	0xc0349d0e	-2.8220859
51	0xbfe1dac7	-1.764489
52	0xc05c8be2	-3.4460378
53	0xbf5067a8	-0.81408167
54	0xbf951c65	-1.164929
55	0x3eaa5c59	0.3327358
56	0x3f2a147d	0.6643751
57	0x405782ea	3.3673654
58	0x3f7fcd4f	0.9992265
59	0xbf480df9	-0.7814632
60	0x3ed456a9	0.41472366
61	0x404aa032	3.1660275
62	0x407158c1	3.771042
63	0x3f6fe81c	0.93713546
64	0x3fbf894f	1.4963778
65	0x4037b627	2.8704927
66	0x3fd37c3b	1.6522287
67	0x406c48db	3.6919467
68	0x3f7beaaa	0.98404944
69	0x3f8cc6f3	1.0998214
70	0x3f0f38b5	0.55945903
71	0xbfccb656	-1.5993145
72	0xc0a41609	-5.12769
73	0xc033ec14	-2.811284
74	0xbe6ce15b	-0.23132841
75	0x3f0172c5	0.5056575
76	0x3fbbd2bf	1.467369
77	0x3fea52e5	1.8306547
78	0x3fa60ef2	1.2973311
79	0xbf82c25c	-1.0215564
80	0x3fc5244d	1.5401703
81	0x3f9f676b	1.2453436
82	0xbf661e98	-0.8989043
83	0xc0342447	-2.8147142
84	0x3ef429b0	0.47688055
85	0x3e280f35	0.16412051
86	0x3fcc1343	1.5943378
87	0x4014184a	2.3139825
88	0x3f85655d	1.0421559
89	0xbf859b4f	-1.0438021
90	0xbf851a46	-1.0398643
91	0x3e85e6d1	0.2615266
92	0x3fdc1129	1.7192737
93	0x3f810499	1.0079528
94	0xbf840736	-1.0314701
95	0xbeb4493e	-0.3521213
96	0xbfbe7dd0	-1.4882145
97	0xc02e0a76	-2.7193885
98	0xbfddae53	-1.7318825
99	0x3e17208a	0.14758506
100	0xc0452b0c	-3.0807524
101	0xc02a4a7c	-2.6607962
102	0xc05be09e	-3.4355845
103	0xbf9d65df	-1.2296714
104	0xbfb7f945	-1.4372946
105	0x3f38b36d	0.7214878
106	0x403b7b69	2.9294074
107	0x4079758c	3.8977995
108	0x3fbe68cb	1.487573
109	0x3fb70dcf	1.4301089
110	0xbf15ce2c	-0.5851772
111	0xbf2ae802	-0.66760266
112	0x3dc51cbe	0.09624623
113	0xbd8b501f	-0.06802391
114	0x3f5d6333	0.8647949
115	0xbeb82462	-0.35965258
116	0xbfafa2a3	-1.3721508
117	0xc0378b00	-2.867859
118	0xbfb64bf7	-1.4241933
119	0x3f9455f4	1.1588731
120	0xbea75c89	-0.32687786
121	0xbeffdbfb	-0.4997252
122	0xc08f316a	-4.474782
123	0xc00ced87	-2.2019975
124	0xbfb8eb46	-1.44468
125	0xbe7b1008	-0.24517834
126	0xbfcf4992	-1.6194327
127	0xc0620891	-3.5317729
128	0xbfcb655e	-1.589031
129	0xbc2cbf84	-0.010543708
130	0x3f023dca	0.5087553
131	0x3f48dce6	0.78462064
132	0x3fb1a1cb	1.38775
133	0x3ef394c3	0.47574434
134	0xbf6e9271	-0.931922
135	0xbef4c3d9	-0.4780567
136	0xbf077053	-0.5290577
137	0xc048aca5	-3.1355374
138	0xbf6949f7	-0.91128486
139	0x3f8aa055	1.083018
140	0xbef49f19	-0.47777632
141	0x3f995d15	1.1981531
142	0xbd1d07c6	-0.03833749
143	0xbfc17d66	-1.5116394
144	0x3f013cb1	0.5048323
145	0xbf27ca5f	-0.6554317
146	0xbf8f2b50	-1.1185093
147	0xc08e58f9	-4.448361
148	0xbff7b4b5	-1.9352022
149	0xbfafe1cf	-1.3740786
150	0xbee7c855	-0.4527003
151	0xbf53daa8	-0.8275552
152	0xbfcc501e	-1.596195
153	0xbf5e83f5	-0.869201
154	0x3f50ebad	0.8160961
155	0x3f34a3e5	0.70562583
156	0x3ebec2a4	0.37257874
157	0xbf88beef	-1.0683268
158	0xbf39d18f	-0.72585386
159	0xbefb3241	-0.49061778
160	0xbf9e6ff9	-1.2377921
161	0x3efa49bf	0.4888439
162	0x4032c08c	2.7930021
163	0x3f91e32a	1.139745
164	0xbf0c33c4	-0.5476649
165	0x3f818df9	1.0121452
166	0xbe918669	-0.2842286
167	0xc0195284	-2.3956614
168	0xbfa29d96	-1.2704341
169	0x3f1bbe40	0.60837173
170	0x3f222d34	0.63350224
171	0xbe1e4479	-0.15455808
172	0xc05b9ff8	-3.4316387
173	0xbfde4cfd	-1.7367245
174	0xbf84f465	-1.0387083
175	0x3fbece64	1.4906735
176	0xbf2f7274	-0.68534017
177	0xc0190ad9	-2.391287
178	0xbf763a9e	-0.9618319
179	0x3f37006d	0.71485025
180	0xbb8c4275	-0.0042803832
181	0xbf9573e0	-1.1675987
182	0xc034f018	-2.8271542
183	0xbfa78e21	-1.3090249
184	0x3ec8db32	0.39229733
185	0x3e06f4fa	0.13179389
186	0x3f01c5b0	0.5069227
187	0x40866704	4.200075
188	0x3ffdacff	1.9818419
189	0x3faba574	1.3409867
190	0xbf957707	-1.1676949
191	0x3f142a81	0.57877356
192	0x405fc08a	3.4961267
193	0x3fdba477	1.7159566
194	0x3f98f806	1.1950691
195	0xbefadc06	-0.4899599
196	0xbf6e85d5	-0.9317296
197	0x3cb5f3f9	0.022211062
198	0xbe51c01a	-0.20483437
199	0x3f780c4f	0.9689378
200	0xbe9c44e6	-0.30521315
201	0x3ea41120	0.32044315
202	0x403577ed	2.8354447
203	0x3fbbfff7	1.4687489
204	0xbf6ca320	-0.9243641
205	0x3e87d3a6	0.26528662
206	0x3f0bfeb0	0.546855
207	0x4092ad23	4.583635
208	0x3fefc8e5	1.8733183
209	0x3fbf1e80	1.4931183
210	0x405acea4	3.4188623
211	0x400279c1	2.0386813
212	0x4011ed0f	2.280094
213	0x3f0a2480	0.53961945
214	0x3f810003	1.0078129
215	0x3f182075	0.59424525
216	0x3f1dd5f0	0.6165457
217	0x3f9cdef4	1.225554
218	0x3f1d2792	0.61388505
219	0xbf53d56c	-0.8274753
220	0xbee8a977	-0.4544179
221	0x3f991500	1.1959534
222	0xbfa33509	-1.275056
223	0xbf2a19ef	-0.6644582
224	0xbd2a9dad	-0.041654278
225	0x403f1471	2.9856226
226	0x4006f445	2.108659
227	0x403fb5aa	2.995463
228	0x3f946753	1.1594032
229	0x3fbdca19	1.48273
230	0x3f8121b8	1.0088415
231	0x3d8f23fa	0.06989284
232	0xc058a40b	-3.3850124
233	0xc01f1f5c	-2.486289
234	0xbf494668	-0.78623056
235	0x3ecb94f8	0.39762092
236	0x400da69f	2.2132947
237	0x400a14d2	2.1575208
238	0x3fbd6679	1.4796897
239	0xbec33e08	-0.38133264
240	0x3ebbc66e	0.36674827
241	0x3f6227e8	0.8834214
242	0x4058cd3b	3.3875263
243	0x3fc9b715	1.5758997
244	0xbf83d7cf	-1.0300235
245	0xbea8d7c4	-0.32977116
246	0x3f8b6788	1.089097
247	0x40acc94c	5.3995724
248	0x40b72450	5.7231827
249	0x3fafcb8c	1.3733993
250	0x40493707	3.1439836
251	0xbf57eec0	-0.8434868
252	0xc07023ec	-3.7521925
253	0xbfb794f5	-1.4342333
254	0xbf8a965d	-1.0827137
255	0xbf225157	-0.63405365

linear1.bias f4 [128]
0	0xbe84ad3e	-0.25913423
1	0x3f352a99	0.70768124
2	0xbf2961b9	-0.6616474
3	0xbe11f41b	-0.14253275
4	0xbeb75fce	-0.3581528
5	0xbeb53221	-0.35389808
6	0xbefe35c0	-0.49650383
7	0x3f2a45c2	0.6651269
8	0xbf3fcdbc	-0.749233
9	0xbe261f1b	-0.16222803
10	0xbefd4d34	-0.49472964
11	0xbe834f15	-0.25646272
12	0x3f727c4b	0.94720906
13	0x3f28b70e	0.6590432
14	0xbf2b48fc	-0.6690824
15	0x3db4bbde	0.08824895
16	0x3f4d5aa0	0.8021641
17	0x3d802263	0.06256559
18	0xbe016ed9	-0.12639941
19	0xbec6e138	-0.38843703
20	0xbf1db5e7	-0.61605686
21	0x3f85c51a	1.0450776
22	0xbb99e0d4	-0.004695991
23	0x3e68e820	0.22744799
24	0xbf3b6493	-0.7320034
25	0xbe84619d	-0.25855723
26	0xbc6cc166	-0.014450407
27	0x3c53eabe	0.012934385
28	0x3f56d1ed	0.8391407
29	0xbf5301fb	-0.82424897
30	0x3dc8b721	0.09800554
31	0x3de7ee60	0.11324763
32	0xbe60f701	-0.21969225
33	0x3e4d7c3d	0.20066924
34	0xbef91555	-0.48649088
35	0x3dcc55a3	0.099772714
36	0xbe3c0f03	-0.18365102
37	0x3f3bbaca	0.7333189
38	0x3f169320	0.58818245
39	0xbc1e5114	-0.009662885
40	0xbe38f1ef	-0.1806104
41	0x3f253a20	0.64541817
42	0x3ee7dfae	0.45287842
43	0xbe8f8ab3	-0.28035507
44	0x3f80275f	1.0012015
45	0x3ea3a7b2	0.3196388
46	0xbe7a3e0f	-0.24437736
47	0x3e4d0392	0.20020893
48	0xbedb0dce	-0.4278397
49	0x3f2f9dfe	0.6860045
50	0xbe4cd443	-0.20002846
51	0xbf32d4d6	-0.6985601
52	0x3f117d54	0.5683186
53	0xbec2b3a1	-0.3802767
54	0x3cf4f008	0.029899612
55	0x3f13241f	0.5747699
56	0xbf7b9ffa	-0.9829098
57	0x3ec06cc4	0.37582982
58	0xbee8acdb	-0.45444378
59	0x3d838f5b	0.06423827
60	0x3f29f31d	0.66386586
61	0x3db1942f	0.08670842
62	0xbf18caba	-0.59684336
63	0x3da78afe	0.081808075
64	0x3e9568b2	0.2918144
65	0x3e6476d9	0.22310962
66	0xbedf1b28	-0.43575406
67	0x3cac424f	0.021027712
68	0x3eb2ca2b	0.34919867
69	0xbc993a4c	-0.018704556
70	0xbf4ed87c	-0.8079908
71	0x3dad17dc	0.084518164
72	0xbf6a5e8d	-0.91550523
73	0x3e2e3728	0.17013228
74	0xbf17725e	-0.59158885
75	0x3f30a7ea	0.69006217
76	0xbf3dc248	-0.74124575
77	0xbe14437e	-0.14478871
78	0xbd605459	-0.05476794
79	0xbd1cdff5	-0.03829952
80	0x3d90f6e5	0.070783414
81	0x3e346f96	0.17620692
82	0x3e0c94a7	0.13728581
83	0x3f040b59	0.51579815
84	0xbf47ce6e	-0.7804936
85	0xbe8796b7	-0.26482174
86	0xbeaee5da	-0.34159738
87	0x3f91bb90	1.1385365
88	0x3f153c66	0.58295286
89	0xbdf9e340	-0.122015476
90	0x3f21c1f1	0.63186556
91	0x3e0926e0	0.13393736
92	0x3e5a6707	0.21328364
93	0x3d2b7a0f	0.04186445
94	0xbedea31e	-0.43483824
95	0x3e84f58b	0.25968584
96	0xbed7d03d	-0.4215106
97	0x3f7f4d03	0.99726886
98	0x3f0ef514	0.5584271
99	0xbf559e51	-0.83444697
100	0xbf5e5466	-0.8684753
101	0x3f398e9b	0.72483224
102	0x3ddf93d2	0.10916866
103	0xbda4c6b2	-0.080457106
104	0xbf2d2ecf	-0.6764955
105	0x3f44eab8	0.7692065
106	0xbe0d54fa	-0.13801947
107	0xbf4fcadc	-0.81168914
108	0x3f15ffe1	0.58593565
109	0x3f4ae3cb	0.79253834
110	0xbe292e14	-0.16521484
111	0x3f1c0b98	0.6095519
112	0x3f03a252	0.51419556
113	0xbee09241	-0.43861583
114	0x3b568a6a	0.003273631
115	0x3de21c10	0.11040509
116	0xbe2c6520	-0.16835451
117	0x3f2f0400	0.6836548
118	0xbf460d7e	-0.7736434
119	0xbed64aaa	-0.4185384
120	0xbf09018b	-0.5351798
121	0xbee6df84	-0.45092404
122	0xbf380cba	-0.7189442
123	0x3f119b8e	0.5687798
124	0xbf44816a	-0.7675997
125	0xbf315417	-0.69268936
126	0xbf3e1edd	-0.74265844
127	0xbd44296d	-0.04789107

linear2.weight f4 [3, 128]
0	0xbf8870c4	-1.0659413
1	0x3fce7296	1.6128719
2	0xbfe132d7	-1.759364
3	0x3fbee274	1.4912858
4	0xbfc2106c	-1.5161262
5	0xbe30b9e7	-0.17258416
6	0xbfce7b01	-1.6131288
7	0x3fd058fb	1.6277155
8	0xbfcc901a	-1.5981476
9	0xbfa33fcd	-1.2753845
10	0xbf9325e3	-1.1495937
11	0xbfd992d1	-1.699793
12	0x3fa61f54	1.297831
13	0x3f936301	1.1514589
14	0x3fca4c82	1.5804598
15	0xbfb5c053	-1.4199318
16	0xc002e83d	-2.0454247
17	0xbffd56dc	-1.9792132
18	0xbf9a8581	-1.2071992
19	0x3f8089fc	1.004211
20	0xbfe02dce	-1.7513978
21	0x3fbc61aa	1.4717305
22	0x3f86de69	1.0536624
23	0x3fe842b2	1.8145354
24	0xbfe08cd7	-1.7542981
25	0x3fb37a2e	1.4021661
26	0xbfcbdcee	-1.5926797
27	0x3fa4cd67	1.2875184
28	0xbffbf1f7	-1.9683217
29	0xbfca6b9a	-1.5814087
30	0x3fba8eb5	1.4574801
31	0xbfb75d4e	-1.4325349
32	0xbf940835	-1.1565005
33	0x3ecafca8	0.39645886
34	0xbfdda638	-1.7316351
35	0x3fa7521e	1.3071935
36	0x3fe5943d	1.7935864
37	0x3faed533	1.3658813
38	0x3fc378e9	1.5271274
39	0x3fcf8f73	1.6215652
40	0xbff4a738	-1.9113531
41	0x3fb98d82	1.449631
42	0x3f7ab747	0.9793591
43	0xbf91595d	-1.1355397
44	0xc01b8cd2	-2.43047
45	0x3fa62a23	1.2981609
46	0xc034cdac	-2.8250532
47	0xbfb44523	-1.4083599
48	0xbfd635a1	-1.6735116
49	0x402fc293	2.7462509
50	0xc0040462	-2.0627675
51	0xbfb850e9	-1.4399692
52	0x3f50149d	0.81281453
53	0xbfa72689	-1.3058635
54	0xbfb822cf	-1.4385623
55	0x3ff33bef	1.9002665
56	0xbf611e55	-0.8793691
57	0x3fd673db	1.6754106
58	0xbfc46007	-1.5341805
59	0xbf973293	-1.1812309
60	0x3faaff93	1.3359245
61	0x3fd148da	1.6350358
62	0xc01290d3	-2.2900894
63	0x3fc0bf63	1.5058407
64	0x3e8de1b0	0.27711248
65	0x3fc13815	1.509524
66	0xbfe26d67	-1.7689637
67	0xbffee7d6	-1.9914501
68	0xbff79fe5	-1.9345671
69	0x3f8651e7	1.0493745
70	0xbfe4fe19	-1.7890044
71	0xbfaaa47f	-1.333145
72	0xbf8f4c07	-1.1195077
73	0x3fb3abc5	1.4036795
74	0xbfcb1606	-1.5866096
75	0x3f3a07fb	0.7266843
76	0xbf1906ac	-0.59775805
77	0xbf8ccc87	-1.0999917
78	0x3fd8fc95	1.6952082
79	0x3fdb907c	1.7153468
80	0x3fb9e6a9	1.4523517
81	0x3fc06edf	1.5033835
82	0x3fbaa5e8	1.458188
83	0x4001182e	2.0171008
84	0x3f72c295	0.9482816
85	0xbfc3a731	-1.5285398
86	0xbfec55e0	-1.8463707
87	0x3f5617e9	0.83630234
88	0x3f6c19c7	0.92226833
89	0x3feb3374	1.8375077
90	0xc00078c8	-2.007372
91	0x3f8f4508	1.1192942
92	0x3ede0330	0.43361807
93	0x3ffb7d5e	1.9647634
94	0xbfb63b20	-1.4236794
95	0xbfe5914f	-1.793497
96	0xbfdd075e	-1.7267873
97	0x3fafae76	1.3725116
98	0x3fc85fdd	1.5654255
99	0xbfb6a1f9	-1.426818
100	0x402935b7	2.6439035
101	0x3fe33afa	1.7752373
102	0x3fc67bab	1.550649
103	0xc0083186	-2.1280227
104	0xbf0bc456	-0.5459646
105	0x3fa738ea	1.3064244
106	0xbfb0cdb9	-1.3812782
107	0xbfe848e9	-1.814725
108	0x3f8f1a0a	1.1179821
109	0x3f77b698	0.9676299
110	0xbf6326ac	-0.88730884
111	0x3f9104dd	1.1329609
112	0x3f970651	1.1798803
113	0xbfda5236	-1.7056339
114	0x3f792c76	0.97333467
115	0x3fdebd89	1.7401592
116	0xbfb92ba6	-1.4466445
117	0x3fc2c4b0	1.5216274
118	0xbfa3c568	-1.2794619
119	0xc00a805c	-2.1640844
120	0xc004c57e	-2.074554
121	0xbfc1f4d2	-1.5152838
122	0xc000eb64	-2.014367
123	0xbfc14b28	-1.5101061
124	0xbfa5dce2	-1.2958033
125	0xbfeafbde	-1.8358114
126	0xbfcd876d	-1.6056954
127	0xbfb6e136	-1.4287479
128	0xbfc87900	-1.5661926
129	0x3f67bcf7	0.9052271
130	0xbf321a00	-0.6957092
131	0x3fbaf30f	1.4605426
132	0xbf13cd7d	-0.57735425
133	0xbfca51e3	-1.580624
134	0xbfdc0e30	-1.719183
135	0x40022c11	2.0339396
136	0xbf97dd11	-1.1864339
137	0xbfd612bb	-1.6724466
138	0xbf8bf253	-1.0933326
139	0xbfdea94d	-1.7395416
140	0x3fdc17c1	1.7194749
141	0x3f9a5e6e	1.2060068
142	0x4010fbd6	2.2653708
143	0xbff09ae2	-1.8797266
144	0x3e03a9f6	0.12857804
145	0xbfc79ae0	-1.5594139
146	0xbfb2b370	-1.396101
147	0x40019639	2.0247939
148	0xbfa8408c	-1.3144698
149	0x3f7c1169	0.98464066
150	0x3f79bcbb	0.97553605
151	0x4006a8f6	2.1040626
152	0xbff3d7b4	-1.9050202
153	0x400a625f	2.162254
154	0xbf86b4be	-1.0523908
155	0x3fba0e10	1.4535542
156	0x3e1e7fa0	0.15478373
157	0xbf5fd31d	-0.8743151
158	0x3fa05758	1.2526655
159	0xbf014203	-0.5049135
160	0xbfff5e26	-1.9950607
161	0x3fd10e50	1.6332493
162	0xbf70988b	-0.9398276
163	0x3fd4e55e	1.6632497
164	0x3fbd3c3f	1.4784011
165	0x3fe5fb57	1.7967328
166	0x3fdeec72	1.7415907
167	0x3f79daa3	0.9759924
168	0xbfee1032	-1.8598692
169	0x3ff56c32	1.9173644
170	0x3f8fc238	1.1231146
171	0xbfa5e453	-1.2960304
172	0xbea952c9	-0.33070973
173	0x3f733fc9	0.95019203
174	0x3f878877	1.0588521
175	0xc003df05	-2.060487
176	0xbfe798bc	-1.8093486
177	0xc0132ac8	-2.2994862
178	0xbf8fd81c	-1.1237826
179	0xbf468bbc	-0.7755697
180	0x3fec8f92	1.8481314
181	0xbfa33c66	-1.2752807
182	0xbffd87c9	-1.9807063
183	0x3f64d731	0.89390856
184	0x40488cf4	3.133603
185	0x3fcf4614	1.6193261
186	0xc01137a1	-2.2690203
187	0xbfabc2b8	-1.3418798
188	0x3fea0aae	1.8284509
189	0x3f9d9ec9	1.2314082
190	0xc000eaa3	-2.014321
191	0x3fdea35c	1.7393603
192	0x3fade03f	1.358406
193	0x3ff79c76	1.9344623
194	0xbf8b0b2f	-1.0862788
195	0xbfdf38fa	-1.7439263
196	0xbefb8d70	-0.49131346
197	0x3feaf4b9	1.8355933
198	0xbf947c10	-1.1600361
199	0xbf90729a	-1.1284974
200	0xbfa9f0ae	-1.3276575
201	0x3fc44f06	1.5336616
202	0xbff4a744	-1.9113545
203	0x3fb29925	1.3952986
204	0xbf8e47c7	-1.1115655
205	0xbfac82d0	-1.3477421
206	0x3f98ff53	1.1952919
207	0x3fafdcfb	1.3739313
208	0x3fdb2c41	1.712288
209	0x3ff31722	1.8991435
210	0x3fcc000b	1.5937513
211	0x40081d2b	2.1267803
212	0xbfa29166	-1.2700622
213	0xbfce92a9	-1.6138507
214	0xc024a4a0	-2.572548
215	0x3f68942e	0.90851104
216	0x3f984865	1.1897093
217	0x3fc64e1b	1.5492586
218	0xbfba9864	-1.4577756
219	0x3f9428eb	1.1574987
220	0x3f6892aa	0.9084879
221	0x3ff096d4	1.8796029
222	0xbff42e83	-1.9076694
223	0xbfab997b	-1.3406214
224	0xbf855e09	-1.0419322
225	0x3fc6603b	1.5498117
226	0x3fde442b	1.7364553
227	0xbf83f71c	-1.0309787
228	0x3ea82121	0.32837775
229	0x3fb0325e	1.3765371
230	0x4005414d	2.0821106
231	0xbfe6e120	-1.8037453
232	0xbfd23d66	-1.6424987
233	0x3f5d136a	0.8635775
234	0xbff15337	-1.885352
235	0xbf070a28	-0.5274987
236	0x3f91085a	1.1330674
237	0x3fb30aaf	1.3987635
238	0xbfeee856	-1.8664653
239	0x3f68d54a	0.90950453
240	0x3f723cc3	0.94623965
241	0xbfbb6157	-1.4639081
242	0x3fc228ce	1.5168703
243	0x40075127	2.1143281
244	0xbfa8b558	-1.3180342
245	0x3f4a137e	0.7893599
246	0xc01140aa	-2.2695718
247	0xc00c4ba0	-2.1921158
248	0xc013e87f	-2.3110654
249	0xbf8d4454	-1.1036477
250	0xbfd684d3	-1.6759285
251	0xc0069166	-2.1026244
252	0xbfa35c79	-1.2762595
253	0xc01cb4d0	-2.448536
254	0x3eafa350	0.34304285
255	0xbfa8e534	-1.3194947

linear2.bias f4 [3]
0	0x3ee276f8	0.4423139
1	0x3fb5b852	1.4196875
2	0x3e10d153	0.14142351
