continous_state/pretrained/dqn/dqnVE10_256.pt (torch, 11011 bytes, 4 tensors)

linear1.weight f4 [256, 5]
00000000: dfc2 253f f575 c6bf b8b7 45c0 ad56 c3bf
00000010: 6e40 bcbe 7085 913e 026a 8a3f 24ff 1c40
00000020: e094 f23f f2b4 8fbf ad2e 48bf 64ba 863f
00000030: a76e a640 83b4 c33f ef47 933f 0cfa 3440
00000040: c95d 853e eac4 24bf 31ec 653f 87fa f8be
00000050: 51cb d53f 5808 823c e416 cbbf 7fe8 803e
00000060: 45a0 01bf 6ed9 0540 da6d 813f df8f 363f
00000070: 2cb5 563f 930f b5be 4f9a f7be d2ea 1fbf
00000080: b2a4 6dc0 a06b 2dbf 85db 44bf fd9e 28bf
00000090: ad04 33bf 3e87 b3bf 73ec a1bf f452 6c3f
000000a0: 1d87 29bf 9fbd 4bbd b531 e23f 88f4 f83e
000000b0: 8192 3e3e 0f37 cc3f c84f 223f f2fb 1c40
000000c0: 1c38 2e3f 53e4 223f 591d b4be f931 31bf
000000d0: 64d6 9fc0 47b1 81bf e188 57bf a46b 0fc0
000000e0: de08 ad3f 165f ab40 2e5a b03f 33fb a13f
000000f0: bff1 c83f 25ee efbe c74f 77c0 7d65 59bf
00000100: e091 27bf 87bd 9cbe ad4a 293f 7166 87bf
00000110: 5112 2d3f 6c7b 203e f253 3fc0 54d9 1dbf
00000120: 7901 dd3d 855a 91bf 1a17 db3e 888c dd3e
00000130: 8884 103f 0e1b fd3f 3941 953f bef7 78bf
00000140: 80a9 ea3e 60ba 53bf 1591 1d3f 1189 38bf
00000150: a2d4 ffbd f53f 23be 72df 353f 3e70 9a40
00000160: da2a 6c3f a62f 803f 0955 57c0 3766 593f
00000170: 8e28 7840 3e61 663f 0c89 2d3f 9197 213f
00000180: fee3 b43e 0c58 9cbf 8697 32bf fed6 533f
00000190: fb00 6fbf b229 ba3d 17f5 353e b48d 30be
000001a0: ac20 173f 69a0 0640 8f96 4fbf 9aa9 aec0
000001b0: 87de 6fbf e3e7 38bf 46f4 d2bf fac7 783e
000001c0: acba 8340 7534 943e ef1e 163f f86d 0fc0
000001d0: d599 eabe 6a22 043f 50f0 47bf 707f 3f3f
000001e0: ede1 223f 1eb5 aabf 5f65 60bf 1683 a8bf
000001f0: b28a 9abd 4770 1d40 5eda 203f 635c 7e3e
00000200: ed0e 663f 9eb3 6cbf 8a38 4b3d b7e3 a83e
00000210: 85e6 4d3f e9fe f0be 5550 553f 3399 af3e
00000220: 6cd6 18bf 8ef6 173f 4162 e5be d90c 99be
00000230: 29e4 d03f a671 84be 9518 0bc0 d432 1bbf
00000240: 06cf 30bf 6d0d 263f 203d 99bf 5491 843e
00000250: da17 9ebf 5d89 593e 493d 19c0 6783 12bf
00000260: d9e3 573e 537e 8bbf 366c 9f3e 3450 953f
00000270: 3653 abbe e780 0cc0 04f2 3cbf 1297 303e
00000280: be34 d23e 6ecc 813f e0fb 0d40 b29b 233f
00000290: 4d06 663f 1789 52be a454 273f bd6e aa40
000002a0: f9db bb3f 2797 6d3f 8ca4 8a3f 1572 10bd
000002b0: d337 f8bf 9fcb a73f 4ef0 acbd d912 23be
000002c0: 58b4 a6bd 80ed 67c0 c032 7fbe 5168 0ebf
000002d0: 0cef 30be 2d2a a3bf 38a6 a1c0 b66f b4bf
000002e0: c061 ccbf 4f74 cb3f dc5d 173f b9f7 cf3f
000002f0: 1705 aa3e a2ab 243f 7f68 ce3f a1fa 853f
00000300: 1eed 88bd d894 c23f 7ee0 22bf fdd9 c6bc
00000310: 5f3e 71bf dbc5 8ac0 9bcf 81bf eb4d 8bbf
00000320: 25c7 b0be 4b43 823f cc76 52be 8c27 8ebf
00000330: 2ff0 493f 4e1c b83d 071d bebf 8bc0 91c0
00000340: 0e94 fdbf 99bf 96bf 492e 823f c29c a7bf
00000350: ed88 b4c0 3ab3 dabf d69f c5bf 0198 7e3e
00000360: 98e0 72bf 8959 afc0 12f8 9fbf 53b1 adbf
00000370: eace 153f 22a4 c83e eeb5 2340 f495 a03f
00000380: d0b6 aabf 1576 ff3f 188d 063f 63ba 95be
00000390: d24c 783f 69eb 39bf 37ea ef3e 1e55 a03e
000003a0: 78ea 35bf 7792 523f ca1e 37bf 28cc c63e
000003b0: 1b02 3abf 7872 a2c0 70e0 7cbf ec83 86bf
000003c0: 88ac 8fbe b11b 36bf a4a3 b0c0 daf6 46bf
000003d0: 30b5 a1bf e6ab 09bf 93e9 5d3f d0b7 083e
000003e0: 44ea 01bf a479 733f f0b0 63bf 64f8 163f
000003f0: 806c e73f be86 a53f 4139 60bf 2b40 943e
0.64750475 -1.5504748 -3.0893383 -1.5260826 -0.36767906 0.28422117 1.0813601 2.4530725
1.8951683 -1.1227095 -0.7819622 1.0525632 5.2010074 1.5289463 1.1506327 2.8277617
0.26048115 -0.64362967 0.89813524 -0.48628637 1.6702672 0.01587312 -1.5866361 0.2517738
-0.50635177 2.0913959 1.0111649 0.7131328 0.83870196 -0.35363445 -0.48359916 -0.6246768
-3.7131772 -0.6774235 -0.7689746 -0.65867597 -0.6992901 -1.4025648 -1.2650284 0.92314076
-0.6622179 -0.049741384 1.7671419 0.48624063 0.18610574 1.5954303 0.63402987 2.4528775
0.68054366 0.63629645 -0.3517864 -0.6921688 -4.9949207 -1.0132226 -0.84193236 -2.2409449
1.3518331 5.355357 1.3777521 1.2654785 1.5698775 -0.46861377 -3.8642442 -0.84920484
-0.6545696 -0.30613348 0.6612957 -1.0578138 0.67606074 0.15672082 -2.9894986 -0.6165974
0.107912965 -1.1355749 0.42791063 0.4327128 0.56452227 1.9773881 1.1660529 -0.97253025
0.45832443 -0.8270626 0.615495 -0.72084147 -0.12491728 -0.15942366 0.71044075 4.8262014
0.92252886 1.0014541 -3.3645651 0.8492159 3.8774753 0.8999213 0.6778724 0.63121897
0.35330194 -1.221437 -0.69762456 0.8274993 -0.9336087 0.09089984 0.17769276 -0.17241555
0.5903423 2.1035407 -0.8108911 -5.4582033 -0.93698925 -0.7222883 -1.6480796 0.24295035
4.116537 0.28946272 0.5864095 -2.241087 -0.4582049 0.5161501 -0.7810106 0.7480383
0.63625985 -1.3336523 -0.8765468 -1.3165004 -0.07545985 2.4599779 0.628332 0.2483993
0.89866525 -0.92461574 0.049614467 0.32986233 0.8042987 -0.4706948 0.833257 0.3429657
-0.5970218 0.5936059 -0.44801524 -0.29892614 1.6319629 -0.25867957 -2.1733754 -0.6062443
-0.6906589 0.64864236 -1.1971779 0.25892127 -1.2351029 0.21243806 -2.3943655 -0.57231754
0.2108301 -1.0897926 0.31137246 1.1665101 -0.33461922 -2.1953676 -0.73806787 0.17245129
0.41055864 1.0140512 2.2184982 0.6390945 0.89853364 -0.20560108 0.65363526 5.326018
1.4676505 0.92808765 1.0831466 -0.035265047 -1.9392036 1.3109015 -0.08444272 -0.15925159
-0.081398666 -3.6238708 -0.24921703 -0.55627924 -0.17278689 -1.2747246 -5.0515404 -1.4096591
-1.5967331 1.589487 0.59127593 1.6247474 0.33207008 0.6432439 1.612564 1.0467111
-0.066858515 1.5201674 -0.636238 -0.024273867 -0.94235796 -4.3366523 -1.0141481 -1.0883154
-0.34526935 1.0176786 -0.2055313 -1.1105819 0.78882116 0.08989774 -1.4852608 -4.554754
-1.9810808 -1.1777221 1.0170375 -1.3094714 -5.6417146 -1.7085946 -1.5439403 0.24862672
-0.9487395 -5.4796796 -1.249758 -1.356974 0.5851885 0.39187723 2.557979 1.2545762
-1.333704 1.9957911 0.5255904 -0.29243764 0.9699222 -0.7262483 0.4685838 0.3131494
-0.71060896 0.8225474 -0.71531355 0.38827634 -0.7265946 -5.076473 -0.98779964 -1.0509009
-0.28061318 -0.71136004 -5.5199757 -0.77720416 -1.2633419 -0.5377792 0.8668453 0.13351369
-0.50748086 0.95107484 -0.8894186 0.58972764 1.8079987 1.2931745 -0.8758736 0.28955206

linear1.bias f4 [256]
00000000: 3c2a aebe 8f1b 10bf 778c 7a3f 22f5 6ebe
00000010: a6a3 51be d5c8 32be 9cfa 28bf b0bd 693e
00000020: 5a24 6a3d 164e da3d 4a50 6dbf 6274 3e3f
00000030: fe07 1fbf b7f7 2c3d 674a b13e ef03 74be
00000040: 0c08 8abe 47f1 5c3f 6143 343f a7ca cbbd
00000050: c184 a0bd 1f85 6fbf 628a 003f 2d91 8e3e
00000060: c012 9dbe d26a fbbd db09 ad3e 5ca7 25be
00000070: d9ac 7bbd b772 0bbf 921b 9d3e 885a 77be
00000080: 4030 253f 7fa8 7a3f f25b 893e 89e6 02bf
00000090: d3f0 0fbf 5795 3d3d edd4 c5be 6f9a 4ebf
000000a0: 40e9 ae3e ff55 58bf 7fb7 4dbf cdef 49bf
000000b0: 0d5e d73c c149 3bbe d176 18be 460d 56bf
000000c0: fa8e 27bf 2b88 5a3e 54ea 18be be0c debc
000000d0: 24ca f23d 9f7a 82be ad04 1c3f 4933 0fbf
000000e0: 4ef7 47bf 2387 47bc 4c1b 6ebe d39d 1abe
000000f0: 5028 a63e c279 3fbf 8461 c0be 083c e9be
00000100: 0092 113f 2585 86bf 241d 09bf ecc2 81bf
00000110: bdec 50be 9762 de3e dccf 5fbf 52e8 853d
00000120: 5e51 c53d 9e16 a9bc 2f0b 253f d916 493f
00000130: 6334 83bd 0907 8dbe be78 9b3e be53 01bf
00000140: 8e51 c33e 400f 113f ad0f e33e aa53 04bf
00000150: e905 513e 4714 ce3e b255 fabe 8886 a4bd
00000160: 5129 9abe 0ad9 96be 9a1e 2d3f 8a45 e23e
00000170: 7f74 42be 6b1c 343e 9b33 353f c0da 34bf
00000180: 1a42 42bf 831a c23e 501b 83bf 1f17 98be
00000190: f54b a5be b740 0e3e d3f1 293e d86b 50be
000001a0: f171 52be 4f84 bb3e bec3 0b3b 86df 1bbf
000001b0: 57c4 adbe 0a57 3a3f 29b9 12be dbca 953d
000001c0: ef1d 82be 33ff 83bf 7769 773e 6b5d 45be
000001d0: f3d8 823e 4daa 8cbd edcf 663f 8c63 50bf
000001e0: 8a32 f0bd 62c4 2c3f bd47 41bf 37a3 133f
000001f0: 7655 50be 2eaa 253f b40e 263f 0fbc 613f
00000200: 10bb 12bf b981 e7be 3cab 303d 174c e63b
00000210: b239 d9be af21 c73e 9259 acbe 60db 1f3f
00000220: 74bb 433f 0d4a 0abf 2be0 cd3e 073c aabe
00000230: 8d7e 503e da2c a63e 7fd0 373f c5a6 b6bd
00000240: 7284 3cbf d58b 313f cad8 503e e1d8 8e3d
00000250: d173 bebe 82aa a9bd d2ef 563e f74f 213e
00000260: 5e47 ff3d 86ea 773f 1c1f 44bf 05a9 21be
00000270: 6c10 52be 3df9 b8be 433e 3f3e 3c46 503e
00000280: a026 ba3e 783f 233f 7a78 99be fa2e 37bf
00000290: 06c1 c0be 280c 923d 0dad b3be 3016 d23c
000002a0: b07a 673e 08ad 75be 76a7 343f d2ea 4f3f
000002b0: 552b bfbe 225e 17bf bea2 103f 7158 053f
000002c0: 8cff 36be e496 1fbf b416 7dbe 3314 43bf
000002d0: d2fa 3abf 8d03 ebbd 5ea7 4abf b324 6c3d
000002e0: 53be 06bf 3ec7 f6be 05f7 313e 6c83 18bf
000002f0: 1add fabe 8c0b 933e 55e6 7e3f 77db da3d
00000300: 14f7 d73d 3108 aa3e 37dd 853f a535 26be
00000310: 73e1 15bb 6b5e fe3e fd1b 99bb 5cd1 6f3e
00000320: f215 63bf 065b 373f c730 563e faff 243f
00000330: cbe0 193f 9af0 1f3f fb4d 433f 4bf0 383f
00000340: 2ddc 1fbf 7363 08bf 268d 4a3f 6f02 c43e
00000350: f7ce 2fbf 730e 083f 5dda 023f c6b2 92be
00000360: 31e7 ac3e 3446 0b3f e0ac aabe 7e31 07bf
00000370: 4ee7 14bf 0af3 1e3f d6b7 1ebf 2241 c13e
00000380: 1d8c fa3e 00f3 a8be 6f51 0c3f fea0 38bf
00000390: 8943 5e3e 104f 6a3e 7681 52be bc87 0f3e
000003a0: bd04 e2be 1fec 05bf 9d80 37be 425b 4f3f
000003b0: 43e2 40be 0cbf f53e 5069 6c3e 3b1e 803e
000003c0: d628 b0be 7b93 a8be dd78 4bbe e16c 443e
000003d0: d83c 4ebe d4c3 0c3e 5d1f 423e 6f97 8abe
000003e0: 4b76 d2be 3111 633e 52b1 283e 5fd1 793f
000003f0: f413 813e 4e39 acbe e6b0 f13e 03ea 0e3e
-0.34016597 -0.5629205 0.9787058 -0.23335698 -0.20472583 -0.17459424 -0.660074 0.22826266
0.057163574 0.10659425 -0.92700636 0.74396336 -0.6212157 0.042228427 0.34627077 -0.23829626
-0.26959264 0.8630566 0.7041531 -0.09950762 -0.07837821 -0.935625 0.50211155 0.27845135
-0.30678368 -0.12276234 0.33796582 -0.16177124 -0.061444137 -0.54471916 0.30685097 -0.24155629
0.6452675 0.97913355 0.2682796 -0.5113302 -0.56226844 0.046285 -0.38639012 -0.80704397
0.3416233 -0.8450622 -0.8035812 -0.7888153 0.026289964 -0.18289854 -0.14889075 -0.83614004
-0.6545254 0.21341006 -0.14933139 -0.027105685 0.118549615 -0.25484177 0.60944635 -0.5593763
-0.7811173 -0.012178215 -0.232526 -0.15099268 0.3245263 -0.7479516 -0.375744 -0.45553613
0.56863403 -1.0509382 -0.5356009 -1.013761 -0.20402808 0.43434593 -0.87426543 0.06538452
0.0963466 -0.020640668 0.6447019 0.7855049 -0.06406476 -0.2754443 0.30365556 -0.50518405
0.3814816 0.56663895 0.44347897 -0.5169016 0.20412411 0.40249845 -0.48893505 -0.08033472
-0.30109647 -0.29462463 0.6762482 0.4419368 -0.18989752 0.17588966 0.7078187 -0.70646286
-0.7588211 0.37910852 -1.024271 -0.2970514 -0.32284513 0.13891874 0.16596155 -0.20353639
-0.20551278 0.3662438 0.0021326388 -0.60887945 -0.33938858 0.7278906 -0.14328445 0.07314082
-0.25413463 -1.0312256 0.24161325 -0.19273917 0.25556144 -0.0686842 0.9016102 -0.81401896
-0.117283896 0.67487156 -0.7550009 0.5767092 -0.20345101 0.647128 0.64866185 0.8817758
-0.57316685 -0.45216158 0.04313205 0.0070281136 -0.4242683 0.38892886 -0.33662087 0.62444115
0.76457906 -0.5401924 0.4021009 -0.33248922 0.20360775 0.32456094 0.71802515 -0.089185275
-0.73639596 0.6935399 0.20395198 0.0697496 -0.37197736 -0.08284475 0.20989922 0.1575316
0.12464784 0.9684223 -0.7660997 -0.15787132 -0.20514077 -0.36127654 0.18676095 0.20339292
0.36357594 0.6376872 -0.2997473 -0.71556056 -0.37647265 0.07131225 -0.35092965 0.025645345
0.22605395 -0.23991787 0.70568025 0.8121768 -0.37337747 -0.5912801 0.56498325 0.52088076
-0.17870921 -0.62339616 -0.24715692 -0.76202697 -0.7303897 -0.11475287 -0.7916163 0.057652187
-0.5263416 -0.48198885 0.17379387 -0.59575534 -0.48996812 0.28719747 0.9957021 0.10686391
0.10545173 0.33209375 1.0458134 -0.16231401 -0.0022869974 0.4968141 -0.004672526 0.23419708
-0.8870536 0.71623266 0.20917045 0.6445309 0.6010863 0.62476504 0.76290864 0.7224166
-0.62445337 -0.5327675 0.79121625 0.38283107 -0.6867518 0.5314705 0.51114446 -0.28652018
0.33770135 0.54403996 -0.33335018 -0.52809894 -0.5816544 0.620896 -0.6199926 0.37745005
0.48935023 -0.32997894 0.5481176 -0.72120655 0.2170545 0.22881722 -0.20557198 0.14016622
-0.4414424 -0.5231342 -0.17920156 0.80998623 -0.18836312 0.4799732 0.23087049 0.25023064
-0.34406155 -0.3292502 -0.19870324 0.19182159 -0.20140398 0.13746578 0.18957277 -0.2706866
-0.41105875 0.22174527 0.16473892 0.975851 0.25210536 -0.3363747 0.47205275 0.13956456

linear2.weight f4 [3, 256]
00000000: 4034 dfbe 819a 8bbf 8bdd 813f 7c50 0dbf
00000010: ea5f ffbe ad02 593d 854f 32bf 49e8 f13e
00000020: f227 8a3e 95a4 183f 68a4 8cbf b40c a63f
00000030: eeb3 2dbf 12fe 36bf 40a5 f33e 8b91 0dbf
00000040: 67fa 343f f6d5 3c3f 0f29 8e3f e46f 2cbd
00000050: 94f4 9cbd fd45 adbf 3a80 823f a190 133f
00000060: 22fc 2b3f b965 e8be 1a83 b5be 7762 2e3f
00000070: 6263 90be 1355 3e3f e824 7e3e a75a f9be
00000080: 877a 653e 31c2 853f 6004 8bbe 8ef3 19bf
00000090: a661 8abf 8a3b 9d3e 0caa 1abf e2c9 4fbf
000000a0: c0b1 42bf 1d24 8dbf f454 8fbf 9c8b 7dbf
000000b0: 3daf d4be e1ba d9be d49f fcbc d897 64bf
000000c0: cd0f 8ebf 5bc4 f3be 1032 a2bf 141b d4bd
000000d0: 7d21 c9be 3ea6 36bf 04ae 913f 92a9 45bf
000000e0: e763 32bf 1629 1cbe ecdc 7e3f 1d86 c0be
000000f0: 04e9 bd3e 1ea5 5cbf c724 e5be 37f2 3a3e
00000100: 7680 d23e cbdc abbf 692a 68bf 6dee 85bf
00000110: 65d9 0dbe 2b98 3e3f 598a 3fbf 2f8a f63d
00000120: 0596 cdbe a549 393e 4369 953f 0ee5 573f
00000130: 6936 1abf 2831 0ebf 8920 8c3f b100 943f
00000140: b10f e3bd 6651 0e3f 6431 b23f 59a6 1fbf
00000150: 482f a23e f6dd 9d3e c26b 7ebf 7574 efbe
00000160: 0926 8fbf 7921 6ebe 16dd 713f 64b2 d0bd
00000170: 47cc 9cbe f2ba 563e 4afc 993f 9ed2 8abf
00000180: b1da bbbf aa13 483f e809 0f3f 15dc dabe
00000190: f548 c5be f8d2 613e 5de2 3d3f 46e2 d93e
000001a0: eb6f 3bbe c712 053e 9b04 0a3f a2cc 69bf
000001b0: c8e4 edbe 8da2 423f 1e96 ba3f a98e 9b3f
000001c0: f531 94be c918 84bf c9c3 c3be 0b28 c5bd
000001d0: 18fd 19bf eff3 313e ea48 663f 5ecb 77bf
000001e0: bedf aebf 8f8c 363f 0115 6bbf 5f4b 883f
000001f0: 5fb3 8fbc 0522 b83f a0db 323f 06d0 933f
00000200: 8af2 5cbf e09b 87bf 67fa 733e 3b1c a23e
00000210: 11fe 73be 9f0a 763f c932 3a3e 019b 3e3f
00000220: da19 6d3f edac 8bbd 8021 20bf 14ea ffbe
00000230: 8318 693e 691d 8c3e 2a8d 8d3f cd91 8ebe
00000240: d1c5 72bf 7f44 7b3f 44ba 1bbe f392 483f
00000250: d955 40bf 04d8 e23e 7b55 e13e 0aff 283e
00000260: 8737 893f 0616 6f3f 74ea 7bbf 9999 f9be
00000270: d253 3c3f 26a3 c6be 3d48 0a3f 0664 4b3f
00000280: 9934 d83e b4a9 7bbf 3949 3a3d 9637 53bf
00000290: 7e03 68bf 49d0 12bd 5ef6 b9be 850c 0ebe
000002a0: 3d32 06bf e504 1dbf cbda 633f d974 8f3f
000002b0: 4b60 aabe 0a82 1bbf aa13 403f 4fc5 383f
000002c0: 7fca 08bd 7df6 64bf 69a3 02bf f199 67bf
000002d0: ee3e 61bf a0cb b93d 7dd0 8abf 2ed5 11be
000002e0: 85c2 a2bd a290 54bf 932f 3f3e e251 17bf
000002f0: 9d04 eebe e111 f53e 46d4 803f 30bb b33e
00000300: 5fd4 f73e b633 52be d361 af3f 223e e1be
00000310: 24d3 883f 788d f83e fe21 c73e 957e fb3e
00000320: aff7 48bf 9f30 403f 396a 0f3f bbd5 4a3f
00000330: cc52 563f 93c2 563f b962 7d3f 1781 8c3f
00000340: 5604 5cbf e55b 4bbf 60db 273f 8030 15bf
00000350: 6475 92bf bb51 9c3f 83ce 623f ad65 37bf
00000360: c32d f63e 7eb8 9e3f 57c7 a13e e9d8 59bf
00000370: b705 59bf 5bab dabe adaa 8bbf e3ce 353f
00000380: 2762 2e3f 515e 60bf 5e7d 8b3f 63cf 8bbf
00000390: c831 a63e 365e e6bd 3a17 da3e 0b16 da3e
000003a0: ed42 55bf 735b 70bf 4d1b 3abe 9731 7b3f
000003b0: 0b94 13bf 3154 20bf 060c be3e c3a2 c13e
000003c0: 6c82 fcbe 17ba 353f 10e8 9dbe b487 f13f
000003d0: 80b8 3abf 0c93 9b3e 7c34 2a3e 5613 92bd
000003e0: 41c3 d8bd 8574 823f 8d43 79bf 5e88 893f
000003f0: 21e6 213e 311e cfbe c2aa 4f3f fc4c e1be
-0.4359455 -1.0906526 1.0145735 -0.55200934 -0.49877864 0.052981067 -0.6965259 0.47247532
0.269836 0.5962613 -1.0987673 1.2972627 -0.67852676 -0.7148143 0.47587013 -0.55300206
0.70694584 0.7376398 1.110628 -0.042098895 -0.07663837 -1.3536984 1.0195382 0.5764256
0.671816 -0.45390108 -0.35451585 0.68118995 -0.28200823 0.7434856 0.24818766 -0.48701975
0.22410022 1.0449888 -0.27151775 -0.6013726 -1.081105 0.30709487 -0.6041572 -0.81167424
-0.76052475 -1.1026646 -1.1197801 -0.9904115 -0.41539946 -0.4252539 -0.03083793 -0.89294195
-1.1098572 -0.47610745 -1.2671528 -0.10356727 -0.39283362 -0.71347415 1.138123 -0.7721187
-0.6968369 -0.15250048 0.9955585 -0.3760232 0.3709184 -0.8618945 -0.4475462 0.1825646
0.41113633 -1.3426756 -0.9068971 -1.0463387 -0.1385246 0.7445094 -0.74820477 0.12038075
-0.40153518 0.180945 1.1672748 0.84333885 -0.60239273 -0.55543756 1.0947429 1.1562711
-0.11086977 0.55592954 1.3921323 -0.623632 0.31676698 0.30833405 -0.99383175 -0.46768537
-1.1183482 -0.23254956 0.94477975 -0.10190275 -0.306246 0.20969751 1.2030118 -1.0845525
-1.4676114 0.78155005 0.5587449 -0.42746034 -0.38532224 0.22053134 0.7417353 0.42555445
-0.18304412 0.12995444 0.5391328 -0.9132787 -0.4646361 0.7602928 1.4577062 1.2152911
-0.28944364 -1.0320064 -0.3823531 -0.09626778 -0.60151815 0.1737821 0.8995501 -0.9679469
-1.3662031 0.71308225 -0.91828924 1.0648001 -0.017541585 1.4385382 0.6986637 1.1547859
-0.86307585 -1.0594444 0.2382599 0.31662163 -0.23827387 0.96109957 0.18183435 0.7445527
0.9261757 -0.06820092 -0.62551117 -0.49983275 0.22763257 0.27366188 1.1058705 -0.27845612
-0.94833094 0.9815139 -0.15207773 0.78349227 -0.75130993 0.44305432 0.4401053 0.1650354
1.0720071 0.9339298 -0.9840462 -0.48749998 0.735654 -0.38796347 0.54016477 0.794495
0.4222763 -0.9830582 0.045479987 -0.8250669 -0.9063033 -0.035843167 -0.36320776 -0.13871963
-0.5242041 -0.61335593 0.89005727 1.1207534 -0.3327659 -0.607453 0.75030005 0.7217607
-0.03339624 -0.8943861 -0.51030594 -0.9046927 -0.8798665 0.090720415 -1.0844876 -0.14241478
-0.07947258 -0.8303319 0.18670492 -0.5910932 -0.46487895 0.47865203 1.0064781 0.3510375
0.48404214 -0.20527539 1.3701729 -0.43992716 1.0689435 0.48545432 0.3889312 0.49120012
-0.78502935 0.7507419 0.5602146 0.79232377 0.8372009 0.83890647 0.98978764 1.0976895
-0.85944116 -0.79437095 0.65569115 -0.5827713 -1.1442075 1.2212442 0.8859636 -0.7163952
0.48081788 1.2400053 0.31597397 -0.85096604 -0.84774345 -0.4270886 -1.0911461 0.7101881
0.6811852 -0.87643915 1.0897634 -1.0922664 0.32459855 -0.11248438 0.42595845 0.42594942
-0.83305246 -0.9388954 -0.18174477 0.98122543 -0.5764777 -0.62628466 0.37118548 0.3781949
-0.49318254 0.70987076 -0.30841112 1.8869538 -0.72937775 0.30385625 0.16621584 -0.07132594
-0.10584117 1.0191809 -0.973687 1.0744741 0.15810443 -0.40452722 0.8111993 -0.44004047

linear2.bias f4 [3]
00000000: f4d7 10be 4632 d53e c37d afbe
-0.1414488 0.41639918 -0.34275636
