continous_state/pretrained/dqn/dqnVE4_128.pt (torch, 6395 bytes, 4 tensors)

linear1.weight f4 [128, 5]
0	0xbf2a8450	-0.6660814
1	0xbdc50120	-0.09619355
2	0x3e73f063	0.23822169
3	0xbd919dd2	-0.0711018
4	0xbeb32625	-0.3499004
5	0x3ed113b1	0.40835336
6	0xbf3dbbab	-0.74114484
7	0xbf800724	-1.0002179
8	0xbf0a2806	-0.5396732
9	0x3f8e9887	1.1140298
10	0xbf4f724e	-0.8103379
11	0x3f4bf1f4	0.79666066
12	0x3f1c7d41	0.6112862
13	0x3f98af2e	1.1928461
14	0xbf74bd61	-0.9560147
15	0x3eca6346	0.39528865
16	0xbf77fc1a	-0.9686905
17	0xbf985501	-1.1900941
18	0xbf85593b	-1.0417856
19	0x3f95862d	1.1681572
20	0x3f0d94fc	0.5530546
21	0x3eab1fe4	0.33422768
22	0x3e424496	0.18971476
23	0xbf6d677b	-0.92736024
24	0x3e1174d6	0.14204726
25	0x3f1cc6c0	0.6124077
26	0x3d3dba95	0.046320517
27	0xbf5419f7	-0.8285212
28	0xbe491632	-0.19637373
29	0x3f3b5a54	0.73184705
30	0xbf938242	-1.1524127
31	0xbf39e0ed	-0.72608835
32	0xbf49fd7b	-0.78902406
33	0xbf2b1fea	-0.6684557
34	0xbece8b84	-0.40340817
35	0x3e209103	0.15680318
36	0x3ea2701b	0.31726155
37	0x3e33ce3f	0.17559145
38	0x3f7df1cf	0.99197096
39	0x3dc77512	0.09739126
40	0xbf095e86	-0.53659856
41	0x3f011230	0.50418377
42	0x3f254620	0.6456013
43	0x3ff38b9b	1.9026979
44	0xbf18560b	-0.5950629
45	0xbf901b0e	-1.1258256
46	0xbdaf5121	-0.08560396
47	0x3eacd72a	0.33757907
48	0x3e99a5c1	0.30009273
49	0xbf12ce47	-0.57346004
50	0xbef0dafe	-0.47042078
51	0x3f862a9f	1.0481757
52	0x3f21db73	0.6322548
53	0x3fa24dd9	1.2680007
54	0x3f5f2a13	0.87173575
55	0xbf2aaa20	-0.6666584
56	0x3f869c2b	1.0516409
57	0x3f4a51a5	0.7903083
58	0x3f5e3290	0.867959
59	0xbf8dd9bc	-1.1082072
60	0x3da33340	0.079687595
61	0x3f9adaa3	1.2097973
62	0x3fa25651	1.2682592
63	0x3f8d6752	1.1047156
64	0x3ec0ebda	0.3767994
65	0x3edce560	0.4314375
66	0xbf034d65	-0.5128997
67	0xbea41fd0	-0.3205552
68	0xbe65b1e9	-0.22431149
69	0x3f1cc0a1	0.6123143
70	0x3f30e487	0.69098705
71	0x3fbba96e	1.4661081
72	0x3ea8d4bb	0.329748
73	0x3f711a68	0.9418092
74	0x3f5ee679	0.87070423
75	0x3f245c96	0.64203775
76	0xbf2895d3	-0.65853614
77	0x3d6dafc9	0.05802897
78	0xbf581b10	-0.84416294
79	0x3f3a095e	0.72670543
80	0x3ccd32dc	0.025048666
81	0x3f77f504	0.9685824
82	0x3eadb829	0.33929566
83	0x3f9a343f	1.2047194
84	0xbf249d68	-0.6430268
85	0x3f8c1afe	1.0945737
86	0x3f80ef6d	1.0073067
87	0x3ebe2aee	0.37142128
88	0xbd92d58d	-0.07169638
89	0x3edad62c	0.42741525
90	0xbb1734e2	-0.0023072292
91	0xbebedc66	-0.37277526
92	0xbeb69739	-0.3566225
93	0xbf5a804f	-0.85352033
94	0x3f8723a6	1.0557754
95	0x3eb23b8e	0.34811062
96	0xbf7c0735	-0.984485
97	0xbea6e41d	-0.32595912
98	0xbf4f0c54	-0.80878186
99	0x3f614a0d	0.8800362
100	0x3dacdd28	0.0844062
101	0xbec1926a	-0.37807018
102	0x3d438166	0.047730826
103	0x3f18dd47	0.5971264
104	0x3f35f65f	0.7107906
105	0x3ecc624e	0.3991875
106	0xbf35e85d	-0.71057683
107	0xbfd665ad	-1.6749779
108	0xc023ea6e	-2.5611835
109	0x3efa5a1f	0.48896882
110	0x3e8ca547	0.27469847
111	0xbe4bf8e5	-0.19919164
112	0x3f14af16	0.5807966
113	0x3f8a3813	1.0798362
114	0x3d0f86da	0.035040714
115	0xbd2c8548	-0.042119294
116	0xbf99e6b8	-1.2023535
117	0xbfb6004a	-1.4218838
118	0xbe74f0e1	-0.23920013
119	0xbf7d7772	-0.99010384
120	0x3e82693c	0.25470912
121	0x3ebd8277	0.370136
122	0x3fba793b	1.4568247
123	0x3ff5651d	1.9171482
124	0xbdb8a314	-0.0901548
125	0x3e0f07a8	0.13967764
126	0x3d1709a6	0.036874436
127	0x3fe15401	1.7603761
128	0x3ea3f09b	0.32019505
129	0xbf774301	-0.96586615
130	0x3f112095	0.5669034
131	0xbf30d858	-0.69080114
132	0xbf827bbd	-1.0194012
133	0xbf6c8b8d	-0.9240044
134	0x3f6841a9	0.9072519
135	0x3ec1c90b	0.37848696
136	0xbf0db6b7	-0.55356926
137	0xbf8d0911	-1.1018392
138	0xbf0078a7	-0.501841
139	0x3f23fadd	0.6405466
140	0x3ee90de1	0.455184
141	0xbf464bd6	-0.77459466
142	0xc00d9971	-2.2124903
143	0xbf5b7f79	-0.8574138
144	0x3f4e435b	0.80571526
145	0xbe0a7258	-0.13520181
146	0x3eb03d5c	0.34421813
147	0xbfbfd5bd	-1.4987103
148	0xbe23260d	-0.15932484
149	0x3f24e650	0.6441393
150	0xbec6f68a	-0.3885997
151	0x3f2e8b2d	0.68181115
152	0x3fb650c2	1.4243395
153	0x3e81ea6e	0.25374168
154	0xbf81853d	-1.0118786
155	0x3ed673fd	0.41885367
156	0x3cf84715	0.030307332
157	0xbd385495	-0.04500254
158	0xbf1aa744	-0.6041148
159	0x3ed8737a	0.42275602
160	0xbf1bd3c6	-0.60870016
161	0xbf38704a	-0.7204634
162	0xbf83a9c3	-1.0286182
163	0xbf039f39	-0.5141483
164	0xbf0ede11	-0.55807596
165	0x3e7c9501	0.24666215
166	0x3f542df4	0.8288262
167	0x3f469316	0.77568185
168	0x3e860847	0.2617819
169	0x3ee0438e	0.4380154
170	0x3ec22f18	0.37926555
171	0x3f4c54c1	0.79816824
172	0x3fa5781c	1.292728
173	0x3f12af41	0.57298666
174	0x3f2eff1e	0.6835803
175	0x3ef6410a	0.48096496
176	0xbf39c48b	-0.72565526
177	0xbfdbbdd3	-1.7167305
178	0xbf7a1000	-0.97680664
179	0x3f769eeb	0.9633624
180	0xbf49b27a	-0.7878796
181	0x3f8931a7	1.0718278
182	0x3e942ffd	0.28942862
183	0x3f820c61	1.0160028
184	0xbf43b13a	-0.764423
185	0x3f8602c6	1.0469596
186	0xbf85a027	-1.04395
187	0xbfa3447a	-1.2755272
188	0xbf4f5329	-0.8098627
189	0x3f83cad8	1.0296278
190	0xbf345212	-0.7043773
191	0xbe5b3973	-0.21408634
192	0x3f6a185d	0.91443425
193	0x3f117e9b	0.5683381
194	0xbef4d884	-0.47821438
195	0x3e9a665c	0.3015622
196	0x3e545c6e	0.20738384
197	0x3e6a661d	0.22890516
198	0x3edae375	0.4275166
199	0xbf61dda1	-0.88228804
200	0xbf310889	-0.6915365
201	0x3f368178	0.71291304
202	0x3f837931	1.027136
203	0x3f201d3b	0.625446
204	0xbf86b84e	-1.0524995
205	0x3f185e1e	0.5951861
206	0xbf3ded87	-0.7419056
207	0xbf7fcb78	-0.99919844
208	0xbf257d0a	-0.6464392
209	0x3f722b40	0.94597244
210	0x3f0187dd	0.50597936
211	0xbf024b2c	-0.50895953
212	0xbe1ba21d	-0.1519856
213	0x3e489f43	0.19592004
214	0x3f942ed0	1.1576786
215	0xbf598cb6	-0.8498033
216	0xbed1c64a	-0.40971595
217	0xbf11217a	-0.56691706
218	0xbee75531	-0.45182183
219	0xbf230a6d	-0.63687783
220	0x3fa0cb33	1.2562011
221	0x3f5630fd	0.836685
222	0xbd5f376c	-0.054496214
223	0x3c8c27b7	0.017108781
224	0x3f56f308	0.83964586
225	0x3e815f8a	0.25268203
226	0xbfb3b2f0	-1.4038982
227	0xbf275a00	-0.65371704
228	0xbf605e55	-0.8764394
229	0xbf2e53d4	-0.6809666
230	0x3f267cb9	0.6503406
231	0x3f7030f4	0.93824697
232	0x3f5bdff0	0.85888577
233	0x3f2070b5	0.6267198
234	0x3f4ac8cb	0.79212636
235	0xbf31914c	-0.6936233
236	0xbf6b4019	-0.9189468
237	0xbda4c529	-0.08045418
238	0xbf977e9a	-1.1835511
239	0xbf4517c4	-0.7698939
240	0xbf400874	-0.750129
241	0x3d9e7abb	0.07738253
242	0x3f4dde96	0.80417764
243	0xbe2f1e77	-0.17101465
244	0xbed0c344	-0.40773976
245	0xbe097bcc	-0.13426131
246	0x3f325a8d	0.6966942
247	0x3f99fef4	1.203093
248	0x3f23939b	0.63897103
249	0xbf6c3bfb	-0.9227902
250	0x3e0b9c57	0.13633858
251	0xbf1174d8	-0.56818914
252	0x3f5e7f75	0.86913234
253	0xbf16a1ed	-0.5884083
254	0xbedb5e12	-0.42845207
255	0xbf0db86e	-0.5535954

linear1.bias f4 [128]
0	0xbe22ba11	-0.15891291
1	0x3e0db1b9	0.13837327
2	0xbdea2a4c	-0.11433849
3	0x3e636a85	0.22208603
4	0x3e0de44f	0.13856624
5	0x3de5b4ea	0.11216147
6	0xbe87117e	-0.26380533
7	0xbbc332f0	-0.005957
8	0xbe40a5f3	-0.18813305
9	0xbe42a6b8	-0.1900891
10	0x3dd71621	0.10502268
11	0xbe3310ff	-0.17486952
12	0x3eb3e160	0.35132885
13	0x3ebe2772	0.3713947
14	0x3e270be1	0.16313125
15	0x3e8e67f3	0.27813682
16	0xbefae687	-0.49004003
17	0x3e10dc46	0.14146528
18	0x3e7ffe38	0.2499932
19	0x3ed9f39f	0.4256868
20	0x3ecff5f0	0.40617323
21	0x3ef47151	0.47742704
22	0x3d782d5f	0.060590144
23	0xbc59d120	-0.013294488
24	0xbea6a1ac	-0.3254522
25	0xbe71b0ba	-0.23602572
26	0x3e503f98	0.20336759
27	0x3eae7f79	0.3408163
28	0x3ee6304a	0.44958717
29	0x3e90c077	0.2827184
30	0xbe2dd89d	-0.16977163
31	0x3e5e33f2	0.21699503
32	0xbe4b9678	-0.19881618
33	0x3e860f17	0.26183388
34	0x3e4156b8	0.18880737
35	0x3e92a383	0.28640375
36	0xbecc4fd9	-0.3990467
37	0x3d97ab16	0.07405679
38	0xbe3f18c8	-0.18661797
39	0xbea4a0fc	-0.3215407
40	0xbdb342b2	-0.087529555
41	0x3e2421b0	0.16028476
42	0x3e3e6058	0.1859144
43	0xbe0206e8	-0.12697947
44	0xbd610d1b	-0.05494414
45	0xbe8feb4e	-0.2810921
46	0x3dc52bbe	0.09627484
47	0xbe09e1df	-0.13465069
48	0xbe61e0f4	-0.22058469
49	0xbeb691e2	-0.35658175
50	0xbe9c11ba	-0.30482274
51	0xbe5ce49b	-0.21571581
52	0xbe1bef08	-0.15227902
53	0xbf09a877	-0.5377268
54	0xbe026177	-0.12732492
55	0x3e832262	0.2561217
56	0x3d43cacc	0.047800824
57	0xbece7a3c	-0.40327632
58	0xbe04469f	-0.12917565
59	0xbd5988f3	-0.05310912
60	0xbe044278	-0.12915981
61	0x3deff0d8	0.11715859
62	0x3e2e7e0e	0.17040274
63	0x3ebd9ad8	0.370322
64	0x3e30d8ec	0.17270249
65	0x3e25403f	0.16137789
66	0x3ec4e505	0.38455978
67	0xbe55132a	-0.20808092
68	0x3e6aa9bf	0.22916315
69	0xbcbbcdd6	-0.022925299
70	0x3e2d4e8d	0.16924496
71	0xbe7162ad	-0.23572798
72	0xbe00772d	-0.12545462
73	0x3e9e702d	0.30944958
74	0xbe820e5d	-0.25401583
75	0x3e9c1105	0.30481735
76	0x3e4ef80c	0.2021181
77	0xbe356721	-0.17715122
78	0xbde62941	-0.11238337
79	0x3e67341a	0.22578469
80	0xbe88b774	-0.26702464
81	0xbe5d2b28	-0.21598494
82	0xbee91b36	-0.45528573
83	0xbdcfd546	-0.101481006
84	0x3e8bc8fb	0.27301773
85	0xbf363f77	-0.7119059
86	0xbe717f0f	-0.23583625
87	0xbe6e7923	-0.23288397
88	0x3e476eb0	0.19475818
89	0x3f0da473	0.55329055
90	0xbebd16ce	-0.3693146
91	0xbe17a2f1	-0.14808251
92	0x3e38c881	0.18045236
93	0xbe50ff7a	-0.20409957
94	0xbe81531e	-0.25258726
95	0x3e4f9822	0.20272878
96	0xbe95948d	-0.29214898
97	0xbe57e1f4	-0.21082288
98	0x3ed0861b	0.40727314
99	0x3e9eda5c	0.3102597
100	0x3e42dfa4	0.19030625
101	0xbea3797e	-0.3192863
102	0xbe423fce	-0.18969652
103	0xbdfcdbf0	-0.12346637
104	0x3e39dbed	0.18150301
105	0x3e4d5ef8	0.20055759
106	0xbeb0a8c7	-0.34503767
107	0xbe57c610	-0.21071649
108	0xbd8c28cb	-0.06843718
109	0x3e7d393b	0.24728863
110	0x3e40f1dc	0.18842262
111	0x3e8e312d	0.27771893
112	0x3e09a6f1	0.1344259
113	0x3dd2d6ca	0.10294874
114	0xbb1b0f4c	-0.002366024
115	0x3ebd72ec	0.3700174
116	0x3ec4e693	0.38457164
117	0xbe618ed3	-0.2202714
118	0x3f179017	0.5920424
119	0xbe970d83	-0.29502496
120	0xbeb03e74	-0.34422648
121	0x3e2ea4dc	0.17055076
122	0x3e57ba59	0.2106718
123	0x3eaf1cf9	0.34201792
124	0x3e4b9a04	0.19882971
125	0x3ed3e5f8	0.4138639
126	0x3ea6e94a	0.3259986
127	0x3e218982	0.15775111

linear2.weight f4 [3, 128]
0	0xbeb356d1	-0.35027173
1	0x3f07cbf5	0.5304559
2	0xbf05a700	-0.52207947
3	0x3f1f3c76	0.6220163
4	0x3c995ead	0.018721903
5	0x3ece5805	0.4030153
6	0xbf157f18	-0.58397055
7	0x3ec8227c	0.3908881
8	0x3d46451b	0.048405748
9	0xbf08e4eb	-0.534743
10	0x3f06fc92	0.5272914
11	0xbf28dc89	-0.6596151
12	0x3f02e2cc	0.51127315
13	0x3ebe3371	0.37148622
14	0x3f4d7708	0.8025975
15	0x3ee54ae5	0.44783702
16	0xbe014085	-0.12622268
17	0x3ea66267	0.3249695
18	0x3f09683a	0.5367466
19	0x3f16e3bc	0.58941245
20	0x3e8c99f2	0.274612
21	0xbdc6e86d	-0.097123004
22	0x3ec47b18	0.38375163
23	0xbf0078cd	-0.5018433
24	0x3ed96500	0.4245987
25	0xbefc3ca2	-0.4926501
26	0x3f147201	0.57986456
27	0x3eed8b9a	0.4639557
28	0x3f4cfd8e	0.80074394
29	0x3ec91e70	0.39281034
30	0xbef77271	-0.483295
31	0x3e282271	0.16419388
32	0xbf072ee9	-0.52805954
33	0x3ebd379b	0.36956486
34	0x3f0d4fe4	0.5520003
35	0x3f8ee729	1.1164294
36	0xbf1069d1	-0.56411463
37	0x3f328cf5	0.69746333
38	0xbeb49485	-0.3526956
39	0xbe6d087e	-0.23147771
40	0xbef59cb3	-0.47971115
41	0x3eecd74f	0.46258017
42	0x3ef1430f	0.47121474
43	0xbecc179f	-0.3986177
44	0x3eea2522	0.45731455
45	0xbf1e5482	-0.618477
46	0x3f0bc682	0.54599774
47	0xbf1ddec2	-0.61668026
48	0xbee4eb6d	-0.44710866
49	0xbf167013	-0.5876476
50	0xbeaddbbd	-0.3395671
51	0xbe906be6	-0.2820732
52	0xbf02f5a5	-0.51156074
53	0xbd77b858	-0.06047854
54	0xbeedfea6	-0.46483344
55	0x3f4faa85	0.8111957
56	0x3f0b0247	0.5430035
57	0xbf18ed31	-0.59736925
58	0xbecfea7a	-0.4060858
59	0x3f28e55e	0.65974987
60	0xbf261f6a	-0.64891684
61	0x3ed59737	0.4171693
62	0x3e5db08d	0.2164938
63	0x3ec9b7e2	0.39398104
64	0x3f26ab28	0.65104914
65	0x3ef92eae	0.48668426
66	0x3ec8f5c8	0.39250016
67	0xbf0cf95c	-0.5506799
68	0x3f2220cf	0.6333131
69	0xbf15c3c9	-0.5850187
70	0x3f16c714	0.5889752
71	0xbef5f196	-0.48035878
72	0xbf1d7a2b	-0.6151454
73	0x3ed43797	0.41448662
74	0xbed5c7d5	-0.41754022
75	0x3f165c1b	0.5873429
76	0x3f007944	0.50185037
77	0xbeeb9e33	-0.46019134
78	0xbf067bf4	-0.5253289
79	0x3ed1e9fc	0.40998828
80	0xbf09d51b	-0.538408
81	0xbed17c7d	-0.4091529
82	0xbf11fbcc	-0.57024837
83	0xbebf4551	-0.37357572
84	0x3f33816f	0.70119375
85	0xbe4ff19f	-0.20307015
86	0xbec4740d	-0.3836979
87	0xbf28367b	-0.6570813
88	0x3f10bf25	0.56541663
89	0x3eef6271	0.46754792
90	0xbe80e629	-0.25175598
91	0xbf0100a3	-0.50391597
92	0x3f14f990	0.581933
93	0xbf065369	-0.52471024
94	0xbecdcce4	-0.40195382
95	0x3e9d345c	0.3070401
96	0xbf2e15a5	-0.68001777
97	0xbebc4eb9	-0.3677881
98	0x3ebb2e79	0.36558893
99	0x3e063784	0.13107115
100	0x3f449c2b	0.76800793
101	0xbf6eb190	-0.9323969
102	0xbf18ffbc	-0.5976522
103	0xbef2c63e	-0.47416872
104	0x3f027178	0.5095439
105	0x3ed6acc9	0.419287
106	0xbedc8582	-0.43070608
107	0xbf2d3c0a	-0.6766974
108	0xbee7154a	-0.4513343
109	0x3f12220c	0.570832
110	0x3f0e57c0	0.55602646
111	0x3f196109	0.5991369
112	0x3ec596be	0.3859157
113	0x3f2d2e88	0.67649126
114	0x3f01d660	0.50717735
115	0x3eaa6d86	0.33286685
116	0x3f2aa3ee	0.66656387
117	0xbe509f57	-0.20373283
118	0x3ebf6f93	0.37389812
119	0xbf12c7cc	-0.57336116
120	0xbea8d63f	-0.32975957
121	0x3f09f0e0	0.5388317
122	0x3e65cb01	0.22440721
123	0x3ec77613	0.3895727
124	0x3e2d646a	0.16932836
125	0x3ea5cb30	0.32381582
126	0x3ecf98a6	0.4054615
127	0x3ea095c1	0.31364253
128	0xbedc0bce	-0.42977756
129	0x3eb7697f	0.35822675
130	0xbf2b8aeb	-0.67008847
131	0x3f167133	0.5876648
132	0x3f2a141d	0.6643694
133	0x3ef9a365	0.48757473
134	0xbecd3e43	-0.40086564
135	0xbe54dfae	-0.20788452
136	0xbf6c1726	-0.9222282
137	0xbf31ddcc	-0.6947906
138	0x3ef8edbe	0.48618883
139	0xbf05f6e3	-0.52329844
140	0x3e7c1458	0.24617136
141	0x3e7037c0	0.23458767
142	0x3f6099c8	0.8773465
143	0x3f002ae9	0.50065476
144	0xbee287e1	-0.44244292
145	0x3ee8f828	0.45501828
146	0x3ec07238	0.37587142
147	0x3ef09dab	0.4699529
148	0x3e1e822c	0.15479344
149	0x3f83ef9f	1.0307502
150	0xbe9308b3	-0.28717574
151	0xbf1cb129	-0.61207825
152	0xbf005d0a	-0.50141966
153	0xbedbc50f	-0.4292378
154	0x3f1a8623	0.60360926
155	0x3f227198	0.6345458
156	0x3f44b263	0.76834697
157	0x3f0a08eb	0.5391986
158	0xbeacc892	-0.33746773
159	0x3ed611a8	0.41810346
160	0xbf0debc9	-0.55437905
161	0x3ee43414	0.44570982
162	0x3f29197e	0.66054523
163	0x3f646bea	0.89227164
164	0xbed1fc44	-0.41012776
165	0x3f2f13e7	0.68389744
166	0xbf55a315	-0.8345197
167	0xbe0b668c	-0.13613337
168	0xbee2b866	-0.4428131
169	0x3eda3a23	0.4262248
170	0x3e6913e1	0.2276149
171	0xbec0e89e	-0.37677473
172	0x3f03f118	0.51539755
173	0xbf421ccf	-0.7582521
174	0x3f0d7ded	0.5527027
175	0xbf3834a7	-0.7195534
176	0xbf071d22	-0.5277883
177	0xbeee327b	-0.4652289
178	0xbe810b7b	-0.2520407
179	0x3e638ceb	0.22221725
180	0xbe858b75	-0.2608296
181	0x3d54afdf	0.051925536
182	0xbf134fbd	-0.57543546
183	0x3f187469	0.5955263
184	0x3ec56215	0.38551393
185	0xbf14e0f1	-0.58155733
186	0xbeb63a07	-0.35591146
187	0x3f134315	0.57524234
188	0xbe4996fe	-0.19686505
189	0x3efe2740	0.4963932
190	0x3e98b8d8	0.29828525
191	0x3e4b8b8e	0.19877455
192	0x3ef37e8f	0.47557494
193	0x3ed36fc5	0.4129621
194	0x3f203f28	0.6259637
195	0xbf16b6ae	-0.588725
196	0x3f2430d2	0.64136994
197	0xbf0ff3ce	-0.5623139
198	0x3ed61b69	0.41817787
199	0xbee5e4db	-0.44901165
200	0xbf0fcdb6	-0.56173265
201	0x3eb34db9	0.35020235
202	0xbef9da70	-0.48799467
203	0x3e8a200f	0.26977584
204	0x3f155e91	0.5834742
205	0xbeb6517d	-0.35609046
206	0xbf236d7a	-0.6383892
207	0x3e9848c4	0.29743016
208	0xbf2fa1fa	-0.6860653
209	0xbf3f1db8	-0.7465472
210	0xbedda562	-0.4329024
211	0xbf0f2a68	-0.5592408
212	0x3efae53d	0.4900302
213	0xbe585ba7	-0.21128713
214	0xbed485eb	-0.4150842
215	0xbf10011a	-0.5625168
216	0x3f38167a	0.71909297
217	0x3f1ff834	0.624881
218	0xbe349de4	-0.17638355
219	0xbf051ad2	-0.5199405
220	0x3eddbdf4	0.43308985
221	0xbf1516ea	-0.5823809
222	0xbe813249	-0.25233677
223	0x3ea0d34e	0.31411213
224	0xbf0038b4	-0.5008652
225	0xbef06fc3	-0.46960267
226	0x3e4db7c3	0.20089631
227	0x3e43b779	0.19112958
228	0x3f00b696	0.50278604
229	0xbf6915ac	-0.91048694
230	0xbf0782b9	-0.5293384
231	0xbf124e9d	-0.57151204
232	0x3ed00293	0.40626964
233	0x3f0540b9	0.52051884
234	0xbf0c00f8	-0.5468898
235	0xbf2a44c2	-0.66511166
236	0x3d41429d	0.047182668
237	0x3ec87786	0.3915369
238	0xbd0bc8ed	-0.034127165
239	0x3e52f733	0.20602112
240	0x3f0ee927	0.5582451
241	0x3f177a92	0.591714
242	0xbe8b89d6	-0.27253598
243	0x3f05758c	0.5213249
244	0x3f2587c4	0.64660287
245	0x3e8182f1	0.25295213
246	0x3ebbdef7	0.36693546
247	0xbed3c5df	-0.413619
248	0xbe8ab35f	-0.27089974
249	0x3f2f0cab	0.68378705
250	0x3eb84044	0.3598653
251	0x3e71b55b	0.23604338
252	0x3dc3b787	0.095564894
253	0x3e8c713c	0.2743014
254	0x3e39df49	0.18151583
255	0x3eb26ae8	0.34847188

linear2.bias f4 [3]
0	0x3e90eaba	0.28304082
1	0x3e872f28	0.26403165
2	0x3e9b090d	0.30280343
