continous_state/pretrained/dqn/dqnVE10_1000.pt (torch, 37699 bytes, 4 tensors)

linear1.weight f4 [1000, 5]
000000 0e 7d 1b bf da 7d 39 bf 95 50 86 c0 45 e7 2d bf
       -0.60737693 -0.7245766 -4.1973367 -0.67931014
000010 0e ed 84 3f 25 44 4b 3f 4f 2c b3 3e d0 1d f3 bd
       1.0384843 0.79400855 0.34994742 -0.11870921
000020 b9 73 a6 be b4 fb 92 bf ac 98 95 3e cd 9b 20 3f
       -0.32510164 -1.1483064 0.29218042 0.62737733
000030 4e 5d a8 40 65 e8 26 3f 23 e0 ce be 8a a7 77 bf
       5.2613897 0.65198356 -0.40405378 -0.9674002
000040 9a b1 00 3f 1e 7f d8 40 d1 fe ee 3f bb 00 8a bf
       0.50271 6.765517 1.8671514 -1.0781473
000050 28 8f 03 3f 4a 51 6b 3f 44 1f 81 3f fb fe 3f 3f
       0.51390314 0.9192091 1.0087667 0.74998444
000060 da 2b 28 3f 95 07 c4 c0 29 9b b3 bf db b5 ce 3f
       0.6569191 -6.1259255 -1.4031726 1.6149248
000070 82 fa d3 be 79 50 fd 3e 08 3c 95 bf fb 41 fb 3f
       -0.4140206 0.49475458 -1.1658945 1.9629511
000080 a5 c3 ef 3f b8 b4 a4 3f 12 6a 98 bf 15 91 24 bf
       1.8731581 1.2867651 -1.190737 -0.6428388
000090 6b 0b 25 bf a5 d6 ad bf ee 52 4d be ca f7 93 3f
       -0.6447055 -1.3581129 -0.20051166 1.1559994
0000a0 83 3e 2f c0 68 76 20 bf e4 f5 94 3f 2a 03 05 3f
       -2.7381904 -0.62680674 1.163754 0.5195795
0000b0 d3 ca 99 bf 5d 1e 11 3f d9 4e 6a 3f 41 9b 5e 40
       -1.2015022 0.56686956 0.9152656 3.478226
0000c0 15 42 73 3f c8 34 86 bf 8b 2a 04 3f 91 4f c5 be
       0.9502271 -1.0484858 0.51627415 -0.38537267
0000d0 cc 3b fe c0 cf 6b 5a bf 2b 3f 67 3f 4e 46 01 41
       -7.9447994 -0.8532075 0.9033076 8.079664
0000e0 e1 aa e6 3f b5 03 7d c0 bb 32 8f 3e b3 bb 60 3f
       1.8020898 -3.9533513 0.27968392 0.87786406
0000f0 f9 db 3f 3c a6 00 9f 3d 83 95 42 bf df da a3 be
       0.01171016 0.077637956 -0.76009387 -0.32002923
000100 c0 39 83 3e 08 b8 11 3f ae 0e 96 3f 7c 6d 38 3f
       0.25629997 0.56921434 1.172323 0.7204206
000110 4f dc 18 3f bc e9 93 3f 6c 77 17 3f b3 50 89 3f
       0.59711164 1.1555705 0.591666 1.0727752
000120 d1 48 72 40 36 04 52 3f c1 dd c5 3f 2a d6 49 3f
       3.7856944 0.82037675 1.5458299 0.78842413
000130 b1 ef 31 c0 d9 01 17 c0 ec 9f d7 bf 85 6d 3b 3f
       -2.7802546 -2.3594878 -1.6845679 0.7321399
000140 b6 6c fa 3e 16 e3 11 3f 16 1a 85 40 69 8a 0a 40
       0.48911065 0.5698713 4.1594343 2.164698
000150 ba a7 de 3e 03 86 0c 3f 1a 74 a9 3f 12 aa b3 3f
       0.4348734 0.54891986 1.3238556 1.4036276
000160 48 41 50 3f af 75 7c 3f 20 6e a7 40 03 08 ac 3f
       0.8134961 0.9861707 5.232193 1.3439945
000170 69 b2 8e be f7 ab 02 be af 57 0b 3f a2 08 0e 3e
       -0.2787049 -0.12760912 0.5443067 0.1387048
000180 d0 09 3d 3f ae d8 e5 be 42 e9 75 bc fd 3e 65 be
       0.738431 -0.44891876 -0.015009226 -0.2238731
000190 95 61 68 c0 1b 76 21 c0 f5 0a 5f c0 17 39 9b bf
       -3.630956 -2.5228336 -3.4850438 -1.2126797
0001a0 76 9f d7 be 75 b5 a0 3e fb b3 a3 3f 91 ba 45 40
       -0.42113847 0.3138844 1.2789301 3.089512
0001b0 0d b2 9b 3f e2 03 41 3f 07 9f be bd 1f f6 c2 3d
       1.2163712 0.7539655 -0.09307676 0.095196
0001c0 c3 94 9b be 2d 5e b8 3e 48 f0 df be eb 44 93 3e
       -0.30386934 0.3600935 -0.43738008 0.28763518
0001d0 9c b3 2f 3f e1 43 3f 40 41 20 56 3f d8 fc 7e be
       0.6863344 2.988518 0.83642966 -0.2490114
0001e0 a3 62 80 3e a3 34 da be 9e 8b 4d bf 71 f2 2e bf
       0.25075254 -0.42618284 -0.80291164 -0.68338686
0001f0 96 38 02 3f 69 c4 59 c0 a3 7b 66 c0 c5 6d ed be
       0.50867593 -3.402613 -3.6012962 -0.4637281
000200 31 fe d1 bf d1 40 06 3f dc 6d d3 be 7a 90 1e bf
       -1.6405698 0.5244265 -0.41294754 -0.61939204
000210 9a 4a 1c c0 1a 0b 8a bf 78 d1 55 3f c1 24 79 3f
       -2.4420533 -1.0784638 0.8352275 0.97321707
000220 2c 09 91 40 8b d2 6a 3f 11 48 2f 40 2d 27 5f bf
       4.5323696 0.91727513 2.7387736 -0.8716915
000230 f4 9e 25 3e df e0 ea be 78 21 81 bf 54 08 61 bf
       0.16173917 -0.45874688 -1.0088339 -0.8790333
000240 55 d3 1b 3f ce f0 e1 3e 09 93 57 bf b7 15 94 bf
       0.6086934 0.44129032 -0.8420873 -1.1569127
000250 44 f1 f1 bf ea 99 9a 3f 09 5a d4 3e 53 d8 04 be
       -1.8901753 1.2078221 0.4147494 -0.12973146
000260 72 79 08 3f 3b bf ae 3f 91 93 04 be dd 89 95 3f
       0.5331031 1.3652109 -0.12946917 1.1682698
000270 9c b9 f0 3e 8f be 62 c0 eb aa 92 3c cc 13 05 c0
       0.4701661 -3.5428808 0.017903766 -2.0793333
000280 49 9a a2 3c 02 10 af 3d 53 e5 76 bf 69 25 83 3e
       0.01984896 0.08547975 -0.9644367 0.2561448
000290 c2 40 d4 3e 1c fd 49 3f 94 f5 e7 bf fc 93 95 c0
       0.41455656 0.7890184 -1.812182 -4.6743145
0002a0 28 27 09 c0 c0 ad 00 40 45 bd 72 3d ce 1e 21 bd
       -2.143015 2.0106049 0.059262533 -0.03933602
0002b0 2f 7e da 3f 12 f7 d2 bd c0 12 88 be d8 66 0a 3e
       1.7069758 -0.10301031 -0.26576805 0.13515794
0002c0 f8 df 01 bd f9 69 93 3e 71 d9 19 3e 52 64 8a be
       -0.031707734 0.28791788 0.15024354 -0.27029663
0002d0 3e 89 c7 bf f1 df 80 c0 22 a0 5b c0 30 a1 4d c0
       -1.5588758 -4.0273366 -3.4316487 -3.212963
0002e0 e6 18 ed be 29 e0 67 3e 97 87 70 3f e9 fc b4 bf
       -0.46308059 0.22644104 0.93956894 -1.4139682
0002f0 dd e9 7b bf 0e 70 92 be 5c ba 22 be a8 28 57 3e
       -0.9840372 -0.28601116 -0.15891403 0.21011603
000300 88 3e b3 3f 6a 76 3e 3e 11 a1 fe be 12 96 90 be
       1.4003458 0.18599859 -0.4973226 -0.28239495
000310 ff 38 08 3f 2c 09 a6 3f a9 bc f2 3e c7 32 02 bf
       0.5321197 1.2971549 0.4740956 -0.5085873
000320 6b 13 f8 bf 86 b3 35 c0 7e 02 92 c0 3c 91 83 bf
       -1.9380926 -2.8390822 -4.562804 -1.0278697
000330 72 4f 12 bf 53 29 3d bf bf 1b 8a bf 20 41 55 3f
       -0.57152474 -0.7389118 -1.0789717 0.833025
000340 14 af c0 3f e5 0c a2 3f e9 03 03 bd 1d 6f 90 be
       1.505343 1.2660185 -0.03198615 -0.28209773
000350 1f de 2c bf 96 7a 76 3f 96 a5 39 3f 2f e9 7e bd
       -0.6752643 0.962808 0.7251829 -0.0622341
000360 72 fe 92 3d 87 6f db bf 8f 05 09 3e c1 ee b5 3e
       0.07177438 -1.714341 0.13381027 0.35533717
000370 92 cb 1f 3f d9 df 7f 3f 59 25 38 3f d3 aa 2b 3f
       0.6242 0.9995094 0.7193199 0.6705753
000380 13 ba 72 3f 90 59 ca bd de f6 46 bc b7 17 49 3e
       0.94815177 -0.09880364 -0.012143819 0.19637953
000390 37 ad 8c be 0d 57 14 3e 6b a8 2f 3f fc d5 9a 3d
       -0.27475902 0.14486332 0.6861636 0.075603455
0003a0 6d 09 9e 40 05 a5 a0 3e 21 b1 55 bf da 7f cc bf
       4.9386506 0.313759 -0.834734 -1.5976517
0003b0 9a 1c 29 40 b2 68 56 40 02 8f 8e 3f 73 6c 1d 3f
       2.6423707 3.35014 1.1137393 0.61493605
0003c0 9f 86 92 bf dd 86 ba 3f df cd b6 40 35 f1 2b 40
       -1.1447333 1.4572407 5.7126307 2.686597
0003d0 71 23 fe bf 92 bc f2 be ab 93 9a bf a1 e1 bf bf
       -1.9854566 -0.47409493 -1.2076315 -1.4990731
0003e0 ba 5c 76 bf 23 2f 56 bf 99 ba 6f be 98 ef c9 3e
       -0.9623524 -0.83665675 -0.23411025 0.39440608
0003f0 f0 17 87 3f 15 c2 12 3f b2 ad f6 be aa 62 54 bf
       1.055418 0.57327396 -0.48179394 -0.8296305

linear1.bias f4 [1000]
000000 ff 34 9f 3f 31 98 8d bf 47 65 79 bf 5b 51 6e bf
       1.2438048 -1.106207 -0.9742016 -0.9309289
000010 a0 15 aa 3f 83 95 57 bf a5 d9 cc bf f9 36 86 3f
       1.328785 -0.8421251 -1.600392 1.0485526
000020 1c cc d8 be 57 75 a2 bf 32 b0 88 3f f5 7e 03 3f
       -0.42343223 -1.2692059 1.067877 0.51365596
000030 f8 df eb bd 86 11 9c 3f 93 83 63 3f 5d 18 43 3f
       -0.11517328 1.2192848 0.8887264 0.7620905
000040 98 d7 72 3f cd 0d ba 3f 07 c3 33 3f dc ff 08 3f
       0.9486022 1.4535462 0.70219463 0.5351541
000050 a1 8d ff be e6 9e 91 3f 61 fc 30 bd 59 59 89 bf
       -0.49912742 1.1376617 -0.043209437 -1.0730392
000060 5b 30 90 3d 4d ed 42 3c 7e fd 4a 3f 5e 55 91 be
       0.07040473 0.011897397 0.7929305 -0.28385442
000070 b8 5e 30 3d 1e 50 75 be 54 82 07 bf 1e fc 8d bf
       0.04305908 -0.23956344 -0.5293324 -1.1092565
000080 46 be bb 3e f1 cc 2b 3f a4 4d 7b 3d a8 11 e4 3e
       0.36668605 0.6710959 0.06135334 0.4454472
000090 cd 65 13 bf f2 41 0c bf 07 79 87 3d e6 b9 48 be
       -0.5757721 -0.54788125 0.06614881 -0.19602165
0000a0 c8 df 86 be 2e 2e 8f 3f 79 f5 f2 3d bc 2e b2 bd
       -0.26342607 1.1185968 0.118632264 -0.0870032
0000b0 46 6b b1 3f a5 90 18 bf 83 95 9e bf 7d a7 38 3f
       1.3860862 -0.5959571 -1.2389377 0.72130567
0000c0 0a c6 98 bf 64 5a a9 bf a4 e3 da bd 7d 45 a8 bf
       -1.1935437 -1.323071 -0.1068795 -1.3146206
0000d0 13 e9 27 bf 20 68 33 3c ac 9d 33 bf 53 2a 4f bf
       -0.6559002 0.010950118 -0.70162463 -0.80923957
0000e0 28 ca 95 3f 1d d4 9f 3f 79 b1 49 3e f4 cc 4a 3e
       1.1702318 1.2486607 0.19696607 0.19804746
0000f0 3d 65 60 bf 73 f3 36 3f f2 b6 f9 3e 34 6d 1f 3e
       -0.8765448 0.71465224 0.4877239 0.15569001
000100 fb 7d 31 bf 42 f1 0b bf de c6 8d 3f f1 b2 cd be
       -0.69332856 -0.54665005 1.1076314 -0.40175584
000110 4e 3e 87 be 6c 6f 49 3f e2 f0 82 bf a5 eb 8e 3f
       -0.26414722 0.7868564 -1.0229762 1.1165663
000120 24 d7 0a bf 45 52 23 3e 41 e8 17 3f 43 90 7b bf
       -0.5423453 0.15949352 0.59338766 -0.98267
000130 69 be 0a bc 1a 36 47 bf f7 85 55 3f fb b2 25 bc
       -0.008468249 -0.7781693 0.8340754 -0.010113473
000140 9a da 79 3e 3e cc ae 3c 84 53 7f bf 99 89 c1 3e
       0.24399796 0.021337625 -0.9973681 0.3780029
000150 e4 a5 8d 3f 6e e2 8f bf 85 9d 8c bf 1f 93 0f 3e
       1.1066251 -1.1240976 -1.0985571 0.14020966
000160 4d 69 ec 3e 94 ae 85 bf 44 80 26 3f 9b fb b6 bf
       0.46174088 -1.0443902 0.6503947 -1.4295534
000170 84 64 90 bf 1e f5 90 bf f7 bc a0 bf 83 ad 97 bf
       -1.1280675 -1.1324804 -1.2557667 -1.1849827
000180 ce 3c bb bf 14 29 62 3f a4 f0 18 be 3a 77 b4 be
       -1.4627931 0.8834393 -0.14935547 -0.35247213
000190 32 30 08 bf bc 61 a2 bf 88 d1 90 3f e0 b8 4b 3f
       -0.5319854 -1.2686076 1.1313944 0.7957897
0001a0 ac 76 81 bd 85 67 80 3e a7 10 6e bf 07 0b 6f bf
       -0.06321463 0.2507898 -0.9299416 -0.933762
0001b0 34 c8 29 bd 85 a7 f7 3e 07 c7 44 3d 01 68 28 3f
       -0.041450694 0.48369995 0.04804137 0.657837
0001c0 c5 78 a0 3f 6e ac af 3d 08 c1 c8 bd 12 a8 9a 3f
       1.2536856 0.0857781 -0.09802443 1.2082541
0001d0 45 d0 0b bd c3 2d 83 3e a0 9c 89 be 98 f0 93 3e
       -0.03413417 0.2562085 -0.26877308 0.28894496
0001e0 5f 29 1a bf dc 80 4d 3d 7b c6 ab bf 36 0a 6e 3f
       -0.6021938 0.050171718 -1.3419946 0.9298433
0001f0 2b 35 cf be 6d d9 5d bf a5 d6 52 3f ec 53 c6 bc
       -0.4047025 -0.8665989 0.8235877 -0.024209939
000200 e3 85 d7 bd a2 f3 04 3f b7 38 5b 3f 0e e6 79 bf
       -0.10523584 0.51934254 0.85633415 -0.9761666
000210 3d 9a 02 3f 3c 9f 9f 3f a5 b9 00 3f 95 c4 7b 3f
       0.510166 1.247047 0.5028327 0.98346835
000220 d3 e2 27 3f d4 11 ee 3e 05 a8 72 3f b0 62 2c bf
       0.6558048 0.46497977 0.9478763 -0.67338085
000230 c6 a9 d6 3e dc 56 a7 3f 77 fe 65 bf 86 12 06 3f
       0.41926402 1.3073382 -0.8984141 0.52372015
000240 58 05 82 bf 15 e6 f8 be aa fe 82 bf 70 72 3c 3f
       -1.0157881 -0.4861304 -1.0233967 0.7361212
000250 a8 ea fd 3e b0 c5 d2 be ae 7e 66 bc 90 cf ec 3e
       0.4959309 -0.4116645 -0.014068289 0.46252108
000260 2c 09 8c 3e 19 45 88 3f 3d 9f 4d 3f 44 41 c1 3f
       0.27350748 1.0646087 0.80321103 1.5098042
000270 c8 e4 27 bf 4c 41 bf bf 74 f3 a7 bf 8c 10 c3 3f
       -0.6558347 -1.4941802 -1.3121171 1.5239425
000280 43 d3 78 bf e1 27 89 3f 97 ec e6 be 80 05 97 3f
       -0.9719736 1.0715295 -0.4510238 1.1798553
000290 79 f1 8e be 31 47 98 3e ae 3b 89 bf a3 3a d1 3d
       -0.27918604 0.29741815 -1.0721338 0.10216262
0002a0 a9 bc 8e bf f9 28 35 3d 01 15 cd 3c 4b 49 6f bf
       -1.1151325 0.044228528 0.02503443 -0.9347121
0002b0 af 60 8c 3f fc bd 9e 3f 86 78 94 3d d7 b8 16 3f
       1.0967005 1.2401729 0.072495505 0.58875793
0002c0 1d 2b b0 3f b7 62 f6 3e 6e 80 91 bf 89 80 03 3f
       1.3763157 0.48122188 -1.1367319 0.51368004
0002d0 6a f8 88 3f 23 c8 57 3f d6 34 90 bf ae 31 25 3d
       1.070081 0.8428976 -1.1266124 0.04033058
0002e0 5b eb 9f 3f 03 19 91 3b 22 45 93 3f c4 fd 8b 3f
       1.24937 0.0044280305 1.1505473 1.0936818
0002f0 af 50 63 bf be 31 ce be 90 76 47 bf 01 39 49 3f
       -0.8879499 -0.40272325 -0.77915287 0.78602606
000300 3b 9d 85 3f 35 cc 2e 3f e0 55 84 3f 4a 9d 40 3f
       1.0438608 0.68280345 1.0338707 0.75240004
000310 ce 42 50 bf 06 e2 27 bf 95 ce 85 3f db 7f 88 3f
       -0.81351936 -0.6557926 1.0453669 1.0664018
000320 ae 4d e3 3e 33 d3 61 bf b9 e8 71 be fb 2b 03 40
       0.44395202 -0.8821289 -0.23623933 2.0495594
000330 43 95 82 bf 45 cd 50 3f c8 d3 8f 3f 4e a9 b5 3f
       -1.0201801 0.81563216 1.1236506 1.4192293
000340 ae 17 9a bd be 66 a5 3b 36 13 4a 3d 7e 58 c9 3f
       -0.07524048 0.005047648 0.049334727 1.5730131
000350 ff f4 ac bf f8 49 71 bf a8 de 3e 3e 67 0b dc 3f
       -1.3512267 -0.9425349 0.18639624 1.719098
000360 a3 61 01 bf eb bc 28 be b9 c2 9a 3f ad 60 a3 be
       -0.50539607 -0.16478316 1.2090675 -0.31909695
000370 77 59 6d 3f 4e 49 35 3e 16 24 7d 3f a1 34 bc bf
       0.9271464 0.17703745 0.9888319 -1.4703561
000380 86 2e f3 be 77 b7 a0 3f 3c 9b 32 bf 53 af 8b 3f
       -0.47496432 1.2555989 -0.6976812 1.091288
000390 5a 7a 0b 3f 26 f8 13 bf 1a 08 a1 bf 49 24 05 3e
       0.5448357 -0.5780052 -1.2580597 0.13002123
0003a0 70 83 8e 3f 9c ce 93 bd d9 61 ab bf 72 11 81 3f
       1.1133862 -0.07217142 -1.3389236 1.0083449
0003b0 3c d5 bc 3f c4 f5 98 3f cd 49 10 3f 9a 33 36 bf
       1.4752574 1.1950002 0.5636261 -0.7117249
0003c0 03 04 3b 3e d3 56 2d 3f eb 98 05 3d bb bf 4b bf
       0.18263249 0.6771061 0.032616537 -0.7958943
0003d0 f1 3d c1 3c ab 11 93 bf d9 c1 7f 3f 6b 8e 89 bf
       0.023589106 -1.1489767 0.99905163 -1.0746588
0003e0 de 9c 25 3e 9c 26 80 be 30 f9 8e bf 1e 87 66 bd
       0.16173121 -0.25029457 -1.1169796 -0.0562812
0003f0 f6 0f c3 be cb 51 02 3f f4 b3 ea bd 5a af 36 3f
       -0.38098115 0.50906056 -0.114601046 0.71361315

linear2.weight f4 [3, 1000]
000000 dc 72 93 3f 09 b0 20 bf dd 88 67 bf f4 5d cd bf
       1.1519427 -0.6276861 -0.9044321 -1.6044297
000010 e0 01 16 3f 09 f2 90 bf 1a 61 86 3f 60 ad 26 3f
       0.5859661 -1.1323863 1.0498383 0.651083
000020 72 85 6d 3f ce 9f 5b bf 1e 4e 09 40 f2 b1 e4 bf
       0.92781746 -0.8579072 2.145393 -1.7866805
000030 a1 38 7b bd 39 c8 0b 3f 3a f9 75 3f c7 6a 5c 3f
       -0.061333302 0.5460239 0.96083415 0.8610043
000040 8a c3 8d 3f 42 21 73 3f 98 b1 bd bf e1 e5 5f 3e
       1.1075299 0.9497262 -1.4819822 0.21865036
000050 37 7b 70 3f 6d 16 87 3f d6 58 92 3e 18 93 16 bf
       0.9393801 1.0553719 0.285834 -0.588182
000060 14 58 40 be 39 55 0d bf 74 d0 c1 bd 77 4c 4e 3f
       -0.18783599 -0.55208164 -0.094635874 0.80585426
000070 cf 90 84 bc c6 5a 24 be f4 34 d7 bb 50 97 aa bf
       -0.016182331 -0.16050252 -0.006567592 -1.3327427
000080 9b 8d 3e be c4 ba d7 bf 01 da 02 3f e4 36 21 3e
       -0.18608706 -1.6853871 0.511139 0.15743595
000090 33 7e 9f 3f 51 b2 09 bf 7a c2 7e 3e d1 c3 74 3e
       1.2460388 -0.53787714 0.24878874 0.23902823
0000a0 5f 4f 33 3f 14 fa 80 3f 04 e5 51 3d 69 aa 2e bf
       0.70042986 1.0076318 0.051243797 -0.68228775
0000b0 cd cc 19 3f 08 22 e9 bc f2 ec b0 bf cf b0 47 3f
       0.60078126 -0.02845861 -1.382231 0.78004164
0000c0 64 a9 18 40 15 69 4e bf 90 77 57 3e 93 c9 62 3f
       2.3853388 -0.8062909 0.21041703 0.8858883
0000d0 24 c9 36 3e 2f f0 f2 3d ce 09 84 bf 93 48 3e 3f
       0.17850167 0.11862218 -1.0315492 0.7432949
0000e0 47 4d 85 3f 70 92 69 3f 31 15 b2 bd c2 c8 df 3e
       1.0414208 0.9123907 -0.08695448 0.43707854
0000f0 f9 b6 90 3f 9f a2 d3 bf 7c 1b 02 bf 74 49 3d bf
       1.1305839 -1.6534003 -0.5082319 -0.73940206
000100 ad c5 03 bf 63 dc 3e 3f 79 77 04 40 24 a0 85 bf
       -0.51473504 0.74555033 2.069792 -1.0439496
000110 dc aa 31 3e a8 ed ce 3e 39 f6 22 40 cd b5 e9 be
       0.17350334 0.40415692 2.5462782 -0.45646515
000120 bb f5 90 bf 32 c8 39 be 27 d7 9f 3d 5f 7d 8a bf
       -1.1324991 -0.18142775 0.07804709 -1.081951
000130 e6 cb bf 39 f9 02 5a bf 61 d0 d7 3e 17 db 82 be
       0.00036582275 -0.85160786 0.42151168 -0.25557777
000140 0d e6 16 be 18 48 9d bd e0 8c 7f bf 4f 07 0e bf
       -0.14736195 -0.076797664 -0.99824333 -0.554799
000150 78 5b 96 3f cb f7 c0 bf 91 b1 49 bf 50 90 be 3e
       1.1746664 -1.507562 -0.7878657 0.37219477
000160 ed 90 d3 3e 93 fa 1d bf 18 de 90 3e b5 5b 3c 3f
       0.41321507 -0.6171047 0.28294444 0.73577434
000170 83 8a a9 be ca e7 82 bf ba 86 6e 3f 02 52 50 3f
       -0.3311349 -1.0226986 0.93174326 0.81375134
000180 92 a0 af bf f8 44 2a bf 78 0b ed 3e c4 f7 ac be
       -1.3720877 -0.6651149 0.46297812 -0.3378278
000190 0a 19 26 3f e3 53 96 bf 18 87 85 3f 51 c9 b6 3e
       0.64881957 -1.174435 1.0431852 0.35700467
0001a0 33 2f cb bc b9 07 0f 3e ed 80 4d bf 4c 08 88 bf
       -0.02480278 0.1396779 -0.8027485 -1.0627532
0001b0 6a e0 c8 3f d3 0b 79 3e 9a 26 39 ba 5c db db bd
       1.5693486 0.24320917 -0.0007062942 -0.10735199
0001c0 e0 cf 3b 3f fd 4e bb be ee a8 06 3e 31 08 84 3f
       0.7336407 -0.365837 0.13150379 1.0315
0001d0 d7 09 69 3b 5f 73 1c be 01 09 23 3e f3 3b 48 be
       0.0035558844 -0.15278386 0.15921403 -0.19554119
0001e0 a5 53 86 be ea 03 a4 bf 8a ba 52 bf de a1 d7 be
       -0.2623569 -1.2813694 -0.82315886 -0.42115682
0001f0 a7 7f 5b 3e 23 e9 03 bf 92 6f c3 bf 07 32 5b be
       0.21435414 -0.51527613 -1.5268424 -0.21405803
000200 71 47 6c 3e 64 8f 5b bf 91 08 3e 3f d1 39 4e bf
       0.23074128 -0.8576567 0.7423182 -0.8055697
000210 3b 6a 08 3f 30 8c 89 bf 97 6a d6 bd 1f a2 40 3f
       0.53287095 -1.0745907 -0.10469549 0.7524738
000220 61 b3 d8 3e a9 5f 81 3f 3a 3f 26 3f f4 e7 4d be
       0.42324355 1.0107318 0.64940226 -0.20108014
000230 a4 46 07 bf 4f 93 8c 3f b7 57 41 bf 5a 0f 7f 3f
       -0.52842164 1.0982455 -0.7552447 0.996328
000240 08 b7 61 3f 40 ee 99 be 51 85 6c bf e5 69 84 3f
       0.8816991 -0.30064583 -0.92390925 1.0344816
000250 2c ee 95 bd 11 e4 04 3f 7d cc f1 3e 9b dc 17 3f
       -0.07320818 0.519105 0.47226325 0.5932099
000260 f9 5f 12 be 07 df d4 3e c3 f9 df 3f d8 d6 83 3f
       -0.14294423 0.41576406 1.7498096 1.029994
000270 e7 53 92 bf 84 2c a5 3f fa 44 09 3f 6a ae a8 3f
       -1.1431855 1.290421 0.53620875 1.3178227
000280 be 8e 3e bf 10 99 91 3f bd cf 01 3e 20 d5 bd 3f
       -0.7443656 1.1374836 0.12676902 1.4830666
000290 66 b6 47 3e 58 14 4e bf d3 1d 2d bf ba 92 ab be
       0.19503173 -0.8049979 -0.67623633 -0.3351038
0002a0 1e f4 e7 bf 49 e3 35 bb b9 10 86 3a 03 cc 84 bf
       -1.8121374 -0.002775388 0.0010228372 -1.037476
0002b0 7a bd 59 3f 26 a7 62 bf b7 7d 33 3e e8 d0 8e 3f
       0.85054743 -0.885363 0.17528425 1.1157503
0002c0 60 6e 88 3f 69 0e c7 be 08 6c 82 bf f3 d5 9c 3d
       1.0658684 -0.38878182 -1.0189219 0.07657995
0002d0 98 90 45 3f 3d 05 14 3f 66 22 0e bf c4 a9 92 3e
       0.7717376 0.57820493 -0.5552124 0.28645146
0002e0 79 76 8e bf 37 11 e1 3a 26 22 70 3f e2 51 db 3e
       -1.1129905 0.0017171268 0.93802106 0.4283591
0002f0 8d d9 18 3f 58 ce c1 3d dd 5d a4 3b 10 45 05 3f
       0.59706956 0.09463185 0.005016072 0.52058506
000300 88 81 50 bf c9 55 87 3f 77 98 2e bf 8d 69 a2 3f
       -0.8144765 1.0573055 -0.6820139 1.2688462
000310 64 a3 88 3e 2d 59 18 bf 18 73 7e bf 6d cf d8 3f
       0.26687157 -0.5951107 -0.9939437 1.6938301
000320 7d 70 1b 40 71 2d 2b c0 b6 87 02 3b eb 2a 8a 3f
       2.4287407 -2.6746485 0.0019917316 1.0794348
000330 e4 1a 70 bf 03 a3 2d 3f 42 29 ae 3f 43 48 a9 3f
       -0.9379103 0.6782686 1.3606341 1.3225178
000340 7d f3 85 be 7b 25 54 3e 6f 29 09 b8 4a cb 8c 3f
       -0.2616233 0.20717423 -3.2701933e-05 1.0999539
000350 df 7e a7 bf 34 8e 81 bf 11 94 62 3e 66 bf 05 c0
       -1.3085593 -1.0121522 0.22126795 -2.089807
000360 4f e5 2f 3d 66 7d 45 3e d1 a4 bc 3f b4 31 83 3e
       0.042943295 0.19286117 1.4737798 0.25623858
000370 a3 2d 2d 3f 22 7c 46 3f c0 d2 49 3f a5 ea 98 bf
       0.6764776 0.7753316 0.78837204 -1.1946608
000380 c5 b2 06 3f 48 2d 3d bf 14 ac 1e 3e 15 0e 5a 3f
       0.5261653 -0.7389722 0.1549533 0.8517774
000390 dd 08 17 3f 2f 04 39 3f 81 cc ff 3f 3a 1a a3 be
       0.589979 0.7227201 1.9984285 -0.31855947
0003a0 cb fb 34 3f fd 88 fb bd a1 81 7a bf 5e ce 69 bf
       0.70696706 -0.12281988 -0.9785405 -0.91330516
0003b0 25 d5 31 3f 39 36 4e 3f 6b d9 23 be d8 a3 00 bf
       0.6946586 0.8055149 -0.16000907 -0.50250006
0003c0 ce a2 5e 3e 30 6b 1a 3f a2 20 3b bf ff 0c 98 3f
       0.21741793 0.60319805 -0.7309667 1.1878966
0003d0 bf 07 48 3a da a3 04 c0 cb a9 a7 3f d1 f8 f4 bf
       0.0007630549 -2.0725007 1.3098692 -1.9138433
0003e0 aa 66 11 be 19 48 9c be 79 ef 88 bf 01 b4 16 3e
       -0.1419932 -0.30523756 -1.0698081 0.14717104
0003f0 79 66 39 3e 5e 03 b2 3e 1c 86 3a be 53 b9 19 3f
       0.18105496 0.34768194 -0.18215221 0.6004841

linear2.bias f4 [3]
000000 a2 d1 b5 3e f8 61 87 3e 6a e1 25 bf
       0.355115 0.26441932 -0.6479708
