pretrained/VE/VE6_128.pt (torch, 29788 bytes, 5 tensors)

linear1.weight f4 [256, 8]
0.03462009 -0.21495068 -0.18180741 -0.17860492 0.043162994 -0.24381217 -0.3387124 0.004093593
-0.035489973 0.22474849 -0.1484354 0.0979176 -0.048362568 -0.04871697 0.21712185 0.1381117
0.27698612 0.33151188 0.58443534 -0.22769402 0.15741844 0.14862588 -0.099888414 0.1709072
0.23835328 0.05061529 0.57946324 0.4027224 0.23659013 0.30834004 0.14136082 0.23901448
0.20119599 -0.25685656 0.3886424 -0.33031568 0.26525497 -0.32517624 -0.23394015 -0.13828817
0.07702825 0.016341528 0.32331324 -0.19159251 -0.40874785 0.23309581 -0.41786838 0.20926355
-0.17441441 0.035173796 -0.45988312 -0.21177159 -0.33419234 -0.05800029 -0.26625735 -0.43763074
-0.06309742 0.19086803 0.13131988 0.2523205 0.2324377 -0.27625957 -0.14006098 -0.26607007
0.24078518 -0.037589915 0.4061312 -0.12986127 -0.17038563 0.07756701 -0.14576721 0.17652342
0.2210234 -0.19595157 0.20007767 -0.05684571 0.06620584 -0.00453627 -0.117030025 -0.25582668
-0.19182909 0.16439599 -0.33918104 0.20086823 0.176246 0.28992918 -0.13028064 -0.01630766
0.034154266 0.22947493 -0.24246243 0.12521437 -0.3064701 -0.088459335 0.30208397 0.28221154
0.15667978 0.16833325 -0.14144123 0.27702242 -0.14227208 -0.18031327 -0.33871505 0.2350858
0.19397135 0.016510133 0.18146954 0.03933368 -0.04162964 0.26284468 -0.28396782 0.09740684
0.09027789 0.325721 -0.32183397 -0.14327632 0.16324143 -0.24207173 0.3010757 -0.14809278
0.09421399 0.14994352 0.47235212 0.1527698 -0.32088733 0.16630192 0.34354523 0.31183326
0.08120472 -0.034761455 -0.21628927 0.009892166 -0.3344679 0.2954266 0.25773174 0.32613304
0.07773517 -0.13017827 -0.29682645 -0.013785409 0.05730155 0.25747216 0.13412014 0.013040065
0.3957513 0.24306522 -0.034881283 -0.08451354 -0.27169487 -0.11987443 -0.065233245 0.09076271
0.1797277 0.32019284 0.17271763 0.4232768 -0.050048996 0.13190567 0.31545022 0.13596667
0.15944952 0.26938298 0.29146686 -0.08840085 0.021692438 0.23522787 -0.084806964 -0.17779495
-0.20409179 0.10260631 0.6367236 0.084251955 0.2534657 -0.23296203 0.2777424 -0.26420015
-0.07726991 0.25999483 -0.10338952 0.31898633 0.17707779 -0.29001227 -0.16977912 -0.18688667
-0.17556547 -0.04364045 0.22431593 -0.034120712 0.12280554 -0.18086068 0.13994072 0.107042365
-0.3276536 0.042265303 -0.3464494 0.2298356 0.24794362 0.031565458 0.28711927 0.32248908
0.1789258 -0.046625115 -0.38425153 0.05483917 -0.04071904 -0.08739319 0.20169494 -0.04504061
0.20131475 -0.059991878 0.27698964 0.14631909 0.16903427 -0.027496248 -0.3818015 -0.0109842075
-0.07317613 -0.030536428 -0.18529354 0.36314636 0.15901057 -0.113518946 0.06917939 0.2649107
-0.0834522 -0.08110933 -0.3102066 0.06055806 0.2995315 -0.09115047 -0.16111794 -0.30926406
-0.24695626 0.06753841 -0.39953962 -0.061178695 -0.19885837 -0.20253222 -0.35648724 -0.076364115
-0.2293334 0.23513573 -0.021068139 -0.18501647 0.35923827 -0.20417944 0.23599134 0.39404583
-0.012863499 -0.14228024 -0.15988302 0.18352342 0.16506253 -0.006985042 0.22229366 -0.20825256
00000000: cccd 0d3d 081c 5cbe b92b 3abe 35e4 36be
00000010: aecb 303d e6a9 79be b66b adbe 8c23 863b
00000020: ef5d 11bd 7824 663e 73ff 17be 0689 c83d
00000030: d417 46bd 728b 47bd 3155 5e3e 276d 0d3e
00000040: 20d1 8d3e edbb a93e 8e9d 153f 9f28 69be
00000050: 4d32 213e 6231 183e 4c92 ccbd 4c02 2f3e
00000060: e212 743e fa51 4f3d b457 143f a131 ce3e
00000070: af44 723e bfde 9d3e e4c0 103e 36c0 743e
00000080: 5206 4e3e b482 83be 23fc c63e 231f a9be
00000090: 80cf 873e 807d a6be 028e 6fbe 6a9b 0dbe
000000a0: fdc0 9d3d abde 853c 5089 a53e d430 44be
000000b0: 6647 d1be abb0 6e3e d8f2 d5be 2f49 563e
000000c0: b199 32be 6612 103d cd75 ebbe a7da 58be
000000d0: 421b abbe b691 6dbd e252 88be 2311 e0be
000000e0: 3839 81bd e972 433e b878 063e 2730 813e
000000f0: 2604 6e3e e571 8dbe 256c 0fbe 563a 88be
00000100: 6490 763e e2f7 19bd 6ef0 cf3e 5afa 04be
00000110: 9279 2ebe 74db 9e3d 0044 15be 8ec2 343e
00000120: f553 623e 87a7 48be 29e1 4c3e 0cd7 68bd
00000130: ed96 873d fea4 94bb 70ad efbd b7fb 82be
00000140: d86e 44be 6c57 283e 23a9 adbe 67b0 4d3e
00000150: d579 343e 9971 943e 4a68 05be a497 85bc
00000160: 58e5 0b3d 7afb 6a3e 1248 78be 3238 003e
00000170: a6e9 9cbe 2b2a b5bd c0aa 9a3e 087e 903e
00000180: aa70 203e 8d5f 2c3e f8d5 10be e2d5 8d3e
00000190: c6af 11be 0ba4 38be 0f6c adbe 55ba 703e
000001a0: 6da0 463e 4240 873c 27d3 393e 5a1c 213d
000001b0: d783 2abd 9493 863e 3b64 91be 3d7d c73d
000001c0: 9de3 b83d e7c4 a63e 6cc7 a4be 07b7 12be
000001d0: c328 273e a7e1 77be 9826 9a3e a2a5 17be
000001e0: 44f3 c03d cb8a 193e 23d8 f13e b06f 1c3e
000001f0: 584b a4be 0d4b 2a3e 29e5 af3e 9ca8 9f3e
00000200: a94e a63d 0762 0ebd ef7a 5dbe c012 223c
00000210: 603f abbe 2842 973e 6af5 833e e9fa a63e
00000220: 9e33 9f3d 744d 05be a3f9 97be 32dc 61bc
00000230: 08b5 6a3d 64d3 833e ca56 093e ffa5 553c
00000240: ea9f ca3e 17e6 783e addf 0ebd 6f15 adbd
00000250: 971b 8bbe ba80 f5bd 0299 85bd cde1 b93d
00000260: 8a0a 383e 51f0 a33e e4dc 303e bdb7 d83e
00000270: 2d00 4dbd 4812 073e b182 a13e d93a 0b3e
00000280: bc46 233e 91ec 893e 253b 953e 810b b5bd
00000290: 57b4 b13c 93df 703e 46af adbd e10f 36be
000002a0: 70fd 50be 4223 d23d 5100 233f 4a8c ac3d
000002b0: 42c6 813e 998d 6ebe 4034 8e3e 3e45 87be
000002c0: b03f 9ebd 0b1e 853e e2bd d3bd 2d52 a33e
000002d0: e153 353e 7d7c 94be 94da 2dbe 385f 3fbe
000002e0: 6fc7 33be 54c0 32bd 13b3 653e 29c2 0bbd
000002f0: 7981 fb3d 8b33 39be 9f4c 0f3e 0739 db3d
00000300: 36c2 a7be 621e 2d3d d161 b1be 065a 6b3e
00000310: efe4 7d3e c84a 013d 4c01 933e 4a1d a53e
00000320: 5338 373e faf9 3ebd 9ebc c4be 0a9f 603d
00000330: 02c9 26bd 33fb b2bd 1e89 4e3e 817c 38bd
00000340: 7425 4e3e 0bba 75bd 96d1 8d3e acd4 153e
00000350: 5217 2d3e d03f e1bc 7c7b c3be 1bf7 33bc
00000360: 5edd 95bd 8827 fabc 97bd 3dbe 52ee b93e
00000370: abd3 223e 9f7c e8bd edad 8d3d 60a2 873e
00000380: fde8 aabd a61c a6bd 66d3 9ebe ba0b 783d
00000390: 315c 993e 19ad babd 1afc 24be dc57 9ebe
000003a0: 1ae2 7cbe 9451 8a3d 7590 ccbe 8396 7abd
000003b0: 87a1 4bbe 9b64 4fbe 7f85 b6be ca64 9cbd
000003c0: 60d6 6abe 6cc7 703e 1797 acbc f574 3dbe
000003d0: 14ee b73e 6a14 51be b7a7 713e 60c0 c93e
000003e0: 6dc1 52bc e9b1 11be 60b8 23be 90ed 3b3e
000003f0: 2706 293e c7e2 e4bb f3a0 633e 2940 55be

linearK2.weight f4 [6, 256]
-0.0130241625 -0.053882476 0.03167152 0.0036912397 -0.0015899312 -0.063217245 -0.05653506 -0.033440668
-0.058172185 -0.022579245 -0.040256623 -0.064924315 -0.03606985 -0.035614386 -0.0029544164 -0.04973998
-0.016332723 -0.021209415 0.04336833 -0.05630365 0.043890662 0.053338148 0.02590956 0.09289644
-0.013818605 -0.065956354 -0.01785007 0.056672473 -0.010121823 -0.045639075 -0.0351006 0.052565347
0.05621084 -0.025333468 0.014426954 0.03670213 -0.01631505 0.005393326 0.03150365 0.052077826
0.027324934 -0.0048897434 0.08901612 0.06703691 -0.006179203 -0.013889191 0.020897092 0.0007665386
0.022520555 0.06757694 0.054420467 0.042004284 -0.027579857 0.017919717 0.039215654 -0.040003262
-0.09008975 -0.0060487646 -0.02714449 -0.01991103 0.047387805 0.07463607 0.0022003865 -0.095627755
-0.015609076 0.04869576 -0.07159749 0.08777538 0.074376404 0.0684782 -0.08191485 -0.023684943
0.06025728 -0.009959011 0.038636893 0.09070225 0.0451615 0.020564575 -0.0008942331 0.015479351
0.06048667 -0.084933475 0.007558393 -0.023741836 -0.048479103 -0.0053950115 0.03104288 -0.036949053
0.038775783 0.059353285 -0.06511129 0.056567613 -0.060691603 -0.0116238585 0.0053020576 0.02731656
-0.055033457 0.025575023 0.060335055 0.022116225 -0.0519048 -0.028439336 0.06085095 -0.0065936577
-0.002148602 0.0051362114 -0.07138681 -0.019503623 0.009444294 0.07743208 0.05282519 -0.013046507
-0.00947236 0.018605923 0.004013643 -0.03664342 0.015213986 -0.019299667 0.05282503 -0.08398268
0.055670705 -0.052068852 -0.0061137276 0.006067071 0.007812444 0.0039439704 0.078923054 -0.10755639
-0.086527154 -0.08578786 -0.0018359687 0.00856499 -0.033654142 0.020946806 -0.102306664 -0.0020218971
-0.03427079 -0.071083605 0.050896846 -0.029823823 -0.10543639 -0.027384272 0.07604375 -0.02275365
0.08105067 -0.041267816 0.042823795 0.052864913 -0.030633938 -0.035281673 0.069822036 -0.019640649
0.0053746332 0.04936241 -0.027894137 -0.040855367 -0.034242295 0.05017054 -0.016300714 0.018185526
-0.013160108 0.007900238 -0.023405893 0.074136436 0.012906869 -0.01188038 -0.018684262 0.026308365
0.04133702 0.07162125 0.069418795 -0.05363426 -0.040379856 0.07476143 0.081526406 -0.0015348487
-0.0071869693 0.048191216 0.078692 -0.014223488 0.006084741 0.08382778 0.029992472 0.019980935
0.0010239766 0.038541827 -0.0750677 -0.0060068932 -0.013611673 -0.089451626 0.06879158 -0.01745984
0.006470323 0.039984494 -0.08601047 -0.0013182313 0.005278034 -0.09592394 -0.0043299957 -0.04472237
-0.07264219 -0.029253632 -0.033503074 0.032606944 -0.043542024 0.07273073 -0.053197872 0.021097902
0.020056756 0.022669414 -0.0020717366 0.0899034 -0.048172086 0.019984854 -0.04449382 0.0022787568
0.04252686 0.07572091 0.11941237 0.031441633 -0.053012017 0.08063146 -0.041415684 -0.014404671
-0.0051164636 0.036640733 0.043127038 -0.027131997 -0.046405327 -0.06402902 -0.034907803 -0.016791154
-0.031321336 0.041859906 -0.031716004 0.070077606 0.034699053 -0.018297277 -0.04413051 0.02489179
-0.023305058 -0.039257456 -0.022925183 -0.043970235 0.031541247 0.033482816 0.027449276 0.08487874
-0.013774494 -0.017906357 0.09599443 0.00096405187 -0.018097738 0.05671591 0.035472345 0.020284075
00000000: 4c63 55bc dfb3 5cbd ffb9 013d bae8 713b
00000010: 3d65 d0ba 0b78 81bd 4f91 67bd 15f9 08bd
00000020: f545 6ebd 1cf8 b8bc 21e4 24bd 0af7 84bd
00000030: fbbd 13bd 64e0 11bd e29e 41bb 26bc 4bbd
00000040: 34cc 85bc 5ebf adbc fda2 313d a89e 66bd
00000050: b2c6 333d 1a79 5a3d 4940 d43c 7d40 be3d
00000060: 6e67 62bc 2014 87bd 4f3a 92bc 6521 683d
00000070: 01d6 25bc 0af0 3abd a6c5 0fbd c34e 573d
00000080: 563d 663d 2288 cfbc 085f 6c3c f954 163d
00000090: 24a7 85bc 7fba b03b f909 013d 8f4f 553d
000000a0: 8ad8 df3c 243a a0bb 154e b63d a64a 893d
000000b0: e97a cabb 7d8f 63bc 6130 ab3c 89f1 483a
000000c0: 077d b83c c765 8a3d ffe7 5e3d af0c 2c3d
000000d0: 27ef e1bc 5fcc 923c 98a0 203d 76da 23bd
000000e0: fa80 b8bd b734 c6bb 1f5e debc 751c a3bc
000000f0: b719 423d ccda 983d 5c34 103b 7cd8 c3bd
00000100: 36bd 7fbc 3575 473d b4a1 92bd 94c3 b33d
00000110: a852 983d 4c3e 8c3d f9c2 a7bd ed06 c2bc
00000120: 56d0 763d 1f2b 23bc b841 1e3d 1ac2 b93d
00000130: 44fb 383d 0a77 a83c f86a 6aba 1b9d 7d3c
00000140: dfc0 773d 9af1 adbd 65ac f73b 3d7e c2bc
00000150: 0692 46bd a3c8 b0bb a34d fe3c e457 17bd
00000160: 5bd3 1e3d 6e1c 733d 1159 85bd 71b3 673d
00000170: c297 78bd ff71 3ebc e2bc ad3b fac6 df3c
00000180: c36a 61bd b682 d13c e421 773d 162d b53c
00000190: 219a 54bd 9cf9 e8bc d93e 793d 9c0f d8bb
000001a0: 8fcf 0cbb aa4d a83b 3f33 92bd 10c6 9fbc
000001b0: 3dbc 1a3c b694 9e3d 3a5f 583d 04c1 55bc
000001c0: f531 1bbc 736b 983c e184 833b 6917 16bd
000001d0: 1544 793c 561a 9ebc 0f5f 583d 1dff abbd
000001e0: f706 643d 2646 55bd aa55 c8bb 48ce c63b
000001f0: 88ff ff3b 6c3c 813b 69a2 a13d 8646 dcbd
00000200: 2635 b1bd 8cb1 afbd e3a4 f0ba 2c54 0c3c
00000210: edd8 09bd a398 ab3c 2886 d1bd ce81 04bb
00000220: 875f 0cbd 4894 91bd 3679 503d 1751 f4bc
00000230: 09ef d7bd fb54 e0bc d3bc 9b3d dd65 babc
00000240: e5fd a53d 7108 29bd 0168 2f3d e188 583d
00000250: 06f4 fabc 8483 10bd dbfe 8e3d 6de5 a0bc
00000260: b11d b03b 3d30 4a3d 3f82 e4bc f557 27bd
00000270: a641 0cbd a07f 4d3d 1389 85bc d0f9 943c
00000280: 7e9d 57bc 0070 013c b7bd bfbc d8d4 973d
00000290: 5577 533c eda5 42bc bd0f 99bc a484 d73c
000002a0: 0251 293d 29ae 923d 712b 8e3d 99af 5bbd
000002b0: 5965 25bd 851c 993d 51f7 a63d fa2c c9ba
000002c0: ab80 ebbb 2764 453d 4529 a13d a209 69bc
000002d0: 8262 c73b e6ad ab3d c6b2 f53c 0faf a33c
000002e0: f436 863a 09de 1d3d 18bd 99bd 79d5 c4bb
000002f0: 7f03 5fbc 6a32 b7bd 9ae2 8c3d f007 8fbc
00000300: 0105 d43b c8c6 233d 4226 b0bd 81c8 acba
00000310: 5cf3 ac3b c573 c4bd a3e2 8dbb ce2e 37bd
00000320: 6ec5 94bd 50a5 efbc 853a 09bd dc8e 053d
00000330: 1f59 32bd d9f3 943d 03e6 59bd 82d5 ac3c
00000340: 114e a43c 35b5 b93c f9c5 07bb 461f b83d
00000350: 1850 45bd 47b7 a33c 273f 36bd 3257 153b
00000360: a530 2e3d 9113 9b3d 798e f43d f1c8 003d
00000370: 2123 59bd 1b22 a53d 7ea3 29bd 9201 6cbc
00000380: 02a8 a7bb 9814 163d faa5 303d ec43 debc
00000390: 8313 3ebd a621 83bd 7cfb 0ebd 9a8d 89bc
000003a0: cd4a 00bd 4b75 2b3d a4e8 01bd d984 8f3d
000003b0: 9820 0e3d 2ce4 95bc 32c2 34bd dee9 cb3c
000003c0: 40ea bebc 6dcc 20bd 98cd bbbc 221a 34bd
000003d0: 6531 013d 4725 093d 4edd e03c e8d4 ad3d
000003e0: 6aae 61bc 5ab0 92bc ba98 c43d 6db8 7c3a
000003f0: b541 94bc f14e 683d 734b 113d ca2a a63c

linearD2.weight f4 [256, 6]
0.07123043 -0.20393948 -0.23745283 0.032203414 -0.21964216 -0.40918258 -0.20279652 0.1285627
0.23465255 -0.34456223 -0.038763486 -0.033405002 0.08016062 0.06215513 -0.108076416 0.2858651
-0.12987956 0.043023977 -0.11802154 -0.24909346 -0.05144272 -0.13015324 -0.20373213 -0.15250932
-0.24573067 -0.32638943 -0.011591709 0.17382397 0.32309538 -0.4218116 0.22179595 0.2665578
-0.3394282 0.037825193 -0.29764268 0.0012188549 -0.08842663 -0.20966557 0.16061898 0.09803543
-0.1574694 0.28175646 0.19359152 0.12869583 0.37167144 -0.02954521 -0.251976 -0.12491738
0.019556046 -0.22232799 0.020925285 0.20783965 -0.12841974 -0.1795514 -0.09308351 0.30105788
0.2527448 0.2915904 0.2005799 0.39591545 0.15429936 -0.188312 -0.3310372 0.38495177
-0.32439053 -0.017426081 -0.13713704 -0.04519868 0.20885803 0.25097057 0.24468873 -0.005443775
0.17315213 0.442886 -0.062307056 0.0038874603 0.28884736 -0.25549594 0.38615796 0.35273138
-0.02682437 -0.07121593 0.33240786 -0.4800254 -0.3318392 -0.29556242 -0.1185621 0.101599835
-0.23260693 0.46283153 -0.01845897 0.3729022 -0.005920589 0.20107377 0.18963209 -0.299199
0.27076384 -0.08822279 -0.11962451 -0.12752579 -0.08481483 0.14030689 -0.22788498 -0.160398
-0.0655623 0.039104916 0.058363017 0.34945473 -0.06300903 0.12423872 -0.08189888 -0.2561801
0.2743621 -0.21676286 0.2225971 0.110851675 0.40762025 0.06518606 0.39198732 -0.1544915
-0.27540457 -0.4159985 -0.06278545 -0.30359268 0.25069723 0.3728512 0.089866295 0.20774946
-0.08057695 0.11815308 -0.28808108 0.19842027 0.16829498 0.28844258 0.064491406 0.2959743
-0.38301158 -0.18972272 -0.25823912 -0.38407654 0.371055 -0.20274983 0.17341185 -0.27107164
-0.096401595 -0.13292836 0.014391428 0.07497527 -0.22423497 -0.30205134 -0.3150482 -0.36043775
-0.08055187 -0.25480354 0.25096038 0.3843711 -0.13619071 -0.44799665 -0.18775776 0.22810923
-0.36585113 0.42198253 0.2522425 0.45738974 0.0917932 0.0096271215 0.14237481 -0.4284195
-0.08499746 0.3028218 0.25783774 0.31585884 0.26853636 -0.039453004 0.13942648 0.17921986
0.33657804 -0.26481828 -0.25654078 0.34756687 0.21727957 0.05950792 -0.14311251 0.25405937
0.16841896 0.15040372 0.22323298 0.16737992 -0.325013 0.056203693 -0.3516131 0.09627221
0.2558126 0.34973705 -0.16285312 -0.1716863 -0.25232092 0.27505577 0.15542741 0.2689295
-0.0034291374 -0.16911118 0.14842498 0.23024775 -0.24414968 -0.084678866 -0.3465337 -0.2971912
0.21375635 0.0764869 0.014288095 -0.26871115 0.2875137 0.3522468 -0.047981787 -0.04918501
-0.20466137 0.008319465 0.056542978 0.33914417 -0.27956107 0.04226925 -0.36662036 0.1459236
-0.10943333 0.29996032 0.2675143 0.1496006 0.09139482 -0.2679761 0.15701872 -0.07261027
-0.04926756 -0.08131557 -0.0029237033 -0.006696988 0.30864513 -0.0033593967 -0.27604353 0.39259115
-0.29504013 0.037424672 0.36279997 -0.39664787 -0.34022573 -0.17619644 -0.077431925 0.39107785
0.35873884 0.15283535 0.20409875 -0.108359955 0.38397047 -0.29317427 0.3795106 0.32156834
00000000: 42e1 913d 83d5 50be d626 73be bae7 033d
00000010: e0e9 60be 6180 d1be e4a9 4fbe f1a5 033e
00000020: c248 703e 766a b0be 76c6 1ebd afd3 08bd
00000030: 402b a43d 6196 7e3d 2b57 ddbd e95c 923e
00000040: 26ff 04be e939 303d 47b5 f1bd 5b12 7fbe
00000050: 9ab5 52bd e446 05be 289f 50be 672b 1cbe
00000060: d2a0 7bbe 841c a7be 27eb 3dbc e9fe 313e
00000070: c26c a53e b1f7 d7be 7a1e 633e 447a 883e
00000080: 88c9 adbe 97ee 1a3d 9f64 98be fcc1 9f3a
00000090: 0519 b5bd 92b2 56be 4d79 243e cdc6 c83d
000000a0: a93f 21be 6242 903e db3c 463e d7c8 033e
000000b0: b84b be3e cc08 f2bc 0003 81be afd4 ffbd
000000c0: 0034 a03c f3a9 63be 816b ab3c ebd3 543e
000000d0: 7780 03be 52dc 37be 91a2 bebd 4224 9a3e
000000e0: c467 813e 564b 953e d164 4d3e 6eb5 ca3e
000000f0: a700 1e3e dcd4 40be b57d a9be 6618 c53e
00000100: 8416 a6be 24c1 8ebc a76d 0cbe 4022 39bd
00000110: e1de 553e 377f 803e af8f 7a3e b261 b2bb
00000120: cb4e 313e f4c1 e23e af35 7fbd c3c4 7e3b
00000130: cde3 933e 5dd0 82be 7fb6 c53e 3599 b43e
00000140: c8be dbbc a8d9 91bd 5d31 aa3e e4c5 f5be
00000150: d4e6 a9be f553 97be b0d0 f2bd 9313 d03d
00000160: 8330 6ebe 41f8 ec3e 4437 97bc 0aed be3e
00000170: 8001 c2bb 48e6 4d3e ea2e 423e 9c30 99be
00000180: 8fa1 8a3e 26ae b4bd b2fd f4bd 1f96 02be
00000190: 66b3 adbd 9cac 0f3e ae5a 69be 603f 24be
000001a0: 8745 86bd 7a2c 203d 0f0e 6f3d bbeb b23e
000001b0: e10a 81bd df70 fe3d 9aba a7bd 0a2a 83be
000001c0: 3079 8c3e 15f7 5dbe 7ff0 633e 3406 e33d
000001d0: 9ab3 d03e 4580 853d 90b2 c83e 0533 1ebe
000001e0: d401 8dbe c1fd d4be a895 80bd 8070 9bbe
000001f0: 635b 803e 5ae6 be3e d20b b83d 46bc 543e
00000200: 8705 a5bd 3efa f13d 5d7f 93be af2e 4b3e
00000210: 8555 2c3e bfae 933e 1214 843d f289 973e
00000220: 181a c4be ac46 42be eb37 84be aea5 c4be
00000230: ecfa bd3e a79d 4fbe e092 313e e7c9 8abe
00000240: 336e c5bd 5f1e 08be 06ca 6b3c a28c 993d
00000250: da9d 65be 79a6 9abe ff4d a1be 4c8b b8be
00000260: 61f8 a4bd 9c75 82be e17d 803e 4acc c43e
00000270: 9475 0bbe d15f e5be 9243 40be 7795 693e
00000280: d750 bbbe 180e d83e ee25 813e fd2e ea3e
00000290: 13fe bb3d 13bb 1d3c b4ca 113e cd59 dbbe
000002a0: 2613 aebd 750b 9b3e 4f03 843e 40b8 a13e
000002b0: 997d 893e 7999 21bd d1c5 0e3e 6985 373e
000002c0: f553 ac3e 4396 87be 5059 83be 49f4 b13e
000002d0: 897e 5e3e 94be 733d 168c 12be 1214 823e
000002e0: 0576 2c3e 6f03 1a3e 3097 643e a465 2b3e
000002f0: 1b68 a6be d835 663d a206 b4be 5d2a c53d
00000300: def9 823e bc10 b33e f8c2 26be 89ce 2fbe
00000310: 3530 81be 1cd4 8c3e 5d28 1f3e 21b1 893e
00000320: 61bb 60bb 7b2b 2dbe b8fc 173e 11c6 6b3e
00000330: 6002 7abe 1d6c adbd dd6c b1be 7229 98be
00000340: f2e2 5a3e 2aa5 9c3d 9d18 6a3c 8294 89be
00000350: ff34 933e b159 b43e 8d88 44bd 3976 49bd
00000360: c092 51be 5e4e 083c 9c99 673d 4ea4 ad3e
00000370: a122 8fbe 8522 2d3d aab5 bbbe ff6c 153e
00000380: 951e e0bd 6694 993e a2f7 883e e630 193e
00000390: 352d bb3d 2a34 89be 84c9 203e b1b4 94bd
000003a0: c8cc 49bd c788 a6bd 9a9b 3fbb 6872 dbbb
000003b0: bc06 9e3e 5329 5cbb 9455 8dbe b501 c93e
000003c0: 800f 97be 9d4a 193d ebc0 b93e 6e15 cbbe
000003d0: 1132 aebe d76c 34be a194 9ebd 5b3b c83e
000003e0: 9eac b73e df80 1c3e 43ff 503e d3eb ddbd
000003f0: c797 c43e f01a 96be 374f c23e 9ba4 a43e

linearD2.bias f4 [256]
0.17968419 0.20561141 0.101679735 -0.19584636 -0.20846036 0.049065974 -0.05312407 0.29410514
0.28136933 -0.1343502 0.37749588 -0.32201362 0.047694977 0.31494805 -0.29077366 0.18369354
-0.2864382 -0.1276549 0.38296354 -0.43858197 0.30761474 0.17259268 -0.14763391 0.26797014
0.22670911 -0.4748873 -0.38624862 0.14070815 0.332453 0.20471925 0.24154703 0.17314707
0.0010932601 0.13907646 0.29758805 0.1009384 0.2718296 -0.18951607 0.26462516 0.26365158
0.1420739 -0.29862317 0.27534103 0.2810609 -0.07104495 -0.30799 0.37474555 0.17036003
-0.110947356 -0.35652748 0.06681092 0.18459848 -0.2613372 -0.18743148 0.31033355 0.08053119
-0.15073243 -0.03238553 0.13555686 -0.37807897 -0.21077245 -0.3601016 -0.29377598 0.036647186
-0.17877458 0.36267582 -0.029058501 -0.46628588 0.11315838 0.032445945 -0.3479434 0.2129866
-0.11704983 0.011973997 0.041026153 0.4746129 0.32363358 0.16990435 0.34020522 -0.21369484
0.3508501 0.11400031 0.0373624 0.018848805 0.27854076 -0.13502285 -0.22475824 0.046403572
0.1496861 -0.09794667 0.24841714 0.2656364 -0.3355382 0.26837385 -0.105364576 -0.15233892
-0.3069315 0.022614136 -0.14100206 -0.12213456 0.5614994 0.063390985 0.09480445 -0.18092975
-0.105861604 0.05225284 0.095949434 0.13916321 -0.2941219 0.096159436 -0.021991512 0.32851756
0.22552149 -0.17923158 -0.1680102 0.24904568 -0.17144221 -0.3489283 0.05492673 0.09632873
0.21412097 0.33516374 -0.31799555 0.10651202 -0.23513049 0.4333236 0.06390154 -0.011220126
-0.31296277 -0.10388214 -0.25584334 0.3679665 0.3332568 0.4169476 -0.07576343 -0.08021209
-0.012701354 0.33392185 0.2699338 -0.3040785 0.3106994 0.27372885 0.1384301 -0.1935651
0.3822877 -0.22806862 -0.37665534 -0.087634936 -0.16454375 0.092908256 0.2282689 -0.23613198
0.042941682 0.08694682 0.083174825 -0.107649185 0.4279499 -0.030929161 -0.34891447 -0.10923119
0.22864072 -0.074394435 -0.05537951 0.22324897 0.3229156 0.15060364 -0.23110165 0.28538662
-0.21516168 -0.13820794 -0.095081165 -0.035644855 -0.19160374 -0.09719484 0.407718 0.15917319
-0.21412781 0.098616846 -0.13334478 0.22349694 0.16898884 0.27680147 -0.29959574 0.26097986
-0.12628938 0.29899734 0.15902719 0.025497431 -0.11382758 -0.089222446 -0.033379737 0.35764167
0.16804273 -0.28463325 0.3009478 -0.3265964 0.37181643 -0.15182011 0.033982053 -0.11968228
0.01442915 0.29116163 -0.07377309 -0.17646496 -0.0041369023 0.161017 0.21818486 0.17443132
-0.34289747 0.055955954 0.17989026 -0.10422877 -0.5364123 -0.28435782 0.011854644 -0.28171602
0.0057995734 0.06321769 -0.16694418 -0.103804775 0.35002613 0.07106809 0.33776987 0.40437523
0.1615383 -0.37244254 0.17444862 0.08606356 -0.34662417 0.25716096 -0.3458299 0.19641559
-0.26578966 0.31979007 -0.3120014 0.19211288 0.30025765 0.18022683 -0.019806946 -0.26306158
-0.23106955 0.00677421 -0.23934782 0.031077582 0.35637307 -0.36265513 0.0061254804 -0.31752926
-0.30511189 0.032707665 0.07994326 -0.36474138 -0.35086378 -0.035038065 -0.2944233 -0.25048456
00000000: 22ff 373e cc8b 523e 773d d03d f38b 48be
00000010: a276 55be 67f9 483d a098 59bd f394 963e
00000020: a40f 903e 1993 09be 2447 c13e f8de a4be
00000030: cf5b 433d df40 a13e 49e0 94be 291a 3c3e
00000040: 07a8 92be f7b7 02be cc13 c43e d18d e0be
00000050: ae7f 9d3e 23bc 303e 582d 17be 6233 893e
00000060: 6f26 683e 6e24 f3be 61c2 c5be cc15 103e
00000070: 4837 aa3e eca1 513e 1b58 773e 774d 313e
00000080: b94b 8f3a 0f6a 0e3e 765d 983e cbb8 ce3d
00000090: 402d 8b3e 8010 42be f37c 873e 57fd 863e
000000a0: d27b 113e 23e5 98be 80f9 8c3e 37e7 8f3e
000000b0: 0480 91bd deb0 9dbe a6de bf3e dc72 2e3e
000000c0: 5e38 e3bd c58a b6be 2ad4 883d 6207 3d3e
000000d0: fdcd 85be 0aee 3fbe 0ae4 9e3e 89ed a43d
000000e0: 9a59 1abe b1a6 04bd 6bcf 0a3e 9193 c1be
000000f0: bcd4 57be 3d5f b8be ce69 96be 5c1b 163d
00000100: af10 37be a5b0 b93e 180c eebc 06bd eebe
00000110: 95bf e73d 0ae6 043d a325 b2be 2919 5a3e
00000120: d2b7 efbd 952e 443c 0a0b 283d 7600 f33e
00000130: 4db3 a53e 68fb 2d3e 612f ae3e d2d2 5abe
00000140: a0a2 b33e ff78 e93d 5109 193d cf68 9a3c
00000150: e59c 8e3e 6e43 0abe 0627 66be ac11 3e3d
00000160: 5047 193e 4498 c8bd 1061 7e3e 7f01 883e
00000170: aacb abbe 4c68 893e 62c9 d7bd bcfe 1bbe
00000180: 2026 9dbe 4841 b93c d862 10be af21 fabd
00000190: 6dbe 0f3f 22d3 813d d628 c23d a645 39be
000001a0: f8cd d8bd 1307 563d 2381 c43d cd80 0e3e
000001b0: 2597 96be 3def c43d 8b27 b4bc 7433 a83e
000001c0: 1bef 663e 7c88 37be de0a 2cbe d505 7f3e
000001d0: 8c8e 2fbe bba6 b2be dafa 603d ff47 c53d
000001e0: 8742 5b3e 959a ab3e 50d0 a2be f922 da3d
000001f0: 0cc6 70be 97dc dd3e d0de 823d 9fd4 37bc
00000200: a83c a0be 29c0 d4bd e6fd 82be 1b66 bc3e
00000210: a3a0 aa3e 287a d53e db29 9bbd 3c46 a4bd
00000220: 5719 50bc cef7 aa3e c334 8a3e 2db0 9bbe
00000230: fe13 9f3e 3026 8c3e 9fc0 0d3e ee35 46be
00000240: 37bb c33e d28a 69be f8d8 c0be f279 b3bd
00000250: 287e 28be af46 be3d 53bf 693e 95cc 71be
00000260: 9ee3 2f3d 2d11 b23d 9057 aa3d 2d77 dcbd
00000270: 401c db3e 275f fdbc eba4 b2be 9ab4 dfbd
00000280: cb20 6a3e 1c5c 98bd a0d5 62bd 619b 643e
00000290: 3255 a53e d737 1a3e e9a5 6cbe 321e 923e
000002a0: 5853 5cbe 6286 0dbe eab9 c2bd 5700 12bd
000002b0: c533 44be 170e c7bd 6ac0 d03e 4cfe 223e
000002c0: 5244 5bbe a1f7 c93d 898b 08be 62dc 643e
000002d0: 690b 2d3e ecb8 8d3e 9d64 99be 279f 853e
000002e0: 0152 01be 2e16 993e 06d8 223e fddf d03c
000002f0: 6f1e e9bd 42ba b6bd 31b9 08bd cf1c b73e
00000300: 6513 2c3e 73bb 91be d415 9a3e a537 a7be
00000310: b95e be3e bb76 1bbe c430 0b3d fc1b f5bd
00000320: 3e68 6c3c 2313 953e 5916 97bd 3bb3 34be
00000330: da8e 87bb a4e1 243e da6b 5f3e 209e 323e
00000340: 4290 afbe 1232 653d 2735 383e e575 d5bd
00000350: 5152 09bf 5997 91be fb39 423c 153d 90be
00000360: 590a be3b 4778 813d 6af3 2abe 9997 d4bd
00000370: a036 b33e 268c 913d 2cf0 ac3e 450a cf3e
00000380: 4c6a 253e cab0 bebe a9a2 323e 1742 b03d
00000390: b978 b1be 9aaa 833e 9e10 b1be 2b21 493e
000003a0: 9515 88be 86bb a33e a6be 9fbe 3db9 443e
000003b0: 5fbb 993e 628d 383e 2d42 a2bc 02b0 86be
000003c0: 7f9d 6cbe 31fa dd3b 9817 75be 6a96 fe3c
000003d0: 8876 b63e efad b9be 41b8 c83b 3293 a2be
000003e0: a037 9cbe 79f8 053d 4bb9 a33d 62bf babe
000003f0: 6ba4 b3be 1384 0fbd a7be 96be 833f 80be

linear3.weight f4 [6, 256]
0.027620591 -0.003349752 0.025166482 0.028938696 -0.04263493 -0.059980422 -0.043667294 -0.06480013
0.0564971 0.0055512264 0.022416927 0.005750696 -0.042295042 -0.051681418 -0.024126256 0.047292393
-0.03360254 -0.011065944 0.034079242 -0.025262829 0.027105141 -0.0059453836 0.010697171 -0.029464442
0.042948067 -0.01744352 0.046649896 -0.023742361 0.031030076 0.026929202 -0.0017872364 -0.052782323
0.003204431 -0.07638085 0.024040146 -0.0046882476 0.023008713 0.11401908 -0.021154959 -0.12704594
-0.020449659 -0.026730156 -0.020786863 0.0831875 0.05445135 0.0033234807 0.0032092636 0.059800837
0.063709974 0.05610742 0.0020251288 0.08690761 0.012606737 0.0216323 -0.016050035 -0.095885634
0.062437464 0.0054807374 0.032668516 0.008628509 0.016407063 0.05975105 0.012695892 0.053548463
0.097968146 0.035194185 0.015270964 0.011409071 0.04146133 0.05658637 -0.033582203 0.02609527
0.08976693 -0.027148297 0.048385236 0.025484202 0.04129645 -0.021438211 -0.036208153 -0.009493299
0.044433553 0.0015302253 -0.039614875 0.06380653 0.035711557 0.023252716 0.0065099206 0.016398134
0.013611197 0.060237493 -0.07843628 0.016370256 -0.012414599 -0.09431802 -0.06533692 -0.037619412
0.007617264 -0.010264369 -0.06423156 -0.036733314 0.042964082 0.017120212 -0.017401638 0.010696863
0.046149712 -0.055325825 -0.005458014 0.0018810916 -0.027619598 0.061167717 -0.027915835 0.0131324325
-0.00811248 -0.031627446 0.056129742 -0.018601747 -0.040174 -0.0038817904 -0.02983093 -0.02150653
0.019350829 0.03078418 0.023999462 -0.019538214 -0.042709764 0.017764462 -0.038051065 -0.0009673564
-0.01362928 0.06665266 -0.058507368 -0.05434477 -0.01722441 0.06454277 0.078401 0.01518593
0.014481579 0.027324421 -0.030008389 0.008433937 -0.023114286 -0.006443344 -0.027862417 -0.046589356
-0.014611221 -0.002832194 -0.029521119 -0.0201955 -0.047894076 0.029216047 0.03687496 -0.09769738
-0.03748041 -0.023187574 0.010199723 -0.06348929 -0.031308323 -0.0057788296 0.06822259 0.067063615
0.041786432 -0.017813358 -0.028044613 -0.03992567 0.08461292 -0.07362446 0.020484861 -0.006876076
0.0274785 0.004509278 -0.016014887 0.045985516 -0.021457808 0.096930824 -0.045863245 0.015659058
-0.09215784 -0.010199036 0.038173415 -0.02367005 -0.02635826 0.050342053 0.01881091 0.0019504118
-0.054905273 0.029708646 0.015159615 -0.046761114 0.008990114 0.06607746 0.03206559 0.06325219
0.012951014 -0.018594697 0.102527015 0.030040605 -0.009971517 -0.007913181 0.012289351 0.023862984
-0.03039726 0.10186085 0.011376214 0.0026935402 0.06267981 -0.04757617 0.033491373 -0.004493121
0.037005898 0.028912498 -0.04399608 -0.035654657 0.021813076 -0.040338453 0.036564574 0.024094854
-0.05217574 0.008337383 -0.0024125879 -0.0179654 0.0498851 0.01424477 -0.06524866 -0.066118106
-0.024228455 0.020883467 0.018780502 -0.08480628 -0.0016098608 -0.05236415 0.044306096 -0.0090287635
0.030571371 0.019167474 0.003005177 0.0052792113 0.01406451 0.041388445 -0.02004791 -0.042808414
-0.015791636 0.0863712 0.03676218 0.05158501 0.036395963 -0.013171319 0.03185845 0.067738935
-0.0003387244 0.015902601 -0.0147569645 -0.003387572 -0.028235214 -0.005410346 0.02998468 0.0012609654
00000000: 9444 e23c 8387 5bbb f029 ce3c d810 ed3c
00000010: f7a1 2ebd 08ae 75bd 7adc 32bd eeb5 84bd
00000020: 8169 673d 10e7 b53b b4a3 b73c 5670 bc3b
00000030: 913d 2dbd e5af 53bd 6da4 c5bc abb5 413d
00000040: d1a2 09bd ef4d 35bc ad96 0b3d fef3 cebc
00000050: 9a0b de3c 7ed1 c2bb 3043 2f3c 6a5f f1bc
00000060: 50ea 2f3d b6e5 8ebc f613 3f3d 577f c2bc
00000070: c932 fe3c a19a dc3c b441 eaba 4732 58bd
00000080: 6e01 523b 906d 9cbd d7ef c43c df9f 99bb
00000090: c57c bc3c d682 e93d 2a4d adbc 5518 02be
000000a0: 0b86 a7bc 33f9 dabc 3649 aabc 355e aa3d
000000b0: 6108 5f3d c1ce 593b 8252 523b b9f1 743d
000000c0: 607a 823d e5d0 653d 06b8 043b 9efc b13d
000000d0: 7d8c 4e3c 3936 b13c 5d7b 83bc b05f c4bd
000000e0: 6dbe 7f3d c297 b33b 6ccf 053d 975e 0d3c
000000f0: 1b68 863c 84bd 743d 6e02 503c a255 5b3d
00000100: 86a3 c83d c727 103d 1133 7a3c 1ded 3a3c
00000110: 5bd3 293d 1cc7 673d 7e8d 09bd bfc5 d53c
00000120: b9d7 b73d 1b66 debc 992f 463d 3fc4 d03c
00000130: 7726 293d 309f afbc 004f 14bd c889 1bbc
00000140: f5ff 353d d791 c83a 3543 22bd ffac 823d
00000150: 4846 123d 7b7c be3c 2c51 d53b 6155 863c
00000160: 7f01 5f3c 97bb 763d 33a3 a0bd ea1a 863c
00000170: 9a66 4bbc ce29 c1bd 5dcf 85bd d016 1abd
00000180: 3e9a f93b e22b 28bc d68b 83bd ac75 16bd
00000190: 1bfb 2f3d b03f 8c3c e18d 8ebc e541 2f3c
000001a0: 7b07 3d3d 559d 62bd 24d9 b2bb f68e f63a
000001b0: 7f42 e2bc 008b 7a3d c0af e4bc 6a29 573c
000001c0: 35ea 04bc c88b 01bd 4de8 653d b162 98bc
000001d0: 7e8d 24bd a365 7ebb ff5f f4bc 762e b0bc
000001e0: a185 9e3c 1b2f fc3c 859a c43c 9b0e a0bc
000001f0: 6ff0 2ebd c786 913c 6fdb 1bbd 3096 7dba
00000200: 584d 5fbc 3181 883d 6ca5 6fbd 9f98 5ebd
00000210: 351a 8dbc 002f 843d b490 a03d 68ce 783c
00000220: 2544 6d3c 77d7 df3c 27d4 f5bc 7f2e 0a3c
00000230: 2c5a bdbc b022 d3bb b93f e4bc 7bd4 3ebd
00000240: e763 6fbc 559c 39bb 46d6 f1bc 0971 a5bc
00000250: 942c 44bd 7e56 ef3c 330a 173d 9015 c8bd
00000260: 0f85 19bd def3 bdbc bd1c 273c ac06 82bd
00000270: 283d 00bd 565c bdbb 49b8 8b3d a658 893d
00000280: 4028 2b3d 52ed 91bc d1bd e5bc 1989 23bd
00000290: 8a49 ad3d 6cc8 96bd decf a73c b550 e1bb
000002a0: 971a e13c 91c2 933b a731 83bc 4f5b 3c3d
000002b0: 49c8 afbc ab83 c63d 19db 3bbd 6d47 803c
000002c0: 40bd bcbd dc19 27bc ba5b 1c3d b1e7 c1bc
000002d0: 47ed d7bc 7833 4e3d 5619 9a3c f6a4 ff3a
000002e0: 5ae4 60bd 8c5f f33c 0960 783c 9588 3fbd
000002f0: 454b 133c 9f53 873d 3557 033d 5d8a 813d
00000300: 7d30 543c e853 98bc aff9 d13d b717 f63c
00000310: 935f 23bc 49a6 01bc 4659 493c 4e7c c33c
00000320: ad03 f9bc 6c9c d03d 4d63 3a3c 1b86 303b
00000330: 465e 803d 3bdf 42bd 402e 093d 083b 93bb
00000340: 7f93 173d e7d9 ec3c 3c35 34bd 9e0a 12bd
00000350: 56b1 b23c ef39 25bd bcc4 153d 9262 c53c
00000360: 3bb6 55bd 8599 083c 821c 1ebb 2d2c 93bc
00000370: 5254 4c3d e562 693c 17a1 85bd ee68 87bd
00000380: c17a c6bc ce13 ab3c 91d9 993c eaae adbd
00000390: f701 d3ba ca7b 56bd 4f7a 353d 61ed 13bc
000003a0: d070 fa3c 1b05 9d3c 81f2 443b 3cfd ac3b
000003b0: d56e 663c ee86 293d 843b a4bc e057 2fbd
000003c0: 765d 81bc 62e3 b03d f193 163d ce4a 533d
000003d0: ef13 153d 84cc 57bc 027e 023d b6ba 8a3d
000003e0: d296 b1b9 2c46 823c 32c7 71bc 0702 5ebb
000003f0: 894d e7bc 4649 b1bb 6ea2 f53c fa46 a53a
