pretrained/VE/VE8_128.pt (torch, 33884 bytes, 5 tensors)

linear1.weight f4 [256, 8]
-0.14516605 0.10221589 -0.28049237 -0.0004204459 -0.17362176 0.101051114 0.07880906 -0.004600984
0.1803104 -0.18662581 -0.3320683 0.062168203 0.1905802 -0.051778045 -0.30565783 -0.03635623
-0.15457182 0.1417933 1.0581791 0.20820707 0.21419786 -0.30462325 0.19663341 0.18511678
-0.0069114044 0.00031466386 0.029814411 0.29153043 0.012015393 0.09484137 -0.091699 -0.31212577
-0.18072757 -0.06274271 0.30540243 -0.03142449 0.20352332 -0.053990714 0.10015653 0.18273021
-0.14954898 -0.15776004 -0.10761729 -0.16897523 0.3212596 -0.23982306 -0.057064682 -0.25962383
0.25755277 -0.032869633 0.23138733 0.14609286 -0.2287066 0.12992616 -0.0077336645 -0.08332894
-0.07839669 -0.1167957 -0.19253592 0.23984525 0.022975136 -0.041788507 0.01930006 0.14727786
-0.34103677 -0.33032244 0.051325608 0.12365201 0.10011359 -0.020108972 -0.24210095 -0.11873147
-0.013998456 0.048647825 0.16722114 0.24743319 -0.20075549 0.3222284 0.2285864 0.07481949
-0.0665112 -0.18202807 0.19278413 -0.121888645 0.031804744 -0.121092826 -0.17259595 0.14766413
-0.18273348 0.19528888 -0.439375 0.04234657 0.3429593 0.0068697585 -0.38038138 0.115570135
-0.23815088 0.16956146 0.092638746 0.27552918 0.067307904 0.2659946 -0.22511336 -0.09537769
0.13806093 0.05908268 0.034371473 -0.28151515 -0.20756505 0.12466269 -0.0072195474 -0.2839358
0.027757116 -0.05576733 0.40993908 -0.15089585 -0.2849633 -0.08194848 0.09944807 0.04084915
0.19131608 -0.03976266 -0.26107565 -0.18134981 0.026959842 -0.049259 0.0034436916 0.03167028
-0.08491618 -0.08596102 -0.09768652 0.19378853 -0.079029456 0.073921464 -0.06778615 -0.013680604
0.11663041 0.1402866 0.24123034 -0.045242317 -0.050814062 -0.08730132 0.2591435 0.09326111
0.17802894 0.11661363 0.3703751 0.1384279 -0.07906638 0.06368192 0.18082322 -0.30695397
-0.550017 -0.14813267 0.029859968 0.31876513 0.10873712 -0.1902577 -0.055098426 -0.04589822
0.2822112 0.06700677 -0.13202417 0.0613412 -0.17002743 -0.16609657 0.018675102 -0.32800257
0.19570264 0.0816485 -0.027348917 0.17317371 -0.2706223 -0.029893171 -0.27260652 0.17064045
-0.2309935 0.07053503 0.04146061 0.21175304 -0.001313859 -0.18921933 -0.2944656 -0.07659742
-0.08423755 0.20192122 0.17516893 0.34314469 -0.15946123 0.34452033 0.18493636 0.23370686
0.11363202 0.10108556 0.11331006 0.32911122 0.050184652 -0.30697572 -0.088239126 -0.11110806
-0.5682762 -0.2529414 0.22258542 -0.3297731 -0.2712145 0.04097371 0.27087048 0.113379635
-0.10479794 -0.09967126 0.11395934 0.1170795 -0.18636882 0.029822102 0.11331393 -0.15020037
0.093475826 -0.10086091 0.46534047 -0.29733285 0.04352403 0.16132632 -0.062894136 -0.070967324
0.22945571 -0.13579974 -0.49255982 -0.15330546 -0.16822845 0.13223885 -0.10238499 -0.28045198
-0.105713286 0.09790944 -0.18256518 -0.06448196 -0.26680925 0.29603598 -0.27349788 0.3371457
-0.11893254 0.51273364 0.9017672 -0.26091307 -0.04886594 0.15598421 0.20654072 0.2120074
0.3197888 -0.1829162 0.11700978 0.15179288 0.09827578 -0.1639442 0.22487468 0.08163236
00000000: 69a6 14be 9156 d13d b29c 8fbe 4b6f dcb9
00000010: e7c9 31be e3f3 ce3d a566 a13d dac3 96bb
00000020: 4aa3 383e d61a 3fbe db04 aabe 16a4 7e3d
00000030: 7527 433e 3715 54bd 2f7f 9cbe 45ea 14bd
00000040: 1348 1ebe 4332 113e 6a72 873f 3c34 553e
00000050: af56 5b3e 94f7 9bbe 455a 493e 418f 3d3e
00000060: 1079 e2bb 78f9 a439 5a3d f43c 7a43 953e
00000070: 36dc 443c 313c c23d afcc bbbd f3ce 9fbe
00000080: a610 39be 407f 80bd b55d 9c3e f7b6 00bd
00000090: 6b68 503e 5e25 5dbd de1e cd3d a11d 3b3e
000000a0: 5e23 19be d98b 21be 7466 dcbd d807 2dbe
000000b0: 237c a43e 2d94 75be a8bc 69bd 6aed 84be
000000c0: f5dd 833e 4fa2 06bd cdf0 6c3e 5e99 153e
000000d0: 1032 6abe 5d0b 053e ae6a fdbb 5da8 aabd
000000e0: 728e a0bd 9532 efbd 2328 45be fe99 753e
000000f0: 5a36 bc3c 6d2a 2bbd 291b 9e3c 02d0 163e
00000100: 5f9c aebe 0620 a9be cd3a 523d 443d fd3d
00000110: 5b08 cd3d 92bb a4bc 50e9 77be 7c29 f3bd
00000120: c859 65bc f142 473d 053c 2b3e 205f 7d3e
00000130: d992 4dbe 1ffb a43e 8e12 6a3e f63a 993d
00000140: 0637 88bd 9165 3abe 3469 453e c1a0 f9bd
00000150: b145 023d 84ff f7bd febc 30be 4435 173e
00000160: 7c1e 3bbe cff9 473e c3f5 e0be 9973 2d3d
00000170: 5d98 af3e b61b e13b 59c1 c2be 09b0 ec3d
00000180: d3dd 73be 85a1 2d3e 62b9 bd3d 2912 8d3e
00000190: bad8 893d 7230 883e 1e84 66be 6155 c3bd
000001a0: d85f 0d3e ae00 723d 1ac9 0c3d c122 90be
000001b0: ef8b 54be 274f ff3d f491 ecbb 0860 91be
000001c0: e462 e33c 496c 64bd 89e3 d13e 7184 1abe
000001d0: b6e6 91be 9bd4 a7bd 6eab cb3d 7051 273d
000001e0: 5de8 433e 2cde 22bd b5ab 85be c4b3 39be
000001f0: e3da dc3c cec3 49bd 8faf 613b b2b8 013d
00000200: 89e8 adbd 550c b0bd df0f c8bd 8070 463e
00000210: 32da a1bd 2364 973d 77d3 8abd 9d24 60bc
00000220: eddb ee3d 4aa7 0f3e 1605 773e 0250 39bd
00000230: 6822 50bd 09cb b2bd 75ae 843e aeff be3d
00000240: 384d 363e 20d3 ee3d cea1 bd3e 0bc0 0d3e
00000250: 8eed a1bd ab6b 823d b929 393e 1229 9dbe
00000260: eacd 0cbf 17b0 17be e49c f43c 2f35 a33e
00000270: 91b1 de3d ead2 42be e3ae 61bd c6ff 3bbd
00000280: fd7d 903e d83a 893d 5831 07be e940 7b3d
00000290: ac1b 2ebe 3815 2abe 87fc 983c f4ef a7be
000002a0: 4666 483e 5437 a73d d60a e0bc 7354 313e
000002b0: 028f 8abe 86e2 f4bc 1593 8bbe 5fbc 2e3e
000002c0: 8f89 6cbe ab74 903d 9ad2 293d cad5 583e
000002d0: cb35 acba b6c2 41be 32c4 96be 1cdf 9cbd
000002e0: bd84 acbd 70c4 4e3e 7c5f 333e a9b0 af3e
000002f0: ce49 23be f864 b03e f55f 3d3e da50 6f3e
00000300: e8b7 e83d f205 cf3d 1b0f e83d 4481 a83e
00000310: 6c8e 4d3d ec2b 9dbe b7b6 b4bd 9f8c e3bd
00000320: 8d7a 11bf 8981 81be 6fed 633e 05d8 a8be
00000330: a0dc 8abe 0dd4 273d 89af 8a3e 9533 e83d
00000340: 4da0 d6bd 7220 ccbd 8463 e93d 60c7 ef3d
00000350: 78d7 3ebe 7b4d f43c 2211 e83d 20ce 19be
00000360: 4170 bf3d 2a90 cebd 1b41 ee3e 033c 98be
00000370: 4146 323d ba32 253e a4ce 80bd 5157 91bd
00000380: 70f6 6a3e 160f 0bbe cd30 fcbe 1bfc 1cbe
00000390: 1444 2cbe 9f69 073e 39af d1bd 6797 8fbe
000003a0: 3580 d8bd bf84 c83d 5ef2 3abe 1e0f 84bd
000003b0: 399b 88be 0792 973e ea07 8cbe 5c9e ac3e
000003c0: e792 f3bd 8342 033f 37da 663f 6696 85be
000003d0: a727 48bd 53ba 1f3e 697f 533e 7818 593e
000003e0: 5cbb a33e 624e 3bbe d3a2 ef3d 986f 1b3e
000003f0: d044 c93d fde0 27be 8c45 663e de2e a73d

linearK2.weight f4 [8, 256]
0.067466564 -0.010996059 0.039413165 -0.006964895 -0.03276089 -0.01131685 -0.022944123 -0.06920327
0.025363091 -0.02470136 -0.038382076 0.09009402 0.083718695 0.039587315 -0.06305097 -0.025448121
-0.0036907457 -0.01826671 -0.062276047 -0.043752078 6.128425e-05 -0.041641526 -0.006962539 0.037830226
-0.026886893 -0.040167242 -0.048097223 -0.020616377 0.02137153 0.078710675 -0.003035372 0.03162531
-0.0044501564 0.05329049 0.018961586 -0.019020831 0.055754833 -0.0423493 -0.088925205 -0.00953078
0.013614372 -0.0057276757 0.07070297 0.07425333 -0.052901678 0.018842634 -0.02889212 0.04935465
-0.12943983 0.056878317 0.0027271542 0.0037427987 0.02756973 0.029891592 -0.0061199483 -0.03170359
0.0028307075 -0.056553304 -0.028432487 0.022322077 -0.013534802 -0.038333356 -0.11143402 -0.06102569
-0.030688442 -0.013468802 -0.027998144 -0.09197741 0.038636327 -0.035463028 -0.035858717 0.03329742
-0.03551494 0.02244889 -0.04927962 -0.026123928 0.037334587 0.023581628 -0.0044806316 0.055382922
-0.028123237 0.001995348 -0.08295037 -0.06798251 0.06911202 -0.07291677 -0.008573775 -0.028169494
0.04207189 0.05325548 -0.09576414 0.0030829876 -0.011052594 0.061407432 -0.051399864 0.038901087
-0.005820777 0.017698977 -0.07717846 0.042059436 0.016213065 -0.00027183068 0.05792115 0.05150095
-0.02588952 -0.005400064 -9.625115e-05 0.05660061 0.020627622 -0.00084488513 0.018407432 0.028696729
0.024031099 0.019725544 0.0713874 0.015524827 0.05182796 0.04375761 0.035047494 0.041206177
0.04767822 -0.020678999 0.029721944 -0.0043653767 -0.016137417 -0.015653372 -0.053636786 -0.022233289
-0.07646169 -0.023105638 0.05371007 -0.037045415 -0.01094847 -0.06198151 -0.051663164 -0.032316253
0.01028023 -0.01110437 0.0073186187 -0.011797667 -0.0008240357 -0.055536907 -0.00067663594 -0.030099668
-0.03625901 0.05321904 -0.04816654 -0.010926978 0.018640222 -0.06191519 -0.0255375 -0.043251134
-0.0025388445 -0.06937052 -0.0708926 0.08765707 0.058891132 -0.0028106456 0.043909248 0.00036776357
-0.098499134 -0.07239574 0.0464858 -0.055777516 -0.017769013 -0.008994649 -0.021655576 -0.0010358413
-0.08161816 -0.05990069 -0.046842568 0.0037095356 -0.0073863296 -0.10174478 -0.06588334 0.002519188
0.015692862 0.0076820855 -0.052756514 -0.066399075 -0.025777733 -0.07052604 -0.06876082 -0.0046690977
-0.03855244 -0.09065467 0.006168171 -0.06134174 -0.0814102 0.08427617 0.0442157 0.016054727
-0.04528777 -0.037027087 -0.023057984 -0.020413768 -0.077942014 -0.030204838 0.06286172 -0.0932694
-0.01165428 0.022574717 0.05126354 -0.01675989 0.024626885 0.040364422 -0.022809282 -0.028225547
0.0037682187 0.070261925 -0.016747149 -0.024356607 -0.026006268 0.02888596 -0.026688267 -0.035542797
-0.028794976 -0.0767431 0.03276967 0.005507522 -0.014434023 0.05678138 0.0697197 0.017216366
0.018870143 -0.00480257 -0.011512666 -0.0041196137 0.03712378 -0.016632179 0.049687196 -0.012957044
-0.05171037 0.05782135 -0.05837891 -0.022566011 0.012698779 0.022337249 -0.060029514 -0.015742198
-0.027842037 0.036446277 -0.05431822 0.039415993 -0.08274727 0.019568134 0.017309241 -0.036190704
0.08364628 0.004698817 -0.06284876 -0.026240401 -0.03985461 0.054458056 0.040032458 -0.019416418
00000000: e92b 8a3d d028 34bc b36f 213d c639 e4bb
00000010: 4830 06bd 4f6a 39bc 50f5 bbbc 72ba 8dbd
00000020: 42c6 cf3c 825a cabc 8636 1dbd 3783 b83d
00000030: b574 ab3d 4f26 223d de20 81bd 9478 d0bc
00000040: 70e0 71bb 11a4 95bc 2b15 7fbd 6135 33bd
00000050: bb85 8038 4e90 2abd 0326 e4bb def3 1a3d
00000060: e741 dcbc 6886 24bd 9801 45bd ade3 a8bc
00000070: 5913 af3c 1033 a13d 17ed 46bb 8b89 013d
00000080: 9ed2 91bb 2147 5a3d 5455 9b3c 93d1 9bbc
00000090: 2e5f 643d 7676 2dbd 6b1e b6bd fd26 1cbc
000000a0: d10e 5f3c 3aaf bbbb b8cc 903d 2112 983d
000000b0: 6eaf 58bd de5b 9a3c 2baf ecbc 1a28 4a3d
000000c0: e08b 04be 3df9 683d 0eba 323b be49 753b
000000d0: ead9 e13c 36df f43c d989 c8bb a0db 01bd
000000e0: 6483 393b 70a4 67bd 3feb e8bc cadc b63c
000000f0: 13c1 5dbc 7003 1dbd 8537 e4bd 13f6 79bd
00000100: 5466 fbbc 40ac 5cbc 5d5c e5bc a75e bcbd
00000110: 2041 1e3d ae41 11bd 97e0 12bd e062 083d
00000120: 1d78 11bd bce6 b73c 6dd9 49bd d901 d6bc
00000130: 27ec 183d 422e c13c 43d2 92bb 34d9 623d
00000140: b462 e6bc 62c4 023b e2e1 a9bd 6a3a 8bbd
00000150: 9a8a 8d3d 6355 95bd 0579 0cbc b6c3 e6bc
00000160: 9353 2c3d 6b22 5a3d fd1f c4bd f30b 4a3b
00000170: f015 35bc 5c86 7b3d aa88 52bd bf56 1f3d
00000180: 37bc bebb 72fd 903c be0f 9ebd 8446 2c3d
00000190: 43d1 843c 7f84 8eb9 ba3e 6d3d a9f2 523d
000001a0: 4216 d4bc 05f3 b0bb 71da c9b8 0bd6 673d
000001b0: 42fb a83c 487b 5dba 2fcb 963c 6715 eb3c
000001c0: dedc c43c 7797 a13c 8f33 923d d85b 7e3c
000001d0: 8e49 543d 2e3b 333d f68d 0f3d cfc7 283d
000001e0: 3d4a 433d 0167 a9bc 6f7b f33c 6f0b 8fbb
000001f0: 9e32 84bc 803b 80bc 3fb2 5bbd 9622 b6bc
00000200: f297 9cbd 0948 bdbc 17ff 5b3d efbc 17bd
00000210: 3661 33bc 53e0 7dbd c19c 53bd 0c5e 04bd
00000220: 696e 283c 1aef 35bc 06d1 ef3b 004b 41bc
00000230: 1a04 58ba ab7a 63bd 4560 31ba 9493 f6bc
00000240: 5484 14bd 35fc 593d 474a 45bd 1107 33bc
00000250: 61b3 983c c89a 7dbd 0534 d1bc 1a28 31bd
00000260: be62 26bb 2212 8ebd 2430 91bd 8d85 b33d
00000270: d437 713d cf32 38bb 2fda 333d 64d0 c039
00000280: eab9 c9bd 3844 94bd e567 3e3d f776 64bd
00000290: 5290 91bc 4b5e 13bc 0967 b1bc 11c5 87ba
000002a0: 6c27 a7bd 6d5a 75bd fedd 3fbd ae1b 733b
000002b0: 0609 f2bb 915f d0bd d8ed 86bd f618 253b
000002c0: 518e 803c 01ba fb3b 3717 58bd 3dfc 87bd
000002d0: d32b d3bc f56f 90bd 79d2 8cbd 3bff 98bb
000002e0: 2ae9 1dbd 28a9 b9bd 5e1e ca3b 7a41 7bbd
000002f0: 64ba a6bd fc98 ac3d 861b 353d 3485 833c
00000300: ab7f 39bd b7a9 17bd 19e4 bcbc c63a a7bc
00000310: 10a0 9fbd 2370 f7bc a5bd 803d 0704 bfbd
00000320: 98f1 3ebc 9dee b83c b8f9 513d 094c 89bc
00000330: 52be c93c 2a55 253d 88da babc 4339 e7bc
00000340: 38f4 763b 7ce5 8f3d 5131 89bc 8287 c7bc
00000350: 190b d5bc 40a2 ec3c 5aa1 dabc 5395 11bd
00000360: 71e3 ebbc 7d2b 9dbd 7d39 063d 7178 b43b
00000370: ae7c 6cbc 9893 683d 34c9 8e3d 5609 8d3c
00000380: 8f95 9a3c e15e 9dbb 9f9f 3cbc d3fd 86bb
00000390: 1b0f 183d 3540 88bc cd84 4b3d c849 54bc
000003a0: 41ce 53bd 14d6 6c3d b91e 6fbd 5bdc b8bc
000003b0: 8a0e 503c 9bfc b63c 82e1 75bd c8f5 80bc
000003c0: fc14 e4bc b148 153d c87c 5ebd aa72 213d
000003d0: 6777 a9bd 5a4d a03c 1ccc 8d3c b43c 14bd
000003e0: be4e ab3d 89f8 993b dab6 80bd 1cf6 d6bc
000003f0: 963e 23bd 690f 5f3d 13f9 233d 2e0f 9fbc

linearD2.weight f4 [256, 8]
-0.28701258 0.14870921 0.09626241 -0.21276799 -0.07654004 -0.24721704 0.16586794 0.26073816
-0.28205177 -0.12650312 0.05837481 -0.12047253 0.29445508 0.18428451 0.28531078 -0.2972761
0.023729088 0.006070291 -0.25494435 0.067719504 0.21351396 -0.16179192 0.015856402 -0.04178879
-0.05186961 -0.03887245 -0.10840187 -0.13135436 0.090890415 0.19697516 0.23821586 0.18517195
0.022957714 0.09019015 0.017168678 0.5199901 0.3589681 -0.12661491 0.21349232 -0.3177095
-0.18201008 0.22101088 0.063594095 -0.08757468 0.27800888 -0.29895496 -0.29051864 -0.004893745
-0.02772119 0.056896735 0.1170884 0.2500499 0.02415762 -0.17301846 0.15646118 0.15882121
-0.13999824 0.24640413 -0.14336343 -0.10474947 0.012982402 0.009574843 -0.041951224 0.25994346
-0.04986072 0.17062825 0.2840911 0.29621628 0.108928785 -0.058866538 0.1467269 -0.044108566
-0.12777402 0.052647654 -0.05160224 -0.1315792 -0.12663123 -0.019409783 0.29594326 0.28997886
-0.02699531 -0.040454417 -0.24396208 -0.121332854 -0.14331564 -0.05814203 -0.29550767 0.28776267
0.17474756 0.33044568 0.22835496 0.044226017 -0.13604756 0.36696893 -0.23782413 0.15805487
0.34635028 -0.37076065 0.060063373 -0.33272114 0.2950293 -0.08833839 0.017034942 -0.16912162
-0.32460964 0.12930316 -0.03751408 0.2561569 -0.14520855 -0.03899424 -0.25121036 0.082715526
0.2637645 -0.29350868 -0.0937391 0.25630546 0.02539803 -0.13582535 -0.25053078 -0.32509217
-0.2336192 -0.23395576 0.15187593 0.04945234 -0.04781083 -0.24878302 0.015296909 -0.36327016
0.19657952 0.3344242 0.15112391 -0.23668946 -0.029970909 0.014985739 -0.17420834 0.04738356
-0.024887199 0.06930644 -0.12390561 -0.32002154 0.25497502 -0.061531246 0.2668714 -0.047695655
0.24664532 0.0024550278 -0.066553496 0.30657414 -0.284646 0.06117058 0.030158551 0.20535867
0.23985878 -0.22106615 0.060058426 -0.07171379 -0.017830156 0.14851688 -0.19043835 -0.23668467
0.11893416 -0.5181742 -0.37849405 0.029261803 0.054821055 -0.23002182 -0.043842763 -0.5469615
-0.082697734 0.27527842 0.1257445 -0.30207562 0.20491901 0.023064358 0.32211807 -0.219689
0.022150306 0.2002487 0.26967022 -0.120541185 -0.2885417 -0.37604982 -0.14300299 -0.34388036
0.13031685 0.041746937 -0.31041583 -0.111516066 0.2977813 -0.040917564 -0.29988825 -0.24111891
0.017426318 -0.33025655 0.046119068 0.26426724 0.2849834 0.21723 -0.25663272 -0.18172424
-0.15551893 -0.29665738 0.27566254 -0.24969709 0.2589086 0.29133573 0.2719657 -0.30139843
0.08823365 -0.033385504 -0.039775506 -0.13249716 -0.05973326 0.13927591 -0.10498807 0.20340131
0.20763604 0.011405178 -0.35739693 0.12066318 0.0040165163 -0.19214104 0.0012905413 -0.2404908
0.025104385 -0.084024206 -0.1591581 -0.010906996 0.14465882 0.099158145 0.025181655 -0.12817577
0.31302717 0.28670335 0.17394583 -0.16218896 -0.24391277 -0.30999324 -0.2879386 0.2874935
0.0012031063 -0.35083574 0.13905387 0.012015593 -0.016719494 -0.341598 -0.026820786 -0.036208518
0.19386856 -0.07111033 -0.06697335 -0.3100773 0.062434837 0.046205048 0.34450048 -0.3247373
00000000: 50f3 92be 3a47 183e 3a25 c53d dadf 59be
00000010: 06c1 9cbd 7726 7dbe 49d9 293e 797f 853e
00000020: 1769 90be 098a 01be 6d1a 6f3d 4dba f6bd
00000030: d1c2 963e 14b5 3c3e 4114 923e 9334 98be
00000040: 8163 c23c 4be9 c63b 1188 82be 86b0 8a3d
00000050: 67a3 5a3e c8ac 25be 49e5 813c b92a 2bbd
00000060: 3a75 54bd b838 1fbd cd01 debd c281 06be
00000070: c124 ba3d dbb3 493e dcee 733e b79d 3d3e
00000080: d111 bc3c 9db5 b83d 54a5 8c3c 121e 053f
00000090: abca b73e 57a7 01be bb9d 5a3e d2aa a2be
000000a0: da60 3abe ad50 623e 9f3d 823d 5b5a b3bd
000000b0: 2e57 8e3e a010 99be dcbe 94be b55b a0bb
000000c0: 8d17 e3bc 8d0c 693d 0bcc ef3d 8a06 803e
000000d0: 33e6 c53c c02b 31be 5c37 203e 07a2 223e
000000e0: b35b 0fbe 5d51 7c3e ddcd 12be e486 d6bd
000000f0: 24b4 543c cddf 1c3c 0cd5 2bbd 4f17 853e
00000100: c13a 4cbd 2cb9 2e3e 6374 913e a9a9 973e
00000110: 0e16 df3d 0a1e 71bd 943f 163e 2fab 34bd
00000120: 31d7 02be 11a5 573d df5c 53bd b3bc 06be
00000130: 9eab 01be 4401 9fbc e085 973e 1c78 943e
00000140: 4525 ddbc 88b3 25bd 32d1 79be 5c7d f8bd
00000150: 56c1 12be 5626 6ebd c84c 97be a155 933e
00000160: 06f1 323e 2d30 a93e e2d5 693e 5726 353d
00000170: 0d50 0bbe 5ae3 bb3e 2b88 73be 23d9 213e
00000180: d354 b13e 57d4 bdbe 0305 763d 6d5a aabe
00000190: 150e 973e c2ea b4bd dd8c 8b3c 382e 2dbe
000001a0: 3c33 a6be 0c68 043e 5da8 19bd ff26 833e
000001b0: 8db1 14be 6db8 1fbd a59e 80be c266 a93d
000001c0: 240c 873e c546 96be 49fa bfbd 783a 833e
000001d0: 880f d03c cd15 0bbe 9245 80be 7b72 a6be
000001e0: df39 6fbe 1992 6fbe 5d85 1b3e 898e 4a3d
000001f0: 4ad5 43bd fac0 7ebe e39f 7a3c 8cfe b9be
00000200: 244c 493e a639 ab3e 3ac0 1a3e b95e 72be
00000210: 8d85 f5bc bf86 753c ac63 32be 4415 423d
00000220: 3de0 cbbc 89f0 8d3d 39c2 fdbd ddd9 a3be
00000230: 168c 823e 3008 7cbd 5ea3 883e 855c 43bd
00000240: 9790 7c3e 88e4 203b 334d 88bd 49f7 9c3e
00000250: 1fbd 91be 018e 7a3d 110f f73c 8b49 523e
00000260: 8a9d 753e 2a5f 62be d3ff 753d aede 92bd
00000270: 8c10 92bc cf14 183e 4502 43be 775d 72be
00000280: c193 f33d 10a7 04bf f9c9 c1be 73b6 ef3c
00000290: 0b8c 603d d78a 6bbe 7894 33bd ab05 0cbf
000002a0: 6e5d a9bd 4bf1 8c3e 2bc3 003e a8a9 9abe
000002b0: 4ad6 513e 77f1 bc3c a9ec a43e 27f6 60be
000002c0: 8f74 b53c ff0d 4d3e 3712 8a3e 4cde f6bd
000002d0: bdbb 93be 9a89 c0be 606f 12be 1611 b0be
000002e0: c871 053e d6fe 2a3d d3ee 9ebe 8962 e4bd
000002f0: ca76 983e 2d99 27bd f48a 99be e0e7 76be
00000300: a3c1 8e3c 6317 a9be 59e7 3c3d 094e 873e
00000310: 58e9 913e 8b71 5e3e 5d65 83be eb15 3abe
00000320: 5b40 1fbe 7ae3 97be a423 8d3e 98b0 7fbe
00000330: ab8f 843e f529 953e 173f 8b3e e550 9abe
00000340: d8b3 b43d 3dbf 08bd a4eb 22bd 56ad 07be
00000350: ddaa 74bd 589e 0e3e fc03 d7bd 6f48 503e
00000360: 8b9e 543e c9dc 3a3c bbfc b6be 421e f73d
00000370: fb9c 833b 9fc0 44be 6127 a93a 3843 76be
00000380: b6a7 cd3c e214 acbd 57fa 22be 42b3 32bc
00000390: 7121 143e 6d13 cb3d c249 ce3c 8240 03be
000003a0: 1945 a03e c8ca 923e db1e 323e dd14 26be
000003b0: 45c4 79be 6fb7 9ebe b06c 93be 5932 933e
000003c0: 8cb1 9d3a bea0 b3be 2364 0e3e 0ddd 443c
000003d0: 52f7 88bc efe5 aebe 44b7 dbbc 624f 14bd
000003e0: 7b85 463e 4ba2 91bd 5329 89bd 74c2 9ebe
000003f0: acbb 7f3d 8141 3d3d 5e62 b03e f843 a6be

linearD2.bias f4 [256]
-0.1399809 -0.21271497 0.14568438 0.26130155 -0.29730242 0.0060833623 0.15822923 -0.27853817
-0.32410482 0.34810644 0.23778984 0.271601 0.27290398 0.15011822 -0.23147729 0.13776328
0.115708664 0.034593284 0.06265116 -0.18421464 0.40680784 -0.03308302 0.14692256 -0.23855959
0.23863776 0.011986096 0.30910555 0.11158687 -0.1317323 -0.21525864 -0.014528866 0.17792079
-0.15302946 -0.0008955279 -0.009686341 -0.2493252 -0.20782274 -0.052355673 -0.18298152 -0.013668399
-0.19467366 -0.09100382 0.28082862 -0.0073883305 0.2545472 -0.30094087 0.32862413 0.24424249
0.12092183 -0.043502003 -0.21514423 0.15349445 0.24787132 0.23103361 -0.32253546 0.19043508
-0.1278335 -0.065982856 -0.25575042 -0.22010404 0.01631691 -0.18464237 0.26595944 -0.16816571
0.097259864 -0.19389921 0.3204141 0.08983173 0.13163061 -0.0886391 0.12201427 -0.18811236
0.30237678 -0.14154467 -0.06982369 -0.075539604 -0.4135312 -0.2622381 -0.27827397 -0.287891
0.012250701 0.1421451 -0.044198215 -0.16625369 -0.00013798408 -0.24517506 0.09093648 -0.21900266
-0.058138497 0.21786787 -0.33428484 -0.29146487 -0.17250092 -0.19356754 0.21390134 -0.43091118
0.08552224 0.08605552 -0.03881234 -0.16700064 -0.19584607 -0.09565211 0.002513162 0.25987172
-0.22504184 0.057132423 -0.36276102 0.29412693 0.05171937 -0.18043637 0.19662786 0.030532457
-0.1754272 0.29169962 0.20157076 -0.29215893 -0.28961194 0.03395447 -0.01386958 -0.23798564
-0.042154867 0.059556793 -0.059226207 0.1427614 -0.14757967 0.08880707 -0.25239226 -0.0966345
-0.32053658 0.3463027 0.20695996 -0.25911584 -0.2894141 0.085756585 -0.17665538 0.009686129
0.22879587 0.079093546 -0.19313625 0.008240865 -0.008365197 -0.14897561 -0.20788437 -0.32487306
-0.34200075 -0.24382788 -0.04112479 -0.14045827 -0.31502846 -0.24269612 0.25288522 -0.19762477
-0.02513089 -0.25233755 -0.06187418 0.27024016 0.26002255 -0.21702443 -0.13845147 -0.15850939
0.004015155 -0.08945419 -0.11427805 0.19804047 -0.32023847 -0.10654126 -0.2137022 -0.27823967
-0.09126539 0.24310389 -0.2907975 -0.16756923 0.0065463935 -0.11913018 -0.122041374 0.12501162
0.009330426 0.07008115 0.101833284 0.1216183 -0.37469038 0.0680583 0.066730455 0.3329088
0.29920018 -0.33996186 -0.27184552 0.23998627 -0.18065822 -0.35449657 -0.008509178 0.27824524
0.041283984 0.23253523 0.10513803 -0.101821065 -0.29172406 -0.1424178 0.093012474 0.27916616
-0.040903248 0.08124252 -0.033554252 -0.27155665 0.20428629 0.16961436 -0.024515882 0.15961324
-0.03800335 0.21542208 -0.1457081 0.07222145 -0.2933981 -0.10590129 0.27032417 -0.24452393
0.2878304 0.0359393 -0.07805824 0.18731998 -0.24065344 0.2089257 -0.2939105 -0.085542716
-0.035366736 0.26975974 -0.11153467 -0.14358178 -0.1364215 0.044299383 0.10295869 -0.13451642
0.020908607 -0.33078566 0.24636695 -0.11092826 -0.031788856 -0.16121209 -0.19871762 -0.2494011
-0.30835396 0.089417435 0.0970484 -0.17525154 -0.27653384 0.1121991 -0.22664249 -0.037753485
-0.21186304 -0.18057859 -0.19645083 -0.3569927 0.18783495 -0.20021938 -0.024854647 -0.27059042
00000000: 2757 0fbe f4d1 59be 492e 153e 51c9 853e
00000010: 0638 98be f156 c73b d806 223e 8e9c 8ebe
00000020: 11f1 a5be 023b b23e 2e7f 733e 490f 8b3e
00000030: 12ba 8b3e 97b8 193e 6208 6dbe d111 0d3e
00000040: aaf8 ec3d b0b1 0d3d 404f 803d c3a2 3cbe
00000050: 1e49 d03e 1082 07bd de72 163e f748 74be
00000060: 755d 743e 5561 443c 1543 9e3e a887 e43d
00000070: d5e4 06be c36c 5cbe 7b0a 6ebc de30 363e
00000080: c1b3 1cbe dcc1 6aba 75b3 1ebc 1b4f 7fbe
00000090: 7ccf 54be e772 56bd 825f 3bbe 6cf1 5fbc
000000a0: 8858 47be 3660 babd c5c8 8f3e cf19 f2bb
000000b0: 0354 823e ec14 9abe 6c41 a83e b41a 7a3e
000000c0: dda5 f73d 282f 32bd c54e 5cbe a62d 1d3e
000000d0: fbd1 7d3e 1394 6c3e 5e23 a5be 6a01 433e
000000e0: c9e6 02be 0522 87bd b8f1 82be f462 61be
000000f0: 0aab 853c e412 3dbe d62b 883e a233 2cbe
00000100: 2e30 c73d 848d 46be 510d a43e b3f9 b73d
00000110: 2dca 063e 6b88 b5bd 9ee2 f93d 87a0 40be
00000120: 21d1 9a3e 16f1 10be b9ff 8ebd 82b4 9abd
00000130: 5dba d3be 1244 86be ed79 8ebe 7366 93be
00000140: 2ab7 483c 7c8e 113e 3009 35bd 683e 2abe
00000150: d2af 10b9 2c0f 7bbe e83c ba3d 3c42 60be
00000160: a222 6ebd c118 5f3e 6227 abbe e23a 95be
00000170: 15a4 30be 9236 46be f408 5b3e 64a0 dcbe
00000180: 4926 af3d e03d b03d b0f9 1ebd 3702 2bbe
00000190: df8b 48be 41e5 c3bd ddb3 243b e80d 853e
000001a0: 5e71 66be b003 6a3d d0bb b9be ce97 963e
000001b0: b1d7 533d 50c4 38be d058 493e 341f fa3c
000001c0: 30a3 33be a759 953e 9168 4e3e db95 95be
000001d0: 0448 94be d813 0b3d 3c3d 63bc 82b2 73be
000001e0: 95aa 2cbd d3f1 733d 2e97 72bd 0b30 123e
000001f0: 201f 17be 7be0 b53d 8f39 81be 4fe8 c5bd
00000200: 5f1d a4be 964e b13e 50ed 533e d5aa 84be
00000210: 162e 94be 26a1 af3d 26e5 34be 92b2 1e3c
00000220: 7749 6a3e ccfb a13d 82c5 45be b104 073c
00000230: 2e0e 09bc 108d 18be a4df 54be c355 a6be
00000240: b91a afbe 04ae 79be 7872 28bd 4bd4 0fbe
00000250: 694b a1be 5585 78be 2c7a 813e 265e 4abe
00000260: 4cdf cdbc 6332 81be c86f 7dbd eb5c 8a3e
00000270: ad21 853e a73b 5ebe 39c6 0dbe 4950 22be
00000280: 9091 833b c233 b7bd 9c0a eabd 1fcb 4a3e
00000290: 4cf6 a3be 4e32 dabd c0d4 5abe 6e75 8ebe
000002a0: 59e9 babd 3af0 783e 69e3 94be 4597 2bbe
000002b0: 2183 d63b 86fa f3bd d4f0 f9bd 0c03 003e
000002c0: a5de 183c b586 8f3d f88d d03d 0413 f93d
000002d0: 6bd7 bfbe 2662 8b3d faa9 883d 0673 aa3e
000002e0: c430 993e 7b0f aebe 562f 8bbe f6be 753e
000002f0: 78fe 38be 9380 b5be 146a 0bbc 2976 8e3e
00000300: 6519 293d b71d 6e3e 9c52 d73d 9087 d0bd
00000310: db5c 95be f9d5 11be 537d be3d deee 8e3e
00000320: 2a8a 27bd 7a62 a63d 2f70 09bd 7909 8bbe
00000330: 6d30 513e 63af 2d3e 88d5 c8bc a771 233e
00000340: 67a9 1bbd 9b97 5c3e 8134 15be d7e8 933d
00000350: 4738 96be c7e2 d8bd ee67 8a3e 7b64 7abe
00000360: 825e 933e 1635 133d 00dd 9fbd cfd0 3f3e
00000370: db6d 76be 9ef0 553e 707b 96be 0531 afbd
00000380: b6dc 10bd f31d 8a3e 4a6c e4bd 1a07 13be
00000390: 14b2 0bbe 4573 353d 01dc d23d acbe 09be
000003a0: 8748 ab3c bd5c a9be 9e47 7c3e 5b2e e3bd
000003b0: 0835 02bd c814 25be a27c 4bbe 0163 7fbe
000003c0: 92e0 9dbe 7d20 b73d 50c1 c63d 2475 33be
000003d0: d895 8dbe a4c8 e53d f814 68be 66a3 1abd
000003e0: a0f2 58be 98e9 38be 682a 49be bfc7 b6be
000003f0: ce57 403e 4f06 4dbe f99b cbbc d48a 8abe

linear3.weight f4 [6, 256]
0.0097051235 0.03579013 0.03612742 -0.03184206 -0.0135877635 -0.059191093 0.06946522 0.0042327503
0.0038138193 -0.077621065 0.008746394 0.026590304 -0.049698494 0.02413689 0.04320767 0.024120286
0.015454251 0.13799843 0.019906316 -0.08169331 -0.04304174 0.08171281 -0.034191146 0.004200381
0.030215366 -0.020541888 -0.05305826 0.03252452 0.02780089 -0.0135178035 0.046845254 -0.046592712
-0.039431855 -0.064454325 0.06495025 0.051891964 -0.026513344 0.051077746 0.046541378 -0.0438717
-0.016461974 -0.051179122 -0.017652621 0.0056026136 0.051946364 -0.016368223 -0.049221497 -0.0058655525
-0.010335277 -0.029577257 0.07617107 -0.100591704 0.030730724 0.03388775 -0.021474015 -0.01935088
0.028958306 0.054317966 -0.01955084 0.012472993 0.00263825 -0.007994941 0.056272652 0.029778223
0.07926845 -0.0062532695 0.050956868 0.0127445785 0.019175967 -0.0012842484 0.05783653 0.056138385
0.0055073807 0.101997465 -0.05260001 0.058952183 0.013497104 0.052276567 0.049023163 0.04152104
-0.018024782 -0.037370857 0.03934189 0.09326364 0.025371673 -0.015279132 0.09004845 -0.004624267
-0.046720587 0.043133214 -0.10729827 -0.04003833 -0.041531708 0.027940374 -0.03659698 -0.009364683
0.024221119 -0.099507004 -0.052960005 -0.056022618 -0.02788129 0.012674638 0.028922457 -0.028895535
0.0060889916 0.034876056 -0.034328535 0.016544526 -0.019271538 0.002919152 -0.08316734 -0.063417874
0.023458807 0.02377844 0.04572026 0.013339367 -0.041765023 -0.08205203 0.07742514 0.08618585
-0.0860205 -0.012416902 -0.061561637 -0.0071764304 0.015139549 -0.0302589 0.04467701 -0.021675326
-0.0829893 -0.012949244 0.00464257 -0.018220564 -0.0493713 0.01818408 0.08852932 0.01469432
0.005620936 -0.012926174 -0.059415042 0.031357992 0.020513684 -0.027305238 -0.010983075 0.054090504
0.06899415 -0.030350825 0.05126538 0.03561609 0.05711904 0.0044370415 0.0045228056 -0.002364778
0.016884763 -0.049186308 0.020205697 -0.030927097 0.017172659 0.014112448 -0.08111952 0.033964764
-0.05400649 -0.038877998 0.067981414 -0.0125444485 0.0006513364 0.065062314 0.014570403 0.036176313
0.038830947 0.09450582 -0.036763486 -0.007659066 0.057573367 -0.035683613 -0.030029733 0.055316642
0.031184942 0.040885802 -0.0029032524 -0.047504347 0.02265618 0.04543185 -0.04515023 -0.0150570795
0.01601905 -0.02840637 -0.03810886 0.055546243 -0.11468335 -0.01204337 -0.05810698 -0.032329187
-0.08437564 0.0008216186 0.006677262 0.043116562 -0.040851988 -0.055567417 -0.004473009 0.0022295697
0.03716617 0.009516583 0.041971825 0.010215387 0.07510026 0.0057364884 0.0028272478 0.042294554
0.011053372 0.021721125 0.02750914 -0.1256325 0.070416935 -0.04092894 0.0564047 -0.025553009
0.033130154 -0.0020195404 -0.04980886 0.014167643 -0.084722914 0.03810211 -0.038814493 0.050364505
0.027141282 0.043220896 0.053558335 0.038983777 0.05710155 -0.10170746 -0.079380594 -0.008925597
-0.008836068 -0.0054480615 0.011402773 0.029047132 0.03518585 -0.033453558 -0.036095135 0.03549897
0.008508682 -0.0065440233 0.015798347 0.069630496 -0.015792377 0.035593938 -0.012307973 -0.03630604
0.02936935 -0.028790137 -0.043830197 -0.023199942 -0.0258662 0.06305131 -0.018423267 0.005051543
00000000: 3d02 1f3c ac98 123d 58fa 133d d26c 02bd
00000010: 369f 5ebc 5c72 72bd c843 8e3d e2b2 8a3b
00000020: 45f1 793b cbf7 9ebd 094d 0f3c e9d3 d93c
00000030: a690 4bbd baba c53c 87fa 303d e897 c53c
00000040: d433 7d3c 764f 0d3e 9212 a33c d24e a7bd
00000050: 894c 30bd 0c59 a73d 040c 0cbd 5aa3 893b
00000060: 3786 f73c 7647 a8bc 9e53 59bd 6e38 053d
00000070: b1be e33c c779 5dbc cfe0 3f3d 00d8 3ebd
00000080: 4c83 21bd a100 84bd a304 853d ab8c 543d
00000090: 8332 d9bc e636 513d 2ca2 3e3d d0b2 33bd
000000a0: 43db 86bc 33a1 51bd 3b9c 90bc 2196 b73b
000000b0: b6c5 543d a716 86bc 7b9c 49bd d233 c0bb
000000c0: 4b55 29bc 014c f2bc 94ff 9b3d 0603 cebd
000000d0: 00bf fb3c e2cd 0a3d 46ea afbc bd85 9ebc
000000e0: f839 ed3c 847c 5e3d 1529 a0bc 865b 4c3c
000000f0: 7de6 2c3b 37fd 02bc 277e 663d 76f1 f33c
00000100: 7f57 a23d 3ae8 ccbb 26b8 503d a3ce 503c
00000110: eb16 9d3c 3a54 a8ba ffe5 6c3d 5df1 653d
00000120: 4277 b43b 0ce4 d03d 1c73 57bd d877 713d
00000130: f522 5d3c f41f 563d 83cc 483d f711 2a3d
00000140: b5a8 93bc 2f12 19bd f624 213d 0201 bf3d
00000150: 41d8 cf3c 5355 7abc 526b b83d 2a87 97bb
00000160: 165e 3fbd 74ac 303d 32bf dbbd 3bff 23bd
00000170: 271d 2abd 36e3 e43c b7e6 15bd 546e 19bc
00000180: 5e6b c63c 54ca cbbd 97ec 58bd f977 65bd
00000190: 4e67 e4bc 49a9 4f3c caee ec3c 54b6 ecbc
000001a0: 2a86 c73b 32da 0e3d 149c 0cbd 6388 873c
000001b0: 58df 9dbc 3e4f 3f3b a353 aabd 3be1 81bd
000001c0: af2c c03c 01cb c23c 2b45 3b3d 5c8d 5a3c
000001d0: cd11 2bbd e50a a8bd 1291 9e3d 3582 b03d
000001e0: 842b b0bd 4370 4bbc 0e28 7cbd 4328 ebbb
000001f0: df0b 783c 83e1 f7bc 3eff 363d 7490 b1bc
00000200: 4bf6 a9bd 1129 54bc b320 983b 4b43 95bc
00000210: 8f39 4abd c8f6 943c dc4e b53d 72c0 703c
00000220: d42f b83b 4ec8 53bc 305d 73bd 3d71 003d
00000230: 500c a83c 3caf dfbc 5bf2 33bc 018e 5d3d
00000240: ce4c 8d3d 4ba2 f8bc a6fb 513d 2de2 113d
00000250: a8f5 693d 9a64 913b 0b34 943b 64fa 1abb
00000260: ea51 8a3c 9577 49bd 6b86 a53c d35a fdbc
00000270: adad 8c3c e637 673c fe21 a6bd a31e 0b3d
00000280: e935 5dbd 893e 1fbd d739 8b3d 3b87 4dbc
00000290: 72be 2a3a 643f 853d b3b8 6e3c 9d2d 143d
000002a0: 330d 1f3d 448c c13d 4f95 16bd e7f8 fabb
000002b0: 0dd2 6b3d fb28 12bd ea00 f6bc b493 623d
000002c0: 9077 ff3c df77 273d 7e44 3ebb eb93 42bd
000002d0: 7499 b93c bf16 3a3d 73ef 38bd f8b1 76bc
000002e0: 623a 833c 7ab4 e8bc 0918 1cbd 7584 633d
000002f0: 1bdf eabd 8e51 45bc 9601 6ebd 9c6b 04bd
00000300: 23cd acbd e461 573a efcc da3b fe9a 303d
00000310: 6a54 27bd a99a 63bd 5292 92bb f91d 123b
00000320: 8e3b 183d 71eb 1b3c a6ea 2b3d 705e 273c
00000330: 2ace 993d 27f9 bb3b 5949 393b 0e3d 2d3d
00000340: 3419 353c 80f0 b13c d95a e13c cea5 00be
00000350: c136 903d 1ba5 27bd 9d08 673d 8b54 d1bc
00000360: 7cb3 073d 445a 04bb 6004 4cbd 671f 683c
00000370: 3583 adbd f510 1c3d f2fb 1ebd 034b 4e3d
00000380: 6557 de3c 6508 313d fc5f 5b3d 74ad 1f3d
00000390: 51e3 693d 004c d0bd 4b92 a2bd ab3c 12bc
000003a0: 28c5 10bc a785 b2bb b2d2 3a3c 40f4 ed3c
000003b0: 0a1f 103d 9906 09bd 7ed8 13bd 5e67 113d
000003c0: 0068 0b3c 3f6f d6bb 896b 813c 6f9a 8e3d
000003d0: 045f 81bc f3ca 113d 61a7 49bc a4b5 14bd
000003e0: fe97 f03c 4bd9 ebbc 4b87 33bd ce0d bebc
000003f0: 5ae5 d3bc 0c21 813d 64ec 96bc 6a87 a53b
