continous_state/pretrained/VE/VE10_256.pt (torch, 46912 bytes, 9 tensors)

linearK1.weight f4 [10, 8]
000000 55 e6 bf 3e c1 ea 7a 3e 48 c5 20 3e a1 77 85 be
       0.37480417 0.24503614 0.15700257 -0.26067832
000010 5b c3 38 3c 97 b2 5a be 50 af 31 3e 31 61 81 bd
       0.011277045 -0.21357189 0.17352033 -0.06317366
000020 37 c1 9e be 15 b9 d6 bd 5b f6 8e bd 3a b2 d6 be
       -0.31006786 -0.1048452 -0.06980582 -0.4193285
000030 e5 88 e8 bd 98 90 13 be b5 1f 87 3e 67 6d dc 3d
       -0.113542356 -0.14410627 0.26391378 0.10763054
000040 4b b6 81 3e c3 9d 8c be ec 59 a8 be 08 3d e9 be
       0.2533439 -0.27464113 -0.32881105 -0.45554376
000050 dd 3c b7 3d 6e 1a cd 3d 65 46 b0 be e3 42 db bd
       0.089471556 0.10014807 -0.34428707 -0.10706117
000060 93 d5 56 3e ef 01 cf 3d 89 6a 3b bf ad 10 b2 be
       0.2097991 0.10107791 -0.73209435 -0.34778348
000070 7a d5 67 be 8c 55 98 3d eb 66 e5 bd 34 76 84 be
       -0.22640029 0.07438192 -0.11201271 -0.25871432
000080 c4 67 60 3d 2b ae ed 3d 8d 76 2a 3d ce 3a 7d be
       0.05478646 0.116054855 0.041616965 -0.24729463
000090 27 06 1c be 68 cc ec 3d d5 eb 52 be 5b d3 39 3e
       -0.15236722 0.11562425 -0.20597775 0.18147032
0000a0 5c e7 95 3d c7 19 58 bd a8 cf 2e bf 4b 4c b7 3e
       0.07319519 -0.05275896 -0.6828561 0.35800394
0000b0 32 4e 28 3e 13 da 49 3d 95 af fe 3d a2 07 50 be
       0.16436079 0.049280237 0.12435833 -0.20315412
0000c0 9b b6 eb bd 45 1e 75 be c4 c0 4a be 3b 56 66 3c
       -0.115094386 -0.23937328 -0.19800097 0.014058645
0000d0 9e 8f aa 3e 73 3a 6e 3e c9 98 55 3e ed 54 6f 3e
       0.33312696 0.23264484 0.20859064 0.2337224
0000e0 05 20 15 be fa 83 b7 3e 01 96 90 bd 6e 84 12 bd
       -0.14562996 0.35842878 -0.07059861 -0.035770826
0000f0 7c 31 2f 3e b7 65 bf 3e ff 91 c7 bd 6f c7 82 be
       0.1710872 0.3738229 -0.097446434 -0.2554278
000100 7d 80 d1 3d a0 c0 74 be c0 28 e3 3e a4 63 92 be
       0.10229585 -0.23901606 0.44367027 -0.28591645
000110 77 f4 24 be d4 21 8a 3e 18 0c a4 3e cf f2 91 be
       -0.16108881 0.26978934 0.32040477 -0.2850556
000120 6c 64 74 be 78 4c d9 3d 87 e7 9e be 97 67 26 be
       -0.23866433 0.106102884 -0.31036016 -0.16250454
000130 fc 9e 6e be f8 e6 ec bd a0 e0 76 be ef 50 73 be
       -0.23302835 -0.11567491 -0.24109125 -0.23761342

linearD1.weight f4 [256, 10]
000000 32 28 bf bc ff 17 f0 bd b2 fc 7e 3e 8c 0e 50 be
       -0.023334596 -0.11723327 0.24901083 -0.20318049
000010 28 38 59 be 49 43 6a 3d 44 ec 36 bd f1 12 6e bc
       -0.21212828 0.057193074 -0.044658914 -0.014530883
000020 43 35 8f 3d 46 53 66 be d0 e6 ef bd 6f 7c b6 be
       0.06992581 -0.22492704 -0.11713946 -0.3564181
000030 18 cc 0e be e6 ae ae 3e 73 5e d5 bc 21 0f 92 3d
       -0.13945043 0.34117812 -0.026046013 0.07131792
000040 4a 9c 09 3d f7 63 48 be c0 3c 2c 3e 9d 10 19 3d
       0.033596314 -0.19569384 0.1682005 0.03736936
000050 8e 5f 7b 3e a2 db a2 be 17 e7 b4 be fb c4 b0 be
       0.2454817 -0.31808192 -0.35332558 -0.34525284
000060 1c fa 11 be c6 aa 24 3e 4d 60 b7 bd f6 61 d8 bd
       -0.14255565 0.1608077 -0.08953915 -0.105655596
000070 42 6c 8b be fa a0 1b be c9 e5 cc 3d 72 fa 2c 3e
       -0.27231032 -0.15198126 0.100047655 0.16892412
000080 90 43 8b be a7 ce 8a be fb 79 3b 3d b0 ee 13 3e
       -0.27199984 -0.27110788 0.045770627 0.14446521
000090 69 d6 2f bd 7f 35 02 be 3e 32 e7 3d 05 9c 81 3d
       -0.042929087 -0.1271572 0.1128888 0.063285865
0000a0 44 c8 8b be 1d 85 18 3c da 4e 37 3e b1 50 73 3e
       -0.27301228 0.00930908 0.17901173 0.2376125
0000b0 8a 9e ab 3e 8c fa b7 be 42 f2 d4 3c a5 b8 a6 3e
       0.33519393 -0.3593334 0.025994424 0.32562748
0000c0 a4 cc c1 bd b5 f9 5d be 7b bc 9d 3e 61 18 48 3e
       -0.0946286 -0.21677287 0.30807862 0.1954055
0000d0 56 03 e5 bd 17 01 07 3c a6 0d 88 be 29 f6 b4 3b
       -0.11182277 0.008240006 -0.26572913 0.0055225086
0000e0 13 32 76 3e de c4 a0 3e 80 43 0f be aa 24 52 3e
       0.2404254 0.31400198 -0.13990593 0.20521799
0000f0 e4 68 d9 bd dc 2f 43 bd e7 76 0c 3e d2 5d a1 3e
       -0.106157094 -0.047653064 0.13717233 0.31516892
000100 c2 2f 5b 3e 2a fa 35 3e ae 92 9e bc 2e 85 9a be
       0.21404937 0.17771211 -0.019357052 -0.30179733
000110 6f dc 53 3e 6b 77 a2 be 73 e8 9f 3e fd 2d 7f bd
       0.20689557 -0.31731734 0.31232032 -0.062299717
000120 01 f7 c2 3d 89 db 91 3e 81 27 b2 3d 62 91 21 3e
       0.095197685 0.28487805 0.08698941 0.15778115
000130 23 1a 1d be 6b 46 19 be 5e 7e 92 3e b2 d7 6d 3d
       -0.15342002 -0.14968269 0.28612036 0.05806703
000140 5a 56 3e 3d 22 59 4d 3e c3 17 09 3d 70 7b b7 3e
       0.04646907 0.20053533 0.033469927 0.35836363
000150 1d e4 7d 3e 4f 60 75 3d d2 e5 1c 3e bc 5a c8 3c
       0.2479405 0.0599063 0.15322044 0.024457328
000160 16 2e 31 3d e8 7e 77 3e 41 fe 10 3e 44 3b 7d be
       0.04325684 0.24169505 0.1415949 -0.2472964
000170 ae 6d e2 bc 6e 91 52 3e 90 38 b2 be 2a 1e 55 3e
       -0.02764019 0.2056329 -0.3480878 0.20812288
000180 58 50 4f 3e 0c cd 64 be ec f7 69 3d 3b 35 68 3e
       0.20245492 -0.22343844 0.057121202 0.22676556
000190 8d 0c 68 3b ca b4 10 be 42 8c 9d 3e 87 b0 11 be
       0.0035407871 -0.14131466 0.3077107 -0.14227496
0001a0 ce 9c bb bd 75 67 77 3d 38 e5 ab be af 7c 9b 3e
       -0.091607675 0.0604014 -0.33573318 0.30368564
0001b0 24 1a 0f be 85 2f 98 ba db 48 da 3b 2b 07 74 3e
       -0.13974816 -0.0011610842 0.006661517 0.2383086
0001c0 a6 57 0f 3d 74 9c 72 3e 88 84 83 be 37 2a 9b 3e
       0.034995697 0.23692495 -0.2568705 0.30305645
0001d0 c0 cb 53 be 22 b6 32 be 06 c5 b5 bd d7 b2 1d 3e
       -0.20683193 -0.1745229 -0.0887547 0.15400253
0001e0 a0 66 21 3d 97 05 90 3e 23 3f f9 bd d8 cf 2c bc
       0.03940451 0.28129265 -0.121702455 -0.010547601
0001f0 d1 1a a4 3c 90 dc ac 3c bd d9 5f ba 52 40 72 3e
       0.020032318 0.021101266 -0.00085392204 0.23657349
000200 02 c8 4d b9 01 f4 2e 3e 43 a0 9a be 51 34 7d bd
       -0.00019624832 0.17085268 -0.30200395 -0.06181747
000210 de 84 b5 38 36 29 80 3e 0c e1 fd 3d 3a 46 d4 bd
       8.655501e-05 0.2503144 0.1239644 -0.10364957
000220 10 04 72 3e 60 dc 93 be 87 48 24 3e 39 e7 84 3d
       0.23634362 -0.2887907 0.16043292 0.06489415
000230 6b 4d a9 bb c8 5f a9 3c a5 7d 70 be 33 8e 7b bd
       -0.0051666996 0.020675555 -0.2348543 -0.06141491
000240 95 35 cb bd f5 48 83 3e 5e df 1b be 26 69 52 3e
       -0.09922329 0.256416 -0.15221927 0.20547923
000250 35 94 72 be 58 d7 ad 3c 5f 8d 1f 3e 53 00 09 be
       -0.23689349 0.021220848 0.15581273 -0.1337903
000260 8b 1a 69 3d d4 a8 03 3e 6e 56 5b be 9e db 9d bc
       0.05691008 0.12857372 -0.21419689 -0.01926976
000270 30 94 27 bc 4b 84 90 be 4d 5e 95 be 12 25 92 be
       -0.010228202 -0.28225932 -0.29173508 -0.28543907
000280 52 c0 44 3d cf 61 8a be da be a3 be 08 cc 35 be
       0.048034973 -0.27027747 -0.31981546 -0.17753613
000290 c0 15 11 3e 6f 41 f1 3d 49 51 6a be bd 9d 38 be
       0.14168453 0.117800586 -0.2288257 -0.18028922
0002a0 9f 22 2d 3e 4e c6 40 bc 21 4d 61 be 90 06 9f 3e
       0.16907738 -0.0117660295 -0.22002079 0.31059694
0002b0 83 f5 32 3d 71 4c 41 3d ef 10 81 3e 6e 4d 04 3e
       0.04369117 0.04719204 0.25208232 0.12920162
0002c0 15 eb 95 bc df da be 3d d1 76 9c be 37 c5 cb bc
       -0.018300572 0.0931909 -0.305594 -0.024874313
0002d0 8f e9 a0 3e b0 ae af bd 2e e7 0e be cb 8d 6e be
       0.3142819 -0.08578241 -0.13955376 -0.23296277
0002e0 b3 7f 84 3d 12 eb 3e be 04 17 50 3e a4 ae 41 be
       0.06469669 -0.1864436 0.2032128 -0.18914276
0002f0 85 43 67 be bb 0a 40 be 98 35 ad 3e 56 13 c1 3d
       -0.2258435 -0.18754093 0.3382995 0.09427516
000300 2e 5c e7 bd 6b 89 c2 3c a1 f4 50 3e 88 88 a5 3e
       -0.11296879 0.023747167 0.20405819 0.32330728
000310 8d 46 8e 3d b8 25 a9 be 09 48 ac be 17 1c ac 3d
       0.0694705 -0.3303659 -0.33648708 0.08403795
000320 ad cc 8b bc 7f ed ba 3e 05 d5 ae 3e 93 a3 71 3e
       -0.01706537 0.3650932 0.34146896 0.23597555
000330 95 15 52 3e 85 60 e1 be 18 f7 89 be ca 86 61 3d
       0.20516045 -0.4401895 -0.2694633 0.055060185
000340 bc e2 fc bd dc 3f bc 3e ff eb 09 be 24 32 da 3d
       -0.12347934 0.3676747 -0.13468932 0.10654095
000350 e6 62 02 3e 41 fc 38 be 2b 5d e0 bd ff 8a a4 3e
       0.1273304 -0.18064977 -0.109552704 0.32137296
000360 23 31 59 3d 82 ee 8b 3d 7e 63 2a bc a0 f7 6e 3e
       0.053025376 0.06832601 -0.010399697 0.23336649
000370 ea 4d 83 3e 2d e3 8c 3d b5 86 9b 3c 65 98 78 be
       0.2564538 0.06879268 0.018985132 -0.24276884
000380 32 a0 ee bc 85 4e 6b 3e 25 dd 79 3e 06 57 33 be
       -0.029129121 0.22979172 0.24400766 -0.17513666
000390 a2 22 9b bd 6a 07 ac 3d 29 3a b9 bd 52 1f 99 be
       -0.07574965 0.083998516 -0.09044296 -0.29906708
0003a0 da df 80 3d 4b d5 2f bd 3d 59 5c be 95 44 6b 3d
       0.06292696 -0.04292802 -0.21518417 0.05743845
0003b0 32 88 bc bd cb 7c 29 be e2 2c 9a bd 39 8d 28 bd
       -0.09205665 -0.16551511 -0.07528092 -0.041150305
0003c0 51 9c 78 bd 0b ca dd bd 12 d1 ea bd 60 ab 84 3d
       -0.06069595 -0.10829552 -0.11465658 0.06478
0003d0 ad f9 0b be b1 1a 65 3e d9 3a c8 bc 0f 23 0f be
       -0.13669463 0.22373463 -0.024442123 -0.13978218
0003e0 d9 41 3e be b2 d8 e2 bd 61 68 09 be c8 be 98 3d
       -0.18579806 -0.110764876 -0.13418724 0.07458264
0003f0 83 52 98 3e e7 64 65 3e 42 60 14 be 02 a9 84 3e
       0.2975045 0.22401772 -0.14489844 0.25910193

linearD1.bias f4 [256]
000000 55 66 69 be 4a e9 f8 3d 38 8f b9 3e 1c c6 ba bd
       -0.22792943 0.12153871 0.3624208 -0.091198176
000010 0c 95 a7 be 61 fc 5f bd f0 e8 a5 3b f2 37 60 be
       -0.327309 -0.054684047 0.0050631687 -0.21896341
000020 05 01 84 3e 36 56 90 bc 3e a3 4c 3e d0 6a 42 3d
       0.25782028 -0.017619234 0.19984147 0.047465146
000030 ec c2 a4 3d 28 ab 94 3e f5 42 fb bd b8 5f 2d be
       0.08044991 0.29036832 -0.122686304 -0.16931045
000040 b6 c4 14 3e 68 83 68 3d 33 1c d7 bd 64 d3 15 3e
       0.14528164 0.056765944 -0.105034254 0.1463142
000050 af 68 9d be 79 7a 24 be 1f 5e 09 be 63 e6 b2 3c
       -0.3074393 -0.16062345 -0.1341481 0.021838373
000060 2f 75 84 bd 33 22 37 be 74 cf 13 3e 93 cd 8f 3e
       -0.064676635 -0.1788414 0.14434606 0.28086528
000070 08 ad b4 bd 02 d4 85 be d8 2f 22 be ba c2 2d bc
       -0.088220656 -0.26138312 -0.15838563 -0.010605508
000080 0a c3 87 3e a8 2f a4 3d dc d3 1d be f1 96 e6 3d
       0.2651599 0.08016902 -0.15412849 0.112592585
000090 71 c3 5e bd 71 e4 0c be 4b 51 2d be 46 8a 5b 3e
       -0.054385606 -0.13759018 -0.16925542 0.21439466
0000a0 a5 80 a6 3e 58 3a 5e ba df f1 83 3c f3 fc 27 3e
       0.32520023 -0.0008477322 0.016106544 0.16405086
0000b0 c8 5a c2 bc 76 58 d2 bb 61 84 6e 3e ff 08 8b 3e
       -0.023724928 -0.006419237 0.23292686 0.271553
0000c0 4b 21 d7 bb fc 1d 2f be 12 a2 f9 bc 03 46 37 3d
       -0.006565248 -0.17101282 -0.030472789 0.044744503
0000d0 e5 9c d1 3d 10 38 05 be f4 ac 9b be 70 48 8a 3e
       0.102350034 -0.13009667 -0.3040539 0.2700839
0000e0 f8 4e 91 be 08 58 33 3d 29 3b dd bc f5 13 01 3a
       -0.2838056 0.043785125 -0.027005749 0.00049239333
0000f0 36 7e d1 bd 30 f0 85 be 41 e8 25 3d 7b 9a 89 be
       -0.10229151 -0.2615981 0.040504698 -0.26875672
000100 0f ff 17 bc d6 ce 7a 3e 91 08 82 3e a5 43 04 3e
       -0.009277119 0.24492964 0.2539716 0.1291643
000110 d6 de 15 3d 38 13 14 3e ff 4a 59 be e3 ee 36 3e
       0.036589466 0.14460456 -0.21220015 0.17864566
000120 7b 0e 5d be 53 f6 b8 3d 78 fc 96 3e 58 57 15 3e
       -0.21587555 0.090313576 0.29489493 0.145841
000130 6b 95 97 3d dd 33 51 be 2c 78 65 3d d5 d7 ef bd
       0.07401546 -0.2042994 0.056022808 -0.117110886
000140 07 3d 8b be 1e 4a 4a be 21 b5 71 bd b7 2e 65 3e
       -0.27194998 -0.19754836 -0.05901063 0.22381102
000150 0f 0a 8f bc 63 50 22 3e cd 28 82 be 2d 26 09 3e
       -0.017460851 0.15850978 -0.25421754 0.13393469
000160 aa 1e 80 3d 40 22 b4 3d 66 d5 52 3d 95 d4 72 3e
       0.06255849 0.08795595 0.051473044 0.23713906
000170 f1 26 81 ba d8 ca 3a bd 0f 21 8b 3e 96 3a 8c 3e
       -0.0009853524 -0.045603603 0.2717366 0.27388448
000180 95 a7 03 be 91 5f f6 bd 48 95 46 bc e9 ec 86 3e
       -0.12856896 -0.120299466 -0.012120552 0.26352623
000190 dd 86 6a be ae 58 cd 3d f0 5c 3f 3d c3 b1 9c 3c
       -0.22903009 0.1002668 0.04671949 0.019127732
0001a0 b3 82 08 3e 34 30 7a 3d b2 e4 93 3e 30 29 24 3e
       0.13331108 0.061081126 0.28885418 0.16031337
0001b0 de ee 86 be 1f 6c af 3d bf 0f 06 3d 6d 62 99 bd
       -0.26354116 0.08565544 0.03272986 -0.07489476
0001c0 c8 e1 a0 bd 7e 49 03 be d4 86 16 bc 06 aa 77 3e
       -0.07855564 -0.12821004 -0.009187419 0.24185953
0001d0 53 f3 f4 3d 83 33 c6 3d bc 63 b3 bd 59 cc 0f be
       0.11960473 0.09677794 -0.08759257 -0.14042796
0001e0 db 17 4f be 4a 83 00 3e 1b 81 30 3e f2 c6 e3 bd
       -0.20223944 0.12550083 0.1723675 -0.1112193
0001f0 d6 29 88 bc fa e2 8c be e0 91 80 3e bc 31 b1 3d
       -0.016621511 -0.2751692 0.25111294 0.08652064
000200 e4 2b 4f 3e 68 ee 91 be 5d fa 9f 3b 9a 9b 8d 3e
       0.20231587 -0.28502202 0.0048821406 0.27657777
000210 0e 5e 3b be 8e 66 85 be 16 51 7b be 89 69 b8 3d
       -0.18297598 -0.26054806 -0.2454265 0.09004504
000220 16 64 90 3e 35 0b 38 bc 47 ed 14 3e 2b 35 28 3e
       0.2820136 -0.011233141 0.14543639 0.16426532
000230 80 33 aa bd 9c b6 83 3d a1 99 38 bc d1 c2 ee b8
       -0.08310604 0.06431314 -0.011267097 -0.00011385012
000240 44 26 8a 3e d3 5b a3 3d 6a 19 d7 3d 36 f7 50 3d
       0.2698232 0.079764985 0.10502894 0.05101701
000250 c8 9c 95 bd dd 38 34 bd ad 2e 4c bc 52 82 35 be
       -0.07305294 -0.04399954 -0.0124623 -0.17725495
000260 e4 3f ed 3d fd 42 7f 3d 8f 52 01 bd 31 b1 20 bd
       0.11584452 0.062319744 -0.031572875 -0.039231483
000270 b6 6d 32 3c dd 86 42 3e b2 3f 00 3d cb b1 5a be
       0.010890415 0.18996759 0.031310745 -0.21356885
000280 b4 a6 a6 3d 07 5f c3 bb bf 59 97 3d fa 5e 3f be
       0.08137265 -0.005962256 0.073901646 -0.18688574
000290 e1 7d 75 3d 34 28 3c 3e 1e 0e 97 3e ef 3e 74 3d
       0.0599345 0.18374711 0.29502958 0.05963033
0002a0 74 22 58 be 4a 09 77 be b4 22 37 3e 9e 64 a4 bd
       -0.21106893 -0.24124637 0.17884332 -0.08027004
0002b0 74 1f 5a 3d d4 67 bd be e4 0a 43 3d dc 1b 20 3e
       0.053252652 -0.36993277 0.047617808 0.15635628
0002c0 2d 3d 58 3e 23 7f 56 3c a6 8b 48 be 07 5e d4 3c
       0.21117087 0.013091835 -0.19584522 0.025923742
0002d0 93 ff c4 3c ba be 51 be 3f 43 59 3e 42 36 3c bc
       0.024047649 -0.20482913 0.21217059 -0.011487545
0002e0 f0 e3 a6 3c 0f 99 16 bc 97 39 91 3d e9 a1 3e bd
       0.020372361 -0.009191765 0.070910625 -0.04654113
0002f0 5b fb a0 bd 9b f0 55 be ab 91 3d be d5 e4 26 3e
       -0.07860442 -0.20892565 -0.18512599 0.1629823
000300 95 68 52 be 86 7b 88 be 67 46 6f be ac fd 89 3e
       -0.20547707 -0.2665674 -0.233667 0.2695135
000310 b1 d2 c3 3a 55 71 1a be e4 a9 44 bd b7 3e 29 3e
       0.001494011 -0.15082295 -0.048013583 0.1652783
000320 67 4a 78 3c 43 96 8e be 60 a8 c3 bd fe c7 44 3e
       0.015154458 -0.27849016 -0.09553599 0.19216916
000330 f9 e9 c6 3d 0b 75 8a bd dd 66 de bb c5 68 94 3e
       0.097125955 -0.067606054 -0.0067871646 0.28986183
000340 98 3e bc bc aa 48 7d 3e de 00 11 be 67 f0 1b 3d
       -0.022979066 0.2473475 -0.14160487 0.038071062
000350 52 cb 9a 3e 03 c4 db bc e8 80 46 bd 8d ca 61 3d
       0.30233246 -0.026826864 -0.04846278 0.055124808
000360 b3 23 fa bd b4 e4 26 3e 1f b0 bd bd 16 ce 25 3d
       -0.1221384 0.16298181 -0.09262108 0.040479742
000370 fd 02 2f 3e 78 a2 8a 3e 38 e9 9f 3e c1 91 9d bc
       0.17090984 0.2707708 0.3123262 -0.01923454
000380 a3 4e 4d 3e 79 67 35 be 71 09 85 3e 38 ff 30 3e
       0.20049529 -0.17715253 0.25983766 0.17284858
000390 70 ca 2e bd fb 3c 43 3e c4 dd 4b be 79 7c 88 3e
       -0.04267353 0.19066231 -0.19908816 0.26657465
0003a0 50 11 73 bb 6a ee e7 3d d4 fa db 3d 38 da 80 3e
       -0.0037089176 0.11324771 0.10741201 0.25166488
0003b0 ef 13 6e 3d 6e 97 99 be a7 df 46 3e 08 73 8f 3c
       0.05812448 -0.29998344 0.19421254 0.017510906
0003c0 73 e9 f1 3d 3b 3d c2 bc 2e b9 9a be b0 39 81 3e
       0.11812105 -0.023710838 -0.30219406 0.25239325
0003d0 0d f4 06 3e bc 2e 67 be 4f 2e 9e bd 73 2d ff bc
       0.13179035 -0.22576421 -0.077236764 -0.031149602
0003e0 79 75 11 be 39 6f d8 3b 43 f6 63 be 11 46 d4 bd
       -0.14204969 0.0066050556 -0.2226191 -0.103649266
0003f0 d1 51 f1 bd a6 3f 95 3e bb a6 01 3e 48 39 6b be
       -0.11783183 0.29150122 0.12661259 -0.2297107

linearK2.weight f4 [10, 256]
000000 75 a6 89 3d 0f f9 10 3e cd 4a 45 3d 5f 31 af bc
       0.06721202 0.14157508 0.04816704 -0.021385847
000010 2a 7b 26 bd 28 05 20 bd 15 88 10 3e 0a 15 9a 3d
       -0.040644802 -0.039067417 0.14114411 0.07523544
000020 13 87 02 bc 44 c6 cf 3d 57 b9 4f 3d 53 5e 76 3d
       -0.0079667745 0.10145238 0.050713863 0.06014855
000030 6b 16 ad bd fa d3 3d bb 52 09 ce bc e2 97 99 3d
       -0.084515415 -0.002896546 -0.025150929 0.074996725
000040 4b 5d 0b 3d 72 00 ef bd 6c 1e 2d 3d 25 02 18 3d
       0.034024518 -0.11670007 0.04226534 0.03711142
000050 fc d3 a5 3b fe 35 69 bd d0 d6 0e 3d 34 62 52 3d
       0.005060671 -0.056936257 0.03487283 0.051363185
000060 d8 74 1e 3d c7 73 b4 bd 0a 84 e5 bc fb ac 04 bc
       0.03868565 -0.08811145 -0.028017063 -0.008097882
000070 c2 b7 6b 3d 8f 1a 57 bd 1d 5a 7b bc eb 15 19 3d
       0.057548292 -0.052515563 -0.015341309 0.03737442
000080 ac a0 79 3d 71 b1 51 bc e4 1a 35 bd 7b 10 47 bd
       0.060944244 -0.012798653 -0.044215098 -0.0485997
000090 a4 6b 95 bc ae 04 56 3d 65 9b 6e bc 8b 81 25 3d
       -0.018239804 0.052250557 -0.014563416 0.040406745
0000a0 40 ee 45 3d 31 19 d4 3d ed 87 54 bd 77 b4 29 3c
       0.048322916 0.103563674 -0.05188744 0.010357968
0000b0 19 e5 e2 bb 8c 8a 1b 3d 59 4a 32 3b 58 a3 08 3d
       -0.006924283 0.037973925 0.002720496 0.0333589
0000c0 b7 63 8d 3d 2a 9d 11 be 35 e3 a2 3b 7f 34 35 3d
       0.06903785 -0.1422011 0.004970933 0.044239517
0000d0 92 36 be bd 48 63 91 bd 43 a0 55 3b ea 74 e4 bc
       -0.09287752 -0.070990145 0.0032596744 -0.02788778
0000e0 b2 4b 8d 3d 60 af 85 bc 21 1e 81 3d 58 8e d5 3d
       0.06899203 -0.016318977 0.06304575 0.104275405
0000f0 ef 69 32 bc 60 1d 0d 3d 0a 4a b2 bc 8a 90 3c 3d
       -0.010889514 0.034451842 -0.02176382 0.04603628
000100 9e d4 31 bd e2 35 4a 3d 7c b4 13 3e c0 58 4f 3c
       -0.04341566 0.049367793 0.14424318 0.012655437
000110 10 31 8b 3d eb 04 ab bc 4d 2e 84 3d 6c f1 38 3d
       0.06796467 -0.020876369 0.06454144 0.045152113
000120 3d d8 11 bd bf 09 97 bd 35 55 c7 3c 64 2f 7a bd
       -0.03560661 -0.07374906 0.024332622 -0.06108035
000130 5f 35 52 3d d2 aa 84 3d cf 48 e0 bd d8 14 4d bd
       0.05132043 0.06477894 -0.10951387 -0.050068706
000140 bc 45 09 3c 8a 35 e0 3c 91 04 0c 3d 1e dc dd ba
       0.008378442 0.02736928 0.034184042 -0.0016926562
000150 0e 51 3d bd 73 c8 24 bc eb f1 87 3b eb 2a 26 bd
       -0.046219878 -0.010057556 0.004148712 -0.040568274
000160 97 20 8d 3d 62 aa 42 bb 4c 53 a5 3b 85 d2 db bc
       0.06890982 -0.0029703607 0.00504533 -0.026833782
000170 65 50 ea bd 05 46 9d bd 13 a3 70 bb 15 81 51 bd
       -0.11441115 -0.07679371 -0.0036718294 -0.051148493
000180 74 3a 01 3c aa 71 92 bd 06 b8 88 bc db b5 f5 bc
       0.0078874715 -0.07150586 -0.016689312 -0.029993942
000190 bf ff e6 3c 9e 9f a5 bb 1f e9 1d bc f8 4d bf bd
       0.028198121 -0.0050544282 -0.0096381 -0.09341043
0001a0 98 fd 78 3d 69 2b 2a bd fb cd d4 3d 08 e4 b5 bd
       0.06078872 -0.041545305 0.1039085 -0.08881384
0001b0 2c ad 4f 3d d3 95 cc 3c 59 c3 f7 bd 33 ba 55 3c
       0.05070226 0.024973786 -0.120978065 0.013044882
0001c0 d1 43 1f 3d 03 d1 0e 3b ad 84 e4 bd fa 79 1d bd
       0.038883034 0.002179206 -0.111581184 -0.038446404
0001d0 61 36 22 3c a9 d7 3e 3d ef 5b 93 3b c6 4d 96 3d
       0.00990066 0.04659239 0.0044970433 0.07339053
0001e0 4a f5 05 3e 79 4d 65 bc ff fd 7c bc 1d b8 24 bd
       0.13081852 -0.013995522 -0.015441417 -0.040214647
0001f0 56 5a c2 3d 21 d4 19 bd bf 64 73 bd 1c e3 e6 bc
       0.094898865 -0.037555818 -0.05942225 -0.028184466
000200 cd 06 c6 bc 48 0f 9d 3c 5a 33 8d 3d 33 af 04 bc
       -0.024173165 0.019172326 0.0689456 -0.008098411
000210 4f e7 64 bd df 13 40 3d f1 ba df 3b eb 63 15 3c
       -0.055884656 0.04689395 0.006827705 0.009118061
000220 0e a4 c6 3c b4 9f 6e bd b1 e2 59 bc 5a c7 f4 3a
       0.02424815 -0.058257774 -0.013298676 0.0018675134
000230 25 3b 13 3d d2 2a 94 bd 71 b5 ca bb 82 29 72 3d
       0.035945076 -0.0723473 -0.0061861803 0.059121616
000240 a5 08 00 3c d5 b2 35 bb 0b bc 4e 3c cb f3 9e bb
       0.007814561 -0.0027725 0.012618075 -0.0048508397
000250 91 7d b3 bb b9 64 6b 3b b8 ba 01 3d 81 72 bf 3d
       -0.005477615 0.003591819 0.03167221 0.09348012
000260 71 b5 71 bd be e4 67 bd f0 5c ba 3c a6 75 a6 bc
       -0.059010927 -0.05661463 0.022749394 -0.020319771
000270 98 50 e1 3c aa f2 df 3c 13 cf f3 bc a4 7d 8f 3d
       0.02750425 0.02733739 -0.029761827 0.07006386
000280 87 77 1c 3d 36 c4 03 3d 77 c1 a7 bb e5 fb 12 3d
       0.038199928 0.032169543 -0.0051194984 0.035884757
000290 fb ac 26 3d e7 52 1c 3d bc 65 d3 3d 22 74 09 3d
       0.04069231 0.038165 0.10322139 0.03355802
0002a0 a7 68 8c 3c 2a 71 e7 bc ac 3f 84 bd ff 61 1c bd
       0.017139746 -0.028252203 -0.06457457 -0.038179394
0002b0 23 cf 34 bd 2e 3c f9 3c d6 d8 b9 3d 0f aa b6 bc
       -0.044142853 0.030424204 0.09074561 -0.022297887
0002c0 6a de 35 bd 15 56 c3 bd 69 12 0e be b2 ce 66 bd
       -0.044401564 -0.09537903 -0.1387421 -0.056349464
0002d0 84 8a 80 3d d1 e4 d9 3d d0 3d 15 bc 9d e6 bb bb
       0.0627642 0.106393464 -0.0091089755 -0.0057342784
0002e0 34 66 0b bd b8 57 6a bc d1 57 3c 3d b7 08 8f bb
       -0.034033015 -0.01430314 0.045982186 -0.0043650526
0002f0 be bb 39 bb 8f a1 67 3c 0d 95 f6 3c 56 1b bc 3d
       -0.0028340663 0.01413764 0.03010037 0.091849014
000300 37 b3 61 3d 2c ed 8b 3d dd 58 29 3c 00 7f 73 3d
       0.055102553 0.06832346 0.010336128 0.05944729
000310 8c c3 ae 3c 4d f2 5d 3d 45 18 1f bd 52 66 9e bc
       0.021333478 0.054186154 -0.038841505 -0.0193359
000320 88 a4 9f 3d aa b8 13 bd f7 ea bb bd 07 4d 3f ba
       0.07795054 -0.03606478 -0.09175675 -0.000729755
000330 00 16 ea 3c ce c3 a8 bd a2 5a a5 3d b4 3c 42 3c
       0.028574944 -0.08240472 0.080739275 0.011855293
000340 aa 17 28 3d 4a 65 66 3d 2a 37 23 bb e3 ba e2 bc
       0.041038193 0.05624894 -0.0024904707 -0.027677005
000350 1a 8a c1 3d 17 28 06 3e 2c 79 86 3d 6a b7 6b bc
       0.09450169 0.1310123 0.065660805 -0.014386991
000360 e6 69 af bc 68 e5 5a bd 06 8a d8 3c e0 13 a3 bc
       -0.021412801 -0.053441435 0.026433002 -0.019906938
000370 72 25 dd 3c b4 93 81 bd d9 4e 02 bd a1 37 25 3c
       0.026995394 -0.06327 -0.031813476 0.010084064
000380 d7 bd be bc 5a d0 44 3d f1 fa 31 bc 31 51 c1 3c
       -0.023283882 0.048050262 -0.010863052 0.023598285
000390 66 ce 4c bb 3c 51 08 bd e5 55 b9 ba 7c 8c b8 bc
       -0.0031250953 -0.033280596 -0.0014139978 -0.022527926
0003a0 a5 42 07 3d 7d 99 82 bd b0 46 05 3d 26 ef a3 3a
       0.03302254 -0.06376932 0.032538116 0.0012507185
0003b0 21 f5 f8 bd 49 1a 52 3d a4 75 ef 3c 17 27 2f 3e
       -0.1215613 0.0512946 0.0292309 0.17104755
0003c0 e0 0e a1 bd a1 25 43 3c fa 71 16 bd f7 b5 0e 3e
       -0.07864165 0.011910827 -0.03672979 0.13936602
0003d0 99 7e 5a bd eb 79 75 3c 38 5b 0d 3d 0d 5b 64 bc
       -0.05334339 0.014982681 0.03451082 -0.013937724
0003e0 54 44 06 3d 6f 22 17 bd 9e bb f4 bb 17 45 f8 3d
       0.032780007 -0.036898073 -0.007468655 0.12122553
0003f0 a8 bb c3 bb 46 8f 01 bd f3 0c 8e 3c e6 50 02 3d
       -0.005973298 -0.031630777 0.017340159 0.031815432

linearD2.weight f4 [256, 10]
000000 ad 4d 8c be 6f fe 3c be 39 70 69 bb e0 9e 55 3e
       -0.27403012 -0.18456434 -0.0035619868 0.20861387
000010 e4 4a 24 3e 3f 1a 1a 3d ea 2c 92 be 49 3e 89 3d
       0.16044194 0.037622686 -0.28549892 0.06701333
000020 f3 e3 8e 3e b1 c5 63 3e d3 9d 28 bd c8 48 40 bc
       0.27908286 0.22243382 -0.041166138 -0.011736102
000030 78 d4 fa 3d ce db 11 bd b3 65 e6 bb 9b 6b 46 be
       0.122475564 -0.035610013 -0.0070311665 -0.19376986
000040 37 16 36 be a8 8a 31 3e 15 04 c2 bd 99 ed 36 3e
       -0.17781912 0.1733805 -0.09473435 0.17864074
000050 b2 b4 60 be fc 90 a3 39 52 8c 08 bc c8 c5 32 3e
       -0.2194393 0.00031197804 -0.008334236 0.1745826
000060 7f 7f 36 bc 94 7e 07 3e 12 55 0a 3d b4 55 13 3e
       -0.011138796 0.1323188 0.033772536 0.14388162
000070 b7 c7 0f 3e 71 ee 36 3d 82 72 34 be 26 6e 62 3e
       0.14041029 0.04466099 -0.17621806 0.22112331
000080 0e 48 7a be 5e 18 35 be b4 1e 97 3e 2b 07 3c 3e
       -0.24441549 -0.17685077 0.29515612 0.1836211
000090 f5 09 b5 bd 04 c0 d5 3d 25 11 68 3e f3 23 1c 3d
       -0.0883979 0.10437015 0.2266279 0.03812022
0000a0 85 91 6b be 53 4d 44 be 8c a4 37 3e 63 98 0a bd
       -0.2300473 -0.19170122 0.17933863 -0.033836734
0000b0 61 6b 0e bd cf 99 5e be 6b 33 05 3d cf 8f 45 3d
       -0.034770373 -0.21738361 0.03251974 0.04823285
0000c0 5d 81 f9 3d be 55 04 be e7 07 cf 3d 19 c3 e4 bc
       0.12182877 -0.12923333 0.10108929 -0.027925061
0000d0 92 15 67 3c ef 24 3f be 6f 40 6b be b2 5c 91 3e
       0.014104264 -0.18666433 -0.22973798 0.28391033
0000e0 5c 8a 7f be b7 58 61 3e 7f 62 66 be 7c cd 80 be
       -0.24955124 0.22006498 -0.22498511 -0.25156772
0000f0 5d 94 ae bd d5 70 e2 3d e1 c4 ae bd f2 e4 5f bc
       -0.08524392 0.11056677 -0.085336454 -0.013665425
000100 1f ce 23 3e 1e cc 80 be ee 26 43 be 8f 28 5e 3e
       0.15996598 -0.2515573 -0.19057819 0.2169516
000110 55 1c 4a be cf cd 5f 3e f2 8a 36 3e 53 59 06 be
       -0.1973737 0.21855853 0.17826441 -0.13120012
000120 61 10 88 3e f9 90 36 3d 44 b8 b2 bd b3 1c a5 bd
       0.26574996 0.04457185 -0.08726552 -0.080621146
000130 8a 9b 5e 3e ed e5 51 be 35 66 74 3d 5f d0 5e be
       0.21739021 -0.20497866 0.059667785 -0.21759175
000140 19 cc 73 3e 86 de 0f 3e f6 cb 66 be 32 9b ab be
       0.23808326 0.1404973 -0.22538742 -0.33516842
000150 a8 69 41 bd 08 5f ae bd 26 ac 70 3e c1 8b 96 3e
       -0.047219902 -0.085142195 0.2350317 0.294035
000160 e6 e1 88 3c 18 44 0d be d9 d1 8c 3e f7 62 6e be
       0.01670928 -0.13795507 0.2750385 -0.2327994
000170 51 4d 11 3e cf 70 95 bd 61 a0 8e be 5a 99 66 bd
       0.1418965 -0.07296907 -0.27856734 -0.05629859
000180 08 f9 24 be f5 85 ff bd 50 af 80 3e 39 53 01 bd
       -0.16110623 -0.12476722 0.25133753 -0.031573508
000190 4c a9 59 bd 62 05 51 be e3 84 5e bd ba e2 a0 3d
       -0.05313997 -0.2041221 -0.05432595 0.07855745
0001a0 c0 0c 3e 3e 7b 12 e5 bd bc 45 8e be de 84 c8 bd
       0.18559551 -0.111851655 -0.27787578 -0.097909674
0001b0 22 2b 72 be cb 94 e3 3c 8f 64 41 be fe 50 70 3e
       -0.23649266 0.027780911 -0.18886016 0.23468396
0001c0 c1 9a a1 3e aa db 83 3e a0 14 49 3d 9f 82 e8 bd
       0.3156338 0.25753528 0.049091935 -0.11353039
0001d0 43 9c 80 3e 02 e8 80 be ff a7 d3 bd 81 34 02 3e
       0.25119218 -0.25177008 -0.10334777 0.12715341
0001e0 00 f7 44 be cd 81 97 3d 96 9b 3e be 7f 7c 7f 3d
       -0.19234848 0.073978044 -0.18614039 0.062374588
0001f0 f0 c3 50 3d 0e ae 9e bc 57 5e b5 bd 23 e4 ce 3d
       0.05096811 -0.019370105 -0.088558845 0.101021074
000200 ed 22 bc 3d 30 c2 9b 3c 50 29 13 3d 92 51 38 3d
       0.09186349 0.019013494 0.03592807 0.044999667
000210 23 b5 51 be db bf 81 3d fd 3a da 3d 89 ad ee 3d
       -0.20479254 0.06335422 0.10655782 0.11654193
000220 b9 9d 32 3e 57 ea 6c bd 93 a1 c1 3e 31 d9 80 bd
       0.17442979 -0.05784067 0.37818584 -0.06291426
000230 79 d5 58 3c c4 dd 5c 3e 82 18 3d be f4 c7 ed bd
       0.01323449 0.21568972 -0.1846638 -0.11610404
000240 54 95 1b bc b6 b3 89 3e 24 f4 9d be a5 1d 54 be
       -0.009496052 0.2689492 -0.30850327 -0.20714433
000250 47 da 8f bd 1a e2 78 be 16 ac ae 3e f8 0d 0b bf
       -0.07024055 -0.24305001 0.34115666 -0.5431819
000260 1f 20 8a bd 6a 31 0c 3f 1b f7 43 3f 01 0b ce 3e
       -0.06744408 0.547629 0.7654893 0.4024277
000270 d8 5b 80 3e 50 a3 b3 be db 0b 78 bd 3f 2c bd be
       0.2507007 -0.35085535 -0.06055818 -0.3694782
000280 5d e0 98 be ad b4 b2 3d c4 2b 63 3e f2 44 a2 3d
       -0.29858676 0.087258674 0.22184664 0.079233065
000290 3f a5 39 be 76 2b 23 3e 89 f7 80 3e 64 c6 c9 3d
       -0.18129443 0.15934548 0.25188854 0.09852293
0002a0 93 41 94 be b8 51 47 3e 5a 2a b8 3d 2e f1 ab 3d
       -0.2895628 0.19464767 0.08992453 0.08395611
0002b0 dc 91 6e 3e 0d bc 57 be 88 21 0c bd b5 cb 50 3e
       0.23297828 -0.2106783 -0.034211665 0.20390208
0002c0 3d b1 16 3e 9c b9 8f be 48 03 06 be a7 19 ed 3d
       0.14716049 -0.28071296 -0.13087189 0.115771584
0002d0 61 1d 70 3e 98 26 6c 3e b5 e0 35 3d 3a cc 50 be
       0.23448707 0.23061597 0.04440375 -0.20390406
0002e0 36 75 55 3b 8a 5c 82 3e e8 56 a8 be c3 99 5d be
       0.0032571084 0.25461227 -0.32878804 -0.21640687
0002f0 19 7a 62 3e d2 a6 5a 3e 63 55 59 3e dd e2 06 3e
       0.22116889 0.213527 0.21223979 0.13172479
000300 b0 3b a5 bd bb 99 69 3d 88 37 2b bd fa 59 af bd
       -0.08068025 0.057031374 -0.041801006 -0.085620835
000310 a9 11 23 3e 74 1f 86 bb 0f 5e 99 be 4b 79 1c be
       0.15924706 -0.004093105 -0.29954574 -0.15280645
000320 da ef 85 3e 41 dd 90 3c 50 ff 83 bd 89 53 dc 3d
       0.26159555 0.017683627 -0.06445181 0.107581206
000330 a5 56 11 be 22 f4 5b 3e 7d e7 a7 3d 13 dd 84 bd
       -0.14193209 0.21479848 0.0819845 -0.06487479
000340 2d e8 98 be 9e d8 62 be 0d 79 31 be 38 65 9f be
       -0.29864636 -0.22152945 -0.17331333 -0.3113191
000350 8b 2d ef 3c ea a1 a5 be 7f 2a 06 3e b9 d1 1c be
       0.029196521 -0.32350093 0.13102148 -0.15314378
000360 32 b4 51 be b7 13 d2 bd f3 4c bb bd c2 3c 09 be
       -0.20478895 -0.102576666 -0.09145536 -0.13402084
000370 82 f3 12 be d8 2d 41 3e ef dc 10 3e 2d cb 86 bd
       -0.14350703 0.18865144 0.1414678 -0.065817215
000380 75 3f e5 bc cf e5 17 3d 75 14 a2 3e 19 fe 87 bc
       -0.02798436 0.037084397 0.31656232 -0.016600655
000390 ab 42 5a be 6a 42 4a be 89 b2 4b be 4c 38 f2 bd
       -0.21314494 -0.19751897 -0.19892325 -0.11827144
0003a0 b5 21 89 3e 7e 11 41 3e 72 0d 5f be 04 4f e5 bd
       0.2678353 0.18854329 -0.21782473 -0.11196712
0003b0 6e d9 33 be b4 74 ec 3d e8 1c a5 3e 56 ec 3f 3e
       -0.17563412 0.11545697 0.32248616 0.18742499
0003c0 2d 22 30 be f2 82 c3 bd a3 d0 12 3e 23 7c 5b 3d
       -0.17200537 -0.0954646 0.14337401 0.053585183
0003d0 68 57 25 be 76 1b 7e bd 48 41 f3 bd 16 8f 87 3e
       -0.16146624 -0.062037908 -0.11877686 0.26476353
0003e0 b9 07 b3 3d 1a bf 0f 3e 00 9e 06 be c4 a2 75 be
       0.08741707 0.14037743 -0.1314621 -0.23987871
0003f0 26 08 f0 3d 34 ac 47 3e 1a 3c 6b 3e 40 b5 48 be
       0.11720304 0.19499284 0.22972146 -0.19600391

linearD2.bias f4 [256]
000000 c0 10 ab bd d4 be 2e be 4a 84 04 be a3 1c 34 3e
       -0.08352804 -0.17064983 -0.1294109 0.17589049
000010 fe b2 18 3e ca 06 55 3e ef 58 a4 3e e3 1e 8e be
       0.1491203 0.20803371 0.320991 -0.2775794
000020 43 eb 87 3e 24 7b 45 3e 01 32 89 bd ba 59 69 3d
       0.26546678 0.19285256 -0.066989906 0.056970336
000030 0f 70 0b 3e 8a 06 a1 3c 09 7b 6a be ff d9 c5 3d
       0.13616966 0.019656438 -0.22898497 0.0966072
000040 60 f6 90 be 9a 19 8b 3c fc 3c 84 3e ef 4f 14 be
       -0.2831297 0.016979981 0.25827777 -0.14483617
000050 1d bb 96 3d ba 94 df 3d ea 34 65 be 3a 04 b0 3d
       0.07359908 0.10917039 -0.22383466 0.08594556
000060 c3 62 9d bc a8 f3 91 bc 69 e2 92 3e 21 07 91 be
       -0.019212132 -0.01781638 0.28688362 -0.2832575
000070 ec 5a 8b bd ad 47 a7 3e cd 9a 74 be 38 37 51 be
       -0.06804451 0.32671872 -0.23887177 -0.2043122
000080 2f 31 f2 3d 84 07 cc bd 58 1a 84 3e a7 3c 54 be
       0.11825787 -0.09962371 0.2580135 -0.20726262
000090 b2 95 87 3e 87 92 94 bc 78 bc 18 be 46 52 58 be
       0.26481396 -0.018136276 -0.14915645 -0.21125135
0000a0 0a f1 91 be 4a 41 85 bd ba bc 30 be ef 1c 23 3d
       -0.2850421 -0.065065935 -0.17259493 0.039822515
0000b0 ca d3 bc be a4 80 89 3e 5e c7 87 bd 16 fb 8a 3e
       -0.36880332 0.26855958 -0.06629823 0.27144688
0000c0 fc 63 ad bd 5f b0 53 be 92 67 79 be 75 8c 91 be
       -0.08466336 -0.20672749 -0.24355915 -0.28427473
0000d0 3d 8c 28 be 84 79 dc 3d eb 53 72 be 1f 7d a5 be
       -0.16459747 0.10765365 -0.23664825 -0.32322022
0000e0 b4 c8 76 3d da c5 80 be b7 d2 67 be 22 1a 41 3e
       0.06025 -0.2515095 -0.22638975 0.18857625
0000f0 ae 19 33 3e 19 7b 1f be 2a 49 e7 3d ae 1b af 3b
       0.17490265 -0.15574302 0.11293252 0.005343876
000100 4a de 7c bd 57 50 77 be c1 42 88 3e 38 47 82 be
       -0.06173543 -0.24151741 0.2661343 -0.2544496
000110 53 5a be 3e 37 f8 86 3e a6 ea 64 3e 39 9e d1 3c
       0.37178287 0.26361248 0.22355136 0.025588142
000120 0e 5d 06 3b 4b d4 51 bd 1a fa 6c 3e 08 84 92 3e
       0.0020502242 -0.05122785 0.23142281 0.28616357
000130 8e c1 c1 3c da 5d 45 3e 5c 92 e3 3d 92 09 1a 3e
       0.023651864 0.19274083 0.111119 0.15042713
000140 b7 fb 8d 3e cd 6b 8a be ff f5 75 3d 39 b7 8a be
       0.27731106 -0.2703537 0.060049053 -0.27092913
000150 8f b8 d9 3d e3 32 89 be 11 66 ed bd 83 52 9f be
       0.10630905 -0.26796636 -0.11591733 -0.3111764
000160 d5 b9 a0 3e f1 b0 b6 3d 82 83 84 3e 6d b0 75 3e
       0.3139178 0.08920468 0.25881582 0.23993082
000170 cd 55 7b 3e 78 33 82 3d 4d 8b 75 be 9f e2 86 3e
       0.24544449 0.06357473 -0.2397892 0.26344773
000180 34 58 ed 3c c9 f4 db bd af 2f ff be 3a c4 89 3d
       0.028972723 -0.107400484 -0.49841067 0.0672688
000190 af 04 8c bd 96 18 2c 3d 27 4d ab 3e 1a 6c c9 be
       -0.06836831 0.042015634 0.334573 -0.39340287
0001a0 b8 1a 6c be 6f 54 6b 3e 6e a3 8f 3c 59 2b 20 3e
       -0.23057067 0.22981428 0.017533984 0.15641536
0001b0 db 41 27 3e 93 60 89 3d ab 04 2c be 2e 38 15 be
       0.16333716 0.06707873 -0.16798656 -0.14572212
0001c0 23 70 22 3d 5a 8e 01 bd e1 38 a6 3e be 6b 85 be
       0.039657723 -0.031629898 0.3246527 -0.26058763
0001d0 b1 62 0f be 8c 5e a0 be c5 74 03 3e 96 97 33 3e
       -0.14002492 -0.31322134 0.12837513 0.17538294
0001e0 7f b7 36 be 14 9b 79 bd 77 10 20 bd cb a3 a4 3e
       -0.17843436 -0.06093891 -0.039078202 0.32156214
0001f0 e0 44 85 be c2 f2 1d 3d ee f9 d7 ba b5 70 63 3e
       -0.2602911 0.03856159 -0.0016477683 0.22210963
000200 14 36 93 be 90 08 1b 3e 7e 4e 53 3e 9b bd 4d 3e
       -0.28752196 0.15139985 0.20635411 0.2009186
000210 95 63 0a be 27 ca 43 3d 2a 9a 99 bd 78 a9 09 be
       -0.1351455 0.04780021 -0.075001076 -0.13443553
000220 19 a7 1a 3d 17 41 3d 3e 9f 5f 06 bd 7c b9 22 be
       0.037757013 0.18481861 -0.032806035 -0.15891069
000230 92 bd ca 3c 41 cc 43 be 09 61 15 be 84 56 a3 be
       0.024748597 -0.19120885 -0.14587797 -0.31901944
000240 b8 a4 29 3e ae fb ad 3e 3c 93 90 be 99 c6 1f 3e
       0.16566741 0.3398108 -0.2823733 0.15603103
000250 0a 96 8d bd 57 a9 93 3e 4d 34 24 3e e3 f6 96 be
       -0.06913383 0.28840134 0.16035576 -0.29485235
000260 a8 be 7f 3d 60 bb 39 be 0f e7 95 3e ef 93 4b be
       0.062437683 -0.18137884 0.29277846 -0.19880651
000270 3b e5 02 be a3 a5 8a be a5 64 76 bd 61 f5 f6 3d
       -0.12782757 -0.27079496 -0.060154576 0.12058521
000280 02 7c 68 3e ba 1d 9d be 1b 17 23 3e 69 c2 42 3d
       0.22703555 -0.30686742 0.15926783 0.047548685
000290 ed 30 25 ba a8 0e 59 3e 9b d6 5d bd ab db aa be
       -0.0006301541 0.21196997 -0.05415974 -0.33370718
0002a0 13 a2 93 3e 05 7a 16 3e 6d 0a 11 3e fe fa a1 be
       0.2883459 0.14694984 0.14164133 -0.31636804
0002b0 42 2e 20 3c f7 a8 eb 3d cc 36 3e be c0 5f 2d bd
       0.009776654 0.11506837 -0.18575591 -0.042327642
0002c0 b0 9d a8 be fb a5 e9 bd ab 01 98 3e b8 6c 20 3e
       -0.32932806 -0.114086114 0.29688773 0.15666473
0002d0 08 d0 25 3d 88 c2 7f be 68 12 19 bd b0 a1 67 be
       0.040481597 -0.24976552 -0.03737107 -0.22620273
0002e0 7b 21 25 3e 75 77 2f be 6b c5 be bd 32 6f 4b be
       0.16126053 -0.17135413 -0.09314998 -0.19866636
0002f0 a8 73 20 3e 8b 55 dc 3b b0 37 d3 3d 28 83 b6 3c
       0.1566912 0.0067240647 0.10313356 0.022279337
000300 0c f7 7b be 73 43 20 3e 3b c9 e0 3d 67 e5 02 be
       -0.2460596 0.1565073 0.10975882 -0.12782823
000310 c6 de a0 3e 53 a1 1f 3e 90 c9 79 be 79 38 1c be
       0.31419963 0.15588884 -0.24393296 -0.15255918
000320 2a b8 eb bd 13 15 2f 3d 6e 2b c9 be 21 25 14 3d
       -0.11509736 0.042744707 -0.39290947 0.03616822
000330 b3 d2 d6 bd 0b 9b 00 3e a3 56 74 bd 97 c3 17 3e
       -0.104894064 0.12559144 -0.059652936 0.14820705
000340 04 06 9b be b6 29 a2 3e 54 c7 74 bd 0e 98 27 be
       -0.30278027 0.31672448 -0.059760407 -0.16366598
000350 9f 9d cb bd 9d 7c 40 be fd 78 87 be 9a af 44 3d
       -0.09942173 -0.18797536 -0.26459494 0.04801903
000360 47 ce 84 3e 28 40 23 bb 4d 31 83 3d d5 7d ef bd
       0.25938627 -0.0024910066 0.06405888 -0.116939224
000370 08 cd 60 be 55 c1 04 3e 88 71 4b ba 0d d9 93 3e
       -0.21953213 0.12964375 -0.0007760753 0.28876534
000380 81 68 63 3e a1 b3 62 3e 55 42 aa bd a9 fb 99 3e
       0.22207834 0.22138835 -0.08313433 0.30074814
000390 17 c1 dc bc f5 21 a0 3e 9d 26 96 3d 03 7a 4f 3e
       -0.026947541 0.31275907 0.07331584 0.20261388
0003a0 fe 86 20 be 51 35 bf 3c d2 15 aa 3e 2f 90 3c be
       -0.15676495 0.023340853 0.33219773 -0.18414377
0003b0 b0 d8 bd 3c 2c 99 bb bc dc ba 4d 3e 43 16 80 be
       0.023174614 -0.022900186 0.20090812 -0.25016984
0003c0 41 40 0d 3e a8 17 c2 3d 6b 94 49 be 44 7b 90 3e
       0.13794042 0.09477168 -0.19685523 0.28219044
0003d0 ea 2f 65 3e 1e 01 ed 3d d6 3d 37 3d 2d bc 32 be
       0.22381559 0.11572479 0.044736706 -0.17454596
0003e0 f5 ff f6 3d 22 5d 7d be 29 58 93 3e 12 ed 22 be
       0.12060539 -0.24742559 0.28778198 -0.15910748
0003f0 46 2c b4 bb 5a b1 a4 3b fb 0c 85 3d 69 4e f1 3d
       -0.005498442 0.0050260248 0.064966165 0.11782534

linearK3.weight f4 [10, 256]
000000 96 1f a5 3b 92 da 9e ba 85 56 c5 3d 5d fb 9c 3c
       0.0050391657 -0.0012119582 0.09635643 0.019162828
000010 4c fb b0 bc 46 53 1c 3d 95 98 5e bd b9 7d 41 3d
       -0.021604203 0.038165353 -0.054344732 0.04723904
000020 23 e8 b0 bc eb 12 b9 3b c3 4e 05 3d 4c 15 63 3d
       -0.021595066 0.005648007 0.032545816 0.055440232
000030 1a 3f 1c bd 2d 15 48 bc 42 78 f0 3c 33 f5 b0 bd
       -0.038146116 -0.01221208 0.029354218 -0.08640518
000040 0d af 3a 3d a2 90 52 3d 8c 85 31 3a 69 e9 83 bd
       0.045577098 0.051407464 0.0006771914 -0.06441004
000050 c1 78 58 3a 56 b2 cd bc 65 1a ce bd 58 04 15 bc
       0.000825774 -0.025109451 -0.10063628 -0.009095274
000060 da 69 ed 3c 06 c8 ba bc 5d fc 6b ba 41 bf d4 3b
       0.028981138 -0.022800457 -0.00090021436 0.006492526
000070 5f 4b 19 3c 3f 24 a0 bd a4 d7 37 3d 7e 67 0e bd
       0.009356349 -0.078194134 0.044883385 -0.034766667
000080 96 fb c2 bd 6d 4d 91 3d 02 13 2a 3d 77 36 3b 3d
       -0.095206425 0.07094846 0.041522034 0.04570624
000090 4a 2a 73 bd 8b ed ab bd 9d 23 61 bd 14 ea 72 3d
       -0.059366502 -0.08394917 -0.054965604 0.059305266
0000a0 e8 97 e0 bc 69 73 6d ba cf e7 4f 3d 4c a0 be bc
       -0.027416185 -0.000905803 0.05075818 -0.023269795
0000b0 f9 16 a5 3d 0c 57 fa bc ee d8 82 3d 4f 41 10 bd
       0.08061022 -0.030559085 0.06389032 -0.035218533
0000c0 9c 12 45 bd 7c d5 72 39 00 67 7a 3d f5 b7 bf 3c
       -0.04811345 0.00023158448 0.061133385 0.023403147
0000d0 76 8b e4 3c 04 7d 26 3d 5b 1f 23 bd 8d 6f 22 3d
       0.027898531 0.040646568 -0.039824825 0.039657164
0000e0 a8 11 f5 bd 1c 0b a0 3c d4 0a 55 3d db c7 4c bc
       -0.11966258 0.019536547 0.05201228 -0.012498821
0000f0 2e f3 16 bc 81 e6 2d 3c 5d bc ae ba 31 d9 07 3d
       -0.009213252 0.010614038 -0.0013331283 0.033166114
000100 11 3a 8d bd 4e a7 54 bd 59 60 55 bd 44 eb 6b 3d
       -0.06895841 -0.051917367 -0.052093837 0.057597414
000110 f3 64 19 bc a1 51 c1 3d 93 b6 c6 bd c1 5f ed bd
       -0.009362447 0.094393976 -0.09702792 -0.11590529
000120 e4 1a 6d 3c 80 c5 d1 bc 6d 68 5a bd e9 da ae bd
       0.014471743 -0.02560687 -0.053322244 -0.085378475
000130 9a 02 c0 3d 0e e1 be bc 3e 9e 49 bc 2c 67 e2 bc
       0.09375496 -0.023300674 -0.012305794 -0.027637087
000140 48 50 1c 3d 39 be 1f 3d 29 81 d4 bc a5 5f 77 bc
       0.0381625 0.03899977 -0.025940495 -0.015098487
000150 49 48 98 3d fb 76 43 bd c2 94 89 bc be 3e a3 3b
       0.07435662 -0.04772089 -0.016794566 0.0049818447
000160 e4 65 12 3d 9b a3 5b bc ae 44 26 bd b5 63 23 3c
       0.0357417 -0.013405706 -0.04059284 0.0099725025
000170 74 79 c9 bc 56 0a ef 3a 3a 51 fb 3c be 5c 78 bb
       -0.024594046 0.0018237333 0.03067838 -0.0037897076
000180 7a dd 61 bd d5 95 87 3c 67 e6 c7 3d 16 1b 57 3d
       -0.055142857 0.016550938 0.09760743 0.052516066
000190 8e 17 3c 3b 7c 52 98 3c 77 aa 95 bd 4e 0a ed 3c
       0.0028700563 0.01859402 -0.07307904 0.028935578
0001a0 be 5a f8 3b f2 a1 da bd af d2 09 bd 16 09 e8 bc
       0.0075791767 -0.1067542 -0.03364819 -0.028324645
0001b0 af 6c a2 3d ad 18 6d bb d8 6d b8 3d ef 13 21 3d
       0.07930886 -0.0036178038 0.09005326 0.03932565
0001c0 f2 fd cf 3c 01 5f 4e 3c c4 9d a9 bc 4f 85 40 3d
       0.025389645 0.012595893 -0.020705111 0.047002133
0001d0 50 d8 37 bd 12 7e 2c bc 8a 4b 26 bd 11 f0 95 3c
       -0.044884026 -0.010528104 -0.040599383 0.01830295
0001e0 ba a7 e8 bc ff 3c 93 3d a8 ba 68 3c 79 f7 96 bd
       -0.02840029 0.071893685 0.014204659 -0.073714204
0001f0 9c 6f 27 3d ee 63 54 bd b2 f2 16 bc 6f da be 3c
       0.040877923 -0.051853113 -0.0092131365 0.023297517
000200 01 74 88 3d 15 53 89 3b 40 15 83 bc 52 c8 04 3c
       0.06662751 0.0041908124 -0.016001344 0.008104401
000210 df 51 77 3d 6c bd 37 3d a6 bd 8b bd 9c 8f cc bb
       0.060380813 0.04485838 -0.06823282 -0.0062427055
000220 0a f5 e5 3b 70 9a ad bd 8d b6 7e bc b6 60 34 bd
       0.0070177363 -0.08476722 -0.015546453 -0.044037543
000230 8a b1 51 bc 58 00 8b 3c 18 5d 10 3d 6c 79 99 bc
       -0.012798676 0.016967937 0.03524503 -0.018734656
000240 2d 75 d5 bb 12 e1 40 bc 36 78 51 3d 80 bd bd 3c
       -0.0065142126 -0.011772411 0.051140033 0.02316165
000250 15 b8 09 3d bf da 9c bc 5a a9 20 3d 37 30 b5 bb
       0.03362282 -0.019147275 0.039224006 -0.0055294293
000260 d2 52 0c 3d bc ec 40 bd fb f8 47 bc b3 e9 e3 3b
       0.03425867 -0.047100767 -0.012205358 0.0069553494
000270 38 fe 12 bd 13 0f 03 3d 3e 81 e7 bd aa a5 fe 3c
       -0.035886973 0.031996798 -0.11303948 0.031084854
000280 01 7e 10 ba df 3b 93 3d c7 ee 53 3d c0 02 df 3b
       -0.000551194 0.07189154 0.051741388 0.0068057477
000290 d1 ba cd 3b 49 c1 03 bd e9 a7 e0 3b 71 1a 27 bd
       0.0062783738 -0.032166753 0.006855954 -0.0407967
0002a0 9f f3 55 bd 9a a9 4e 3d 71 b4 3f 3d 9e 9d 7c bc
       -0.05223429 0.050454713 0.04680294 -0.015418438
0002b0 2e d3 aa 3d 2c 36 29 bd 31 90 cb 3b 2c 9d 43 3d
       0.083410606 -0.041311428 0.0062122573 0.047757313
0002c0 dc 42 03 3d 04 ef 78 bc 35 53 c1 bd 96 43 91 3c
       0.032046184 -0.0151937045 -0.094396986 0.017732423
0002d0 6b b0 ea 3c 1c bf fb 3c 09 40 ef 3a a0 16 81 bd
       0.028648576 0.030730776 0.0018253337 -0.063031435
0002e0 96 da a0 bd fb e3 f4 3c 77 d1 7f ba 09 b9 c5 bc
       -0.07854192 0.029893866 -0.0009758691 -0.024136083
0002f0 04 46 72 3d 02 5f 47 bd 13 24 f8 3b ea 4e f3 3d
       0.059148803 -0.04867459 0.0075726598 0.11880286
000300 05 e3 00 3d e2 68 f1 3c 5a 3c 02 3d b6 ed ec 3b
       0.031466503 0.029468957 0.031795837 0.007230486
000310 23 39 1e bd 7e fe 3e bd 36 7e 16 3d 0a 0e 03 3d
       -0.03862871 -0.04662942 0.036741458 0.03199581
000320 ee be 12 bd a0 fb 59 bd 20 05 58 3d 61 6a 8c 3d
       -0.035826616 -0.053218484 0.052739263 0.06856228
000330 37 68 a2 bc b9 e0 cb bb 1f bf 5a 3c ff e3 53 bd
       -0.019825084 -0.0062218574 0.013351231 -0.051731106
000340 75 66 ee bb f0 3f af 3c 99 89 3f 3d 82 02 c1 3c
       -0.0072753974 0.021392792 0.046762083 0.023560766
000350 91 8b 84 3d b5 27 3a bc 25 d1 34 bc cd ce eb bc
       0.06471933 -0.011362006 -0.011036192 -0.028785134
000360 d8 8f be bd 6b 64 91 3c c4 de f5 3c 3a 27 dd bd
       -0.0930478 0.017748078 0.03001345 -0.107984975
000370 07 8b 6a bb 4a 5f 1b 3d 16 41 80 3d 1b 81 e9 bd
       -0.0035788433 0.03793267 0.06262414 -0.11401578
000380 de 57 a9 bc 60 e8 b6 3c 9b 38 53 bd 8a f5 5b bd
       -0.020671781 0.022327602 -0.051567655 -0.05370096
000390 65 db 19 3d fc 19 6b 3c e2 e0 d0 bc 53 98 d7 bd
       0.037562747 0.014349457 -0.025497857 -0.105271004
0003a0 bd 89 24 ba 92 13 99 bc d7 5a 4d bd 23 59 2b 3c
       -0.0006276628 -0.01868609 -0.05013546 0.010458264
0003b0 04 f2 65 bd 49 7c bf 3c ce 83 e2 3c 10 1e d5 bb
       -0.056139007 0.023374693 0.02765074 -0.006503828
0003c0 f7 a1 ad bc e2 4b c6 3b 4a 64 63 bc b8 5d 9c 3b
       -0.021195395 0.0060515264 -0.013878891 0.0047719143
0003d0 9d 2e f9 3c 39 37 d0 3a ea 4f d6 3b 18 6f 77 3c
       0.030417735 0.0015885598 0.006540288 0.01510217
0003e0 e2 91 94 3d 79 ef 71 3d 11 e4 8f bd 44 69 fd ba
       0.072543874 0.05906627 -0.07025922 -0.001933374
0003f0 59 e7 c0 3b 07 aa ac 3c b9 80 ac bd 24 fe 21 3c
       0.005886954 0.02107717 -0.084229894 0.009887252

linearD3.weight f4 [6, 10]
000000 d8 a7 4a bd 5a 0e 60 be 69 cd 73 be e5 a8 09 3e
       -0.049476475 -0.21880475 -0.23808827 0.13443334
000010 54 d0 2f be a4 04 64 3e fd d3 8d bd c9 da 03 bc
       -0.17169315 0.22267395 -0.06925199 -0.008047768
000020 63 c7 a5 bd 24 1d 8c bd 1f 1c 4d 3d 08 eb f1 3d
       -0.080946706 -0.06841496 0.050075646 0.11812407
000030 e0 f4 1a 3e c5 c8 5c 3e 74 4b 69 be 87 98 a8 3e
       0.15132475 0.21560962 -0.2278269 0.3292887
000040 72 26 60 bd 32 ae fe bb 7b fe 2b be 09 85 56 be
       -0.054724164 -0.0077722305 -0.16796295 -0.20949186
000050 a0 56 54 be db f8 5c 3d 7c 40 f1 3d 1c f3 71 3e
       -0.2073617 0.053948265 0.117798775 0.23627895
000060 90 c1 d3 bc b2 ff 72 3e 1c 68 da 3d 52 8f 05 3d
       -0.025849134 0.23730353 0.106643885 0.032607384
000070 68 1d 36 3d 51 70 d0 3d c0 b0 2e be 97 2c 4f 3d
       0.044461638 0.10177673 -0.17059612 0.050579634
000080 dd ec 59 bd a4 2f 21 3e b6 30 9d 3d 52 f8 89 be
       -0.053204406 0.1574083 0.076753065 -0.26947266
000090 d9 90 25 be 83 9a e2 bc 32 77 c0 bd b0 0b ba 3d
       -0.16168536 -0.027661568 -0.09397735 0.090842605
0000a0 6b 52 a6 be 6d fb a8 bd ca e4 29 3e 30 17 e2 bd
       -0.32484755 -0.08251081 0.16591182 -0.11039579
0000b0 73 3f 26 3e 82 79 89 3e 19 4e 5e bc 9a bb f3 bc
       0.16235141 0.26850516 -0.013568425 -0.029752541
0000c0 b5 d3 00 bc 86 22 34 be 64 84 1f be 31 62 96 3d
       -0.007862975 -0.17591295 -0.15577847 0.07342947
0000d0 ad bb 3c be e4 3b 46 bc 2c 15 5e 3e ec 32 54 3e
       -0.18430968 -0.01209924 0.21687764 0.2072255
0000e0 ed 83 c6 3d 6b 5f be bc 66 fc d5 bd c6 f5 8a be
       0.096931316 -0.023238858 -0.10448532 -0.27140635

linearD3.bias f4 [6]
000000 7b 83 01 bd 79 c5 40 be 3b 8d 7e be 77 2d 29 3e
       -0.03161953 -0.1882533 -0.24858563 0.1652125
000010 e4 fd 50 be 06 ba a7 bd
       -0.20409352 -0.08189778
