continous_state/pretrained/VE/VE10_32.pt (torch, 46912 bytes, 9 tensors)

linearK1.weight f4 [10, 8]
0.10709939 -0.33339414 -0.40281653 -0.29137927 -0.051990833 -0.22871485 -0.3295298 -0.01343325
0.081711486 -0.062856026 0.44395822 -0.26551047 -0.114311785 0.064814605 0.174417 -0.30476546
-0.05831973 -0.23111865 0.5878407 -0.15012707 0.082469754 -0.2744305 0.30867627 0.12148104
0.096999265 -0.30359808 -0.37367117 0.044680204 0.34626964 -0.14298879 -0.21298265 -0.19821349
0.31333056 -0.26457077 0.22867596 -0.2310612 -0.27270454 -0.12128664 -0.2590748 -0.26178876
-0.3128246 -0.051373105 0.12403501 -0.13480324 -0.22000895 0.096231036 0.16956581 -0.016980246
-0.12901859 -0.1712119 -0.5320543 -0.23137562 -0.1635794 -0.10909886 0.14301108 -0.19523445
0.3742818 0.30780023 0.107667595 -0.38382012 -0.10987625 0.07748348 0.23039371 -0.09305104
-0.2720518 0.030295147 0.15582553 -0.40465897 0.09352528 0.3563456 -0.14602064 0.32875463
-0.17734456 0.10259796 -0.3386474 -0.21448883 -0.20459218 0.06572202 0.24275893 -0.19027188
00000000: ed56 db3d a3b2 aabe f83d cebe aa2f 95be
00000010: 57f4 54bd 3a34 6abe 21b8 a8be 2217 5cbc
00000020: 5a58 a73d a9ba 80bd 7e4e e33e fdf0 87be
00000030: 4c1c eabd 85bd 843d 5f9a 323e 380a 9cbe
00000040: abe0 6ebd 5eaa 6cbe ba7c 163f e9ba 19be
00000050: e7e5 a83d 2882 8cbe d10a 9e3e 0dcb f83d
00000060: 8da7 c63d 3571 9bbe d451 bfbe 9702 373d
00000070: 414a b13e a76b 12be 2018 5abe 7af8 4abe
00000080: dd6c a03e d275 87be 082a 6a3e 4f9b 6cbe
00000090: ee9f 8bbe 2165 f8bd 74a5 84be 2d09 86be
000000a0: 8c2a a0be 9b6c 52bd 1106 fe3d dc09 0abe
000000b0: 074a 61be c714 c53d a9a2 2d3e 281a 8bbc
000000c0: 731d 04be 2c52 2fbe b634 08bf bbed 6cbe
000000d0: 5c81 27be 396f dfbd 7f71 123e 8aeb 47be
000000e0: dda1 bf3e fe97 9d3e d480 dc3d 1284 c4be
000000f0: cd06 e1bd a9af 9e3d 54ec 6b3e 8b91 bebd
00000100: 604a 8bbe 872d f83c ba90 1f3e 762f cfbe
00000110: 2f8a bf3d ee72 b63e 6f86 15be 8752 a83e
00000120: d099 35be e11e d23d 3163 adbe f6a2 5bbe
00000130: 9d80 51be 4499 863d cc95 783e a2d6 42be

linearD1.weight f4 [256, 10]
-0.23849142 -0.018597782 -0.15306571 0.14997558 0.14434065 0.26356217 -0.022911295 -0.13679804
0.11755535 -0.010806355 0.08897807 -0.11730953 0.39526817 0.35454345 -0.23637848 -0.059814945
-0.074149586 0.1995653 0.010664439 -0.34113738 0.29405797 0.30717692 -0.21980974 0.3043038
-0.024580248 0.10728622 0.031815883 0.11090483 0.32905838 0.25931478 0.014213372 0.046056964
-0.08264215 -0.074975364 0.065427 0.24364482 -0.15349726 -0.19991806 0.12321506 0.27356532
0.04408695 0.12211825 -0.09182305 0.07568353 0.273201 0.06728947 0.019768022 -0.28716344
-0.1324414 0.30029154 -0.15739772 0.0366042 -0.030590996 0.21185349 -0.16565327 0.23304798
-0.09386073 -0.06414531 0.16326414 0.27327245 -0.04254118 0.34484884 -0.12328423 0.09205722
0.035604935 -0.30691916 0.20366271 -0.13520068 -0.1113127 0.120705925 -0.23409232 -0.06812875
0.12071741 -0.3480964 -0.011680345 0.3609074 0.11703278 -0.21573937 -0.31287405 0.15460326
-0.03032669 0.017994402 -0.29962152 0.32742363 -0.09273557 0.0889485 0.068458185 0.16559307
-0.38855433 -0.11989169 -0.092272274 -0.042776506 -0.034869343 0.19274576 0.31436238 -0.052937753
0.23108684 0.18090332 -0.2800023 0.021264793 -0.13173273 0.18297172 0.15216872 0.2692731
0.07165924 0.1407558 0.1003361 0.14867213 0.3214164 -0.21171924 0.037464585 0.032595426
0.2052425 0.107674815 0.17890899 0.30120355 0.083762385 -0.0009037835 0.10357987 -0.07436634
-0.02682649 0.03876314 0.30772477 0.18018669 0.16309272 -0.12808429 0.18314888 0.079775475
0.16241409 -0.09201842 0.28532612 0.075890556 -0.047436807 0.27006695 0.25832024 -0.13145846
0.12954843 -0.022489274 0.2742114 0.24951087 0.3100629 -0.037252903 -0.14094807 0.06968447
-0.06080226 0.16116737 0.22420104 -0.057298414 -0.1762479 -0.010783502 0.052594725 -0.32897878
-0.11461641 -0.32884338 0.213206 0.18234737 -0.24753967 0.113704436 -0.2758019 -0.21592377
-0.12828669 0.092540205 0.085624315 -0.044100843 -0.23171495 0.071646474 0.006488255 -0.16887288
0.09618914 -0.07667738 0.078609735 0.1371629 -0.12829426 0.31971696 0.23519298 0.17867747
-0.08055225 0.20551653 -0.104158126 -0.008823455 -0.23100033 0.073647 0.062369373 0.20905253
0.1197396 -0.2233803 -0.14165425 0.059693724 -0.16150689 -0.2932731 0.0028945075 0.14370589
-0.3463025 0.13345268 0.113370195 0.27008006 0.04902165 0.13064851 0.22753887 0.23137821
-0.1040525 0.3129695 -0.036675703 -0.28898558 -0.22846897 -0.011014238 -0.20004033 -0.18048812
0.053507943 0.18454364 0.029999513 -0.11745191 0.22070275 0.07744109 0.16417217 0.09917311
-0.2535092 -0.16542077 0.22085465 0.21311688 -0.13452388 -0.084703766 -0.2644728 -0.17415996
-0.10134757 0.06324099 0.15973711 0.07298103 0.1180641 -0.2618068 0.2885082 -0.15994062
-0.23459022 -0.020298086 -0.22743292 -0.07671775 0.029191513 -0.018797616 0.31641027 0.121576
0.12062768 0.22424942 -0.0082412725 -0.33575866 0.22573446 0.009288104 -0.2981843 -0.28133765
-0.054247934 -0.06775209 0.09387304 0.316719 0.14287713 -0.007054822 0.07616971 0.22014098
00000000: 1837 74be 605a 98bc 42bd 1cbe 3393 193e
00000010: 09ce 133e 9ff1 863e 78b0 bbbc c914 0cbe
00000020: dcc0 f03d 230d 31bc 223a b63d fb3f f0bd
00000030: 9760 ca3e b886 b53e 330d 72be 8400 75bd
00000040: bddb 97bd d95a 4c3e e6b9 2e3c 8fa9 aebe
00000050: c48e 963e 4b46 9d3e ce15 61be b5cd 9b3e
00000060: 845c c9bc e1b8 db3d 5f51 023d 1222 e33d
00000070: 577a a83e e8c4 843e 34df 683c 3aa6 3c3d
00000080: 4a40 a9bd af8c 99bd 97fe 853d 077e 793e
00000090: 632e 1dbe 52b7 4cbe 2d58 fc3d c110 8c3e
000000a0: 8594 343d 2219 fa3d b90d bcbd f7ff 9a3d
000000b0: 00e1 8b3e 10cf 893d 8cf0 a13c 1607 93be
000000c0: b89e 07be d0bf 993e de2c 21be 49ee 153d
000000d0: f899 fabc 1ff0 583e 03a1 29be 21a4 6e3e
000000e0: 0e3a c0bd 9e5e 83bd b72e 273e 5eea 8b3e
000000f0: a93f 2ebd 0790 b03e 717c fcbd 7f88 bc3d
00000100: 7bd6 113d 8224 9dbe f58c 503e 0c72 0abe
00000110: eaf7 e3bd ab34 f73d e6b5 6fbe 1687 8bbd
00000120: b13a f73d b139 b2be eb5e 3fbc dbc8 b83e
00000130: e2ae ef3d c8ea 5cbe 0731 a0be 5150 1e3e
00000140: ae6f f8bc ff68 933c fe67 99be 12a4 a73e
00000150: 26ec bdbd a22a b63d ce33 8c3d 3b91 293e
00000160: 98f0 c6be c689 f5bd 3ff9 bcbd 6b36 2fbd
00000170: 28d3 0ebd 255f 453e 1bf4 a03e 42d5 58bd
00000180: 07a2 6c3e b83e 393e 765c 8fbe 8133 ae3c
00000190: f2e4 06be f05c 3b3e 1ed2 1b3e 2ade 893e
000001a0: 14c2 923d 4a22 103e 037d cd3d 823d 183e
000001b0: b190 a43e eecc 58be 7774 193d c882 053d
000001c0: 172b 523e 9d84 dc3d eb33 373e 5a37 9a3e
000001d0: 9d8b ab3d e2eb 6cba af21 d43d 614d 98bd
000001e0: 3ac3 dbbc 19c6 1e3d 1a8e 9d3e dc82 383e
000001f0: c701 273e 8728 03be 618b 3b3e 5361 a33d
00000200: e14f 263e 2774 bcbd 4416 923e 826c 9b3d
00000210: 194d 42bd 3746 8a3e 8d42 843e 0c9d 06be
00000220: 58a8 043e 6d3b b8bc 7065 8c3e c77f 7f3e
00000230: 90c0 9e3e 8096 18bd b154 10be bbb6 8e3d
00000240: ca0b 79bd 0f09 253e f594 653e beb1 6abd
00000250: 547a 34be 49ad 30bc 916d 573d e86f a8be
00000260: 02bc eabd 295e a8be ac52 5a3e 45b9 3a3e
00000270: 0a7b 7dbe dfdd e83d e835 8dbe 1f1b 5dbe
00000280: 965d 03be b885 bd3d cd5b af3d 16a3 34bd
00000290: af46 6dbe 63bb 923d 6e9b d43b 03ed 2cbe
000002a0: d0fe c43d 0809 9dbd 24fe a03d 6e74 0c3e
000002b0: 925f 03be f1b1 a33e 6ed6 703e 3af7 363e
000002c0: 94f8 a4bd ed72 523e db50 d5bd 4190 10bc
000002d0: 5a8b 6cbe 3dd4 963d 0777 7f3d de11 563e
000002e0: 093a f53d cebd 64be d00d 11be 6881 743d
000002f0: 1062 25be e427 96be c7b1 3d3b a327 133e
00000300: 904e b1be d2a7 083e a22e e83d ef47 8a3e
00000310: edca 483d b9c8 053e f3ff 683e 69ee 6c3e
00000320: 7a19 d5bd 8a3d a03e 4339 16bd ebf5 93be
00000330: c5f3 69be 1075 34bc 5fd7 4cbe e1d1 38be
00000340: 252b 5b3d 02f9 3c3e 8ac1 f53c a18a f0bd
00000350: e7ff 613e 6f99 9e3d c01c 283e 461b cb3d
00000360: f5cb 81be 1064 29be b927 623e 503b 5a3e
00000370: a1c0 09be 2b79 adbd fb68 87be fd56 32be
00000380: 518f cfbd 7e84 813d 2092 233e 1477 953d
00000390: 97cb f13d 8a0b 86be 59b7 933e 79c7 23be
000003a0: 6b38 70be 2c48 a6bc 2de4 68be 321e 9dbd
000003b0: 0a23 ef3c 75fd 99bc 8700 a23e d6fc f83d
000003c0: a50b f73d a4a1 653e 6706 07bc 8fe8 abbe
000003d0: ef26 673e 222d 183c 9dab 98be 7d0b 90be
000003e0: 1533 5ebd 9cc1 8abd 8240 c03d fe28 a23e
000003f0: 624e 123e 232c e7bb ddfe 9b3d a36c 613e

linearD1.bias f4 [256]
-0.0031392956 -0.27354056 -0.20150413 0.04170502 -0.16322659 -0.07187963 -0.26603183 -0.23270063
0.13062856 -0.023339566 -0.105411544 0.22158936 -0.0141947465 -0.107092135 0.17401671 -0.14628465
-0.17387809 0.14059748 -0.01601007 0.1602399 -0.03690571 -0.024684083 -0.1767364 0.1221415
0.14300844 -0.21052453 -0.1827134 0.13733055 0.06597219 0.06871779 -0.15557675 0.13976738
-0.17507152 -0.26960737 0.24811831 0.048065886 -0.30109763 0.22997585 0.1456614 0.2331169
-0.25634837 0.18350811 0.14986266 -0.11969051 -0.15386926 -0.056798015 -0.17590122 -0.15769778
0.17772566 -0.0009768119 -0.058947995 0.25761783 0.24824283 -0.17569809 0.25394762 -0.12465622
0.008753263 -0.29218766 0.012469228 -0.26987705 0.2546415 0.19755805 0.2306617 -0.14058816
0.27909905 -0.09162329 -0.16827956 -0.24764529 -0.048371796 0.05330063 0.030541139 0.16864054
-0.1436405 -0.1686034 0.22023176 0.054280885 0.026546953 -0.22848088 -0.13374226 0.0862584
0.15706666 -0.056489542 -0.07389822 0.28285605 0.01077089 0.13686177 -0.12993476 -0.01109012
0.1254267 -0.23831312 0.28195262 0.17867348 0.27805752 -0.09218184 -0.18065993 -0.29103997
-0.19801427 -0.06380935 -0.04460748 0.16475755 0.32698408 0.04112927 -0.2851999 0.1979714
-0.2702846 0.0021714852 -0.0064623337 -0.107756734 0.23466918 0.056133136 -0.24509619 -0.061554227
0.05752743 0.029846443 0.24174441 -0.13800937 -0.0035205043 -0.27319497 0.19697927 0.19364943
-0.27102092 0.20163715 0.029493999 0.2127814 0.23683208 0.21673457 0.20089707 -0.17652966
0.17214036 -0.13887483 -0.070890345 -0.039833423 0.13674667 0.3047663 -0.1123783 -0.1507893
0.08774121 -0.119289234 -0.15629004 0.08539105 0.05216857 0.13780466 0.24830191 -0.060697503
-0.23969194 0.18495083 -0.2413314 -0.14720358 -0.009023089 -0.12905206 -0.038790792 0.23288974
0.2307922 -0.124942474 0.22756264 -0.2979963 -0.288907 0.18851896 0.2343749 -0.025423104
0.021625027 0.15946473 -0.14763318 -0.111643694 -0.17663553 -0.031990863 0.007968328 0.15904374
-0.10539098 0.15661748 0.20800838 -0.17201838 -0.2400795 0.22912727 0.010777892 -0.23479322
0.068325 -0.07175498 -0.2475831 -0.28135833 -0.26050448 0.3063762 -0.023363186 0.26488066
-0.1649606 -0.14986195 0.19526137 0.07260169 0.10953902 0.21694507 0.024065718 0.28379917
-0.08869028 -0.23551525 0.055199835 0.20878065 -0.14854334 -0.21044974 0.14416707 0.18177992
0.07954523 -0.15113235 -0.0371405 0.1833072 -0.013951425 0.22257209 -0.16394268 -0.12836176
0.09613605 -0.16978644 -0.016673222 -0.056405112 0.031112397 0.1600657 0.04139293 -0.04280839
-0.10673131 0.049504377 -0.19818106 0.17064142 -0.16438814 0.27903178 -0.1781002 -0.025951792
0.11653992 -0.008068436 0.041439738 0.05762611 -0.028173344 -0.044517595 0.26001325 -0.18626212
-0.06373857 -0.2761419 0.0900427 0.055788703 0.09773398 -0.06640479 -0.15216666 0.03146232
-0.17234606 0.21785958 0.27134302 0.06210742 0.24709266 -0.058413666 -0.031401586 0.07832538
-0.24418348 0.07466621 -0.055230346 0.16349976 0.2185852 -0.118977934 -0.226288 0.28101537
00000000: a4bc 4dbb 820d 8cbe 1957 4ebe e2d2 2a3d
00000010: df24 27be a135 93bd 5335 88be 1349 6ebe
00000020: 7ec3 053e 9e32 bfbc 02e2 d7bd 52e8 623e
00000030: 1591 68bc 1f53 dbbd 7031 323e a5cb 15be
00000040: 190d 32be c9f8 0f3e 8d27 83bc ee15 243e
00000050: 712a 17bd 4636 cabc 63fa 34be 5325 fa3d
00000060: ce70 123e be93 57be 3919 3bbe 61a0 0c3e
00000070: 6d1c 873d eabb 8c3d 834f 1fbe 2e1f 0f3e
00000080: f345 33be fa09 8abe ba12 7e3e bce0 443d
00000090: 7829 9abe ca7e 6b3e 4328 153e 32b6 6e3e
000000a0: 1840 83be 8de9 3b3e 9975 193e 4c20 f5bd
000000b0: e78f 1dbe 09a5 68bd 731f 34be 877b 21be
000000c0: b7fd 353e 5e08 80ba 7473 71bd 7ce6 833e
000000d0: 5e33 7e3e 33ea 33be 6c05 823e c34b ffbd
000000e0: d969 0f3c 9f99 95be bc4b 4c3c 532d 8abe
000000f0: 5f60 823e a84c 4a3e 9532 6c3e 58f6 0fbe
00000100: 12e6 8e3e fea4 bbbd 7a51 2cbe ba96 7dbe
00000110: 8121 46bd c351 5a3d 6931 fa3c 1bb0 2c3e
00000120: 7f16 13be 5fa6 2cbe 6f84 613e a255 5e3d
00000130: ff78 d93c e4f6 69be bbf3 08be 3ea8 b03d
00000140: 15d6 203e 9461 67bd f357 97bd 82d2 903e
00000150: 6378 303c 7e25 0c3e 9e0d 05be 56b3 35bc
00000160: db6f 003e 5b08 74be 185c 903e 2ef6 363e
00000170: 8e5d 8e3e d5c9 bcbd ebfe 38be 3103 95be
00000180: 41c4 4abe 7aae 82bd 55b6 36bd 34b6 283e
00000190: 756a a73e 2a77 283d b905 92be 04b9 4a3e
000001a0: be62 8abe 7a4f 0e3b fcc1 d3bb 90af dcbd
000001b0: 1e4d 703e dceb 653d 7ffa 7abe 4920 7cbd
000001c0: e2a1 6b3d 8780 f43c d98b 773e 5452 0dbe
000001d0: 43b8 66bb 36e0 8bbe efb4 493e 094c 463e
000001e0: 41c3 8abe f879 4e3e 669d f13c 5ee3 593e
000001f0: 1c84 723e abef 5d3e f6b7 4d3e 31c4 34be
00000200: 9045 303e 3435 0ebe f52e 91bd 5f28 23bd
00000210: 5207 0c3e 540a 9c3e 9826 e6bd 8368 1abe
00000220: aab1 b33d ea4d f4bd 7f0a 20be 81e1 ae3d
00000230: b6ae 553d aa1c 0d3e db42 7e3e f29d 78bd
00000240: ce71 75be c063 3d3e 941f 77be 89bc 16be
00000250: 94d5 13bc 3926 04be 18e3 1ebd a67a 6e3e
00000260: ca54 6c3e d7e1 ffbd 2e06 693e f992 98be
00000270: 9eeb 93be 1d0b 413e f9ff 6f3e 1d44 d0bc
00000280: f826 b13c b94a 233e 272d 17be 73a5 e4bd
00000290: f2df 34be da08 03bd 978d 023c 5ddc 223e
000002a0: 3ad7 d7bd 5560 203e 2600 553e 9625 30be
000002b0: 67d7 75be 57a0 6a3e c195 303c a26d 70be
000002c0: faed 8b3d 46f4 92bd 6d86 7dbe 330e 90be
000002d0: d860 85be 57dd 9c3e 2764 bfbc 709e 873e
000002e0: 6eeb 28be 6975 19be 99f2 473e 32b0 943d
000002f0: fe55 e03d d926 5e3e 7825 c53c 204e 913e
00000300: 40a3 b5bd e92a 71be 3919 623d 98ca 553e
00000310: bf1b 18be 2380 57be 88a0 133e 8424 3a3e
00000320: 9ce8 a23d 70c2 1abe a320 18bd e2b4 3b3e
00000330: 8594 64bc f0e9 633e 97e0 27be 4471 03be
00000340: fae2 c43d 7fdc 2dbe 4896 88bc 0c09 67bd
00000350: 6ddf fe3c 43e8 233e a28b 293d da57 2fbd
00000360: f295 dabd 1ac5 4a3d faef 4abe a0bc 2e3e
00000370: 5d55 28be 41dd 8e3e e65f 36be da98 d4bc
00000380: 7bac ee3d 7931 04bc b7bc 293d 5b09 6c3d
00000390: c9cb e6bc 1558 36bd 7520 853e 7fbb 3ebe
000003a0: 5e89 82bd 7962 8dbe 4f68 b83d b282 643d
000003b0: c128 c83d 3cff 87bd 94d1 1bbe a2de 003d
000003c0: 7c7b 30be 9516 5f3e 79ed 8a3e 5a64 7e3d
000003d0: dc05 7d3e 2b43 6fbd f39e 00bd 0f69 a03d
000003e0: 3c0b 7abe 99ea 983d 3739 62bd 7b6c 273e
000003f0: ccd4 5f3e b4aa f3bd 0bb8 67be 3fe1 8f3e

linearK2.weight f4 [10, 256]
-0.027496016 0.0044999137 0.033694435 0.013506837 0.038135536 -0.028477456 0.008588634 0.07138257
0.016799577 -0.004965679 -0.0068483828 -0.084278345 -0.10399151 0.022480706 -0.021000601 0.048477083
0.05760554 -0.089760035 -0.08744995 -0.091092475 0.053418543 -0.03852482 0.07824115 -0.047531877
0.033629637 -0.015243929 -0.008033153 0.035476517 0.05174388 0.047963046 0.041511662 -0.03178191
0.016904064 -0.022686632 0.0021831754 0.049431384 0.08835393 -0.01183589 -0.059771083 -0.05255303
0.020224722 0.032018773 0.014907361 0.10518196 0.07159368 -0.013208629 0.074909575 0.03244595
-0.019228987 0.07110193 -0.0097299665 -0.07741406 0.018866723 0.047884267 -0.08335462 0.06736293
-0.007009304 0.08377042 0.00626961 -0.0012602281 -0.056319878 -0.03706618 -0.072432816 -0.007435402
-0.02167466 0.04885983 0.014861544 0.024494119 -0.03431977 0.022240898 -0.025275245 -0.049897984
0.0016639658 0.090630956 -0.080356 -0.05324743 -0.0106786005 0.066301905 -0.019410668 -0.09075855
-0.0011828624 0.042694192 -0.035263807 -0.0769692 -0.029178841 0.057106137 -0.034550764 0.025300676
0.023412043 -0.043541186 -0.037228793 -0.0029535233 -0.09350997 0.034285355 0.05267184 0.02885232
-0.03681545 -0.01060374 0.0112008415 0.043408696 -0.048128698 -0.00458046 0.09587979 -0.04348358
-0.0025833815 -0.036661565 0.031463698 0.070013635 -0.0470548 0.043363728 0.00014404765 0.0038944196
-0.06613058 -0.0118728755 -0.01148063 0.051763564 0.07774078 0.07406936 -0.05834724 0.03613495
0.08086632 -0.06413286 -0.04187486 -0.04924943 -0.018332655 -0.053645 0.024091808 0.031516723
0.060410056 0.06825602 -0.035468817 0.016804364 -0.020101836 -0.08261062 -0.045418743 0.041895293
-0.09319941 0.071261704 0.0131866 0.041093152 -0.02636109 -0.01799887 -0.028297361 0.03176611
0.04460066 0.031619474 0.0042445427 0.016114416 0.005974485 0.054237217 0.08786392 0.0025733167
0.02669086 -0.06026698 -0.05329587 0.08945896 0.05949807 -0.061896726 0.019549776 -0.064604506
-0.046886753 0.055900525 -0.039042946 0.006577317 0.032640275 0.10357056 -0.06744754 0.021365212
0.10279047 -0.004188409 -0.008823141 -0.019726409 -0.008678148 -0.015410906 -0.08526735 -0.010750115
-0.003200413 0.017397417 -0.008410923 0.06335195 0.031495314 -0.07443115 -0.02955066 -0.021798702
0.075353734 0.005275239 -0.0010727402 -0.09163031 0.012756161 0.03691079 0.050918616 -0.016441451
0.034482226 -0.0038209471 -0.045375023 0.030159801 0.028546646 0.057112027 0.056544803 -0.06592771
0.022626234 0.03503945 -0.02617203 0.01339904 -0.03401281 0.03745195 -0.009297439 -0.073471
-0.062939644 -0.006796588 -0.019026987 0.010863395 0.0022728106 -0.04816785 0.01977221 -0.0047764685
0.10826305 -0.060717057 -0.0054098573 -0.003189993 0.036852248 -0.067027666 -0.018690266 0.0077207014
-0.032473475 -0.007593292 0.064742655 0.013686248 -0.0013340064 -0.031619743 -0.07913025 -0.029433433
0.054834392 0.016126072 -0.05523257 0.02228402 -0.00089751364 0.0350598 0.01543497 0.009325569
0.0201226 -0.018538792 -0.0314731 -0.010761635 -0.035139814 0.08525635 -0.043741904 0.064399056
0.03978188 -0.058649067 0.0022433316 -0.055691954 -0.045411326 0.07297817 0.026941229 -0.08039631
00000000: 533f e1bc 0374 933b 2d03 0a3d c84b 5d3c
00000010: 0234 1c3d 8e49 e9bc 58b7 0c3c 0631 923d
00000020: 449f 893c 22b7 a2bb 6668 e0bb 209a acbd
00000030: 80f9 d4bd 7529 b83c 7409 acbc e88f 463d
00000040: c9f3 6b3d 1cd4 b7bd f618 b3bd b18e babd
00000050: 67cd 5a3d 34cc 1dbd e53c a03d c9b0 42bd
00000060: 3bbf 093d acc1 79bc 7c9d 03bc d34f 113d
00000070: 64f1 533d e674 443d 2208 2a3d c02d 02bd
00000080: 647a 8a3c 51d9 b9bc 9b13 0f3b 9078 4a3d
00000090: e8f2 b43d 52eb 41bc 86d2 74bd d941 57bd
000000a0: 51ae a53c 1e26 033d 013e 743c a469 d73d
000000b0: b59f 923d 0169 58bc 316a 993d 0be6 043d
000000c0: 1c86 9dbc e49d 913d 706a 1fbc 438b 9ebd
000000d0: 638e 9a3c 4b22 443d d4b5 aabd 93f5 893d
000000e0: 4eae e5bb d38f ab3d 4d71 cd3b 3d2e a5ba
000000f0: acaf 66bd b5d2 17bd a857 94bd aca4 f3bb
00000100: 0e8f b1bc 3f21 483d d57d 733c e4a7 c83c
00000110: e392 0cbd 8b32 b63c 080e cfbc d461 4cbd
00000120: 6d19 da3a b99c b93d b091 a4bd fa19 5abd
00000130: 4cf5 2ebc 4bc9 873d 1f03 9fbc 9edf b9bd
00000140: 470a 9bba 1be0 2e3d c870 10bd 07a2 9dbd
00000150: 7708 efbc 20e8 693d 1a85 0dbd 5d43 cf3c
00000160: 9dca bf3c 3e58 32bd 387d 18bd e68f 41bb
00000170: 2882 bfbd cd6e 0c3d 6dbe 573d b35b ec3c
00000180: cccb 16bd 4fbb 2dbc bc83 373c 51cd 313d
00000190: 9922 45bd af17 96bb a05c c43d d71b 32bd
000001a0: f34d 29bb 702a 16bd 14e0 003d 4f63 8f3d
000001b0: 89bc 40bd 2a9e 313d 7f0b 1739 8539 7f3b
000001c0: 786f 87bd 7386 42bc 4119 3cbc 0806 543d
000001d0: 8f36 9f3d adb1 973d 84fd 6ebd 3e02 143d
000001e0: 3e9d a53d 1758 83bd f984 2bbd c5b9 49bd
000001f0: 5d2e 96bc dcba 5bbd 2f5c c53c ae17 013d
00000200: 8970 773d d0c9 8b3d c047 11bd 4ea9 893c
00000210: 9bac a4bc c22f a9bd 0109 3abd 669a 2b3d
00000220: 55df bebd a8f1 913d 9c0c 583c 4b51 283d
00000230: 36f3 d7bc 5e72 93bc decf e7bc 2e1d 023d
00000240: 2faf 363d 6c83 013d ce15 8b3b 6102 843c
00000250: 9dc5 c33b d827 5e3d 00f2 b33d 17a5 283b
00000260: caa6 da3c 82da 76bd c54c 5abd 4236 b73d
00000270: 40b4 733d 6c87 7dbd da26 a03c 5e4f 84bd
00000280: 530c 40bd f3f7 643d 7feb 1fbd 8986 d73b
00000290: cfb1 053d cd1c d43d f021 8abd 1906 af3c
000002a0: cf83 d23d ec3e 89bb f08e 10bc 4799 a1bc
000002b0: ca2e 0ebc 067e 7cbc a6a0 aebd 4021 30bc
000002c0: 05be 51bb 0785 8e3c f8cd 09bc abbe 813d
000002d0: 3b01 013d 5c6f 98bd 3a14 f2bc 3193 b2bc
000002e0: 0f53 9a3d e9db ac3b 309b 8cba aca8 bbbd
000002f0: 38ff 503c c52f 173d 0a90 503d 39b0 86bc
00000300: 3c3d 0d3d db68 7abb 29db 39bd b011 f73c
00000310: a8da e93c 4dee 693d 869b 673d 1b05 87bd
00000320: a75a b93c 8785 0f3d ba66 d6bc a687 5b3c
00000330: 0451 0bbd 3767 193d 4954 18bc f777 96bd
00000340: 80e6 80bd eab5 debb 7cde 9bbc 62fc 313c
00000350: 6ff3 143b a74b 45bd 54f9 a13c ec83 9cbb
00000360: 05b9 dd3d 73b2 78bd 2c45 b1bb 340f 51bb
00000370: 62f2 163d cd45 89bd 541c 99bc f0fd fc3b
00000380: e802 05bd 26d1 f8bb cc97 843d 493c 603c
00000390: d4d9 aeba b483 01bd 0a0f a2bd 621e f1bc
000003a0: 079a 603d d31a 843c 8c3b 62bd fa8c b63c
000003b0: 1f47 6bba dd9a 0f3d f5e2 7c3c 45ca 183c
000003c0: 27d8 a43c aade 97bc f0e9 00bd 9251 30bc
000003d0: c4ee 0fbd e29a ae3d b62a 33bd a7e3 833d
000003e0: 53f2 223d 013a 70bd dc04 133b 3f1d 64bd
000003f0: 3a01 3abd 9475 953d dab3 dc3c d2a6 a4bd

linearD2.weight f4 [256, 10]
-0.22173741 0.28389263 0.058806326 0.05470923 -0.2703203 0.07395748 0.07189335 -0.24094965
-0.13080992 -0.32402664 0.17505264 -0.13201807 0.20713905 -0.31858227 -0.2557946 -0.09064738
-0.11831808 -0.010892193 -0.06196475 0.034763567 -0.021815188 -0.09971576 -0.009259127 0.015236795
-0.25919628 -0.18555556 0.07672135 -0.10473832 -0.1549455 0.0069096447 -0.42662442 -0.6511489
0.19438292 0.37310725 0.33364803 -0.06774591 0.035308044 0.21369205 0.043473773 -0.16461037
-0.042188447 0.21414648 -0.16733558 0.18999766 -0.098013006 0.15484181 -0.15164192 0.052892577
-0.22349967 0.12555169 -0.26681402 0.18467954 0.012532043 -0.040382996 0.11751259 -0.24716099
-0.12219413 -0.25591925 -0.10128289 0.22429983 0.31206337 -0.07198527 0.29448828 -0.17872415
-0.36363277 0.044793446 -0.05003416 0.13405284 -0.37805033 0.20895012 -0.252215 -0.16229679
-0.51297235 -0.34155673 0.030454498 -0.30390713 0.28504685 0.3362363 0.18233825 -0.14169283
-0.05831196 0.24502629 -0.097972654 0.1609997 0.19010213 0.089296974 0.18430977 -0.23170276
-0.20733394 -0.24728335 -0.09627505 0.18472835 -0.14936246 0.20719057 0.10731368 -0.06896862
-0.12650812 -0.23913081 0.032838598 -0.13147165 -0.08540197 -0.116124526 -0.017898275 -0.11728483
-0.0740067 0.01121348 0.23856553 -0.13724442 0.23667854 0.05891205 -0.1139412 0.013258534
0.2925107 0.051395327 -0.05752619 0.097506806 -0.09603634 -0.24864209 -0.124816395 -0.07117729
-0.13314033 -0.12847373 0.053785183 -0.13155492 -0.1117154 -0.111156136 0.21853913 -0.095621794
-0.2088109 0.26327103 -0.022279657 -0.4391815 -0.081953086 0.3829841 0.2542756 0.12966457
0.13017459 0.08478195 -0.035048045 -0.337769 -0.119429894 -0.032728348 0.2848811 0.12391867
0.12469946 0.031778384 -0.16370921 0.03673185 0.08838415 0.017443331 -0.23609015 -0.009902684
-0.09962944 0.03689668 0.0009711057 0.1710318 -0.07473268 0.08240563 0.13382019 -0.06173307
-0.29653642 0.10184396 0.22188163 0.062538125 -0.25875673 0.26238096 0.02254087 0.06032148
0.37806714 0.058711372 0.18258135 0.004049945 0.07517037 0.02200346 -0.02719233 -0.2494598
0.02426445 0.2823066 0.16319883 0.19174556 0.31717578 0.06597127 0.051160548 -0.109963134
0.21658912 -0.034531403 0.19164315 -0.102497436 -0.32757172 0.099287905 0.27652386 -0.2332826
-0.02203743 0.166606 -0.26556623 0.015569076 -0.2235098 -0.034003526 -0.05077111 -0.25313386
-0.2969712 -0.032217618 0.15044856 0.38699684 -0.1250987 0.1403525 0.019806188 -0.2488838
0.050570417 -0.26558614 0.0730257 0.2458157 0.34607306 -0.23008777 -0.34395888 0.2596773
-0.3761143 -0.30899584 -0.23563091 0.24266072 0.04525503 -0.013094455 -0.16109797 -0.014443274
-0.23864411 -0.0768905 0.18810795 -0.20793788 -0.16779579 -0.0042725336 0.4737411 0.019620921
0.61512667 0.15484115 -0.21844873 -0.026594501 -0.20410576 0.0023224135 -0.60861576 0.08546812
-0.23892894 -0.092054814 0.078025356 0.023451174 0.06845997 0.07735586 0.0044429367 0.19412829
0.14191848 0.17496386 -0.21335207 0.17952472 0.2240743 0.1374092 0.24127713 -0.02765697
00000000: 220f 63be 605a 913e e7de 703d c916 603d
00000010: 6c67 8abe 0577 973d d23c 933d 81bb 76be
00000020: 09f3 05be d2e6 a5be 0041 333e bf2f 07be
00000030: 421c 543e 371d a3be 83f7 82be 55a5 b9bd
00000040: c050 f2bd 2b75 32bc c0ce 7dbd 3e64 0e3d
00000050: c4b5 b2bc c737 ccbd 98b3 17bc c0a3 793c
00000060: 60b5 84be 4702 3ebe 1520 9d3d 0b81 d6bd
00000070: 08aa 1ebe 4d6a e23b 846e dabe b2b1 26bf
00000080: 510c 473e ea07 bf3e ead3 aa3e 5ebe 8abd
00000090: 2b9f 103d 17d2 5a3e 8e11 323d 9f8f 28be
000000a0: cbcd 2cbd 3749 5b3e 055a 2bbe bf8e 423e
000000b0: 0bbb c8bd da8e 1e3e 0548 1bbe e3a5 583d
000000c0: 19dd 64be 9f90 003e d99b 88be a21c 3d3e
000000d0: 3353 4d3c a468 25bd 71aa f03d c517 7dbe
000000e0: eb40 fabd d907 83be 676d cfbd dbae 653e
000000f0: c5c6 9f3e 036d 93bd 2bc7 963e 7703 37be
00000100: 132e babe 5579 373d 9ff0 4cbd 2645 093e
00000110: d08f c1be 05f7 553e 5322 81be 2131 26be
00000120: 2852 03bf 86e0 aebe b67b f93c b799 9bbe
00000130: a9f1 913e 2a27 ac3e e1b6 3a3e ed17 11be
00000140: 86d8 6ebd 2ce8 7a3e e3a5 c8bd 1bdd 243e
00000150: 22aa 423e 55e1 b63d b3bb 3c3e 7d43 6dbe
00000160: 594f 54be d937 7dbe da2b c5bd 6e29 3d3e
00000170: 79f2 18be c429 543e 46c7 db3d 6b3f 8dbd
00000180: 588b 01be b5de 74be c481 063d 81a0 06be
00000190: 3ae7 aebd b2d2 edbd 679f 92bc 0733 f0bd
000001a0: d390 97bd beb8 373c 864a 743e cd89 0cbe
000001b0: dc5b 723e c34d 713d 015a e9bd 523a 593c
000001c0: f6c3 953e e883 523d 95a0 6bbd a6b1 c73d
000001d0: b3ae c4bd 089c 7ebe bd9f ffbd 66c5 91bd
000001e0: f055 08be 9e8e 03be da4d 5c3d 55b6 06be
000001f0: 0bcb e4bd d4a5 e3bd b9c8 5f3e 5cd5 c3bd
00000200: 86d2 55be 76cb 863e d483 b6bc 66dc e0be
00000210: 05d7 a7bd 7e16 c43e 6930 823e cac6 043e
00000220: 7d4c 053e 29a2 ad3d 8a8e 0fbd 0ff0 acbe
00000230: a997 f4bd 290e 06bd efdb 913e 12c9 fd3d
00000240: 6e62 ff3d 0d2a 023d 63a3 27be 2374 163d
00000250: c002 b53d 51e5 8e3c 9ec1 71be de3e 22bc
00000260: 850a ccbd f920 173d cd91 7e3a f622 2f3e
00000270: 730d 99bd 48c4 a83d 2908 093e d1db 7cbd
00000280: 9fd3 97be 9193 d03d f034 633e fd13 803d
00000290: c37b 84be cc56 863e a1a7 b83c a813 773d
000002a0: 0492 c13e 567b 703d 9bf6 3a3e 67b5 843b
000002b0: ecf2 993d 9a40 b43c 73c2 debc 6472 7fbe
000002c0: 3dc6 c63c 7e8a 903e 981d 273e f358 443e
000002d0: dd64 a23e f21b 873d b98d 513d 5a34 e1bd
000002e0: 8ac9 5d3e cd70 0dbd 1a3e 443e 2dea d1bd
000002f0: 7bb7 a7be 7557 cb3d 8994 8d3e a2e1 6ebe
00000300: d787 b4bc c39a 2a3e 4cf8 87be 7015 7f3c
00000310: c1df 64be 4847 0bbd 5ef5 4fbd c39a 81be
00000320: 9c0c 98be 9ff6 03bd 300f 1a3e 7324 c63e
00000330: e019 00be 91b8 0f3e 9640 a23c 65db 7ebe
00000340: ed22 4f3d e8fa 87be 808e 953d 1cb7 7b3e
00000350: 7d30 b13e 219c 6bbe 611b b0be 6cf4 843e
00000360: 0e92 c0be b434 9ebe 3b49 71be 0d7c 783e
00000370: 575d 393d 208a 56bc def6 24be 7ba3 6cbc
00000380: 1f5f 74be c478 9dbd 5f9f 403e abed 54be
00000390: a9d2 2bbe 9c00 8cbb 328e f23e 0ebc a03c
000003a0: f178 1d3f ae8e 1e3e 06b1 5fbe b6dc d9bc
000003b0: 1a01 51be a233 183b 3ece 1bbf e909 af3d
000003c0: caa9 74be 3c87 bcbd c2cb 9f3d ad1c c03c
000003d0: be34 8c3d c06c 9e3d 0e96 913b 91c9 463e
000003e0: 1453 113e ba29 333e f778 5abe 54d5 373e
000003f0: bc73 653e ffb4 0c3e 5a11 773e df90 e2bc

linearD2.bias f4 [256]
0.20991966 -0.14500776 0.19819404 0.29784885 -0.24435146 -0.16512445 -0.09484869 -0.10304702
-0.17869563 0.115035415 -0.20914863 -0.12537837 0.26099828 -0.0664076 -0.009128969 -0.16078931
-0.06354781 -0.07196888 0.28129318 0.2121709 0.23447119 -0.019427463 0.16175325 -0.32954094
-0.14073536 -0.19095448 -0.24354713 -0.21871468 0.020381058 -0.15735081 -0.103365675 0.2579714
-0.13063152 0.16329718 0.10931805 -0.013739369 0.03912387 -0.056213517 0.18196452 -0.017421652
0.18787648 0.27834013 -0.121213384 -0.15145694 0.24377923 -0.031063018 -0.387099 -0.13085681
0.0118790325 -0.20063536 0.0862701 -0.008136135 0.010769122 -0.102451645 -0.06401848 -0.23422469
0.13589394 0.13743445 -0.0043449425 -0.22350022 -0.16200067 0.24139868 0.18580535 0.029708114
-0.010963469 -0.016127184 0.25287396 -0.32826737 -0.15733518 -0.05799022 0.11140568 0.054230336
0.15389755 0.13980201 0.0645278 0.1122787 -0.17626855 0.008801536 -0.086252786 0.06912294
-0.2263363 -0.13650396 0.06064242 -0.15304981 0.18443905 0.18418597 0.3219305 0.071738146
-0.12318119 -0.19639908 0.25333214 -0.2600018 0.2945939 -0.002751586 0.23319307 0.26426375
-0.25592908 0.23610884 -0.016688088 0.23461376 0.06304954 0.05533132 -0.11533561 0.18160413
0.12938203 -0.21832147 -0.16344939 0.21910162 -0.55945104 -0.2230722 -0.17873436 -0.04968093
0.1598961 -0.3058326 -0.018140594 0.2634342 0.25480103 -0.16703403 0.30269203 -0.16280282
-0.118007 -0.19904093 -0.0009635264 -0.09634698 -0.21864907 0.20874809 0.15670814 0.012241195
0.25886568 0.11909026 -0.046503697 0.0017662067 -0.3391543 0.1637528 -0.23943727 0.27265194
-0.16536053 0.30731237 -0.04589799 -0.006209528 -0.32404473 -0.11401155 -0.24665883 -0.14313543
-0.058061678 0.21649212 0.23871852 0.21994163 0.0021338228 -0.14301738 -0.19612923 -0.253819
-0.2286704 -0.011509389 0.26266822 0.0910981 -0.11561099 0.058309488 0.08180641 0.24527274
-0.005572088 0.08142917 0.07906654 0.20242563 -0.073382035 -0.058324248 -0.011201315 -0.025345555
0.14671104 -0.26921085 -0.14654158 -0.163759 0.3262602 0.038071886 -0.1865863 0.00094353355
0.08092001 0.12857907 -0.15324514 0.101681836 0.26441562 -0.15534347 0.15746795 0.042639297
0.016375724 -0.28984177 0.10172461 -0.13459957 -0.035311833 0.19638593 0.041695174 0.06967922
-0.16051738 -0.070643015 -0.0061644567 0.18579333 0.079660505 -0.06042033 -0.2114712 0.19631748
-0.14414786 -0.2797736 0.0042686886 -0.24742466 0.27586523 0.27226177 -0.24920042 0.4048436
0.23519571 -0.14806072 -0.073684245 0.23911376 -0.18897864 0.23526132 -0.31017897 0.27510312
0.13913734 -0.5146651 -0.058931936 0.15853314 -0.19929653 0.27053812 0.06279364 0.16593856
-0.30029005 -0.26500893 -0.15043737 0.23617326 0.054950815 0.03492918 -0.21555415 -0.033223055
-0.25490278 0.23009002 0.23010203 0.14121695 0.296144 0.18344791 0.23484494 0.051370334
-0.17706515 0.0112720635 -0.15403247 0.25973713 -0.3225131 0.14792266 0.19875929 0.24286053
-0.21888863 0.2349261 -0.10753671 -0.31391284 -0.08297907 0.097415745 0.2091389 0.38415462
00000000: 2ef5 563e ea7c 14be 61f3 4a3e a57f 983e
00000010: 4537 7abe 6216 29be 0840 c2bd 510a d3bd
00000020: fdfb 36be b097 eb3d 0f2b 56be 3063 00be
00000030: 91a1 853e b500 88bd ac91 15bc f4a5 24be
00000040: 5b25 82bd 6c64 93bd a905 903e 5443 593e
00000050: 3719 703e 5826 9fbc a5a2 253e 97b9 a8be
00000060: ee1c 10be 9289 43be 6b64 79be bef6 5fbe
00000070: 2df6 a63c 9220 21be 62b1 d3bd d414 843e
00000080: 45c4 05be 6037 273e 24e2 df3d 171b 61bc
00000090: 5a40 203d 2540 66bd e854 3a3e dab7 8ebc
000000a0: b162 403e 9982 8e3e b93e f8bd 8717 1bbe
000000b0: 43a1 793e df77 febc d731 c6be 54ff 05be
000000c0: 46a0 423c 5b73 4dbe 61ae b03d 6c4d 05bc
000000d0: f970 303c 2bd2 d1bd 1f1c 83bd 99d8 6fbe
000000e0: c827 0b3e 9ebb 0c3e 0560 8ebb 3edd 64be
000000f0: 81e3 25be 3731 773e c243 3e3e 6e5e f33c
00000100: 1fa0 33bc 281d 84bc b278 813e a912 a8be
00000110: 791c 21be 2787 6dbd a928 e43d a120 5e3d
00000120: 5297 1d3e 4228 0f3e 2727 843d 60f2 e53d
00000130: be7f 34be 5134 103c 4da5 b0bd 5490 8d3d
00000140: b4c4 67be b2c7 0bbe 3064 783d 17b9 1cbe
00000150: 97dd 3c3e 3f9b 3c3e 13d4 a43e 73eb 923d
00000160: 6b46 fcbd d71c 49be c0b4 813e f51e 85be
00000170: 03d5 963e f453 34bb 2aca 6e3e 944d 873e
00000180: 2309 83be 84c6 713e 75b5 88bc 973e 703e
00000190: 1e20 813d 18a3 623d 1435 ecbd 6ff6 393e
000001a0: b97c 043e aa8f 5fbe 475f 27be 2d5c 603e
000001b0: 2f38 0fbf 0a6d 64be 2406 37be 3b7e 4bbd
000001c0: cebb 233e 1796 9cbe 959b 94bc d9e0 863e
000001d0: 4875 823e f80a 2bbe 73fa 9a3e c8b5 26be
000001e0: a7ad f1bd 63d1 4bbe 2a95 7cba 9151 c5bd
000001f0: 8be5 5fbe 0fc2 553e 1978 203e 4b8f 483c
00000200: 0b8a 843e 98e5 f33d a97a 3ebd 1080 e73a
00000210: a2a5 adbe d0ae 273e 0b2f 75be 0999 8b3e
00000220: 4554 29be 0c58 9d3e 88ff 3bbd 4c79 cbbb
00000230: 31e9 a5be e37e e9bd 2294 7cbe 1892 12be
00000240: 15d2 6dbd 1cb0 5d3e a172 743e 6138 613e
00000250: 9bd7 0b3b 2673 12be 1ad6 48be 90f4 81be
00000260: 9328 6abe e091 3cbc 737c 863e a491 ba3d
00000270: 74c5 ecbd eed5 6e3d 1e8a a73d c728 7b3e
00000280: 1096 b6bb 56c4 a63d a3ed a13d aa48 4f3e
00000290: 5249 96bd 68e5 6ebd b885 37bc 7ba1 cfbc
000002a0: 6b3b 163e 01d6 89be ff0e 16be 70b0 27be
000002b0: 940b a73e 44f1 1b3d 7b10 3fbe 7757 773a
000002c0: 64b9 a53d 3baa 033e 4bec 1cbe 913e d03d
000002d0: 7c61 873e 5c12 1fbe 473f 213e 8ba6 2e3d
000002e0: 6226 863c 2466 94be fe54 d03d 78d4 09be
000002f0: 24a3 10bd 6519 493e 8fc8 2a3d fbb3 8e3d
00000300: ab5e 24be 49ad 90bd 36ff c9bb 9b40 3e3e
00000310: 0c25 a33d 4f7b 77bd e88b 58be 7307 493e
00000320: 7f9b 13be 7c3e 8fbe 5be0 8b3b e45c 7dbe
00000330: 353e 8d3e e565 8b3e 652e 7fbe a947 cf3e
00000340: 25d7 703e 3b9d 17be c4e7 96bd 3dda 743e
00000350: 9e83 41be 58e8 703e c7cf 9ebe 51da 8c3e
00000360: 057a 0e3e 18c1 03bf 9d62 71bd 8356 223e
00000370: 6414 4cbe f983 8a3e f499 803d cceb 293e
00000380: 9ebf 99be 40af 87be 410c 1abe 67d7 713e
00000390: 1b14 613d e611 0f3d 3aba 5cbe e614 08bd
000003a0: 9e82 82be b89c 6b3e de9f 6b3e 2d9b 103e
000003b0: 30a0 973e c5d9 3b3e 317b 703e b369 523d
000003c0: 9150 35be 76ae 383c b0ba 1dbe 44fc 843e
000003d0: 7020 a5be 0a79 173e 8e87 4b3e 6eb0 783e
000003e0: 5724 60be 7890 703e 353c dcbd 2fb9 a0be
000003f0: eef0 a9bd e881 c73d 8228 563e eaaf c43e

linearK3.weight f4 [10, 256]
0.19135714 0.035012204 0.08338675 -0.034641456 -0.044110835 -0.044335123 0.034947824 -0.028262753
0.021445325 0.05491944 -0.05946895 -0.049110334 0.025808433 -0.080391675 -0.009304883 -0.05351547
-0.08095163 0.011773818 0.10303367 -0.035499286 -0.058661547 -0.0046761623 0.032416597 -0.0022871038
-0.06284353 0.035922803 0.0023348809 0.07840659 0.052565146 0.0062311725 0.035445545 -0.008823306
-0.019292152 -0.07333087 -0.048633672 -0.04968115 0.04259663 0.026763448 0.020086475 -0.021117114
0.03153925 0.0012260956 0.046113208 0.0085401805 0.021519603 0.027923305 -0.005536985 0.0039287684
-0.034682617 0.04029414 0.013791609 0.12137562 0.088607684 0.018213693 0.0027808507 0.07959432
0.040368937 0.027546503 -0.011367223 0.024143906 -0.0149424365 0.0070356843 -0.04380611 -0.012226817
-0.015139735 0.014215004 0.050566934 -0.048735894 0.033069596 0.050145306 0.091271944 -0.004205252
-0.07898031 0.060790103 0.009537874 0.085403904 -0.031861205 -0.025621999 0.0056157447 -0.010158771
0.031418983 -0.068514 -0.059568696 0.032904696 -0.007705217 -0.018093534 -0.03018565 0.001499333
0.027665151 0.0883336 0.055183735 0.058838144 0.053333346 -0.006281246 -0.032075237 -0.04535844
0.012565706 0.03355256 -0.032800626 0.011123095 -0.028955305 0.0111618955 0.08654438 -0.008464109
0.027854588 0.0801968 0.08943182 -0.018208722 0.09797737 0.030841138 0.010548654 -0.005751003
0.050753236 0.052606452 0.08091084 -0.03561502 0.041266385 0.004999266 -0.059808176 0.045797314
-0.03832892 0.03444398 0.029256815 -0.07523041 -0.04702147 0.0010112517 -0.04737911 -0.021771079
-0.035618704 -0.0033783526 0.09243033 0.07214685 0.020255521 0.017336799 0.06257106 -0.030447558
-0.01727162 -0.11291195 -0.066419445 0.012098025 -0.059272703 -0.11330196 -0.065806985 0.0060439226
0.024846153 0.047530156 0.05264428 -0.018651199 0.0553946 -0.0037274673 0.06675189 0.06456416
0.00035454883 -0.013178203 0.0004275255 -0.05616855 -0.013063207 -0.003711336 -0.050501514 0.07431511
0.010445169 -0.0066323867 -0.07037138 -0.03396393 0.055263914 0.072022565 -0.019598043 0.04250097
0.0033886936 0.042558443 0.03828937 -0.020678174 0.070161365 0.011174034 0.0056961854 -0.027669502
-0.0021326235 0.027956378 0.060623754 0.057635076 0.015637757 0.02209958 -0.058363587 -0.0033930116
0.08128345 -0.026941545 -0.085513726 0.001954515 -0.0008017494 0.054688353 0.08956848 0.028188536
0.07825998 -0.060427003 0.032520905 1.4810245e-05 0.050876375 -0.021901533 -0.07327525 -0.0015669068
0.089474514 -0.033899367 0.027646942 -0.04974232 -0.0042953733 0.012633869 -0.03495573 0.07470994
0.04717777 -0.012218669 -0.05604983 0.09905845 -0.015344128 0.034506783 -0.015317552 -0.03236382
-0.048516355 0.062527105 -0.0028928707 -0.05484837 0.021139963 0.08125832 -0.003051318 0.017040556
-0.0723791 0.0008306387 0.019035457 -0.0034797955 0.029561551 -0.044930648 -0.036761485 -0.073262624
-0.014210837 -0.017338954 -0.010394037 0.07786281 -0.0018345509 0.06991881 -0.006079735 -0.014490628
-0.005075475 -0.01695348 -0.034134585 0.02188166 0.0312637 0.033675104 -0.058448058 0.0015428893
-0.026280701 0.053380582 0.012893987 -0.020172998 -0.0477367 -0.008669024 0.0029732948 -0.053513907
00000000: 20f3 433e f568 0f3d acc6 aa3d 33e4 0dbd
00000010: 90ad 34bd bf98 35bd 7325 0f3d 4a87 e7bc
00000020: 1bae af3c 35f3 603d b795 73bd eb27 49bd
00000030: 356c d33c 64a4 a4bd 8273 18bc 0a33 5bbd
00000040: f8c9 a5bd f9e6 403c 5103 d33d b367 11bd
00000050: 1747 70bd 7e3a 99bb 44c7 043d 3ce3 15bb
00000060: 1cb4 80bd ca23 133d cd04 193b a293 a03d
00000070: 8d4e 573d dd2e cc3b 592f 113d a18f 10bc
00000080: 930a 9ebc 7f2e 96bd 1a34 47bd 767e 4bbd
00000090: ce79 2e3d 053f db3c 648c a43c ccfd acbc
000000a0: 4d2f 013d f1b4 a03a 34e1 3c3d 1dec 0b3c
000000b0: e149 b03c 6abf e43c 996f b5bb e6bc 803b
000000c0: 5c0f 0ebd 780b 253d 33f6 613c c893 f83d
000000d0: f277 b53d e234 953c ef3e 363b 5902 a33d
000000e0: e659 253d 34a9 e13c 973d 3abc 71c9 c53c
000000f0: 1fd1 74bc 998b e63b 096e 33bd fd52 48bc
00000100: a70c 78bc 0ce6 683c 461f 4f3d 4a9f 47bd
00000110: fc73 073d 2a65 4d3d c9ec ba3d 36cc 89bb
00000120: 6ec0 a1bd 0bff 783d be44 1c3c 3ee8 ae3d
00000130: e580 02bd 3ae5 d1bc 4804 b83b f970 26bc
00000140: 31b1 003d 1151 8cbd 4efe 73bd 13c7 063d
00000150: 0c7c fcbb e438 94bc e547 f7bc 4485 c43a
00000160: 07a2 e23c 3fe8 b43d 5708 623d 4400 713d
00000170: 1174 5a3d e9d2 cdbb 5361 03bd c6c9 39bd
00000180: 64e0 4d3c 696e 093d f359 06bd a43d 363c
00000190: ad33 edbc 62e0 363c 2e3e b13d 0cad 0abc
000001a0: 4e2f e43c 383e a43d 0828 b73d 752a 95bc
000001b0: 5ca8 c83d 8ea6 fc3c 43d4 2c3c e972 bcbb
000001c0: a0e2 4f3d dd79 573d 95b4 a53d 0ee1 11bd
000001d0: f106 293d e2d0 a33b 6bf9 74bd f795 3b3d
000001e0: c9fe 1cbd 2115 0d3d fdab ef3c 6712 9abd
000001f0: 9699 40bd fa8b 843a 9910 42bd 4359 b2bc
00000200: ebe4 11bd 5a67 5dbb 1d4c bd3d bac1 933d
00000210: e8ee a53c e705 8e3c 4225 803d 286d f9bc
00000220: 367d 8dbc 613e e7bd eb06 88bd cb36 463c
00000230: efc7 72bd dc0a e8bd d0c5 86bd 190c c63b
00000240: 298a cb3c fbae 423d 87a1 573d 66ca 98bc
00000250: 73e5 623d 8648 74bb 37b5 883d 373a 843d
00000260: bde2 b939 64e9 57bc 8025 e039 fe10 66bd
00000270: 1007 56bc e339 73bb adda 4ebd 8532 983d
00000280: 3722 2b3c 7e54 d9bb df1e 90bd c31d 0bbd
00000290: 6a5c 623d 9180 933d 138c a0bc 7f15 2e3d
000002a0: d814 5e3b c351 2e3d 50d5 1c3d 4665 a9bc
000002b0: c3b0 8f3d 4c13 373c 11a7 ba3b 27ab e2bc
000002c0: 7cc3 0bbb c604 e53c 9d50 783d c212 6c3d
000002d0: c11a 803c 2e0a b53c a80e 6fbd 4a5d 5ebb
000002e0: f077 a63d 84b4 dcbc d221 afbd 5217 003b
000002f0: 7e2c 52ba e500 603d ae6f b73d a5eb e63c
00000300: c546 a03d 4e82 77bd a434 053d 8579 7837
00000310: bf63 503d d86a b3bc 5611 96bd ab60 cdba
00000320: 6a3e b73d 10da 0abd d77b e23c 9abe 4bbd
00000330: 34c0 8cbb 4afe 4e3c bd2d 0fbd 8601 993d
00000340: 7a3d 413d d030 48bc 8294 65bd 28df ca3d
00000350: f065 7bbc fc56 0d3d 78f6 7abc ed8f 04bd
00000360: 16b9 46bd 360e 803d 5196 3dbb afa8 60bd
00000370: b72d ad3c c36a a63d 9ff8 47bb a398 8b3c
00000380: 7e3b 94bd 38bf 593a 3ff0 9b3c 480d 64bb
00000390: 112b f23c 3309 38bd 3693 16bd b70a 96bd
000003a0: 92d4 68bc 6c0a 8ebc c04b 2abc 8976 9f3d
000003b0: 5075 f0ba 9831 8f3d 8338 c7bb 196a 6dbc
000003c0: 2c50 a6bb 06e2 8abc b5d0 0bbd 2b41 b33c
000003d0: 5e0e 003d e8ee 093d 3b67 6fbd c63a ca3a
000003e0: a04a d7bc 99a5 5a3d 4d41 533c d841 a5bc
000003f0: 8f87 43bd 8608 0ebc 9cdb 423b 6631 5bbd

linearD3.weight f4 [6, 10]
-0.032302823 0.29983222 -0.14324243 0.013174414 -0.16662472 0.029262235 0.13204393 0.09706949
-0.11349084 -0.22366916 0.04124327 0.07874191 -0.22614409 -0.25604922 0.057263926 -0.048149403
-0.2635498 0.21984133 0.03320457 -0.046648152 -0.022211729 -0.043849308 0.13559875 -0.23526807
0.19119996 -0.14904322 0.2184011 0.32551748 0.002062164 -0.07690279 0.014894629 -0.24738453
-0.07065781 -0.19245154 -0.24722128 0.07564993 0.24631646 0.16253848 0.14372781 -0.2431701
-0.066493124 -0.1764748 0.033238348 -0.30654842 -0.24670044 -0.30072495 0.07348651 0.08080151
-0.05148971 0.09934363 -0.0019856726 0.15088905 -0.058873493 -0.28882346 0.05680562 -0.2748873
0.10484825 -0.2672772 0.13626842 0.07310202
00000000: f74f 04bd 9c83 993e 25ae 12be 7fd9 573c
00000010: ac9f 2abe 5bb7 ef3c 8636 073e 5ecc c63d
00000020: e36d e8bd 8709 65be b4ee 283d 7043 a13d
00000030: 5192 67be e218 83be 948d 6a3d 4f38 45bd
00000040: 00f0 86be 161e 613e 8401 083d 2212 3fbd
00000050: 5ff5 b5bc 559b 33bd 66da 0a3e 1dea 70be
00000060: ecc9 433e c99e 18be 8aa4 5f3e 3aaa a63e
00000070: 5f25 073b 367f 9dbd 9a08 743c 5f52 7dbe
00000080: 0bb5 90bd 0412 45be 9327 7dbe 5aee 9a3d
00000090: 623a 7c3e 7d70 263e 622d 133e 9501 79be
000000a0: 8c2d 88bd cfb5 34be ef24 083d eaf3 9cbe
000000b0: 0a9f 7cbe 9ff8 99be 1880 963d 437b a53d
000000c0: e0e6 52bd ac74 cb3d 0f22 02bb a982 1a3e
000000d0: 5525 71bd abe0 93be 03ad 683d 07be 8cbe
000000e0: aeba d63d 8fd8 88be f389 0b3e 83b6 953d

linearD3.bias f4 [6]
0.20584154 0.13042186 0.24868171 0.13676544 0.10756149 -0.24226712
00000000: 20c8 523e 4f8d 053e 6ba6 7e3e 3d0c 0c3e
00000010: 3349 dc3d df14 78be
