continous_state/pretrained/VE/VE10_1000.pt (torch, 46912 bytes, 9 tensors)

linearK1.weight f4 [10, 8]
-0.03299806 0.17038302 -0.7761937 -0.1493599 -0.047589935 -0.01850595 0.041897513 0.09077653
-0.009473679 0.08150136 -0.034331143 -0.25553152 0.20447396 -0.031701554 -0.1240836 -0.32605496
-0.035054114 -0.095005564 0.6535704 -0.20225294 -0.00020726932 -0.2047907 0.06795796 0.05120254
-0.38172868 -0.19228266 -0.2463642 0.3245236 -0.20121837 0.29846203 -0.20487638 -0.16926248
0.10469741 0.23992673 0.28408363 -0.11065395 -0.2269665 0.27931625 -0.28244406 0.03014691
-0.30780947 0.15249331 0.18646547 -0.08942576 -0.024492733 0.04415305 0.027203918 0.06470794
-0.112940885 0.30251807 0.064310774 0.25030062 0.2601116 -0.18280242 0.20579389 0.36865973
0.415047 0.13525844 -0.05459469 0.29603902 -0.1259671 0.22110842 -0.052496262 -0.10404803
0.09400202 -0.42516622 -0.11499315 -0.35092098 -0.12658623 -0.14535762 -0.3245072 0.09874323
0.13257533 0.2753143 -0.10052341 -0.22577354 -0.19203351 0.33103183 -0.27862418 0.14685203
00000000: f928 07bd e378 2e3e a1b4 46bf cdf1 18be
00000010: aaed 42bd ca99 97bc ba9c 2b3d 0ce9 b93d
00000020: 7d37 1bbc 2fea a63d d09e 0cbd 07d5 82be
00000030: 9f61 513e 7dd9 01bd 8b1f febd adf0 a6be
00000040: e794 0fbd 4792 c2bd 6450 273f 651b 4fbe
00000050: 6f56 59b9 a7b4 51be 8b2d 8b3d c1b9 513d
00000060: f171 c3be bfe5 44be e646 7cbe f527 a63e
00000070: 300c 4ebe 04d0 983e 1dcb 51be 2553 2dbe
00000080: 986b d63d 5aaf 753e 6973 913e 8a9e e2bd
00000090: e869 68be 8a02 8f3e 829c 90be a7f6 f63c
000000a0: 3499 9dbe 3527 1c3e cef0 3e3e da24 b7bd
000000b0: fca4 c8bc d4d9 343d c0da de3c 9985 843d
000000c0: 8d4d e7bd a6e3 9a3e 5eb5 833d 6727 803e
000000d0: 592d 853e 8f30 3bbe a2bb 523e f8c0 bc3e
000000e0: 0a81 d43e 3081 0a3e af9e 5fbd 6d92 973e
000000f0: 85fd 00be 3f6a 623e 5206 57bd 2217 d5bd
00000100: 2284 c03d 63af d9be 8781 ebbd eaab b3be
00000110: d29f 01be a1d8 14be cf25 a6be e439 ca3d
00000120: d4c1 073e fff5 8c3e 38df cdbd 2e31 67be
00000130: 6fa4 44be 017d a93e d4a7 8ebe 6160 163e

linearD1.weight f4 [256, 10]
-0.15786512 0.31642967 -0.17936851 0.19883901 0.18214117 -0.103687845 0.14152569 -0.028431773
-0.23006767 0.21044093 0.33582616 0.34226146 -0.026541885 0.23635577 0.11330866 0.1410586
-0.24857481 -0.19293758 -0.13494357 0.02731581 0.1455701 -0.28403738 0.12543653 -0.056488667
-0.23565595 0.033901192 0.12698163 0.12105828 -0.03725459 -0.104034014 -0.24586748 0.10526869
-0.012836956 0.2540981 -0.14204422 -0.10419965 0.10105693 -0.201 0.104917414 0.263829
0.27757335 0.22209392 -0.37657422 -0.14986762 0.0068405964 -0.34690347 0.14959334 0.005915031
0.12721169 0.10346645 0.12165038 -0.13177882 0.2114528 -0.14065245 0.1340422 0.3164814
-0.26643074 0.25437433 -0.027443837 0.16780883 0.33597332 -0.20692003 0.071853526 -0.06524114
0.06453697 0.24647751 0.2987854 -0.33072117 0.064967185 0.065843105 0.30630538 -0.18749097
0.10895611 -0.019384084 -0.29529688 0.060075227 -0.27879697 -0.21338785 -0.25613344 -0.19240385
0.06547757 0.14824657 -0.18533912 -0.14690916 -0.25728387 0.21394253 0.2858725 0.3876382
-0.0004864142 -0.019616827 0.3236373 -0.111125275 -0.30170894 -0.07311738 -0.21587908 0.3492874
0.16004962 -0.32028612 -0.23880708 -0.1017691 -0.1576991 -0.15849364 -0.11385949 -0.09657448
0.08470965 -0.34193757 0.13741507 0.110576145 0.07108611 0.31038535 -0.19393732 -0.14354877
0.25487497 0.08460918 -0.088919505 0.08103921 -0.3108618 0.12671915 -0.00057755277 -0.12905976
0.33290187 -0.1922677 0.27278787 -0.35064176 -0.29982 -0.17989658 -0.13074999 0.11629197
0.04842827 0.3357315 0.21768732 0.072407685 -0.20521365 -0.17168833 0.14867304 -0.2752661
0.08802552 0.03887744 0.05346136 0.014088351 0.04934592 0.065798976 0.34197345 -0.25744265
0.12838583 0.29601452 -0.28909436 -0.22035657 -0.058754005 0.07769684 -0.21389379 -0.14391883
0.15328746 -0.19344261 0.035940114 0.09967087 0.15928711 -0.081150815 0.37912652 -0.12953709
0.35658756 -0.0762573 0.09944306 0.14546749 0.186736 -0.28127274 0.14855982 0.3942505
-0.13753216 -0.106434695 0.20719801 0.3965866 -0.23625256 0.12863308 0.04115991 0.2148322
-0.12607881 -0.027628895 0.046105072 0.16962534 0.13046737 0.022108471 0.22753678 0.013517383
0.21060356 -0.27301997 -0.020210266 -0.26501992 -0.22920184 0.036407106 -0.21566077 0.20123562
-0.18009654 0.2477523 0.025347736 0.1530823 -0.071571045 -0.2120464 -0.0033018058 -0.037592717
0.121243484 0.08341415 0.20011434 0.18938448 0.01250984 -0.12697613 -0.22640559 -0.20467994
0.28194836 -0.19040179 0.187462 0.2788239 0.29208037 -0.1515079 0.0068860375 -0.08612202
0.1606167 0.030831918 0.34230956 0.014241985 -0.050559346 -0.22961427 -0.07436436 -0.16966034
-0.16870658 0.19438654 0.20337215 0.2840183 -0.24206318 -0.09254504 -0.011524971 -0.26543504
0.14292377 0.17736217 -0.20940174 0.049705897 -0.04127618 -0.26789135 -0.06526648 -0.12780619
0.101800896 0.049572106 0.037395123 -0.25623256 -0.08457038 -0.44924447 -0.26386273 0.31445488
0.16683595 0.10245734 0.11071356 -0.016506175 -0.17816119 0.13331172 -0.2205697 -0.108543016
00000000: 65a7 21be 1203 a23e 61ac 37be 749c 4b3e
00000010: 3783 3a3e 4b5a d4bd 1cec 103e c0e9 e8bc
00000020: dc96 6bbe d47d 573e 68f1 ab3e e53c af3e
00000030: 5e6e d9bc 3f07 723e 5f0e e83d aa71 103e
00000040: 658a 7ebe 6e91 45be a62e 0abe 68c5 df3c
00000050: 5410 153e 596d 91be 6f72 003e a960 67bd
00000060: cb4f 71be fadb 0a3d 7907 023e 67ed f73d
00000070: 4598 18bd c90f d5bd afc4 7bbe 1c97 d73d
00000080: 1952 52bc 2519 823e 0a74 11be a066 d5bd
00000090: f0f6 ce3d f2d2 4dbe f1de d63d 9814 873e
000000a0: 181e 8e3e 976c 633e 56ce c0be e676 19be
000000b0: 1527 e03b 559d b1be ff2e 193e e0d2 c13b
000000c0: c843 023e 38e6 d33d d623 f93d 07f1 06be
000000d0: 1587 583e 3207 10be 5c42 093e da09 a23e
000000e0: 9c69 88be 5a3d 823e e6d1 e0bc 14d6 2b3e
000000f0: b204 ac3e d8e2 53be f127 933d 269d 85bd
00000100: f52b 843d 9a64 7c3e 66fa 983e 4954 a9be
00000110: 840d 853d c0d8 863d 0fd4 9c3e a2fd 3fbe
00000120: 6224 df3d 5fcb 9ebc 2731 97be 7111 763d
00000130: 7abe 8ebe 5882 5abe ec23 83be 8405 45be
00000140: 1b19 863d f3cd 173e 8ac9 3dbe 5b6f 16be
00000150: b6ba 83be c013 5b3e e15d 923e 8478 c63e
00000160: 6905 ffb9 78b3 a0bc cab3 a53e a695 e3bd
00000170: 9879 9abe 91be 95bd 680f 5dbe ccd5 b23e
00000180: 0ce4 233e 8bfc a3be d889 74be 516c d0bd
00000190: df7b 21be 284c 22be 2a2f e9bd d7c8 c5bd
000001a0: 417c ad3d 7112 afbe 89b6 0c3e bf75 e23d
000001b0: 9895 913d d4ea 9e3e 8197 46be 73fe 12be
000001c0: f97e 823e 9447 ad3d 6e1b b6bd e3f7 a53d
000001d0: 4729 9fbe aac2 013e e966 17ba 3e28 04be
000001e0: 1d72 aa3e d3e1 44be daaa 8b3e 5187 b3be
000001f0: 0282 99be cf36 38be 53e3 05be 7c2a ee3d
00000200: b95c 463d 00e5 ab3e 6de9 5e3e 7b4a 943d
00000210: 8723 52be 11cf 2fbe bf3d 183e aeef 8cbe
00000220: b946 b43d f33d 1f3d 4dfa 5a3d d4d2 663c
00000230: f31e 4a3d 9dc1 863d 2517 af3e 86cf 83be
00000240: 9377 033e 378f 973e 2d04 94be 27a5 61be
00000250: 0aa8 70bd 851f 9f3d f906 5bbe 755f 13be
00000260: 63f7 1c3e d215 46be f135 133d 3e20 cc3d
00000270: 291c 233e 6632 a6bd df1c c23e 5fa5 04be
00000280: a592 b63e ca2c 9cbd cea8 cb3d 6ef5 143e
00000290: b937 3f3e fb02 90be 1120 183e 34db c93e
000002a0: 3bd5 0cbe 6ffa d9bd b72b 543e 660d cb3e
000002b0: 31ec 71be 64b8 033e 4b97 283d f9fc 5b3e
000002c0: ce1a 01be fe55 e2bc acd8 3c3d 44b2 2d3e
000002d0: 3d99 053e d31c b53c 67ff 683e 0378 5d3c
000002e0: 76a8 573e 46c9 8bbe 0090 a5bc b1b0 87be
000002f0: e3b3 6abe 9e1f 153d 2dd6 5cbe b610 4e3e
00000300: 3a6b 38be c7b2 7d3e 0ea6 cf3c 9bc1 1c3e
00000310: d793 92bd b122 59be 1c63 58bb d2fa 19bd
00000320: 814e f83d 0ad5 aa3d c6ea 4c3e 01ee 413e
00000330: 12f6 4c3c 0806 02be ded6 67be 9e97 51be
00000340: 895b 903e b0f8 42be 0af6 3f3e 02c2 8e3e
00000350: 8f8b 953e e324 1bbe 45a4 e13b be60 b0bd
00000360: b478 243e 3893 fc3c 3343 af3e 3757 693c
00000370: 5117 4fbd 0120 6bbe 574c 98bd 71bb 2dbe
00000380: 6bc1 2cbe 440d 473e ca40 503e d96a 913e
00000390: 69df 77be 4188 bdbd 3bd3 3cbc 1ae7 87be
000003a0: 9c5a 123e 6e9e 353e 696d 56be 6998 4b3d
000003b0: 3611 29bd 0e29 89be 6faa 85bd a0df 02be
000003c0: fd7c d03d 1f0c 4b3d a12b 193d ea30 83be
000003d0: 3c33 adbd 5f03 e6be 0419 87be 3b00 a13e
000003e0: 0bd7 2a3e 27d5 d13d cabd e23d f537 87bc
000003f0: e36f 36be de82 083e 06dd 61be cd4b debd

linearD1.bias f4 [256]
-0.12145995 -0.049130727 -0.22818719 -0.20940065 0.29564357 0.21375792 -0.2521659 0.259313
-0.25203544 -0.10493941 -0.25120574 -0.18971848 -0.29334068 0.26323783 0.120853476 0.03538722
-0.16209024 0.20342605 -0.0072857435 0.1637911 -0.07225437 0.020702124 0.069940664 -0.276966
-0.24903756 0.25176919 0.24756102 -0.09251402 -0.18555252 -0.22457403 -0.03060019 0.1463623
-0.26838294 0.29308948 -0.29169807 -0.24702947 0.22181465 -0.10612417 0.07868037 0.32068545
0.26460657 -0.2253474 -0.16392846 -0.30280215 0.0514408 -0.092879176 0.09272215 0.27899358
-0.03064307 -0.12767006 -0.10644231 -0.2995912 -0.117477044 0.030303305 -0.098635815 0.13651742
-0.10955711 0.18143149 -0.03129054 -0.15160646 -0.032214027 -0.18305942 0.23980577 -0.21546687
-0.053209383 -0.15359586 -0.2999736 0.18695663 -0.0661993 -0.050855633 -0.10345501 -0.047487188
0.09432035 -0.20747942 -0.24672227 0.10085749 0.1965778 -0.16987468 0.13320597 -0.08741154
-0.05827788 -0.15589733 -0.057022505 -0.27522275 -0.20821194 -0.29397407 0.05360064 0.31828865
-0.046573665 -0.13701005 0.21926977 -0.020044437 0.04187965 -0.14471112 0.2594359 -0.24392903
-0.14535601 0.2756287 -0.08166387 0.12567471 -0.056665536 -0.25099263 -0.052794103 0.05101074
-0.035554457 -0.27196646 -0.08477228 0.30142003 0.123972334 -0.26111102 -0.029413635 0.099280074
0.1050278 0.022921806 -0.2182725 0.28251845 -0.2729837 0.23056094 -0.14676352 -0.27315658
0.122831814 -0.24734612 0.23196776 -0.104532294 0.21887557 -0.12891324 -0.22430651 0.017092004
-0.025985563 0.038058553 -0.165478 -0.14131129 0.095148526 0.22364414 -0.18443523 0.049032383
-0.18896015 0.040484425 -0.036515262 0.15698384 0.14741576 -0.24390812 -0.08712957 0.025900552
-0.019352231 0.027611077 -0.0811314 -0.16213585 -0.17266668 -0.07372125 0.00029719825 0.10118799
-0.071936145 0.12700595 0.22121917 0.18104802 -0.060209937 0.07895802 0.31541607 0.10914026
-0.10376221 -0.18076017 0.24166216 -0.018645732 -0.13085058 0.008349943 -0.2645649 0.17299531
-0.16722538 0.005817127 -0.08996316 0.15029098 0.29763222 -0.24240981 0.14280052 -0.014931853
-0.190892 -0.034148563 0.27415192 -0.30816767 0.28904614 0.18735345 0.020537795 -0.2589729
-0.23365869 -0.13978657 -0.24414022 -0.288427 -0.25786337 0.03870252 0.13936788 -0.058035567
0.22644266 -0.013956424 -0.15378365 -0.24320109 0.17332476 -0.26470503 -0.23346117 -0.02157192
-0.2800046 0.016223019 0.014977811 -0.24697131 -0.11852662 0.25039372 -0.24856739 -0.24105841
0.13681814 -0.24168898 0.039358232 -0.059808414 0.070267074 0.050632406 0.18541566 0.09237037
-0.17801155 -0.079392016 -0.22218007 -0.12771006 0.17383803 -0.30812818 -0.107449405 -0.035348732
-0.09625586 -0.26762298 0.25740403 -0.16808419 0.018930735 0.021724615 -0.29743016 0.13924934
-0.27201584 -0.270784 0.191504 0.2826809 -0.05285779 -0.2176591 -0.18897961 -0.17447379
-0.107449174 0.12461618 -0.025742197 0.21283981 0.22736205 -0.109759234 -0.3248781 0.14984348
-0.280589 -0.018331546 0.25273526 -0.024566615 0.06833197 -0.14807682 0.037527855 0.117324255
00000000: ffbf f8bd 4d3d 49bd e7a9 69be 206d 56be
00000010: 985e 973e 5be3 5a3e e41b 81be acc4 843e
00000020: ca0a 81be 79ea d6bd 0a9e 80be 9045 42be
00000030: c030 96be 1cc7 863e 0782 f73d 31f2 103d
00000040: fcfa 25be eb4e 503e 3fbd eebb dbb8 273e
00000050: 19fa 93bd 8097 a93c 0d3d 8f3d 7dce 8dbe
00000060: b403 7fbe e4e7 803e a380 7d3e fe77 bdbd
00000070: 7b01 3ebe bcf6 65be 40ad fabc 00e0 153e
00000080: 7d69 89be d30f 963e 7359 95be 4bf5 7cbe
00000090: 6123 633e a157 d9bd 2c23 a13d e230 a43e
000000a0: 837a 873e 78c1 66be dddc 27be e208 9bbe
000000b0: 97b3 523d 7037 bebd 1ce5 bd3d 3fd8 8e3e
000000c0: 2d07 fbbc f1bb 02be 6dfe d9bd 0564 99be
000000d0: ce97 f0bd a33e f83c 9301 cabd 39cb 0b3e
000000e0: 7a5f e0bd 2dc9 393e 822a 00bd b93e 1bbe
000000f0: dbf2 03bd ee73 3bbe a58f 753e 59a3 5cbe
00000100: 15f2 59bd 3c48 1dbe 2496 99be 8f71 3f3e
00000110: 8093 87bd ff4d 50bd 38e0 d3bd ed81 42bd
00000120: 072b c13d 7c75 54be c3a4 7cbe 5f8e ce3d
00000130: b14b 493e a1f3 2dbe 2567 083e d204 b3bd
00000140: c9b4 6ebd 8da3 1fbe 6e90 69bd ffe9 8cbe
00000150: 8335 55be c583 96be 588c 5b3d bbf6 a23e
00000160: 07c4 3ebd 5d4c 0cbe 4188 603e 3b34 a4bc
00000170: ff89 2b3d 272f 14be c8d4 843e 88c8 79be
00000180: 35d8 14be 341f 8d3e 633f a7bd dfb0 003e
00000190: 1f1a 68bd 1b82 80be a13e 58bd a3f0 503d
000001a0: 8da1 11bd 303f 8bbe 179d adbd ba53 9a3e
000001b0: 35e5 fd3d 58b0 85be ddf4 f0bc 5a53 cb3d
000001c0: d118 d73d 83c6 bb3c d482 5fbe 42a6 903e
000001d0: 85c4 8bbe 2b18 6c3e 2d49 16be 2edb 8bbe
000001e0: 3f8f fb3d 4d48 7dbe f588 6d3e 0715 d6bd
000001f0: eb20 603e d501 04be 9bb0 65be 8804 8c3c
00000200: addf d4bc 49e3 1b3d 1173 29be e8b3 10be
00000210: 3bdd c23d f802 653e 97dc 3cbe 2ed6 483d
00000220: c57e 41be ffd2 253d 0791 15bd 5fc0 203e
00000230: 28f4 163e 0dc3 79be fd70 b2bd 652d d43c
00000240: 9288 9ebc a030 e23c 3828 a6bd f106 26be
00000250: 89cf 30be 2bfb 96bd 46d1 9b39 a63b cf3d
00000260: 4253 93bd d90d 023e 4787 623e a764 393e
00000270: b29e 76bd beb4 a13d 377e a13e ee84 df3d
00000280: 4881 d4bd 3219 39be 4976 773e efbe 98bc
00000290: b2fd 05be 33ce 083c 0d75 87be af25 313e
000002a0: 213d 2bbe 999d be3b 9b3e b8bd e1e5 193e
000002b0: 4063 983e 473a 78be 4d3a 123e bba4 74bc
000002c0: 3179 43be 5ddf 0bbd a45d 8c3e 27c8 9dbe
000002d0: dbfd 933e 95d9 3f3e e13e a83c 1998 84be
000002e0: 3944 6fbe 3624 0fbe e5ff 79be b4ac 93be
000002f0: ab06 84be 8986 1e3d 74b6 0e3e b4b6 6dbd
00000300: 96e0 673e 7ca9 64bc 7679 1dbe b509 79be
00000310: 0c7c 313e 6b87 87be 7210 6fbe 98b7 b0bc
00000320: c35c 8fbe 23e6 843c 7e65 753c 0ce6 7cbe
00000330: 16be f2bd 9b33 803e 7388 7ebe 04d8 76be
00000340: 0e1a 0c3e 517d 77be 1936 213d abf9 74bd
00000350: 2fe8 8f3d ed63 4f3d 9add 3d3e ad2c bd3d
00000360: a948 36be 4898 a2bd 2c83 63be 6dc6 02be
00000370: 9902 323e fac2 9dbe 6f0e dcbd d5c9 10bd
00000380: cb21 c5bd e105 89be 76ca 833e 431e 2cbe
00000390: a114 9b3c d2f7 b13c c448 98be 6197 0e3e
000003a0: a945 8bbe 33a4 8abe a019 443e 8dbb 903e
000003b0: 6981 58bd 07e2 5ebe df83 41be 42a9 32be
000003c0: 500e dcbd c536 ff3d 4de1 d2bc aef2 593e
000003d0: 99d1 683e 73c9 e0bd 6c56 a6be 9270 193e
000003e0: 5da9 8fbe 0a2c 96bc 8466 813e ed3f c9bc
000003f0: a2f1 8b3d 73a1 17be cfb6 193d b347 f03d

linearK2.weight f4 [10, 256]
0.10122918 0.03426924 0.0013084791 0.054383043 -0.078437 -0.039117303 0.0015070774 -0.082558386
0.032715376 -0.093771406 0.0924437 0.07040219 0.053043947 -0.10643796 0.08312271 0.018302761
-0.015924595 -0.034627944 -0.04366439 -0.019062353 0.10091528 0.015167306 -0.09973852 0.021643627
0.07689235 -0.10706554 0.012497892 0.08117098 0.037045255 0.019178329 -0.024510223 -0.06859267
0.094623625 -0.035279803 0.06285476 0.11468716 0.041769072 0.0824144 -0.14656545 -0.035948735
-0.039599214 0.0010647451 0.12483782 0.07203254 0.08545578 0.06822999 -0.03977542 -0.06527592
-0.022185888 0.13852613 0.07383403 0.103882544 -0.03690321 0.02584352 -0.13045569 -0.05206159
-0.023981493 -0.080807455 0.12134352 -0.044938654 -0.06839505 0.08988931 -0.07718946 0.083965465
-0.041570038 -0.026338656 0.07183382 -0.07198856 -0.12760535 -0.074311875 0.008424076 0.004926592
-0.04487164 0.092657045 0.043605924 -0.06265041 -0.006934878 0.011845432 0.031123098 0.05403092
-0.0057148547 0.08161523 -0.028173005 0.03589135 0.11026434 0.057761334 -0.1468629 -0.0038242557
0.049468666 0.09767398 -0.093886375 -0.037382416 -0.09554192 0.08210736 -0.039272618 0.09176302
0.0032696957 -0.07421345 -0.009564463 -0.012221723 0.016892606 0.06460058 0.0006031126 0.08373636
-0.053178586 0.08284543 0.12476033 -0.049024057 0.011640399 0.04904975 0.0027773052 -0.019853916
0.029888408 -0.027861908 0.05125633 -0.0013642958 0.098355725 0.02906756 0.05520065 -0.01012165
0.0018894332 -0.029520875 0.011348733 0.037455678 -0.05123513 0.053412784 0.08608445 -0.06144394
0.14743431 -0.01725085 0.07383509 0.11187433 -0.0033671048 -0.073604666 0.02556382 0.05082492
0.045452625 -0.0021596188 -0.05176726 0.0002584466 0.01603845 -0.01677627 0.1281827 0.02017403
0.091451876 -0.10438179 0.05590336 0.03177679 0.013074839 0.019357545 -0.0041553397 0.020608757
-0.053623952 -0.043338973 0.013095636 -0.064362556 -0.037885297 0.0348132 -0.042248514 0.011091764
0.040031485 0.08980482 -0.040592138 0.1421127 -0.123127684 0.057481553 0.10951904 -0.09704461
0.089824736 0.060678747 -0.045377515 0.05568985 -0.0963155 0.106502384 -0.033529613 0.10042401
-0.0038033037 -0.09486529 -0.05044079 0.036104787 -0.092539765 -0.115061656 0.027205095 0.03257642
0.03426385 0.025311697 0.03520894 -0.005255188 0.022587944 -0.025686212 -0.11741319 -0.055360287
-0.042927373 0.026210401 -0.012304738 -0.017183479 -0.05420532 0.06957292 0.11002412 -0.001852524
0.04270326 0.021478677 -0.0027155296 -0.0014302447 0.00946035 -0.078825496 0.09814271 0.07728509
0.01995346 0.07193979 -0.040955525 -0.08715325 0.0914063 -0.050863188 -0.09178405 -0.06857475
-0.050533243 -0.050329998 -0.14397013 0.042910513 -0.051845863 0.07381664 -0.0002725535 0.16077416
0.051170133 -0.058846682 -0.08388815 0.054661017 0.098765425 0.08897487 0.07974322 -0.12141477
0.036388304 -0.0015188637 -0.0397072 -0.11457571 -0.017197331 0.022341317 -0.0073973523 0.10851579
-0.037726548 -0.005674525 -0.09049497 -0.0494453 -0.012858344 -0.034790725 0.04561577 -0.107425556
0.0146056 -0.057863835 -0.08570923 0.05176693 0.055793304 0.03090098 0.0063700355 -0.05130042
00000000: 3f51 cf3d e75d 0c3d 4681 ab3a c1c0 5e3d
00000010: 94a3 a0bd 7739 20bd 2089 c53a 5f14 a9bd
00000020: 8f00 063d 390b c0bd 1f53 bd3d 062f 903d
00000030: 9c44 593d 25fc d9bd 3d3c aa3d acef 953c
00000040: 4c74 82bc 08d6 0dbd 6ed9 32bd a728 9cbc
00000050: acac ce3d 4b80 783c b643 ccbd fa4d b13c
00000060: bd79 9d3d 2e45 dbbd f5c3 4c3c f93c a63d
00000070: c4bc 173d df1b 9d3c aac9 c8bc 507a 8cbd
00000080: 08ca c13d 8e81 10bd ffb9 803d 1ae1 ea3d
00000090: 0c16 2b3d e2c8 a83d 4115 16be fb3e 13bd
000000a0: c932 22bd eb8e 8b3a f9aa ff3d cc85 933d
000000b0: 7103 af3d 2abc 8b3d 8deb 22bd 62af 85bd
000000c0: 2ebf b5bc cbd9 0d3e 4c36 973d 5fc0 d43d
000000d0: d227 17bd cab5 d33c 2d96 05be 893e 55bd
000000e0: d674 c4bc 617e a5bd f482 f83d 9811 38bd
000000f0: b412 8cbd e317 b83d 8215 9ebd 16f6 ab3d
00000100: 5845 2abd 2ac4 d7bc 9c1d 933d bd6e 93bd
00000110: faaa 02be d330 98bd 2305 0a3c 406f a13b
00000120: 53cb 37bd fac2 bd3d 209c 323d dc4e 80bd
00000130: f93d e3bb 5813 423c def5 fe3c 874f 5d3d
00000140: ad43 bbbb e325 a73d 13cb e6bc cf02 133d
00000150: 45d2 e13d 2697 6c3d 3a63 16be 5da0 7abb
00000160: a89f 4a3d 4c09 c83d 8047 c0bd 4e1e 19bd
00000170: 7bab c3bd e727 a83d 53dc 20bd 40ee bb3d
00000180: 6448 563b 39fd 97bd 44b4 1cbc 9f3d 48bc
00000190: 5d62 8a3c 4f4d 843d 341a 1e3a f87d ab3d
000001a0: cad1 59bd ddaa a93d 5882 ff3d 73cd 48bd
000001b0: 5fb7 3e3c 64e8 483d 7303 363b aea4 a2bc
000001c0: 89d8 f43c a83e e4bc 28f2 513d 2cd2 b2ba
000001d0: ba6e c93d 171f ee3c 141a 623d 47d5 25bc
000001e0: dca6 f73a c3d5 f1bc 09f0 393c 206b 193d
000001f0: eddb 51bd 5dc7 5a3d 0b4d b03d a4ac 7bbd
00000200: 05f9 163e a851 8dbc da36 973d 5e1e e53d
00000210: a5aa 5cbb 0bbe 96bd 376b d13c cb2d 503d
00000220: 882c 3a3d 6488 0dbb e809 54bd 1e80 8739
00000230: 1163 833c 636e 89bc 5342 033e 0244 a53c
00000240: 1f4b bb3d 1fc6 d5bd ecfa 643d 6128 023d
00000250: d937 563c b793 9e3c 8429 88bb b2d3 a83c
00000260: caa4 5bbd 3584 31bd 148f 563c 84d0 83bd
00000270: 9d2d 1bbd 4998 0e3d c70c 2dbd 3bba 353c
00000280: 0ef8 233d 97eb b73d f143 26bd fe85 113e
00000290: 5e2a fcbd c771 6b3d 854b e03d 53bf c6bd
000002a0: 08f6 b73d 478a 783d c6dd 39bd 0a1b 643d
000002b0: 1041 c5bd ec1d da3d 5956 09bd 1aab cd3d
000002c0: d940 79bb bc48 c2bd 009b 4ebd 9de2 133d
000002d0: 7d85 bdbd 72a5 ebbd 38dd de3c da6e 053d
000002e0: 4058 0c3d 7a5a cf3c 4037 103d b633 acbb
000002f0: 5a0a b93c e46b d2bc 5476 f0bd 78c1 62bd
00000300: 9dd4 2fbd 32b7 d63c d099 49bc 5ec4 8cbc
00000310: 6606 5ebd 3f7c 8e3d 5354 e13d 64d0 f2ba
00000320: 9de9 2e3d 0df4 af3c 07f7 31bb 0c77 bbba
00000330: 95ff 1a3c 436f a1bd 0cff c83d a547 9e3d
00000340: 7075 a33c 2b55 933d fbc0 27bd 677d b2bd
00000350: 3a33 bb3d eb55 50bd 47f9 bbbd eb70 8cbd
00000360: f2fb 4ebd d426 4ebd e86c 13be efc2 2f3d
00000370: 545c 54bd 2e2d 973d 83e5 8eb9 fba1 243e
00000380: c697 513d 3809 71bd 8dcd abbd 3be4 5f3d
00000390: 8745 ca3d 7538 b63d 6a50 a33d 4fa8 f8bd
000003a0: e70b 153d 9c14 c7ba 04a4 22bd aba6 eabd
000003b0: 6be1 8cbc 2305 b73c 7d65 f2bb 873d de3d
000003c0: 2787 1abd 5ef1 b9bb 6d55 b9bd 2887 4abd
000003d0: ceab 52bc b880 0ebd 9ad7 3a3d ee01 dcbd
000003e0: 544c 6f3c a102 6dbd 5288 afbd 8f09 543d
000003f0: 8587 643d 0d24 fd3c bbbb d03b 6420 52bd

linearD2.weight f4 [256, 10]
0.3532494 -0.15037572 -0.2890501 -0.119133666 -0.15968105 0.104493015 -0.1126773 -0.05911115
0.44507545 0.43217668 0.0419717 0.10774326 0.13137974 -0.11375938 -0.087652065 -0.14519717
0.084134825 -0.2398019 0.10078688 0.098036185 0.25189537 -0.031170113 -0.037058495 -0.014819697
0.0003311682 -0.082272775 0.026877772 0.15925312 0.34078524 0.05229538 0.25734684 -0.23649585
0.20689303 0.08801569 0.076160215 0.34066316 0.09820754 -0.13084565 0.14323278 -0.25209826
-0.028836677 -0.053865634 -0.0011819361 -0.17884411 -0.066318534 0.058636848 -0.0055778855 -0.21622881
-0.22407131 0.18374844 0.21972601 0.174057 0.18953815 0.08749687 -0.21817222 -0.2330457
-0.047698833 0.038880266 0.12380793 0.06380317 -0.18289904 -0.06318988 -0.012573713 0.026616786
0.029165788 -0.14007859 0.047167502 0.16881059 -0.09808744 -0.05876276 0.027293721 0.23216328
0.36542484 0.25162286 0.08113497 -0.26072532 0.0780934 -0.20238884 0.22996062 -0.3125129
0.25341144 0.21425387 0.12455267 0.09491598 0.18937698 -0.06589151 0.249013 0.07465347
-0.20988853 0.088579655 -0.24362968 0.07393842 -0.13443372 0.2251403 -0.09198356 -0.054021675
0.15583043 0.05505044 0.20302092 0.34226376 -0.3613009 0.16024017 0.3551813 -0.11760204
-0.0330096 -0.15253903 -0.044545673 0.087095335 0.23040344 0.18466651 0.18724133 0.109552234
0.2173533 -0.3125082 0.1841142 0.16902164 -0.034259662 -0.16872752 -0.13906665 0.25487405
-0.2766952 0.41443983 0.3263206 -0.11984338 -0.012385079 -0.14174134 0.049045507 0.1527776
-0.20456693 -0.2954093 0.061927717 0.23861107 0.1294679 -0.10843781 -0.14591919 -0.11483996
-0.024484146 0.31209928 -0.10009036 -0.0897904 0.1188641 -0.055406116 0.049923982 0.050263762
0.28250912 -0.10287966 0.0028667788 -0.13793305 -0.18500642 -0.2341094 -0.17577614 -0.04513734
-0.07211174 0.14552805 0.044640303 -0.17585544 -0.01853733 -0.093065575 -0.15041216 0.06740186
-0.10010834 -0.07185534 -0.1309943 0.31040633 0.28463042 0.18760717 -0.25356567 0.10613449
-0.05943703 -0.14500187 0.27218133 0.18824817 0.25852832 -0.3402495 0.0933076 -0.11091091
-0.028664045 -0.070231214 -0.2636414 0.29824448 0.009022667 -0.12628354 -0.25356308 0.04856286
-0.17333736 -0.15421358 -0.16185898 0.031273894 0.29956242 0.1603283 0.33154693 0.015344681
0.0021408391 -0.08408875 -0.22642547 0.22799005 -0.2848764 0.30132198 0.2997378 0.14935689
0.24611044 -0.13005169 -0.5135541 -0.0704525 -0.572629 0.37168434 0.419831 -0.16498396
-0.17626528 0.4534966 -0.050299473 -0.11792906 0.22186512 0.026807668 -0.20322666 -0.15606095
0.02452146 0.2896934 0.10027693 0.289488 -0.12908334 -0.0020223819 -0.2417922 -0.17669727
0.099976644 0.066403516 -0.24144009 -0.11219378 0.21683158 -0.2224615 -0.051353656 0.16686143
0.122278154 0.36143225 0.19793212 -0.13175085 0.1574755 -0.09015391 -0.1479294 -0.16050428
0.10495606 0.054119084 0.14111 -0.04952059 -0.15292841 -0.18704061 -0.1312795 -0.23402289
0.20766516 0.06554225 0.29205894 -0.18939325 -0.18977815 0.12585849 -0.114847966 -0.18752058
00000000: 1bdd b43e 18fc 19be 60fe 93be 5afc f3bd
00000010: 6e83 23be 6f00 d63d 5bc3 e6bd 891e 72bd
00000020: eee0 e33e 4346 dd3e 84ea 2b3d 80a8 dc3d
00000030: 6988 063e aefa e8bd ed82 b3bd 91ae 14be
00000040: e14e ac3d a18e 75be 5a69 ce3d 32c7 c83d
00000050: 6ef8 803e 7758 ffbc a6ca 17bd 50ce 72bc
00000060: a5a0 ad39 a17e a8bd c62e dc3c 4013 233e
00000070: 677b ae3e ae33 563d f7c2 833e f82b 72be
00000080: c4db 533e 9241 b43d e3f9 9b3d 676b ae3e
00000090: 0921 c93d 67fc 05be 9dab 123e 0613 81be
000000a0: e53a ecbc 36a2 5cbd 32eb 9aba e922 37be
000000b0: 03d2 87bd 312d 703d b2c6 b6bb 166b 5dbe
000000c0: f372 65be 8d28 3c3e dbff 603e 003c 323e
000000d0: 4a16 423e 8f31 b33d 8a68 5fbe 88a3 6ebe
000000e0: da5f 43bd ea40 1f3d 038f fd3d 3dab 823d
000000f0: e349 3bbe b269 81bd fa01 4ebc 720b da3c
00000100: 17ed ee3c c370 0fbe b632 413d afdc 2c3e
00000110: 11e2 c8bd 38b1 70bd 1597 df3c 36bc 6d3e
00000120: f718 bb3e b6d4 803e 172a a63d ca7d 85be
00000130: 6fef 9f3d 053f 4fbe cc7a 6b3e b101 a0be
00000140: 25bf 813e 5e65 5b3e 7815 ff3d 4f63 c23d
00000150: 0aec 413e 21f2 86bd 44fd 7e3e ebe3 983d
00000160: 05ed 56be 4069 b53d 0f7a 79be 076d 973d
00000170: fea8 09be 2e8b 663e e061 bcbd d545 5dbd
00000180: 0392 1f3e 927c 613d b7e4 4f3e 323d af3e
00000190: 6efc b8be 0016 243e 53da b53e 57d9 f0bd
000001a0: 1335 07bd 3133 1cbe 8675 36bd 0a5f b23d
000001b0: e1ee 6b3e 3819 3d3e 31bc 3f3e ec5c e03d
000001c0: dd91 5e3e 1301 a0be 6f88 3c3e 0214 2d3e
000001d0: dc53 0cbd e8c6 2cbe 7d67 0ebe da7e 823e
000001e0: feaa 8dbe 7531 d43e 7e13 a73e 7270 f5bd
000001f0: c9ea 4abc a424 11be f1e3 483d bb71 1c3e
00000200: fe79 51be e33f 97be eba7 7d3d 7656 743e
00000210: 3c93 043e a414 debd d76b 15be 3731 ebbd
00000220: fa92 c8bc 7acb 9f3e 2dfc ccbd 07e4 b7bd
00000230: 056f f33d 86f1 62bd 177d 4c3d 60e1 4d3d
00000240: 09a5 903e 92b2 d2bd 91e0 3b3b 523e 0dbe
00000250: 5372 3dbe 60ba 6fbe a9fe 33be eee1 38bd
00000260: 52af 93bd 4e05 153e c0d8 363d 7313 34be
00000270: 99db 97bc 2a99 bebd a505 1abe fd09 8a3d
00000280: 9a05 cdbd e428 93bd 5f23 06be 94ed 9e3e
00000290: 14bb 913e 181c 403e 5cd3 81be 0a5d d93d
000002a0: 3e74 73bd 5f7b 14be 5a5b 8b3e 21c4 403e
000002b0: d35d 843e 2f35 aebe 0e18 bf3d 4225 e3bd
000002c0: dcd0 eabc 62d5 8fbd 01fc 86be 80b3 983e
000002d0: cfd3 133c 7950 01be 05d3 81be d9e9 463d
000002e0: 597f 31be 2aea 1dbe 5cbe 25be 0e19 003d
000002f0: 3f60 993e 1a2d 243e 85c0 a93e 4268 7b3c
00000300: 524d 0c3b b936 acbd 14dc 67be 3976 693e
00000310: 52db 91be e046 9a3e 3c77 993e 03f1 183e
00000320: 6004 7c3e 452c 05be 4878 03bf 6649 90bd
00000330: d097 12bf 694d be3e 17f4 d63e 8ef1 28be
00000340: e37e 34be b530 e83e d206 4ebd ca84 f1bd
00000350: 9c30 633e c19b db3c a61a 50be 71ce 1fbe
00000360: 3be1 c83c b152 943e fe5d cd3d c537 943e
00000370: 6c2e 04be f089 04bb 6098 77be 21f0 34be
00000380: 8ec0 cc3d 91fe 873d 123c 77be dac5 e5bd
00000390: 1909 5e3e f3cc 63be 3658 52bd b9dd 2a3e
000003a0: f86c fa3d a60d b93e b8ae 4a3e b2e9 06be
000003b0: 4241 213e 9da2 b8bd ce7a 17be 3c5b 24be
000003c0: 34f3 d63d f9ab 5d3d 247f 103e 1ad6 4abd
000003d0: 4499 1cbe 9387 3fbe 226e 06be b2a3 6fbe
000003e0: 2da6 543e 043b 863d c088 953e 4ef0 41be
000003f0: 3455 42be 0ce1 003e 6935 ebbd 6505 40be

linearD2.bias f4 [256]
0.032385677 -0.119826734 -0.29587954 -0.019762073 0.13679549 0.29394352 -0.19133171 -0.2705331
0.24356379 0.14675733 -0.22304626 0.005848077 -0.13360132 0.24697287 -0.02436869 -0.21706186
-0.292486 -0.1134554 0.029098995 0.12014388 -0.08784162 0.15892096 -0.24944115 -0.1502434
0.1387996 0.021088555 0.22116518 0.0769577 -0.10074042 -0.3063514 0.1860569 -0.21284108
0.24084407 0.31581768 0.28250697 0.24898246 -0.16757762 -0.31210062 -0.027914157 -0.15774038
-0.12655897 -0.27156925 0.03976585 -0.23137248 0.009943332 0.026418235 -0.2868887 -0.28424603
-0.010284999 -0.07881504 0.28524116 -0.16123322 -0.24484597 0.1405995 -0.18268348 0.26025856
0.14935401 0.027617743 -0.13323049 0.014481957 -0.13515224 0.24316825 0.28062043 0.0051270896
-0.04136772 -0.14674477 0.1395937 -0.21973939 -0.19951417 -0.04053611 0.28909072 -0.30326912
-0.11106359 -0.08993267 0.11151626 0.2607285 -0.19615647 0.29594395 -0.038928088 -0.20205419
-0.060777172 0.059519965 -0.010324766 0.14790486 0.19334307 -0.11470506 0.26308787 -0.3478839
0.29716432 0.2280796 0.2612 0.007056719 -0.27795917 0.051768385 -0.01923062 -0.023315059
-0.26870155 0.053701203 -0.08241131 0.12285827 -0.26448938 -0.19988282 0.19385788 0.10477621
0.22585118 0.06108192 -0.21662071 -0.284174 -0.017332429 0.2497271 -0.18623678 -0.33642054
-0.20644131 -0.12182732 -0.16772528 0.21490341 -0.068418466 0.2010177 -0.317217 0.29733413
0.22674263 -0.3074858 0.23433554 0.19066136 0.039122548 -0.100712374 0.2418539 0.24113452
0.27553996 -0.106342874 0.069830246 0.0654659 0.055010695 -0.0030523734 -0.086873315 0.07884986
-0.19108185 0.041641533 0.018212933 0.21096668 -0.1752892 0.08684324 -0.12905014 -0.16218057
0.14655583 -0.2524689 0.20441943 0.14160293 0.21041812 0.013566456 0.18443765 -0.19051084
-0.18393306 0.27916563 0.027280372 0.1950982 -0.06252714 -0.31252408 0.03322048 -0.047792014
0.044606205 -0.19047639 0.15968582 -0.24797963 -0.020768417 0.056975983 -0.11873032 0.060141418
0.095205225 -0.28690112 0.010349601 0.038692534 -0.07816996 -0.27318355 -0.23710087 0.05246861
-0.055921856 0.0099211475 -0.17309098 0.251608 0.29108492 -0.25942808 -0.22497758 0.2750686
0.28654662 -0.16253807 -0.11041428 -0.16846818 0.05881286 0.19618607 0.288225 -0.30665374
-0.2787714 0.19118986 -0.2672179 0.1910771 0.05213855 0.2773943 -0.22103588 -0.18989852
0.26392603 0.23139417 0.018898781 -0.20180422 -0.28634313 0.085103534 0.07581645 0.10777909
0.3483347 0.2870864 -0.25885805 0.03524514 0.2078976 -0.24675705 0.027042154 -0.06122982
-0.22461177 0.24879216 0.25462684 -0.13613173 -0.30518898 -0.09768869 0.26949775 -0.0879136
-0.08655193 -0.23360685 0.11472004 -0.22051981 -0.19084351 -0.1862346 0.22500998 -0.1154478
0.18500307 0.037827544 0.19375786 -0.17083362 -0.25006425 0.27197224 0.115214534 -0.036500372
0.32329082 -0.2759171 0.04650336 -0.004099339 0.14187591 -0.02671651 0.025849033 -0.17498541
-0.21035482 0.09928665 -0.053220008 -0.15654634 0.20286033 -0.12877485 0.23820557 -0.25652838
00000000: d8a6 043d b867 f5bd 867d 97be 12e4 a1bc
00000010: 1e14 0c3e c47f 963e 76ec 43be 5183 8abe
00000020: c968 793e 8e47 163e 3d66 64be 3aa1 bf3b
00000030: c9ce 08be 75e6 7c3e d9a0 c7bc 7745 5ebe
00000040: bac0 95be 4e5b e8bd 0461 ee3c ff0d f63d
00000050: 4fe6 b3bd 2dbc 223e 806d 7fbe 68d9 19be
00000060: 7b21 0e3e e8c1 ac3c 2079 623e 009c 9d3d
00000070: fe50 cebd 17da 9cbe b385 3e3e 03f3 59be
00000080: d49f 763e dbb2 a13e c1a4 903e 42f5 7e3e
00000090: 7899 2bbe a7cb 9fbe 3bac e4bc b286 21be
000000a0: ad98 01be 200b 8bbe 84e1 223d e8ec 6cbe
000000b0: 5be9 223c 0e6b d83c 13e3 92be b288 91be
000000c0: 6a82 28bc c869 a1bd 210b 923e 521a 25be
000000d0: e7b8 7abe 51f9 0f3e 6111 3bbe 9c40 853e
000000e0: 42f0 183e 9b3e e23c 936d 08be bb45 6d3c
000000f0: 5965 0abe 1901 793e 7bad 8f3e 2501 a83b
00000100: 3371 29bd 4344 16be a7f1 0e3e 5d03 61be
00000110: 714d 4cbe 3109 26bd b303 943e 1746 9bbe
00000120: 4f75 e3bd 9f2e b8bd a362 e43d 357e 853e
00000130: 3edd 48be f785 973e 0f73 1fbd 4be7 4ebe
00000140: 7cf1 78bd 35cb 733d 3529 29bc 5f74 173e
00000150: bafb 453e 7dea eabd 74b3 863e d71d b2be
00000160: ec25 983e b38d 693e 02bc 853e 0d3c e73b
00000170: aa50 8ebe 160b 543d 8889 9dbc 39ff bebc
00000180: 4093 89be cbf5 5b3d 43c7 a8bd 1e9d fb3d
00000190: 276b 87be 15ae 4cbe ae82 463e e994 d63d
000001a0: 8845 673e 0931 7a3d d2d1 5dbe 417f 91be
000001b0: bdfc 8dbc 76b8 7f3e dbb4 3ebe 503f acbe
000001c0: 5a65 53be 9a80 f9bd 2dc0 2bbe a40f 5c3e
000001d0: fb1e 8cbd 95d7 4d3e 446a a2be 2e3c 983e
000001e0: 382f 683e c76e 9dbe a8f5 6f3e bb3c 433e
000001f0: f73e 203d 4a42 cebd 8ca8 773e f8eb 763e
00000200: 9313 8d3e 4bca d9bd 2903 8f3d fc12 863d
00000210: e552 613d 540a 48bb a3ea b1bd 097c a13d
00000220: f6aa 43be 5090 2a3d 4a33 953c a607 583e
00000230: 037f 33be deda b13d b825 04be aa12 26be
00000240: bb12 163e 9b43 81be 5453 513e 5c00 113e
00000250: d977 573e d745 5e3c 39dd 3c3e 4615 43be
00000260: f358 3cbe ccee 8e3e 167b df3c d3c7 473e
00000270: 3b0e 80bd 2803 a0be 3312 083d 8fc1 43bd
00000280: ffb4 363d 3e0c 43be ae84 233e 5fee 7dbe
00000290: 8722 aabc a65f 693d e228 f3bd d956 763d
000002a0: f5fa c23d b4e4 92be 5f91 293c 107c 1e3d
000002b0: 9217 a0bd b7de 8bbe 92ca 72be 53e9 563d
000002c0: 510e 65bd 4f8c 223c c33e 31be c4d2 803e
000002d0: 1509 953e c2d3 84be 8660 66be cbd5 8c3e
000002e0: 3db6 923e 6170 26be e220 e2bd ec82 2cbe
000002f0: c1e5 703d 00e5 483e 3a92 933e b801 9dbe
00000300: 20bb 8ebe 46c7 433e c9d0 88be b7a9 433e
00000310: 3b8f 553d a006 8e3e 3b57 62be c274 42be
00000320: 5021 873e 98f2 6c3e 9ed1 9a3c c4a5 4ebe
00000330: 919b 92be c34a ae3d a845 9b3d 49bb dc3d
00000340: ed58 b23e fdfc 923e 0b89 84be 355d 103d
00000350: 1ce3 543e e1ad 7cbe 8287 dd3c 1fcc 7abd
00000360: a100 66be 5fc3 7e3e 735e 823e 1e66 0bbe
00000370: bb41 9cbe 0211 c8bd 9cfb 893e 0c0c b4bd
00000380: 2342 b1bd a236 6fbe 57f2 ea3d f2cf 61be
00000390: 7b6c 43be 48b4 3ebe 0469 663e e56f ecbd
000003a0: 7271 3d3e 0ef1 1a3d 7668 463e 02ef 2ebe
000003b0: 6c08 80be f23f 8b3e 99f5 eb3d 6a81 15bd
000003c0: 6086 a53e 0245 8dbe 4f7a 3e3d bf53 86bb
000003d0: eb47 113e 95dc dabc 5ac1 d33c 602f 33be
000003e0: 4167 57be cd56 cb3d 39fd 59bd af4d 20be
000003f0: 9eba 4f3e 8edd 03be 29ec 733e b057 83be

linearK3.weight f4 [10, 256]
-0.058910612 -0.034335107 -0.054861665 -0.038979813 0.106980495 0.012803322 0.038273 -0.04262077
0.014801241 -0.003952736 -0.016222836 0.029826142 -0.07717265 -0.0546687 0.013634526 0.0023383233
0.03861399 0.024602076 0.022856409 -0.043040942 0.02158777 0.004590184 -0.028467372 0.0026874982
0.027105812 -0.054126687 0.022121692 0.08754248 0.013675734 0.009148285 0.005803372 0.014128474
0.05749548 0.015804641 0.09817652 0.029506378 0.035217024 -0.011267204 0.032347377 -0.023149356
-0.062178623 -0.0331255 -0.013712022 0.084127195 0.052763745 -0.037437838 -0.022765847 0.003081873
-0.036553804 -0.03452345 0.029307079 0.009867679 0.04791381 -0.06271292 0.026653213 0.054459024
0.011889569 0.039281156 0.023752637 -0.0389299 -0.018750986 0.01009014 -0.041640107 0.031518962
0.011349963 -0.022881446 0.07306936 -0.014804093 -0.11842522 0.01399859 -0.030405741 0.00481075
-0.009924961 -0.027653996 0.012437047 0.019014623 -0.13784802 0.016348863 0.015295321 0.05906223
-0.06247579 0.07705448 -0.013855865 0.019061178 -0.034428816 0.06724893 -0.06059807 -0.027049474
-0.03621821 0.022026265 0.014175065 0.03831554 0.035311915 0.005907521 0.0148771545 0.00071682694
0.022767156 -0.013700824 -0.0317921 -0.044896975 0.032505434 -0.07159415 -0.018972794 0.026597206
-0.07121759 -0.017282382 0.006357509 0.020745547 0.06203748 -0.034540627 -0.07810945 -0.0065113064
-0.036900386 -0.07325123 -0.047584016 -0.09223907 -0.050815683 0.04323452 -0.0575302 0.040234204
-0.11198754 0.063240334 0.12708808 -0.011911408 0.007293587 0.032885525 -0.06253655 -0.08406556
0.03203049 -0.02127787 0.062741354 -0.047994267 -0.013745302 0.009531635 -0.050376404 0.033736818
0.0062572835 0.021797966 0.04964299 -0.08219176 0.019907162 0.008158565 -0.05048916 -0.103566416
0.06763343 0.023531301 -0.037726313 -0.0929747 -0.062133282 -0.0039400286 0.02409083 -0.0034654187
-0.034439232 0.07768821 0.033753656 0.024115618 0.032176916 -0.0003398365 0.058738057 0.01358686
-0.019504944 -0.0013064919 0.06388058 -0.04260205 -0.023869134 -0.06711645 0.007465021 -0.026727747
-0.103278525 0.015423382 -0.068323985 -0.018882833 0.004109295 -0.08353016 -0.059708502 -0.051660646
-0.08774649 0.0039320965 0.006450003 0.064093746 -0.024325171 0.024263809 -0.066268146 0.0113237025
-0.04482456 -0.12645605 -0.022403257 -0.026378892 -0.030624783 -0.01190701 -0.03515715 -0.014683298
0.041743565 0.028484875 -0.009180956 -0.02990401 0.022233853 0.1085716 0.0773505 0.047841176
0.030735027 0.017488603 -0.043421887 0.006747879 0.030617975 0.061044414 0.06945866 -0.02447827
0.069286115 -0.026450727 0.012928483 -0.03058994 0.03876177 0.043997217 0.045332015 0.021524671
0.057200734 0.06139053 -0.05155652 -0.0670127 -0.0068284124 -0.019607415 0.03151633 -0.0075269663
-0.051731773 0.002946912 -0.07538577 0.010467297 0.012279501 -0.05252711 -0.05616047 -0.03174656
-0.059208177 -0.057761405 0.04893874 0.016837934 -0.017805368 0.0348894 0.03209137 -0.07213266
0.042412598 0.00892294 -0.06846431 0.01632359 -0.055949874 0.010843939 -0.03346642 -0.029344259
0.05820267 0.014605733 0.0072432873 0.025573993 0.012073046 -0.009542403 -0.022699203 -0.01905015
00000000: 414c 71bd f8a2 0cbd a0b6 60bd 4ca9 1fbd
00000010: 9718 db3d 06c5 513c 26c4 1c3d 1e93 2ebd
00000020: e880 723c f485 81bb c1e5 84bc f455 f43c
00000030: b20c 9ebd 49ec 5fbd 5963 5f3c 8e3e 193b
00000040: b429 1e3d 4b8a c93c 5d3d bb3c b34b 30bd
00000050: d6d8 b03c 4169 963b 6834 e9bc bd20 303b
00000060: 020d de3c f2b3 5dbd 8d38 b53c 7949 b33d
00000070: 3010 603c b0e2 153c 362a be3b 1d7b 673c
00000080: 6180 6b3d bc78 813c c510 c93d 5cb7 f13c
00000090: ba3f 103d 149a 38bc af7e 043d b8a3 bdbc
000000a0: 03af 7ebd 9bae 07bd 64a8 60bc e14a ac3d
000000b0: cc1e 583d 6b58 19bd 717f babc 40f9 493b
000000c0: 71b9 15bd 7668 0dbd 6615 f03c 0cac 213c
000000d0: 4541 443d a26f 80bd d757 da3c 6d10 5f3d
000000e0: 78cc 423c 47e5 203d e494 c23c f574 1fbd
000000f0: ab9b 99bc 1d51 253c d18e 2abd 071a 013d
00000100: 32f5 393c df71 bbbc 63a5 953d de8c 72bc
00000110: ec88 f2bd 585a 653c 7615 f9bc 7fa3 9d3b
00000120: 4e9c 22bc a28a e2bc c2c4 4b3c 8ec4 9b3c
00000130: 0828 0dbe 0dee 853c 3a99 7a3c 3deb 713d
00000140: 9de6 7fbd bdce 9d3d b603 63bc 3026 9c3c
00000150: 3b05 0dbd cfb9 893d af35 78bd dc96 ddbc
00000160: 8c59 14bd 6d70 b43c 883e 683c c1f0 1c3d
00000170: 3aa3 103d e193 c13b 4fbf 733c 71e9 3b3a
00000180: 3082 ba3c 6c79 60bc 6f38 02bd e4e5 37bd
00000190: 6b24 053d f49f 92bd d56c 9bbc 62e2 d93c
000001a0: 87da 91bd c893 8dbc a752 d03b 91f2 a93c
000001b0: 031b 7e3d 797a 0dbd d9f7 9fbd cc5c d5bb
000001c0: dc24 17bd be04 96bd 75e7 42bd d6e7 bcbd
000001d0: 1b24 50bd ae16 313d c9a4 6bbd 9fcc 243d
000001e0: b959 e5bd 2684 813d 6123 023e 1128 43bc
000001f0: 0bff ee3b f9b2 063d 2a13 80bd 902a acbd
00000200: 6732 033d ed4e aebc 8a7e 803d a395 44bd
00000210: fa33 61bc 932a 1c3c 7d57 4ebd 9e2f 0a3d
00000220: e609 cd3b a691 b23c 7356 4b3d 2754 a8bd
00000230: 5814 a33c 80ab 053c b9cd 4ebd a11a d4bd
00000240: 6583 8a3d b7c4 c03c e886 1abd 8569 bebd
00000250: 787f 7ebd 5b1b 81bb 225a c53c 141c 63bb
00000260: 2710 0dbd ff1a 9f3d 4641 0a3d 1e8e c53c
00000270: f1cb 033d 152c b2b9 5197 703d 6c9b 5e3c
00000280: d5c8 9fbc 983e abba d2d3 823d 7d7f 2ebd
00000290: 3489 c3bc 5974 89bd 239d f43b 26f4 dabc
000002a0: b183 d3bd 5ab2 7c3c 72ed 8bbd 2cb0 9abc
000002b0: 44a7 863b dc11 abbd e790 74bd 1d9a 53bd
000002c0: 6fb4 b3bd d1d8 803b 8c5a d33b 9543 833d
000002d0: 9545 c7bc e5c4 c63c 98b7 87bd 0d87 393c
000002e0: f599 37bd b27d 01be 0987 b7bc 8c18 d8bc
000002f0: d3e0 fabc 9f15 43bc f200 10bd 3792 70bc
00000300: 4dfb 2a3d 1d59 e93c b86b 16bc 41f9 f4bc
00000310: c523 b63c c95a de3d f069 9e3d 1cf5 433d
00000320: 06c8 fb3c 4244 8f3c 26db 31bd 501d dd3b
00000330: 8cd2 fa3c b509 7a3d 5840 8e3d a786 c8bc
00000340: e1e5 8d3d 32af d8bc fdd1 533c c197 fabc
00000350: a9c4 1e3d 6d36 343d 10ae 393d 8254 b03c
00000360: 514b 6a3d a374 7b3d ee2c 53bd f43d 89bd
00000370: e0c0 dfbb bb9f a0bc 4417 013d c5a4 f6bb
00000380: b2e4 53bd fb20 413b db63 9abd 077f 2b3c
00000390: f62f 493c ab26 57bd 8508 66bd ae08 02bd
000003a0: 4684 72bd 3997 6cbd fd73 483d b5ef 893c
000003b0: 90dc 91bc 30e8 0e3d 3e72 033d 4aba 93bd
000003c0: d5b8 2d3d 8631 123c 0437 8cbd 0db9 853c
000003d0: b22b 65bd c7aa 313c 1614 09bd 5f63 f0bc
000003e0: ec65 6e3d e24c 6f3c 1959 ed3b 8d80 d13c
000003f0: 06ce 453c bd57 1cbc aef3 b9bc 0f0f 9cbc

linearD3.weight f4 [6, 10]
-0.07972995 -0.26626793 -0.10123832 -0.19867815 0.041159105 -0.025993725 -0.27042764 -0.13268588
-0.059463315 0.07710986 0.11294953 -0.2688505 -0.22921395 0.2243849 -0.11112439 -0.14070094
-0.05945171 0.0738021 0.08658235 -0.24786834 -0.21556479 -0.042541593 0.15569994 -0.02876791
-0.12564056 -0.08432004 0.105087794 0.14272572 0.036137465 -0.004181537 -0.05692623 -0.00411023
-0.19795337 0.23467699 0.07134034 0.20682992 -0.18941891 0.026023094 0.00925987 0.14832327
-0.082659654 0.027394114 0.2167887 -0.011700604 0.07621227 0.021285538 -0.076814555 0.10631578
0.21676223 -0.20236203 0.020818925 -0.058089137 0.21296315 0.25582644 0.06935314 -0.054792486
-0.22381 -0.26015687 0.21378033 0.20619598
00000000: 7549 a3bd 4554 88be 0956 cfbd 4972 4bbe
00000010: 7396 283d cbf0 d4bc 7e75 8abe cfde 07be
00000020: ce8f 73bd c6eb 9d3d 1552 e73d c6a6 89be
00000030: 10b7 6abe 28c5 653e 2f95 e3bd e813 10be
00000040: a383 73bd 8e25 973d 1652 b13d 33d1 7dbe
00000050: 04bd 5cbe 1840 2ebd ce6f 1f3e aeaa ebbc
00000060: eba7 00be fcaf acbd 4538 d73d b126 123e
00000070: e104 143d 4605 89bb 7b2b 69bd 1caf 86bb
00000080: 4ab4 4abe 2a4f 703e e21a 923d 39cb 533e
00000090: 08f7 41be 622e d53c b6b6 173c 0ee2 173e
000000a0: 7749 a9bd 9f69 e03c dbfd 5d3e e4b3 3fbc
000000b0: 2e15 9c3d 025f ae3c f350 9dbd 16bc d93d
000000c0: ebf6 5d3e fe37 4fbe 738c aa3c e0ee 6dbd
000000d0: 0313 5a3e affb 823e 0509 8e3d 166e 60bd
000000e0: 732e 65be 4833 85be 3be9 5a3e 0a25 533e

linearD3.bias f4 [6]
-0.0038236948 -0.061703805 0.17824155 -0.121801764 0.2235273 0.039032985
00000000: f496 7abb 21bd 7cbd f484 363e 3473 f9bd
00000010: 57e4 643e 0de1 1f3d
