continous_state/pretrained/VE/VE14_128.pt (torch, 63552 bytes, 9 tensors)

linearK1.weight f4 [14, 8]
0.13835128 -0.25919765 -0.10032922 0.28019267 0.25985232 -0.019861465 0.17388122 -0.116487384
-0.18437183 0.037597325 0.13371016 0.34224623 0.15733261 0.22028482 0.23115051 0.11355511
0.16077024 -0.2449629 0.26144865 -0.28390294 0.012992826 0.34298515 -0.17022374 0.013008965
0.450404 0.10944062 0.07992871 0.06285859 -0.050876517 0.21280394 -0.2354635 0.34786248
-0.1738702 0.35773882 0.65533096 -0.1920888 0.107506335 -0.17030399 0.29023772 -0.044276237
-0.32746598 0.30124342 -0.116815664 -0.26045558 -0.30844617 0.09815916 0.10878611 0.373427
-0.1331391 0.05257367 -0.6708532 0.07190485 0.20523278 -0.3277356 -0.004186301 0.11893324
-0.07232921 0.1921701 -0.04295865 0.043676246 0.15835236 0.35278374 -0.13783115 -0.13077998
-0.45795646 0.04136982 -0.13022445 0.122083366 -0.107004315 0.23569289 -0.0479002 -0.019934237
-0.0039383024 -0.31045994 0.54663634 0.23048237 -0.009711909 -0.18786573 -0.31237915 0.33876538
0.08887168 -0.04283948 -0.48000467 -0.28412268 -0.11407018 0.054857947 -0.22423385 0.06453228
-0.31246594 0.3432641 -0.23610705 -0.14811213 0.18407477 0.11984826 -0.01149636 -0.06795779
-0.19843286 0.17992894 0.49279928 -0.23847328 0.31076065 0.18918517 0.1278044 0.09694854
0.076364085 -0.26408443 -0.19888483 -0.4020901 0.31700805 0.07851127 -0.020177713 0.11750062
00000000: f5ab 0d3e 8eb5 84be 6879 cdbd 6a75 8f3e
00000010: 5d0b 853e 83b4 a2bc eb0d 323e f090 eebd
00000020: f8cb 3cbe a7ff 193d 51eb 083e e63a af3e
00000030: cd1b 213e 5892 613e b8b2 6c3e 958f e83d
00000040: f4a0 243e 8ed7 7abe 99dc 853e ba5b 91be
00000050: dddf 543c c09b af3e 224f 2ebe 8e23 553c
00000060: 5a9b e63e 6722 e03d aab1 a33d 01bc 803d
00000070: e563 50bd 47e9 593e 581d 71be 081b b23e
00000080: 080b 32be 8b29 b73e c5c3 273f edb2 44be
00000090: 482c dc3d 2b64 2ebe 0a9a 943e 005b 35bd
000000a0: 9fa9 a7be 943c 9a3e 0d3d efbd 6f5a 85be
000000b0: a8ec 9dbe ab07 c93d 41cb de3d d331 bf3e
000000c0: 9e55 08be 7d57 573d 09bd 2bbf da42 933d
000000d0: 8b28 523e f6cc a7be 3d2d 89bb 4593 f33d
000000e0: 5621 94bd 3dc8 443e 69f5 2fbd dde5 323d
000000f0: 1f27 223e 12a0 b43e 9c23 0dbe 30eb 05be
00000100: 4579 eabe 6673 293d 8f59 05be d806 fa3d
00000110: 1425 dbbd 7a59 713e 0033 44bd 204d a3bc
00000120: e00c 81bb 9bf4 9ebe 5cf0 0b3f 9203 6c3e
00000130: b31e 1fbc e05f 40be 29f0 9fbe a872 ad3e
00000140: 5b02 b63d 7378 2fbd 2cc3 f5be 8778 91be
00000150: a09d e9bd bab2 603d 8f9d 65be 8029 843d
00000160: 89fb 9fbe 50c0 af3e 0cc6 71be b5aa 17be
00000170: 197e 3c3e 0173 f53d 3b5b 3cbc 742d 8bbd
00000180: fc31 4bbe 4b3f 383e 3050 fc3e 5732 74be
00000190: 051c 9f3e c2b9 413e 28df 023e f58c c63d
000001a0: c664 9c3d 1336 87be 77a8 4bbe c1de cdbe
000001b0: e14e a23e 84ca a03d bb4b a5bc 2aa4 f03d

linearD1.weight f4 [256, 14]
-0.12737653 0.17355631 -0.06608352 -0.15098792 -0.21818183 -0.05552631 0.012855312 0.18478674
0.12725484 -0.1549962 0.118529 -0.017589126 0.057726197 0.19060443 -0.016201744 -0.03857787
0.33563942 -0.3218973 -0.03380394 0.23278435 0.025484659 0.036800675 -0.08635232 -0.1412807
0.04697919 -0.16061844 -0.07917188 0.2513252 0.09736585 -0.0437682 -0.17704406 0.04025687
0.1158417 -0.06026131 -0.13466594 -0.07729995 0.19439839 0.03748315 0.104942635 0.1861223
0.21395993 -0.0033637297 -0.2363778 -0.16550437 0.049093887 0.18642579 0.17803234 0.20341985
0.24333636 -0.07032749 -0.10853138 0.27431974 -0.052753102 0.022495475 -0.14169408 -0.24086434
0.1105566 0.23959827 -0.25704733 0.26999918 -0.120117426 -0.11688688 0.058423825 -0.21943276
0.18881446 -0.092901506 -0.11902793 -0.1078595 0.050498627 0.03586961 -0.21091203 0.222398
0.18495321 0.12645072 -0.18985088 0.09881106 -0.081878416 0.2711301 -0.16906819 -0.21434857
-0.14988185 -0.058347493 -0.21268906 -0.13906391 0.117218 -0.14849067 -0.070540905 -0.24608864
-0.24268752 -0.04890109 0.03433512 -0.044751056 0.26627532 -0.25756413 -0.1568383 0.11845515
-0.06297946 -0.1160678 -0.059694625 -0.23434332 0.15222919 0.12447003 -0.06487673 -0.14069794
0.006049129 -0.17481767 0.042455126 -0.043092974 -0.0854266 -0.21927372 0.11360006 0.15349352
0.021623472 -0.1433456 0.17103034 0.10443241 0.29770637 0.17816438 -0.24158669 0.12527446
0.053178437 0.17487748 -0.13801035 -0.14191207 -0.17609191 -0.040467996 0.26052967 -0.102275
-0.020728843 0.0335112 -0.026082652 0.2068668 -0.036459982 -0.017091515 -0.014587863 -0.24853688
0.020399341 0.14732714 0.17922533 -0.13071571 -0.09937949 0.10005708 0.28700623 0.13727894
0.26121274 -0.04779912 0.15836896 0.039062075 -0.21185276 -0.08221385 -0.28903806 0.024711981
-0.08913325 0.14667414 0.21901537 -0.1243273 -0.044746324 -0.18208314 -0.2367885 0.28858355
0.23442605 -0.028668685 -0.030376777 -0.113161825 0.0063640205 0.027028829 -0.2816303 0.052461483
-0.013368586 -0.083507635 -0.09763782 0.26638874 0.1347328 0.074441105 -0.10330427 -0.1084439
0.089954175 -0.048887685 0.1562026 0.010662294 -0.1725811 0.16160157 0.08880482 0.14190455
0.10061947 0.015829135 -0.06537205 0.15453139 -0.12608516 0.25118446 0.18551473 0.15574825
-0.24119277 -0.114406005 0.20769894 -0.02626462 0.25124517 -0.2547087 -0.1619573 0.096227504
0.05504485 -0.11646339 -0.18978614 -0.22359462 0.11706492 -0.019369416 -0.15250693 -0.059575453
-0.050870035 0.24228401 -0.22447573 -0.006917407 0.17250632 -0.18477081 0.050901446 0.07063173
-0.26904342 -0.034423467 0.33369294 -0.026842866 -0.23135805 -0.25312027 0.2246711 -0.065377146
0.0068878806 -0.14717603 0.17095727 -0.011395238 0.07420491 -0.08524046 -0.2437091 -0.04097513
0.076654226 -0.2688659 -0.07443282 0.16113329 -0.00018544316 -0.065344915 0.028124923 -0.07333437
0.18725322 -0.058070894 0.22745988 0.021253424 -0.21949722 0.27403736 0.07595523 0.25531188
-0.0699704 -0.054271825 0.21639515 -0.16722198 -0.050215025 -0.022992626 0.207495 0.17175618
00000000: fe6e 02be bfb8 313e cc56 87bd 949c 1abe
00000010: 0f6b 5fbe 8e6f 63bd 169f 523c bc38 3d3e
00000020: 184f 023e 53b7 1ebe 55bf f23d 1217 90bc
00000030: 4e72 6c3d cf2d 433e 85b9 84bc d403 1ebd
00000040: eed8 ab3e b9cf a4be 0076 0abd 055f 6e3e
00000050: 34c5 d03c 4ebc 163d 7cd9 b0bd e3ab 10be
00000060: 406d 403d 2979 24be de24 a2bd b2ad 803e
00000070: bf67 c73d 4946 33bd 0a4b 35be 63e4 243d
00000080: 6a3e ed3d 90d4 76bd dee5 09be 704f 9ebd
00000090: 5f10 473e ee87 193d 2aec d63d d896 3e3e
000000a0: 5018 5b3e 0572 5cbb 060d 72be fa79 29be
000000b0: ac16 493d 67e6 3e3e 1c4e 363e 4b4d 503e
000000c0: 2b2d 793e dc07 90bd b345 debd a373 8c3e
000000d0: a313 58bd 6e48 b83c 4118 11be 24a5 76be
000000e0: 806b e23d 4059 753e b59b 83be 553d 8a3e
000000f0: 2000 f6bd 6362 efbd d24d 6f3d fbb2 60be
00000100: 9458 413e 2543 bebd eac4 f3bd 71e5 dcbd
00000110: a6d7 4e3d 03ec 123d 53f9 57be 4dbc 633e
00000120: 6064 3d3e 4c7c 013e 4568 42be 745d ca3d
00000130: dfaf a7bd 91d1 8a3e 3620 2dbe 317e 5bbe
00000140: a17a 19be c8fd 6ebd 29cb 59be c566 0ebe
00000150: fe0f f03d f00d 18be c077 90bd a9fe 7bbe
00000160: 1483 78be 824c 48bd fca2 0c3d e24c 37bd
00000170: 3d55 883e 72df 83be 389a 20be 9d98 f23d
00000180: 60fb 80bd f4b4 edbd 5a82 74bd b2f7 6fbe
00000190: f8e1 1b3e 25ea fe3d 17de 84bd 1f13 10be
000001a0: c637 c63b 6703 33be 6de5 2d3d 4282 30bd
000001b0: 24f4 aebd 4a89 60be 26a7 e83d 682d 1d3e
000001c0: b523 b13c 30c9 12be 9422 2f3e a9e0 d53d
000001d0: f86c 983e b970 363e 8062 77be f347 003e
000001e0: a2d1 593d 1513 333e 9652 0dbe 6651 11be
000001f0: 7051 34be c5c1 25bd 2564 853e 8e75 d1bd
00000200: 89cf a9bc 0a43 093d 49ab d5bc e4d4 533e
00000210: 1057 15bd 8103 8cbc ef01 6fbc 7480 7ebe
00000220: 851c a73c eddc 163e d886 373e 57da 05be
00000230: 7987 cbbd baea cc3d 7bf2 923e da92 0c3e
00000240: adbd 853e 03c9 43bd 792b 223e 8eff 1f3d
00000250: eeef 58be bc5f a8bd ccfc 93be c870 ca3c
00000260: 7e8b b6bd bf31 163e 9145 603e 509f febd
00000270: ec47 37bd 0174 3abe af78 72be 39c1 933e
00000280: 620d 703e 97da eabc b8d8 f8bc 63c1 e7bd
00000290: 4689 d03b 906b dd3c d931 90be dae1 563d
000002a0: ea07 5bbc 0d06 abbd 56f6 c7bd 1b64 883e
000002b0: 65f7 093e 9474 983d 3091 d3bd d617 debd
000002c0: e539 b83d 743e 48bd 93f3 1f3e e7b0 2e3c
000002d0: 1ab9 30be e27a 253e 4ddf b53d 6d4f 113e
000002e0: 9511 ce3d 1aac 813c c8e1 85bd 7a3d 1e3e
000002f0: 781c 01be 409b 803e 93f7 3d3e 787c 1f3e
00000300: 3dfb 76be b24d eabd 08af 543e e628 d7bc
00000310: 35a3 803e 2e69 82be 22d8 25be ed12 c53d
00000320: b576 613d 5c84 eebd 4c57 42be fdf5 64be
00000330: bcbf ef3d 9cac 9ebc c72a 1cbe 6405 74bd
00000340: 195d 50bd 4d19 783e f7dc 65be 6aab e2bb
00000350: 7fa5 303e 8f34 3dbe 097e 503d 5ea7 903d
00000360: 0fc0 89be 9fff 0cbd cdd9 aa3e 92e5 dbbc
00000370: 20e9 6cbe fb98 81be 2e10 663e 74e4 85bd
00000380: bbb3 e13b 50b5 16be 6c0f 2f3e 18b3 3abc
00000390: bef8 973d 8d92 aebd e18e 79be 8ad5 27bd
000003a0: e4fc 9c3d cba8 89be 3c70 98bd 2000 253e
000003b0: 8573 42b9 8ed3 85bd 3d66 e63c 5530 96bd
000003c0: 4fbf 3f3e bfdb 6dbd 3eeb 683e a91b ae3c
000003d0: e1c3 60be a04e 8c3e 6a8e 9b3d 3db8 823e
000003e0: a44c 8fbd 224c 5ebd b196 5d3e 3d3c 2bbe
000003f0: 45ae 4dbd 085b bcbc 9279 543e dae0 2f3e

linearD1.bias f4 [256]
-0.09181178 -0.15294808 0.21717015 0.23145711 0.0004175361 -0.14492033 0.101730585 0.026887342
0.112399876 -0.2559504 -0.18885387 0.14954475 0.084732205 -0.12614234 -0.115828544 -0.15247232
0.020965014 -0.061602596 0.041180465 -0.013235251 0.18569173 -0.14389122 0.059777066 -0.1268638
-0.14205152 0.15162362 -0.09839402 -0.13152541 0.08699278 0.071083464 0.106173664 -0.060830664
0.07355565 -0.051515263 -0.05074288 -0.201445 -0.19843309 -0.21651767 -0.18646263 0.07505281
0.23028435 -0.2051195 -0.13138556 0.22067945 -0.01172715 -0.037735954 0.19782175 0.22878721
0.16338144 -0.14821988 0.0034362217 0.024652084 -0.20073552 0.20773771 0.12093678 -0.21760477
-0.069508456 -0.17639461 0.2054939 0.18825735 0.23301372 -0.0661918 -0.17205687 0.03925679
0.09115827 -0.19138005 -0.17349738 0.14354874 0.010447179 -0.043428447 -0.21210285 0.026097402
0.084903136 -0.19804291 -0.107887454 0.17529039 -0.08435218 -0.07560625 0.105912924 0.23936348
-0.16941415 0.29670483 -0.15145245 0.2163079 0.16911294 0.12900467 0.055629205 0.21252982
-0.07883317 -0.032305505 0.10602878 0.108856656 0.054339226 0.19080839 0.22608179 -0.08223028
0.0867301 0.09443713 -0.18967035 0.09422923 0.13934611 -0.016214455 -0.15016566 0.19415165
0.057253912 -0.07757929 0.1911467 -0.15518245 -0.13707042 0.19493064 0.16807848 -0.062119022
0.15167972 -0.00079562055 0.15706572 0.08479045 0.24387808 0.11194851 0.063724525 -0.008658217
0.03257285 -0.18028916 0.08695436 -0.0018367447 -0.03200025 -0.10965213 -0.059626337 -0.08743607
0.14294827 -0.107983164 -0.0042442977 0.19744107 0.08543374 0.12979135 0.23473597 0.23783171
-0.2510849 -0.149835 -0.21471547 -0.08494621 0.13352637 -0.076267526 0.051323466 -0.08263237
-0.018222408 -0.07657432 -0.1084988 -0.105145834 0.06922547 0.030660925 -0.071950346 0.082920924
-0.043131914 0.057866603 -0.094610125 -0.05041785 -0.20204614 -0.051870767 -0.07231272 -0.13864861
-0.06995866 -0.07747505 -0.08149858 -0.1059874 -0.13602115 0.14115144 0.01601813 -0.010840874
0.029463382 0.037659876 -0.19058827 0.03924435 -0.11702006 -0.062338036 0.026067814 -0.018754737
0.11223819 -0.06584853 0.23321997 -0.08717434 0.119671464 0.12722039 -0.102055 -0.00020251749
0.19005236 0.07834465 0.06560065 -0.20454535 0.26673293 0.013525795 0.21514401 0.05267397
0.22319366 0.16478278 0.0015256131 0.15806945 0.05369034 -0.00547665 -0.11477336 0.20061333
0.04702779 -0.11670034 -0.082731575 -0.09031784 0.15465523 0.016359027 -0.004056461 -0.08644341
0.09976686 0.21121322 -0.18860431 -0.15774189 0.17021026 -0.07311388 0.1721507 -0.043305643
0.12669896 -0.018201135 0.016282344 0.13411304 -0.22306153 0.11218423 -0.16874124 0.10132584
0.22996348 0.05079687 0.12706009 0.13897589 -0.21321422 -0.2967327 -0.20790386 -0.029476091
0.121312104 -0.15104276 0.1344602 0.047713947 0.19187546 -0.17114973 -0.17042774 -0.23134021
0.07963305 -0.1419033 0.070972286 0.041267224 0.28889778 -0.18110865 -0.13962841 0.073326774
-0.073685795 0.013191902 -0.013922124 -0.19747552 -0.18335664 -0.20571527 0.109752245 0.027726041
00000000: d107 bcbd 6c9e 1cbe da61 5e3e 1803 6d3e
00000010: bfe8 da39 ff65 14be 2058 d03d d842 dc3c
00000020: e831 e63d ee0b 83be e962 41be 4222 193e
00000030: 1488 ad3d 752b 01be 8437 edbd b421 1cbe
00000040: d2be ab3c 0153 7cbd d9ac 283d abd8 58bc
00000050: f925 3e3e 3858 13be ccd8 743d 96e8 01be
00000060: f475 11be 3943 1b3e ce82 c9bd 99ae 06be
00000070: 4529 b23d 3594 913d 9471 d93d 9329 79bd
00000080: 58a4 963d ab01 53bd c4d7 4fbd 9947 4ebe
00000090: 0b32 4bbe cfb6 5dbe 0ff0 3ebe 4ab5 993d
000000a0: a9cf 6b3e d90a 52be f089 06be cbf9 613e
000000b0: 3b23 40bc 0491 1abd c991 4a3e 3247 6a3e
000000c0: 774d 273e f4c6 17be 3c32 613b 2bf3 c93c
000000d0: 9d8d 4dbe 32b9 543e b4ad f73d c9d3 5ebe
000000e0: 735a 8ebd caa0 34be fe6c 523e 89c6 403e
000000f0: 269b 6e3e 918f 87bd ad2f 30be bacb 203d
00000100: 30b1 ba3d 22f9 43be 4ca9 31be 71fe 123e
00000110: a52a 2b3c 07e2 31bd 7d31 59be 38ca d53c
00000120: b2e1 ad3d c3cb 4abe 19f4 dcbd 537f 333e
00000130: d6c0 acbd 73d7 9abd e0e8 d83d b31b 753e
00000140: e77a 2dbe b2e9 973e 5a16 1bbe d17f 5d3e
00000150: f12b 2d3e cd19 043e 73db 633d 6ba1 593e
00000160: 4973 a1bd c752 04bd 9e25 d93d 3df0 de3d
00000170: cf92 5e3d 4663 433e fc81 673e 5968 a8bd
00000180: 8d9f b13d 4168 c13d f238 42be 41fb c03d
00000190: bfb0 0e3e 2dd4 84bc 07c5 19be b1cf 463e
000001a0: 1483 6a3d e4e1 9ebd f6bb 433e 26e8 1ebe
000001b0: 305c 0cbe e69b 473e c41c 2c3e 8470 7ebd
000001c0: ee51 1b3e 3191 50ba d6d5 203e 9ea6 ad3d
000001d0: 2dbb 793e 4345 e53d 0182 823d 32db 0dbc
000001e0: 1c6b 053d b99d 38be 2115 b23d edbe f0ba
000001f0: b212 03bd 4c91 e0bd bf3a 74bd af11 b3bd
00000200: 0861 123e 4726 ddbd c013 8bbb fe2d 4a3e
00000210: e2f7 ae3d 06e8 043e a05e 703e 288a 733e
00000220: 338e 80be 596e 19be 5fde 5bbe 47f8 adbd
00000230: 23bb 083e 2632 9cbd 8e38 523d 293b a9bd
00000240: 2947 95bc ffd2 9cbd 9e34 debd b356 d7bd
00000250: 15c6 8d3d 9f2c fb3c b45a 93bd 72d2 a93d
00000260: 17ab 30bd 8805 6d3d f4c2 c1bd f382 4ebd
00000270: 2fe5 4ebe 7176 54bd b118 94bd e7f9 0dbe
00000280: 7c46 8fbd 3dab 9ebd bae8 a6bd ec0f d9bd
00000290: 2149 0bbe 018a 103e 7438 833c ec9d 31bc
000002a0: 315d f13c 3e41 1a3d 9229 43be afbe 203d
000002b0: 37a8 efbd 2b56 7fbd 2b8c d53c 89a3 99bc
000002c0: 23dd e53d 98db 86bd 37d1 6e3e 7688 b2bd
000002d0: 5016 f53d 1046 023e 3602 d1bd e05a 54b9
000002e0: 169d 423e 2973 a03d a259 863d 5674 51be
000002f0: 3891 883e 4c9b 5d3c b64e 5c3e a9c0 573d
00000300: e18c 643e d1bc 283e 15f7 c73a f5dc 213e
00000310: 67ea 5b3d 7875 b3bb 4c0e ebbd 956d 4d3e
00000320: 36a0 403d 9600 efbd 2c6f a9bd 8ff8 b8bd
00000330: f15d 1e3e 5e03 863c 10ec 84bb 3e09 b1bd
00000340: 9152 cc3d 4748 583e 7d21 41be 1787 21be
00000350: 994b 2e3e bbbc 95bd 4648 303e 4261 31bd
00000360: 5fbd 013e 8c1a 95bc 8d62 853c ee54 093e
00000370: 3e6a 64be d8c0 e53d 81ca 2cbe ec83 cf3d
00000380: 8c7b 6b3e 6110 503d 0a1c 023e b24f 0e3e
00000390: d454 5abe 59ed 97be c0e4 54be d877 f1bc
000003a0: 7b72 f83d f4aa 1abe efaf 093e b36f 433d
000003b0: 007b 443e e041 2fbe 9c84 2ebe 73e4 6cbe
000003c0: a716 a33d 194f 11be eb59 913d d207 293d
000003d0: 69ea 933e 8c74 39be c0fa 0ebe 592c 963d
000003e0: 94e8 96bd d922 583c 9f19 64bc 0637 4abe
000003f0: d8c1 3bbe 06a7 52be c9c5 e03d b921 e33c

linearK2.weight f4 [14, 256]
-0.028902039 -0.016613517 -0.05850781 0.018346006 0.049955748 0.03635584 -0.07174398 0.06974463
0.034529082 0.020552382 0.018490441 -0.05097097 -0.0057099117 0.015229901 0.071136706 -0.009174408
-0.036379617 0.010947776 0.050106622 -0.104347505 0.015867455 -0.01025795 -0.0020679862 0.07359321
-0.037659723 -0.06474219 0.13268004 0.05787978 0.046367113 -0.03126547 0.106592335 0.085204355
-0.015411317 -0.011442706 0.0996003 -0.031696215 0.018991731 -0.03630289 0.043565508 0.023935439
-0.025918202 0.037711892 0.005111134 0.05042057 -0.020335874 -0.07449474 0.013445106 0.014012268
0.022713361 0.020521205 -0.014269519 0.056406286 -0.02656545 0.034869786 0.04550941 -0.07159267
-0.11460147 -0.04554017 0.041358724 0.026835307 -0.056359917 0.022763928 -0.0051089195 -0.007806442
0.13345999 0.03187651 -0.04123674 -0.09601789 -0.09283921 0.014776872 -0.004615737 0.11711516
-0.018874599 -0.07137678 0.012363995 0.090123214 -0.034627996 -0.023153046 0.036554694 -0.06788907
0.046507433 -0.0016286067 0.04745021 0.07190589 -0.040048935 0.028881554 -0.032017846 -0.088776335
0.034248017 -0.07465244 0.017339304 -0.105845556 0.020229096 0.038708072 -0.041692957 0.05666554
-0.018864278 -0.017763097 -0.069211595 -0.020663561 -0.025003249 0.03237401 -0.03359894 0.020028412
0.0009556738 -0.05156551 -0.08876642 -0.01340271 0.037499823 0.03132031 0.035733826 -0.033882927
0.08584297 0.05833747 0.07521291 0.038735665 0.052152872 -0.055762287 -0.06479549 0.017314073
0.04092339 0.022758184 -0.035281304 -0.062742375 0.058384817 0.09081693 0.09248631 0.014548254
0.030618608 -0.054855578 -0.13594493 0.06645697 -0.012482685 -0.07035413 -0.06923987 0.07515256
-0.040167835 0.07315609 0.020159055 -0.09080513 0.089139424 -0.086426094 0.08397533 -0.024792016
-0.0048575494 -0.10555742 -0.035674978 -0.09818802 -0.08779843 -0.06509713 0.057542905 0.013830298
0.1343839 -0.03641212 0.07317516 -0.041790538 0.00026420903 0.047870763 -0.009816118 -0.039244544
-0.0093351845 0.014671612 -0.037201393 0.046021752 0.08950833 -0.016378028 -0.07560305 0.04357219
-0.11074856 0.0121055255 -0.0354815 0.08129943 0.06570959 0.054177083 -0.0034502195 0.02587904
-0.019791624 0.072137505 0.025757333 -0.09152093 0.0010060722 -0.025426941 -0.079449505 -0.014708846
-0.050467014 0.020429704 -0.020075085 0.004691246 -0.0124291545 0.0780718 0.010500175 -0.02182202
0.007439 0.015871955 -0.0153664425 0.014717787 -0.0022700154 0.06692916 0.03587446 -0.094750285
0.047454014 -0.036204733 -0.014478204 -0.06487488 -0.07426871 -0.05316825 0.03916763 0.06189268
0.045928467 0.029338436 0.120440945 -0.0012951295 0.055693455 -0.058326777 -0.08060685 -0.0957711
0.117495604 0.045335155 -0.064914845 0.037550606 0.010551557 -0.09964069 0.015285236 -0.0890688
0.037216224 0.08907321 0.012195457 -0.0504479 -0.07530584 -0.07131406 0.05034471 0.024085755
-0.098503016 0.008214642 -0.047838654 -0.07422852 -0.011110745 -0.07651302 0.037449244 -0.093522884
0.008999066 0.07264378 -0.04022496 0.00018671325 0.042515084 0.08279124 -0.06380362 -0.07098982
0.07397749 0.039449655 0.06319012 0.06920391 0.036499586 0.04288553 0.0037474625 0.002205596
00000000: f8c3 ecbc 1219 88bc e3a5 6fbd 5d4a 963c
00000010: 669e 4c3d dce9 143d 82ee 92bd 46d6 8e3d
00000020: 5e6e 0d3d 785d a83c 4479 973c f0c6 50bd
00000030: 361a bbbb d686 793c 1fb0 913d 4250 16bc
00000040: cb02 15bd 4d5e 333c 9a3c 4d3d 25b4 d5bd
00000050: 77fc 813c f610 28bc 0d87 07bb 09b8 963d
00000060: 1541 1abd 8e97 84bd 47dd 073e 5913 6d3d
00000070: 71eb 3d3d 3910 00bd 154d da3d 9f7f ae3d
00000080: c07f 7cbc 307a 3bbc 3efb cb3d e4d3 01bd
00000090: 8c94 9b3c 57b2 14bd bf71 323d 4114 c43c
000000a0: 6952 d4bc c977 1a3d 4d7b a73b cd85 4e3d
000000b0: 6b97 a6bc b390 98bd dd48 5c3c b693 653c
000000c0: 5f11 ba3c 161c a83c b3ca 69bc 470a 673d
000000d0: c99f d9bc 9fd3 0e3d 1368 3a3d 2e9f 92bd
000000e0: 2db4 eabd 5488 3abd c467 293d b8d5 db3c
000000f0: a8d9 66bd 6b7b ba3c b968 a7bb 2fcd ffbb
00000100: bca9 083e f190 023d dbe7 28bd 07a5 c4bd
00000110: 7c22 bebd b11a 723c 9c3f 97bb 13da ef3d
00000120: e79e 9abc fd2d 92bd 5b92 4a3c 8592 b83d
00000130: 16d6 0dbd 75ab bdbc 60ba 153d 6d09 8bbd
00000140: 947e 3e3d f976 d5ba 275b 423d 6543 933d
00000150: 5a0a 24bd 0299 ec3c 2525 03bd 5ed0 b5bd
00000160: a647 0c3d 61e3 98bd 280b 8e3c 8ec5 d8bd
00000170: 7db7 a53c 5b8c 1e3d 3cc6 2abd 201a 683d
00000180: 4289 9abc ea83 91bc cfbe 8dbd a146 a9bc
00000190: 9dd3 ccbc 9c9a 043d 0b9f 09bd a012 a43c
000001a0: 2f86 7a3a 5b36 53bd 2bcb b5bd 0a97 5bbc
000001b0: 6a99 193d ba49 003d a25d 123d d3c8 0abd
000001c0: 70ce af3d 45f3 6e3d 3a09 9a3d 4aa9 1e3d
000001d0: 409e 553d ff66 64bd 7fb3 84bd 3ed6 8d3c
000001e0: 499f 273d 5f6f ba3c 2183 10bd 137f 80bd
000001f0: eb24 6f3d 3afe b93d 7669 bd3d cd5b 6e3c
00000200: e0d3 fa3c 3eb0 60bd 2635 0bbe 981a 883d
00000210: 2d84 4cbc d315 90bd a2cd 8dbd 96e9 993d
00000220: 0787 24bd dcd2 953d 9a24 a53c 0af8 b9bd
00000230: bb8e b63d 2a00 b1bd 42fb ab3d a018 cbbc
00000240: 142c 9fbb 7d2e d8bd ed1f 12bd cd16 c9bd
00000250: aacf b3bd a551 85bd 1cb2 6b3d 7998 623c
00000260: ef9b 093e e024 15bd dcdc 953d 8e2c 2bbd
00000270: 8985 8a39 2214 443d c8d3 20bc e3be 20bd
00000280: 9af2 18bc 3361 703c 7d60 18bd 4e81 3c3d
00000290: 2550 b73d 372b 86bc c6d5 9abd c178 323d
000002a0: 24d0 e2bd 4156 463c 0d55 11bd 5180 a63d
000002b0: c092 863d cae8 5d3d 141d 62bb 4800 d43c
000002c0: 0b22 a2bc d4bc 933d 0b01 d33c 536f bbbd
000002d0: 2ede 833a 294c d0bc 6cb6 a2bd 5ffd 70bc
000002e0: 80b6 4ebd 325c a73c 8174 a4bc 06b9 993b
000002f0: a7a3 4bbc 1ce4 9f3d ed08 2c3c 18c4 b2bc
00000300: dbc2 f33b e705 823c 88c3 7bbc df22 713c
00000310: 8ac4 14bb 2812 893d 19f1 123d 700c c2bd
00000320: 245f 423d 6a4b 14bd fd35 6dbc 1fdd 84bd
00000330: 321a 98bd f3c6 59bd 3d6e 203d 2e83 7d3d
00000340: 7d1f 3c3d 2957 f03c bea9 f63d 56c1 a9ba
00000350: d21e 643d 0fe8 6ebd 3415 a5bd a323 c4bd
00000360: 89a1 f03d 5bb1 393d 13f2 84bd aace 193d
00000370: 70e0 2c3c 6b10 ccbd ed6e 7a3c b469 b6bd
00000380: 0a70 183d 046c b63d 74cf 473c 75a2 4ebd
00000390: f339 9abd 1b0d 92bd 4136 4e3d 7d4f c53c
000003a0: f3bb c9bd b596 063c 77f2 43bd 1f05 98bd
000003b0: d809 36bc dcb2 9cbd 6164 193d ed88 bfbd
000003c0: d270 133c 43c6 943d edc2 24bd 75c8 4339
000003d0: 4c24 2e3d 748e a93d 79ab 82bd 1c63 91bd
000003e0: 8381 973d f695 213d d269 813d c8ba 8d3d
000003f0: 9780 153d bda8 2f3d fd97 753b c38b 103b

linearD2.weight f4 [256, 14]
0.14175537 0.00027718968 -0.10787156 -0.13686325 -0.16998628 0.18026401 -0.18481728 0.14580734
-0.08461339 0.1356579 -0.16802499 0.25479826 0.14951989 0.16317225 0.17558712 -0.30064535
0.2919103 0.30471492 -0.09517597 -0.54029155 -0.46157572 0.55304337 -0.43595222 0.046405908
-0.1082009 -0.1681619 0.29080576 0.29774553 -0.03956319 0.26957628 -0.0109727355 0.060345195
0.12317607 -0.25123575 0.16887246 0.06668501 -0.102712855 -0.32371053 -0.11172596 0.19123411
0.19432357 0.038352374 0.10307595 -0.12902442 0.04648222 -0.11728289 0.009798787 -0.08720524
0.22131503 -0.15224533 -0.139735 -0.15199238 -0.006331683 0.2092025 0.3093775 -0.18372802
0.10401041 -0.1982414 0.042005006 -0.2327179 0.08880255 -0.053569358 0.21378012 0.030562587
0.2443847 0.003371361 -0.024478924 0.22298293 -0.076371945 0.09337183 0.05420907 0.07698962
0.08034078 0.11389521 0.13016 -0.0438862 0.10050811 0.01869512 0.022900332 -0.004963798
-0.17616248 -0.20720479 -0.036534943 -0.093521416 -0.100053914 -0.24941838 0.011565892 0.23268536
0.077389374 0.22636463 0.17510185 -0.26320204 -0.022868535 -0.11571536 0.011499868 0.08615476
0.252205 -0.175895 0.13356943 -0.0841953 -0.29589093 -0.08304442 0.01306687 -0.03022732
0.20457356 0.1128174 -0.2712734 -0.1046257 -0.07939547 -0.06114997 0.03300899 -0.1701131
-0.18387266 -0.18609601 0.010044045 -0.11635596 -0.11782886 0.04517327 0.080602735 -0.1988841
-0.12747349 0.052489497 -0.13552742 -0.061934795 0.32092315 0.0030325863 -0.16664551 0.24777567
0.06918578 0.053456854 0.13611624 0.13329937 0.23296063 -0.10481341 -0.0076677655 0.007281236
-0.10926544 0.2441142 -0.24358124 0.1066599 -0.18049185 0.24391532 0.18375783 -0.040726203
-0.2061037 0.23839663 -0.050550815 0.20736744 0.18946673 0.16030835 0.09371267 0.11688812
0.19236258 -0.019706056 -0.23913077 -0.15454313 -0.14681338 0.032207243 -0.010881627 -0.29637828
0.24537559 0.1389682 0.08168741 -0.23624595 0.18364878 -0.07944339 -0.2669913 0.010869202
0.23324703 0.23727271 0.23699933 -0.08474829 -0.35731024 -0.002673241 0.18950598 -0.23763198
-0.09288843 -0.1479265 0.26372477 -0.055611666 0.28463435 0.22657983 0.03705816 0.24268262
-0.05458623 0.0779459 0.21939282 -0.17987931 0.04450971 -0.012326978 -0.1821445 -0.11994013
-0.08701263 -0.13763373 0.06639054 0.013681483 -0.013684976 0.2553976 0.23113942 -0.111736946
0.24773945 -0.05304912 -0.059084274 0.073465794 -0.24682839 -0.16859753 -0.11904712 0.05433284
0.040385924 -0.0050283554 0.15386413 0.015663952 0.018082669 -0.107618004 -0.09609363 -0.15941276
0.1790253 -0.08093965 -0.0032252178 0.20548747 -0.039215676 0.190396 0.18959291 0.09396692
0.17872632 0.15556076 -0.021917377 0.217085 0.09848995 0.01083857 -0.18002912 0.1332599
0.047137562 -0.036651213 -0.15678132 0.23586054 0.19995582 0.23369473 0.09509365 -0.23785938
-0.07500702 0.22763635 0.24366863 0.014281108 -0.2065328 -0.17515728 0.023337804 -0.19415423
0.1878714 -0.19123974 -0.042201363 0.24611759 -0.27528942 -0.13902424 -0.09455879 0.11866703
00000000: 5228 113e c553 9139 c4eb dcbd e125 0cbe
00000010: e210 2ebe 2197 383e be40 3dbe 854e 153e
00000020: c949 adbd e8e9 0a3e be0e 2cbe eb74 823e
00000030: be1b 193e a016 273e 1ccd 333e 30ee 99be
00000040: 4475 953e 9803 9c3e 9eeb c2bd 8c50 0abf
00000050: a753 ecbe 4094 0d3f 2135 dfbe 1f14 3e3d
00000060: 6f98 ddbd a232 2cbe 7ee4 943e 1a72 983e
00000070: 030d 22bd e705 8a3e fdc6 33bc 862c 773d
00000080: bc43 fc3d f9a1 80be e7ec 2c3e 2792 883d
00000090: 1e5b d2bd 63bd a5be 95d0 e4bd e0d2 433e
000000a0: c2fc 463e 6117 1d3d 7c19 d33d fa1e 04be
000000b0: 2464 3e3d 0332 f0bd 178b 203c a998 b2bd
000000c0: 68a0 623e 33e6 1bbe b116 0fbe e4a3 1bbe
000000d0: 027a cfbb 2e39 563e ba66 9e3e 3323 3cbe
000000e0: 6903 d53d cbff 4abe 710d 2c3d 9a4d 6ebe
000000f0: 1dde b53d 8b6b 5bbd 2de9 5a3e 645e fa3c
00000100: fc3f 7a3e 0df2 5c3b 0688 c8bc a355 643e
00000110: e568 9cbd bb39 bf3d 540a 5e3d bcac 9d3d
00000120: b589 a43d e441 e93d aa48 053e 04c2 33bd
00000130: 32d7 cd3d 8226 993c 7a99 bb3c 5ba7 a2bb
00000140: f063 34be 7e2d 54be aaa5 15bd 2888 bfbd
00000150: 11e9 ccbd 8867 7fbe de7e 3d3c 1245 6e3e
00000160: 527e 9e3d 21cc 673e e64d 333e 6bc2 86be
00000170: cb56 bbbc 2dfc ecbd f169 3c3c e871 b03d
00000180: 0421 813e d21d 34be 6dc6 083e 966e acbd
00000190: 047f 97be 3113 aabd 6d16 563c 499f f7bc
000001a0: bb7b 513e cf0c e73d 59e4 8abe 0046 d6bd
000001b0: 189a a2bd 6478 7abd 6f34 073d 2132 2ebe
000001c0: 1d49 3cbe f48f 3ebe c78f 243c 094c eebd
000001d0: 4250 f1bd 9b07 393d 0c13 a53d 46a8 4bbe
000001e0: 6988 02be 3aff 563d b3c7 0abe 57af 7dbd
000001f0: 0a50 a43e 5bbe 463b 1fa5 2abe e8b8 7d3e
00000200: 46b1 8d3d 93f5 5a3d 0e62 0b3e a17f 083e
00000210: 3b8d 6e3e 6aa8 d6bd e141 fbbb 6f97 ee3b
00000220: 8fc6 dfbd 13f9 793e 5c6d 79be 8170 da3d
00000230: dbd2 38be f0c4 793e 032b 3c3e 85d0 26bd
00000240: d90c 53be 3f1e 743e 5f0e 4fbd 2158 543e
00000250: 9103 423e df27 243e 6eec bf3d 0a63 ef3d
00000260: b2fa 443e 986e a1bc b2de 74be 8e40 1ebe
00000270: 3f56 16be beeb 033d da48 32bc e5be 97be
00000280: bd43 7b3e ae4d 0e3e bb4b a73d 75ea 71be
00000290: 6d0e 3c3e 37b3 a2bd 15b3 88be bd14 323c
000002a0: 4fd8 6e3e 9ef7 723e f4af 723e 8390 adbd
000002b0: 5ef1 b6be 8b31 2fbb db0d 423e cc55 73be
000002c0: 4a3c bebd 0b7a 17be ef06 873e 0fc9 63bd
000002d0: 98bb 913e 8b04 683e 4cca 173d cb81 783e
000002e0: d095 5fbd 1aa2 9f3d 83a8 603e 4832 38be
000002f0: d04f 363d 18f7 49bc 1684 3abe 2ca3 f5bd
00000300: ae33 b2bd dbef 0cbe c3f7 873d 4d28 603c
00000310: f336 60bc 79c3 823e d0af 6c3e 57d6 e4bd
00000320: 69af 7d3e 094a 59bd 5a02 72bd 3c75 963d
00000330: 95c0 7cbe d5a4 2cbe face f3bd 1d8c 5e3d
00000340: b66b 253d e7c4 a4bb 8f8e 1d3e b051 803c
00000350: 1b22 943c d466 dcbd bdcc c4bd 193d 23be
00000360: 6952 373e b0c3 a5bd 2d5e 53bb 4f6b 523e
00000370: 9ea0 20bd 2bf7 423e a524 423e bb71 c03d
00000380: 0804 373e 524b 1f3e 128c b3bc 884b 5e3e
00000390: 19b5 c93d 4294 313c 8e59 38be 4975 083e
000003a0: 5113 413d 951f 16bd 488b 20be 6d85 713e
000003b0: 38c1 4c3e ac4d 6f3e 76c0 c23d 6991 73be
000003c0: 489d 99bd 8119 693e 4584 793e 4ffb 693c
000003d0: 567d 53be 6e5c 33be ec2e bf3c 5ed0 46be
000003e0: 5c61 403e 5ad4 43be 56db 2cbd 4006 7c3e
000003f0: bcf2 8cbe 5f5c 0ebe 0aa8 c1bd b307 f33d

linearD2.bias f4 [256]
0.12936601 0.19604404 0.22173336 -0.16019368 0.04691072 -0.06433828 -0.11233498 -0.14325234
-0.07042179 -0.1564866 0.11712575 0.15856446 -0.2556491 0.060891964 0.08011957 -0.14839645
-0.23519339 0.20741595 -0.031905636 0.21508771 -0.084916264 0.24310212 0.22005117 0.076454036
-0.25154778 0.005904205 -0.070831455 -0.17037873 -0.24433328 0.18340318 -0.22021773 0.14752313
-0.06459616 -0.032539614 0.056017112 -0.19718094 0.034790136 0.12714468 0.12278471 0.0071379985
0.20022668 -0.21820088 -0.101052426 -0.018939475 0.21281144 -0.25863636 0.22070892 -0.16676804
-0.16645157 0.2077228 0.21263719 0.2735762 -0.17615111 -0.09582422 -0.049223706 0.22552608
0.1740201 -0.03638557 0.028433112 -0.21316658 0.1013149 -0.022950498 0.31205428 0.41037542
0.34443116 -0.05675079 -0.1836186 0.018594805 -0.08957144 0.04348318 0.12353856 -0.06387662
-0.020765245 0.048149575 -0.07795248 -0.2131374 0.004915928 0.014266409 0.091781266 0.0390719
-0.098001026 -0.14056268 0.13752005 0.21662807 0.09368412 -0.17275655 -0.094794676 0.03996603
0.23465651 0.2173717 -0.0850703 -0.20503242 -0.1681593 -0.13692114 0.004732263 -0.22909689
-0.04022253 0.042998556 -0.121360734 -0.16964985 -0.18118662 -0.079320595 -0.13371599 -0.23275034
0.057411153 -0.06257939 -0.041881807 -0.16908877 0.23665676 0.101207994 -0.10870537 -0.0037096397
0.2723602 -0.22885744 -0.24689798 -0.008569999 0.11253368 -0.120072864 -0.09095781 -0.213359
0.22491325 0.24700278 0.07144486 0.27573013 0.014116811 0.32500198 0.044277553 0.08757463
-0.12154326 0.004997354 -0.013532143 0.2958476 0.23709102 -0.20252004 -0.15194644 0.018877756
-0.20320632 -0.14059912 0.11782282 -0.04487125 0.07200132 -0.012085733 0.15111858 0.14868261
0.26125327 -0.13066554 0.012306934 0.22385432 0.20972428 0.20133226 0.040666644 -0.06996475
-0.22380976 0.040494412 -0.09735786 0.07654947 0.11720953 -0.0458766 0.038020354 -0.20607351
0.15439057 0.23727618 0.02362485 -0.2168217 0.14100367 0.015273577 -0.20206842 0.15287004
0.14298604 -0.073758096 -0.19484681 -0.009607871 -0.09979702 0.011790274 -0.2691835 0.21184617
0.22365399 -0.03292331 -0.04966584 0.23946738 0.1403459 -0.17837343 -0.15735482 -0.206527
-0.20980318 -0.18543571 -0.023534078 0.14570203 0.19270642 0.17443709 -0.22667229 -0.21850613
-0.23148653 0.21778096 0.12776552 -0.14178064 0.030508898 0.047404423 0.13645108 -0.040546585
0.12046538 -0.04731245 -0.12944518 0.09953229 -0.17839313 0.47271708 -0.1631804 0.21889547
-0.15046757 0.32179454 -0.20567644 -0.07436743 -0.21656463 -0.1568774 0.03875529 0.23328616
-0.23624735 0.16882002 -0.12051477 0.11776656 -0.12016817 0.28940803 -0.21967693 -0.010331948
-0.2370677 -0.041602682 -0.12357883 -0.2082631 -0.027582726 0.010731453 0.13494352 -0.22871788
0.1797865 0.28056762 0.15650015 0.22472481 -0.15262617 -0.13705677 0.057937708 -0.24554725
-0.18384987 -0.09668423 -0.34068796 0.1113673 0.18110688 0.11232992 -0.12634225 0.05272106
-0.23029405 0.087533765 0.11089951 -0.09591571 0.042354178 -0.15446217 -0.26930508 0.027646255
00000000: 8678 043e c5bf 483e 120e 633e d009 24be
00000010: 7525 403d cac3 83bd e20f e6bd beb0 12be
00000020: 4d39 90bd 063e 20be a0df ef3d b95e 223e
00000030: 70e4 82be da69 793d bb15 a43d 3df5 17be
00000040: 89d6 70be d964 543e 7caf 02bd f43f 5c3e
00000050: 94e8 adbd c3ef 783e 1855 613e ef93 9c3d
00000060: dfca 80be 1078 c13b 1510 91bd c377 2ebe
00000070: 8132 7abe 0bce 3b3e c280 61be 4e10 173e
00000080: fe4a 84bd 4248 05bd 3372 653d cde9 49be
00000090: 1a80 0e3d 3732 023e 8d76 fb3d dfe5 e93b
000000a0: 3908 4d3e 0d70 5fbe 93f4 cebd f526 9bbc
000000b0: 3eeb 593e fc6b 84be 8501 623e 3ec5 2abe
000000c0: 4872 2abe 49b5 543e 90bd 593e 2e12 8c3e
000000d0: f560 34be 7d3f c4bd cc9e 49bd 4ff0 663e
000000e0: 5332 323e 0909 15bd 8fec e83c 5748 5abe
000000f0: 307e cf3d af02 bcbc 94c5 9f3e ba1c d23e
00000100: 4859 b03e 8473 68bd 8406 3cbe 2254 983c
00000110: 3b71 b7bd 6b1b 323d c901 fd3d bfd1 82bd
00000120: e01b aabc 7d38 453d 8da5 9fbd b140 5abe
00000130: cb15 a13b a8bd 693c d1f7 bb3d db09 203d
00000140: c3b4 c8bd aaef 0fbe 0ed2 0c3e c0d3 5d3e
00000150: 76dd bf3d 18e7 30be b623 c2bd 6bb3 233d
00000160: cc49 703e b096 5e3e 5639 aebd 05f4 51be
00000170: f431 2cbe 0e35 0cbe 1911 9b3b 6098 6abe
00000180: 61c0 24bd 411f 303d fa8b f8bd b1b8 2dbe
00000190: fc88 39be d672 a2bd d8ec 08be 1b56 6ebe
000001a0: f527 6b3d a029 80bd 428c 2bbd 9b25 2dbe
000001b0: 2656 723e 2346 cf3d eca0 debd 6d1d 73bb
000001c0: cc72 8b3e 9b59 6abe d3d2 7cbe 2e69 0cbc
000001d0: 0f78 e63d c3e8 f5bd 1748 babd c87a 5abe
000001e0: a94f 663e 4cee 7c3e af51 923d 802c 8d3e
000001f0: 324a 673c a966 a63e 615c 353d 545a b33d
00000200: aceb f8bd d8c0 a33b ecb5 5dbc 5679 973e
00000210: fdc7 723e 6a61 4fbe d997 1bbe 86a5 9a3c
00000220: 5115 50be 37f9 0fbe 174d f13d eaca 37bd
00000230: 6e75 933d 3d03 46bc d4be 1a3e 4140 183e
00000240: fdc2 853e 30cd 05be 06a3 493c 113a 653e
00000250: f6c1 563e 0b2a 4e3e 1192 263d ae49 8fbd
00000260: 632e 65be 78dd 253d 8f63 c7bd f8c5 9c3d
00000270: 8d0b f03d 1ae9 3bbd 3bbb 1b3d ef04 53be
00000280: 9018 1e3e 87f8 723e e788 c13c 8206 5ebe
00000290: 4463 103e 063e 7a3c 06eb 4ebe f789 1c3e
000002a0: ef6a 123e 7c0e 97bd ec85 47be 556a 1dbc
000002b0: 6162 ccbd fe2b 413c 6bd2 89be 34ee 583e
000002c0: 8d05 653e 98da 06bd 686e 4bbd f036 753e
000002d0: d6b6 0f3e 86a7 36be 9f21 21be d07b 53be
000002e0: a5d6 56be dce2 3dbe 8aca c0bc ea32 153e
000002f0: d554 453e a39f 323e c81c 68be 12c0 5fbe
00000300: ce0a 6dbe f901 5f3e f7d4 023e f22e 11be
00000310: cced f93c 242b 423d d5b9 0b3e 2d14 26bd
00000320: 8eb6 f63d b3ca 41bd 478d 04be 96d7 cb3d
00000330: b0ac 36be f907 f23e c318 27be 2226 603e
00000340: 2c14 1abe 41c2 a43e d89c 52be f34d 98bd
00000350: 1ec3 5dbe 78a4 20be debd 1e3d 91e2 6e3e
00000360: d3ea 71be 28df 2c3e 73d0 f6bd 982f f13d
00000370: bb1a f6bd 4a2d 943e fdf2 60be 5547 29bc
00000380: e0c1 72be 9367 2abd e616 fdbd ec42 55be
00000390: 2bf5 e1bc fad2 2f3c a22e 0a3e 0535 6abe
000003a0: f419 383e 8fa6 8f3e 9341 203e 431e 663e
000003b0: 094a 1cbe 9c58 0cbe 1750 6d3d bd70 7bbe
000003c0: 2443 3cbe 6202 c6bd a76e aebe 8a14 e43d
000003d0: 1574 393e 3b0d e63d dd5f 01be 0af2 573d
000003e0: 34d2 6bbe e744 b33d 481f e33d 756f c4bd
000003f0: 937b 2d3d 552b 1ebe 5be2 89be 667a e23c

linearK3.weight f4 [14, 256]
0.0011998785 0.08927101 0.00985838 -0.0079964325 0.107743055 0.011926218 0.005575323 -0.001338828
0.008019463 -0.018036548 -0.018021509 -0.026304903 0.015701216 -0.03257775 -0.052859813 0.016935399
-0.048202816 -0.005441809 -0.11407449 0.09558982 -0.028775094 -0.0031060597 0.050142318 -0.07611337
0.025313057 0.009831966 0.05154961 0.010109362 -0.013781646 -0.037092004 -0.03197175 0.07717575
0.03945701 0.0048049437 0.08266693 0.03333675 0.0161281 -0.014520844 0.0014223182 -0.068498194
0.01912601 0.011767796 -0.012691552 -0.023791442 -0.09187703 -0.055304814 0.063802525 0.038095128
-0.079060696 0.06258079 -0.08945959 -0.041606914 0.05095129 -0.015480988 -0.041926213 -0.025984654
0.13220593 0.13308045 -0.009737449 0.021013217 -0.04087237 0.054133635 0.04654575 -0.0064574494
0.027637813 0.025311356 0.06239379 -0.011063983 0.14625119 -0.040093277 -0.051940825 0.06428112
-0.05146218 0.08537271 0.021992283 -0.09990689 -0.062351037 -0.07598206 -0.008149596 0.10859948
0.01730957 0.0025244267 0.06940326 0.021562668 0.07920603 -0.023049934 -0.010175946 0.064890996
-0.08473514 0.02457565 0.01600968 0.045492746 -0.0050346665 0.05107309 0.07668273 -0.015256033
-0.06574029 0.033993095 -0.040592253 0.11671201 0.008565099 -0.008256903 -0.04428109 0.04256613
0.02331797 -0.1164276 0.053011164 -0.08157515 0.022149684 0.06631131 -0.038835544 -0.006457117
-0.0003875849 0.05451043 -0.057321638 -0.13355123 -0.1288346 0.01999133 -0.059382036 -0.048894837
-0.020307686 -0.0984245 0.019130528 0.02742455 -0.0602213 0.01712632 0.057942897 -0.06430958
-0.03973784 -0.10070269 0.03274186 -0.03214051 -0.022019677 -0.008168824 -0.055987824 0.0037940613
0.086977325 -0.05376454 -0.041677352 0.020238534 0.035607953 -0.07783486 -0.05829283 0.04243445
0.059615705 -0.120448865 -0.08415346 0.012427253 0.025466125 -0.013065241 0.06169121 0.10061873
0.107603304 -0.023031835 0.041352287 -0.17231676 -0.06542424 0.047499094 0.011255781 0.045661226
0.085838474 -0.09094709 -0.008095036 0.09050886 -0.031226309 0.013787335 -0.05292593 0.047780536
-0.039797477 -0.03314223 -0.03958103 0.016946636 -0.016756436 -0.09433185 0.025040722 0.016388075
0.030749448 0.009639224 -0.0001346012 -0.0030472055 -0.037843 -0.009206315 -0.028145099 -0.08702123
0.16208974 0.05273314 -0.15226209 0.08599235 -0.019230945 0.020132286 -0.07021575 -0.0014476863
0.04766381 -0.10703097 -0.006076205 -0.06861137 -0.077232614 -0.03688446 0.051330477 0.010139948
-0.07847201 0.03360252 -0.030656196 0.011920738 -0.049018297 0.056504562 -0.007058912 0.041354876
-0.014976787 0.018591767 -0.039909553 -0.06052133 0.07766804 -0.025991919 -0.08462226 0.032547407
-0.0075636185 0.00944187 -0.017756324 0.10360505 0.059363436 -0.026768478 -0.026886964 -0.031750634
0.1199972 -0.032664314 0.064969294 0.039859496 -0.0531958 0.05286761 0.030742506 -0.08983131
0.09991554 0.10807891 -0.013923698 0.008210892 -0.002684631 -0.025011111 0.092641495 0.033200793
-0.044632643 -0.013872516 -0.060489226 0.00014118468 0.035548262 0.05131219 0.0074522225 0.068091325
0.023102935 -0.019402795 0.14396371 -0.07796221 -0.059707776 -0.0028546879 0.047742184 -0.01965928
00000000: 3e45 9d3a b8d3 b63d 0b85 213c 7803 03bc
00000010: 64a8 dc3d 2f66 433c 33b1 b63b 9d7b afba
00000020: 1164 033c 62c1 93bc d8a1 93bc 617d d7bc
00000030: d69f 803c 3f70 05bd 8883 58bd 1bbc 8a3c
00000040: 5170 45bd 3451 b2bb e39f e9bd 98c4 c33d
00000050: bfb9 ebbc 098f 4bbb 0862 4d3d 54e1 9bbd
00000060: 545d cf3c 4116 213c af25 533d bda1 253c
00000070: 6acc 61bc c9ed 17bd cff4 02bd 520e 9e3d
00000080: ac9d 213d ca72 9d3b 484d a93d 1e8c 083d
00000090: 141f 843c d6e8 6dbc 146d ba3a c848 8cbd
000000a0: 26ae 9c3c b7cd 403c 3af0 4fbc 45e6 c2bc
000000b0: 062a bcbd 4d87 62bd e6aa 823d a309 1c3d
000000c0: 93ea a1bd 5b2a 803d 9736 b7bd 036c 2abd
000000d0: 4db2 503d f8a3 7dbc d2ba 2bbd c5dd d4bc
000000e0: fe60 073e 3e46 083e d289 1fbc e923 ac3c
000000f0: c969 27bd 3bbb 5d3d c2a6 3e3d 0399 d3bb
00000100: b268 e23c c359 cf3c a190 7f3d b545 35bc
00000110: dfc2 153e d938 24bd e7bf 54bd d2a5 833d
00000120: 02ca 52bd e3d7 ae3d 2929 b43c fc9b ccbd
00000130: cd63 7fbd 7b9c 9bbd e285 05bc 6769 de3d
00000140: cdcc 8d3c da70 253b 4c23 8e3d 31a4 b03c
00000150: c536 a23d 37d3 bcbc 03b9 26bc 92e5 843d
00000160: 9e89 adbd e052 c93c bc26 833c 9a56 3a3d
00000170: d8f9 a4bb 0432 513d d60b 9d3d 71f4 79bc
00000180: d8a2 86bd 583c 0b3d 1044 26bd b506 ef3d
00000190: a154 0c3c f647 07bc 1760 35bd d359 2e3d
000001a0: 5405 bf3c 9871 eebd 3c22 593d df10 a7bd
000001b0: 4173 b53c 39ce 873d 0512 1fbd 3996 d3bb
000001c0: c434 cbb9 5446 5f3d 18ca 6abd a7c1 08be
000001d0: 38ed 03be dcc4 a33c 943a 73bd f445 48bd
000001e0: 4e5c a6bc c992 c9bd a0b7 9c3c 73a9 e03c
000001f0: 9caa 76bd 7f4c 8c3c 8855 6d3d beb4 83bd
00000200: 25c4 22bd 363d cebd 541c 063d c4a5 03bd
00000210: 9c62 b4bc 88d6 05bc 7d53 65bd c9a5 783b
00000220: 2b21 b23d 3538 5cbd dfb5 2abd 48cb a53c
00000230: a5d9 113d e267 9fbd 76c4 6ebd bfcf 2d3d
00000240: 992f 743d e5ad f6bd a658 acbd ad9b 4b3c
00000250: 569e d03c 980f 56bc ecaf 7c3d 3111 ce3d
00000260: 1f5f dc3d 42ad bcbc 0461 293d ce73 30be
00000270: 25fd 85bd 698e 423d 2b6a 383c 4407 3b3d
00000280: 15cc af3d 7842 babd 0ba1 04bc b65c b93d
00000290: 51ce ffbc 46e4 613c dcc8 58bd 86b5 433d
000002a0: ae02 23bd 26c0 07bd b81f 22bd acd3 8a3c
000002b0: cb44 89bc 0f31 c1bd 3322 cd3c 4940 863c
000002c0: 44e6 fb3c d6ed 1d3c bc23 0db9 a0b3 47bb
000002d0: 4301 1bbd 15d6 16bc 8d90 e6bc 3038 b2bd
000002e0: dafa 253e b4fe 573d 98ea 1bbe c21c b03d
000002f0: 378a 9dbc 77ec a43c 46cd 8fbd 4bc0 bdba
00000300: 213b 433d 0e33 dbbd e71a c7bb 1e84 8cbd
00000310: 222c 9ebd 2914 17bd e83f 523d 0622 263c
00000320: efb5 a0bd cca2 093d b422 fbbc 334f 433c
00000330: 69c7 48bd 5471 673d 724e e7bb bb63 293d
00000340: 3361 75bc c34d 983c 3378 23bd 37e5 77bd
00000350: 6c10 9f3d 01ed d4bc 6f4e adbd 6e50 053d
00000360: 3bd8 f7bb 13b2 1a3c b675 91bc e22e d43d
00000370: 1327 733d 9149 dbbc 0d42 dcbc f40c 02bd
00000380: 18c1 f53d 04cb 05bd 9f0e 853d b643 233d
00000390: d7e3 59bd b58b 583d b5d7 fb3c 7af9 b7bd
000003a0: 85a0 cc3d 7a58 dd3d 3920 64bc fa86 063c
000003b0: a2f0 2fbb 1ae4 ccbc d3ba bd3d 8efd 073d
000003c0: b8d0 36bd 8d49 63bc 8dc3 77bd f90a 1439
000003d0: 0e9b 113d bb2c 523d c631 f43b 7773 8b3d
000003e0: 5e42 bd3c 9cf2 9ebc 396b 133e a7aa 9fbd
000003f0: 2490 74bd b715 3bbb 4f8d 433d 800c a1bc

linearD3.weight f4 [6, 14]
0.18093932 0.14547211 0.035155464 -0.010393934 0.16431017 0.22900055 0.083860576 -0.086617455
-0.10027797 0.14668705 -0.06152382 0.1247248 -0.0257171 0.1386318 0.19277012 -0.07991186
0.1095176 -0.18499549 0.24314274 -0.030770583 0.29385975 0.08590819 0.034806658 0.06870891
0.0098213395 -0.051046632 -0.07398968 0.01706779 0.1554016 0.0009491827 0.008636639 -0.06610503
-0.06280657 -0.10931081 -0.17200544 -0.05603178 0.09186115 -0.022104153 0.030146573 0.1860662
-0.02604353 -0.106693864 0.16871895 0.07830739 -0.036185894 0.09974022 -0.14544727 -0.1285018
-0.06787628 0.059424188 0.16837774 -0.12327797 -0.13790606 0.10175863 0.17351845 0.16828793
0.123534895 -0.14526382 0.106172726 0.27737516 -0.15073538 0.13264897 0.029868215 -0.009740834
0.13137423 0.066105194 0.051374897 -0.22323921 -0.21331802 -0.16407718 0.14055704 0.07516273
0.012120706 0.029424656 -0.34852117 -0.05654849 0.14730652 0.036505498 0.1487429 0.17891568
0.055048548 -0.13948204 -0.19905975 -0.041562006
00000000: 2848 393e a4f6 143e 2dff 0f3d 524b 2abc
00000010: ed40 283e 1f7f 6a3e 18bf ab3d 7e64 b1bd
00000020: 895e cdbd 2135 163e 6700 7cbd b76f ff3d
00000030: abac d2bc 7ff5 0d3e 8865 453e d4a8 a3bd
00000040: c34a e03d 756f 3dbe 69fa 783e 9712 fcbc
00000050: c974 963e a2f0 af3d 6d91 0e3d 42b7 8c3d
00000060: afe9 203c 4616 51bd e787 97bd c0d1 8b3c
00000070: 9921 1f3e 93d2 783a b180 0d3c 1362 87bd
00000080: bba0 80bd 59de dfbd 3222 30be 9481 65bd
00000090: b321 bc3d c513 b5bc f2f5 f63c 2388 3e3e
000000a0: 3e59 d5bc 5082 dabd a9c4 2c3e a05f a03d
000000b0: a937 14bd 9a44 cc3d 21f0 14be fa95 03be
000000c0: b802 8bbd c766 733d 376b 2c3e 2979 fcbd
000000d0: 3f37 0dbe d466 d03d d2ae 313e ac53 2c3e
000000e0: ddff fc3d 0ac0 14be 1671 d93d 1e04 8e3e
000000f0: 605a 1abe 22d5 073e 30ae f43c 0598 1fbc
00000100: f786 063e 2962 873d 7c6e 523d d298 64be
00000110: 0a70 5abe d903 28be 2fee 0f3e ebee 993d
00000120: ed95 463c fa0b f13c 5e71 b2be 649f 67bd
00000130: 85d7 163e ca86 153d 0f50 183e ac35 373e
00000140: 967a 613d 61d4 0ebe 52d6 4bbe ec3c 2abd

linearD3.bias f4 [6]
0.08882492 0.07199663 0.04168178 0.10051587 -0.12961438 0.16795675
00000000: d7e9 b53d f872 933d 84ba 2a3d 44db cd3d
00000010: a2b9 04be dbfc 2b3e
