continous_state/pretrained/VE/VE2_128.pt (torch, 13659 bytes, 9 tensors)

linearK1.weight f4 [2, 8]
-0.110719815 -0.037441507 -0.2647165 -0.82263166 0.0037277455 0.10322807 -0.35827938 -0.12653248
-0.20505269 -0.6240662 0.029627109 -0.1271501 0.0064976965 -0.070962265 0.09693395 0.013494009
00000000: 12c1 e2bd 445c 19bd ec88 87be fd97 52bf
00000010: 314d 743b 3d69 d33d 6570 b7be bb91 01be
00000020: 55f9 51be cdc2 1fbf 8db4 f23c a333 02be
00000030: a1ea d43b aa54 91bd 4f85 c63d fa15 5d3c

linearD1.weight f4 [256, 2]
0.30345264 -0.43922228 -0.14764403 0.24853781 0.35006586 0.6049895 0.12631045 0.2838856
-0.79455614 -0.13148156 -0.17705444 0.28905934 0.56750995 0.43172902 -0.53438824 0.24989206
0.5039182 0.08113078 0.5513962 -0.20291327 0.64320785 0.34435317 -0.32129908 0.18952633
0.63702905 0.023311967 -0.5374589 0.11978475 0.1921495 -0.526831 0.45833278 0.69843805
-0.53568923 -0.7568676 0.80352676 -0.1876758 0.57509613 -0.5042965 0.18997777 -0.27419427
-0.094572045 0.51068413 -0.49422827 0.54015124 -0.37571424 -0.34603798 -0.040993698 0.06480807
-0.20892376 -0.42011344 0.2531598 -0.07316308 -0.021406623 -0.41139823 0.46024218 0.10945739
0.7947941 0.10383647 -0.23567918 -0.082665116 0.20826778 0.11770068 -0.5070667 0.66369534
0.17865379 0.7615124 0.47160769 0.24543495 -0.47019058 -0.63407516 -0.38923937 -0.33051595
0.52141285 -0.24308574 0.34929627 0.232677 -0.19850947 0.1353986 -0.19827452 0.7463148
0.58883625 -0.1634807 0.8720945 -0.35942712 0.014246776 -0.6952341 0.25655636 -0.4126949
-0.3167272 -0.6694599 0.67164415 0.45428127 -0.116751224 0.40230045 0.21755448 -0.12892063
0.11594355 -0.34040415 0.23858602 0.18298294 0.3844634 -0.048517525 0.3383284 0.6122098
-0.28179196 -0.092197105 0.018049585 0.22463286 -0.26701435 0.028199855 -0.68086296 -0.3454341
0.038507022 0.5795291 -0.6145844 0.19932358 -0.40714404 -0.42963848 -1.0853308 0.11584452
0.008339262 0.22850537 -0.045784596 -0.45604274 0.015640754 -0.49783945 -0.052114893 0.05885854
0.13964662 0.48665568 -0.42212376 0.44798627 -0.013850833 0.011081321 0.5087178 0.80422795
-0.23019592 0.069407664 0.024154216 -0.21582937 -0.0048153554 0.6451597 0.3067358 -0.795036
0.09610039 -0.00029312342 -0.36773914 -0.0009085147 -0.090652905 0.46007046 0.09056166 -0.5256302
-0.7595603 -0.26652306 -0.30708092 -0.034787472 -0.6259522 -0.20973101 -0.28483748 0.4559977
-0.26048815 -0.60212815 -0.15102759 -0.18169859 0.6491025 -0.6664526 0.39911178 -0.5473604
0.0134699885 -0.24832408 -0.49359655 -0.3389694 0.25552455 -0.41325572 -0.7472797 -0.20941874
-0.02021269 -0.2803742 0.12225571 0.6119057 -0.37387276 0.68169856 0.03189158 0.32042047
0.40578237 0.25643903 -0.10326101 -0.13350078 -0.080636054 -0.19443415 -0.37318495 -0.20070948
0.184715 -0.32649127 0.47510713 -0.065698065 -1.0580146 0.1688376 -0.12351424 0.689339
0.6283155 0.13358723 -0.47868547 -0.3543585 -0.78926593 0.29250064 -0.8643025 -0.0146691045
0.38346216 -0.4103547 -0.4305653 -0.32968742 -0.46715394 -0.16305672 0.5196341 0.1201147
-0.23534437 -0.565353 -0.63626885 -0.5801409 -0.28676698 0.34844154 0.6801822 -0.2252554
0.03645276 -0.3676806 0.19323121 -0.50014895 0.7769881 0.31538254 -0.119343884 0.08220276
0.18757296 -0.08351917 0.037706796 0.11283352 -0.3049366 0.0074890153 -0.522179 -0.85167664
-0.081237964 0.108066484 -0.49639153 -0.121397324 0.053058777 -0.154666 0.701063 0.05942958
-0.007429209 -0.25307223 -0.68065864 -0.377847 -0.28342903 -0.60807997 0.3024154 -0.5286804
00000000: 255e 9b3e bee1 e0be ff2f 17be b280 7e3e
00000010: d53b b33e 98e0 1a3f 8757 013e 7459 913e
00000020: 0868 4bbf 1aa3 06be c24d 35be 96ff 933e
00000030: 5548 113f 960b dd3e abcd 08bf b4e3 7f3e
00000040: c800 013f e527 a63d 4d28 0d3f 7fc8 4fbe
00000050: 45a9 243f 0f4f b03e 5081 a4be 3113 423e
00000060: 5614 233f bdf8 be3c e896 09bf b551 f53d
00000070: d7c2 443e 65de 06bf 98aa ea3e d6cc 323f
00000080: ee22 09bf 13c2 41bf eeb3 4d3f 162e 40be
00000090: 8039 133f 9319 01bf 8889 423e 3163 8cbe
000000a0: fdae c1bd 32bc 023f 7d0b fdbe 5a47 0a3f
000000b0: 9e5d c0be e42b b1be 02e9 27bd 18ba 843d
000000c0: 1cf0 55be 1c19 d7be 299e 813e 86d6 95bd
000000d0: f15c afbc caa2 d2be dda4 eb3e 322b e03d
000000e0: a077 4b3f 37a8 d43d e255 71be 544c a9bd
000000f0: 2644 553e 0e0d f13d 20cf 01bf f0e7 293f
00000100: 05f1 363e 7af2 423f 9076 f13e 4d53 7b3e
00000110: d2bc f0be c052 22bf 624a c7be 6339 a9be
00000120: 507b 053f 78eb 78be f6d6 b23e e142 6e3e
00000130: 1146 4bbe eea5 0a3e 7a08 4bbe 7d0e 3f3f
00000140: f9bd 163f 7c67 27be 9641 5f3f d506 b8be
00000150: 4f6b 693c ddfa 31bf 5b5b 833e bf4c d3be
00000160: 112a a2be b961 2bbf dff0 2b3f 8e97 e83e
00000170: 441b efbd 53fa cd3e 9ac6 5e3e c503 04be
00000180: d073 ed3d 7449 aebe e54f 743e e15f 3b3e
00000190: 63d8 c43e 50ba 46bd 6139 ad3e c8b9 1c3f
000001a0: 0947 90be d6d1 bcbd b9dc 933c 2806 663e
000001b0: 1bb6 88be 6203 e73c 094d 2ebf bddc b0be
000001c0: 8ab9 1d3d 055c 143f 6755 1dbf 7b1b 4c3e
000001d0: 2f75 d0be 93f9 dbbe 1fec 8abf e43f ed3d
000001e0: 66a1 083c 50fd 693e a188 3bbd 6f7e e9be
000001f0: 0a21 803c d0e4 febe 6d76 55bd a715 713d
00000200: 86ff 0e3e ef2a f93e 9b20 d8be 755e e53e
00000210: 9bee 62bc 6e8e 353c 543b 023f e2e1 4d3f
00000220: 7bb8 6bbe 9b25 8e3d 10df c53c 6002 5dbe
00000230: 21ca 9dbb 3029 253f 7a0c 9d3e 7b87 4bbf
00000240: 48d0 c43d 5cae 99b9 4e48 bcbe 6429 6eba
00000250: 3ba8 b9bd 5b8e eb3e 6478 b93d b38f 06bf
00000260: 8b72 42bf b675 88be b639 9dbe 4f7d 0ebd
00000270: 673e 20bf bac3 56be 38d6 91be 8878 e93e
00000280: b45e 85be 1225 1abf faa6 1abe 320f 3abe
00000290: 952b 263f a39c 2abf 6158 cc3e d01f 0cbf
000002a0: 3ab1 5c3c ab48 7ebe b0b8 fcbe 668d adbe
000002b0: 1dd4 823e 4196 d3be b94d 3fbf de71 56be
000002c0: 1595 a5bc 358d 8fbe 3461 fa3d daa5 1c3f
000002d0: 406c bfbe cc83 2e3f bfa0 023d 270e a43e
000002e0: b5c2 cf3e fa4b 833e 827a d3bd 6eb4 08be
000002f0: 8424 a5bd bf19 47be 1912 bfbe c986 4dbe
00000300: ee25 3d3e dd29 a7be 3e41 f33e b58c 86bd
00000310: 066d 87bf c4e3 2c3e 09f5 fcbd 8578 303f
00000320: 49d9 203f 17cb 083e 4316 f5be 7a6e b5be
00000330: 550d 4abf a5c2 953e ee42 5dbf af56 70bc
00000340: 2755 c43e 031a d2be 0e73 dcbe cacc a8be
00000350: cd2e efbe 57f8 26be be06 053f b2fe f53d
00000360: 1dfe 70be f9ba 10bf 84e2 22bf 1d84 14bf
00000370: 1fd3 92be ee66 b23e 6c20 2e3f 5aa9 66be
00000380: 7d4f 153d a240 bcbe 67de 453e c309 00bf
00000390: b1e8 463f d279 a13e 916a f4bd ec59 a83d
000003a0: 2013 403e 190c abbd 7172 1a3d 4315 e73d
000003b0: a620 9cbe 6a66 f53b 86ad 05bf 7b07 5abf
000003c0: 1760 a6bd f651 dd3d 0827 febe 299f f8bd
000003d0: 2954 593d c460 1ebe dd78 333f 6e6c 733d
000003e0: b970 f3bb af92 81be a53f 2ebf 2975 c1be
000003f0: 9c1d 91be 21ab 1bbf 31d6 9a3e 9957 07bf

linearD1.bias f4 [256]
0.28281173 -0.037211016 -0.19625436 0.24947147 0.56180507 -0.045554336 -0.43130133 -0.38016245
0.42945048 -0.2849756 -0.60737914 -0.028063772 0.08899442 -0.5778021 0.121831566 0.17747232
0.019744279 -0.37669152 0.10096751 0.5215762 -0.43958414 -0.12540945 -0.55168456 -0.027107952
-0.30671725 -0.04891019 -0.38343355 -0.46113336 -0.1396112 -0.49994025 0.61099905 0.10019799
0.6374248 -0.17053138 -0.11226152 -0.6364603 0.5662204 0.2884828 0.04489519 -0.39680856
0.39598745 -0.39065838 -0.11052846 0.23812726 -0.2264898 0.31568125 -0.48401102 0.11999278
0.43760356 -0.32358205 0.15886603 -0.15537171 -0.63657707 -0.015258331 -0.24336646 -0.051442686
0.1991875 -0.5379466 0.51827437 0.6098957 -0.27999905 0.58769995 0.6073004 0.035002567
-0.24511379 -0.09335496 -0.010834977 -0.035331212 -0.24020725 -0.59653485 0.22020568 -0.36319315
-0.17475341 0.6588218 -0.27137494 0.03196549 -0.49392915 -0.07376264 -0.3252151 -0.105778575
0.40624103 -0.56036884 -0.09058006 -0.103459924 0.12113922 -0.12534827 0.6458101 -0.55206275
0.23943666 0.4968164 0.38807207 0.10497864 -0.20611857 -0.0072565237 -0.35465667 -0.11872662
-0.2509726 -0.67315125 0.527851 -0.6183844 -0.17379802 0.34212974 0.5717129 -0.7413773
0.34727603 -0.098746836 -0.03607335 -0.18169619 0.13205026 -0.53321314 -0.090679556 -0.37337598
-0.44089523 0.037075266 -0.29232666 0.057345834 0.16722827 0.60657716 0.6714569 -0.09165068
-0.51290196 0.12231772 0.4047565 0.63667864 0.12038105 0.09210682 0.70747083 -0.36739752
-0.59737843 0.510233 -0.56640863 0.47954264 -0.0991327 0.6205945 0.18698083 -0.2073905
0.583445 0.022898851 0.47250953 0.108403444 0.30764762 0.40059888 0.5547664 -0.47411156
-0.09224507 0.409928 -0.48547813 0.042981714 0.28640166 -0.479294 0.011116941 -0.20374113
0.14446224 0.07210274 0.009982788 -0.70112884 -0.5420891 -0.11879058 -0.36345103 0.5815065
-0.11956129 -0.2807387 -0.60301656 0.6085867 0.015637193 0.43690115 0.6744357 0.25687185
-0.070247136 -0.15481123 0.19881672 -0.56098616 -0.22228529 -0.6300595 -0.58780414 -0.13433866
0.3251033 -0.13589218 -0.62926203 -0.24979638 -0.15548971 -0.26743942 -0.45284018 0.25690106
-0.041680884 0.2076884 -0.6417924 -0.64230955 -0.10766191 -0.17212225 0.28282914 -0.51157
-0.51653796 0.31270155 0.083213806 0.28652024 -0.2148769 0.065888144 -0.5970633 -0.21127133
0.3483099 -0.68285483 0.2725575 0.098785736 0.5002273 0.67340297 0.04718552 0.05252679
-0.02997664 0.099132136 -0.49659517 0.55996853 0.43977982 -0.45230934 0.22969954 0.1372799
-0.4386835 -0.008684966 -0.005493567 0.4473316 0.3669922 -0.2676532 -0.23338628 -0.4163794
-0.067096986 -0.02478504 -0.21444507 0.3879712 0.13460039 -0.4880268 -0.7829736 0.5338206
0.052996013 0.49399516 -0.21015862 -0.7923688 -0.46412036 0.4553556 -0.37111303 -0.6094288
0.20891866 0.056416 -0.26017776 0.18839347 -0.742361 0.048981853 -0.48923323 0.44980654
-0.28656977 -0.6452729 -0.35002825 -0.21678807 0.13695845 0.17722738 0.1263582 -0.48502696
00000000: b3cc 903e 946a 18bd e7f6 48be 7375 7f3e
00000010: 75d2 0f3f 2f97 3abd 87d3 dcbe a7a4 c2be
00000020: efe0 db3e 52e8 91be 337d 1bbf ffe5 e5bc
00000030: b542 b63d d7ea 13bf d482 f93d 4ebb 353e
00000040: c1be a13c b6dd c0be 0ec8 ce3d 0586 053f
00000050: 2c11 e1be 566b 00be 333b 0dbf 7f11 debc
00000060: 0b0a 9dbe 0d56 48bd 6751 c4be ac19 ecbe
00000070: 3df6 0ebe 2bf8 ffbe 6f6a 1c3f 9b34 cd3d
00000080: 462e 233f c79f 2ebe 5ee9 e5bd 10ef 22bf
00000090: d2f3 103f 04b4 933e 05e4 373d 7e2a cbbe
000000a0: debe ca3e 6004 c8be bf5c e2bd a2d7 733e
000000b0: f1ec 67be f9a0 a13e 4bd0 f7be c6be f53d
000000c0: 930d e03e 8cac a5be c7ad 223e c319 1fbe
000000d0: b7f6 22bf 14fe 79bc 0f35 79be 91b5 52bd
000000e0: cff7 4b3e deb6 09bf a1ad 043f 2022 1c3f
000000f0: 095c 8fbe 8173 163f 0a78 1b3f da5e 0f3d
00000100: 1cff 7abe e330 bfbd 3085 31bc 76b7 10bd
00000110: e4f8 75be 82b6 18bf 997d 613e 74f4 b9be
00000120: 8ff2 32be 8ca8 283f a8f1 8abe 3fee 023d
00000130: 48e4 fcbe de10 97bd 9882 a6be 70a2 d8bd
00000140: d3fe cf3e 5574 0fbf 0a82 b9bd cce2 d3bd
00000150: d717 f83d 4c5b 00be d053 253f fc53 0dbf
00000160: e22e 753e b85e fe3e 62b1 c63e 0bff d63d
00000170: bf10 53be 22c8 edbb 8f95 b5be f126 f3bd
00000180: 7b7f 80be a453 2cbf 3e21 073f 714e 1ebf
00000190: 1cf8 31be a12b af3e c75b 123f e7ca 3dbf
000001a0: 2ace b13e c83b cabd a6c1 13bd 910e 3abe
000001b0: 2f38 073e a880 08bf 34b6 b9bd 232b bfbe
000001c0: 05bd e1be 3cdc 173d d7ab 95be 77e3 6a3d
000001d0: e33d 2b3e a448 1b3f 99e4 2b3f 5ab3 bbbd
000001e0: 8b4d 03bf b681 fa3d 3e3c cf3e 5ffd 223f
000001f0: 578a f63d 80a2 bc3d cf1c 353f 871b bcbe
00000200: cbed 18bf a19e 023f 2800 11bf 9d86 f53e
00000210: 1606 cbbd 48df 1e3f e777 3f3e 2d5e 54be
00000220: a75c 153f 5f96 bb3c c5ec f13e a002 de3d
00000230: fd83 9d3e 4c1b cd3e 2c05 0e3f c0be f2be
00000240: fcea bcbd 15e2 d13e 9790 f8be 980d 303d
00000250: 3da3 923e 0666 f5be d523 363c 84a1 50be
00000260: e9ed 133e 9aaa 933d d98e 233c 2e7d 33bf
00000270: 5ac6 0abf 7a48 f3bd 4116 babe 9cdd 143f
00000280: 8ddc f4bd fcbc 8fbe 4b5f 1abf 57cc 1b3f
00000290: 9219 803c 82b1 df3e d1a7 2c3f b584 833e
000002a0: bbdd 8fbd d686 1ebe 9c96 4b3e ca9c 0fbf
000002b0: c19e 63be 944b 21bf 557a 16bf 1390 09be
000002c0: f173 a63e 5227 0bbe 5117 21bf 9fca 7fbe
000002d0: b238 1fbe d2ed 88be abda e7be 8988 833e
000002e0: 93b9 2abd 45ac 543e 824c 24bf 666e 24bf
000002f0: d97d dcbd d140 30be fbce 903e 40f6 02bf
00000300: d53b 04bf 6b1a a03e 006c aa3d c8b2 923e
00000310: b108 5cbe 5df0 863d 24d9 18bf 8357 58be
00000320: ad55 b23e 93cf 2ebf a88c 8b3e 2d50 ca3d
00000330: e50e 003f 2364 2c3f 9b45 413d 5526 573d
00000340: 9291 f5bc ca05 cb3d b941 febe 195a 0f3f
00000350: d22a e13e 1795 e7be 5b36 6b3e 1a93 0c3e
00000360: 209b e0be 634b 0ebc 6103 b4bb a608 e53e
00000370: 67e6 bb3e d709 89be d0fc 6ebe ae2f d5be
00000380: 256a 89bd ff09 cbbc 7d97 5bbe 29a4 c63e
00000390: afd4 093e a6de f9be f570 48bf 78a8 083f
000003a0: 5912 593d efec fc3e d233 57be afd8 4abf
000003b0: 2fa1 edbe 5f24 e93e 8702 bebe 8703 1cbf
000003c0: c6ee 553e 7714 673d 0536 85be 38ea 403e
000003d0: 5f0b 3ebf 32a1 483d c77c fabe 0b4d e63e
000003e0: 46b9 92be 9b30 25bf e736 b3be b1fd 5dbe
000003f0: d63e 0c3e 187b 353e 0b64 013e 7455 f8be

linearK2.weight f4 [2, 256]
-0.005187043 0.00238962 -0.014854341 -0.057274073 0.0553868 -0.005951746 -0.010476528 -0.03549117
-0.016524326 -0.03979999 -0.039028667 0.011732419 0.098688856 -0.09428729 -0.008058375 -0.06373407
0.06089506 0.026205791 -0.0057925046 -0.00036821407 0.0015326414 0.009393119 0.018904338 -0.007116032
0.019837003 0.035441946 0.009596891 -0.027636247 0.0053806324 -0.003089693 -0.022105204 0.034954216
-0.058625888 -0.022145506 0.014731736 -0.014704629 0.06222857 -0.026092973 -0.02365212 0.006598698
0.044307996 -0.039208192 0.051078685 0.041283496 0.059012637 0.04626057 0.00818057 0.07281101
-0.0040971613 0.025881108 0.010710981 -0.042770196 0.045851603 -0.0029850986 -0.07374387 -0.03484227
-0.08972424 -0.075319685 -0.033855308 0.10227888 0.0018633181 -0.036050454 -0.039717067 0.00423871
-0.004713977 0.039037656 -0.0010806819 -0.049760047 -0.006493677 0.019108873 -0.050111763 0.08135095
-0.013140739 0.04412542 0.01306888 0.046974506 -0.058367256 -0.074066125 -0.026914021 -0.039706443
0.039254803 2.4076398e-05 -0.07797672 0.03783335 0.025486527 -0.009768209 0.007912961 -0.062117845
0.03667819 -0.0387443 0.019060446 -0.04784639 0.0326964 -0.013642573 -0.0349782 -0.009264221
0.014159415 -0.054927737 0.0834333 -0.017373396 0.03102427 -0.019374242 -0.021624317 -0.07584036
-0.0056346855 -0.0034674283 -0.053105798 0.06473171 0.0026684406 0.031827208 -0.0037429323 0.030785177
0.043086983 -0.011143202 -0.013170563 -0.023331678 0.00016339011 0.027914654 -0.048369244 0.100518875
-0.0028896655 -0.06734684 0.0069771325 0.04322846 0.045535926 -0.04097143 -0.050791938 0.05773663
0.043507665 0.022366459 -0.032915257 0.003521646 -0.1077083 -0.042596187 -0.034046743 0.04879461
-0.056835696 0.004940897 0.10617243 -0.025054157 0.045618087 -0.08002269 -0.033137746 0.034843355
0.1038776 0.022526838 0.07500172 0.0071982667 0.02847442 0.02411566 -0.025285324 -0.010201352
-0.025030317 0.062938824 0.00084448094 -0.10565908 -0.04293053 0.05987743 -0.049271703 -0.005639918
-0.03991498 -0.04326667 -0.09475984 -0.043420307 0.046768177 -0.012977758 0.058179278 0.016733028
0.002202455 -0.023990056 0.039868277 0.019277014 0.03795464 0.06125906 -0.032125656 -0.007586901
-0.015112747 -0.009905293 -0.034606684 -0.037403412 -0.014769587 -0.0014781891 -0.01334156 -0.018843986
-0.005451232 -0.0031023652 -0.00592746 0.008920005 -0.01803336 0.010714801 0.012941176 0.03008975
-0.0030360625 0.11989256 -0.031323902 -0.10461705 0.026637759 -0.057517227 -0.049617823 -0.041385993
0.06360926 -0.062621795 -0.06879716 0.027384726 -0.100636855 -0.032839198 0.0074856775 0.0053314483
-0.119004495 -0.0032171952 0.08045088 -0.013121398 -0.024439584 0.025220891 -0.030322928 -0.066385865
0.08219527 0.016007494 0.01063016 -0.010521612 -0.014439752 0.036249958 -0.012787805 0.030246763
0.0159871 -0.02861385 0.025501406 -0.07040544 0.009847278 0.081750564 -0.067441076 -0.026624074
0.003174649 -0.0125438105 -0.027440837 -0.05651604 0.019193396 0.016743919 0.053001367 -0.000413794
0.01749662 0.03955426 -0.0045527923 0.046974886 -0.10410436 0.08601997 -0.06332555 0.072418906
-0.02683777 -0.010176601 0.036800455 0.0062807356 -0.027449135 0.0073742345 -0.014031343 -0.038341083
00000000: 12f8 a9bb 2c9b 1c3b 9f5f 73bc 3898 6abd
00000010: 45dd 623d dd06 c3bb bea5 2bbc 305f 11bd
00000020: 065e 87bc 5005 23bd 86dc 1fbd 5539 403c
00000030: 621d ca3d b219 c1bd 4607 04bc 0287 82bd
00000040: 196d 793d 87ad d63c 0dcf bdbb db0c c1b9
00000050: e9e2 c83a 99e5 193c 45dd 9a3c 9a2d e9bb
00000060: 3681 a23c 932b 113d 473c 1d3c 6965 e2bc
00000070: 0450 b03b 727c 4abb f915 b5bc 272c 0f3d
00000080: b321 70bd 7e6a b5bc 615d 713c afeb 70bc
00000090: 63e3 7e3d eec0 d5bc 17c2 c1bc e439 d83b
000000a0: 4d7c 353d c598 20bd e237 513d e218 293d
000000b0: 3cb7 713d b97b 3d3d cc07 063c f01d 953d
000000c0: 7b41 86bb 9e04 d43c 1c7d 2f3c cd2f 2fbd
000000d0: e4ce 3b3d a5a1 43bb 0707 97bd c5b6 0ebd
000000e0: 58c1 b7bd 3541 9abd ddab 0abd 9777 d13d
000000f0: 953a f43a a4a9 13bd 5dae 22bd e0e4 8a3b
00000100: b577 9abb f3e5 1f3d aba5 8dba 31d1 4bbd
00000110: e9c8 d4bb 368a 9c3c fe41 4dbd 549b a63d
00000120: 414c 57bc dbbc 343d db1e 563c 5768 403d
00000130: 8112 6fbd fbaf 97bd cb7a dcbc 39a3 22bd
00000140: a5c9 203d acf7 c937 42b2 9fbd 25f7 1a3d
00000150: 1fc9 d03c d70a 20bc 5da5 013c 486f 7ebd
00000160: df3b 163d 58b2 1ebd a724 9c3c 94fa 43bd
00000170: a9ec 053d 1985 5fbc 4d45 0fbd f6c8 17bc
00000180: e4fc 673c e8fb 60bd 14df aa3d a752 8ebc
00000190: 9c26 fe3c bbb6 9ebc 7b25 b1bc 3152 9bbd
000001a0: 2ba3 b8bb cb3d 63bb 7785 59bd 0f92 843d
000001b0: 01e1 2e3b 3f5d 023d fc4b 75bb 3231 fc3c
000001c0: fa7b 303d fa91 36bc 58c9 57bc 1322 bfbc
000001d0: b353 2b39 46ad e43c d41e 46bd d7dc cd3d
000001e0: 8b60 3dbb 24ed 89bd 6ea0 e43b 5310 313d
000001f0: e183 3a3d a8d1 27bd 350b 50bd 3f7d 6c3d
00000200: 1835 323d dd39 b73c 26d2 06bd 6acb 663b
00000210: 2b96 dcbd 5779 2ebd 9974 0bbd dbdc 473d
00000220: 8ccc 68bd 40e7 a13b ee70 d93d 603e cdbc
00000230: 08da 3a3d f0e2 a3bd 72bb 07bd e8b7 0e3d
00000240: c7bd d43d 348a b83c 809a 993d 70df eb3b
00000250: 3043 e93c 348e c53c 2b23 cfbc 9223 27bc
00000260: 610c cdbc 12e6 803d 2860 5d3a ca63 d8bd
00000270: ecd7 2fbd 0942 753d 20d1 49bd 10cf b8bb
00000280: e47d 23bd 6438 31bd 7211 c2bd 7ed9 31bd
00000290: fd8f 3f3d aaa0 54bc 654d 6e3d b413 893c
000002a0: 1057 103b cb86 c4bc eb4c 233d d4ea 9d3c
000002b0: 5376 1b3d c8ea 7a3d 3196 03bd 8a9b f8bb
000002c0: 759b 77bc cf49 22bc bdbf 0dbd 5234 19bd
000002d0: 23fc 71bc ccbf c1ba 8f96 5abc b45e 9abc
000002e0: 40a0 b2bb 0d51 4bbb 233b c2bb 3625 123c
000002f0: b2ba 93bc 228d 2f3c 3a07 543c c87e f63c
00000300: adf8 46bb 3b8a f53d 7e4d 00bd 7741 d6bd
00000310: 6e37 da3c 2f97 6bbd 0f3c 4bbd 5c84 29bd
00000320: 9245 823d db3f 80bd 87e5 8cbd ef55 e03c
00000330: b21a cebd 6582 06bd 6a4a f53b 6eb3 ae3b
00000340: a1b8 f3bd 94d7 52bb 6ec3 a43d 22fb 56bc
00000350: 8635 c8bc 0b9c ce3c ca67 f8bc 50f5 87bd
00000360: fe55 a83d 2622 833c 1f2a 2e3c d762 2cbc
00000370: b694 6cbc d67a 143d f183 51bc 0fc8 f73c
00000380: 61f7 823c 9867 eabc 53e8 d03c ba30 90bd
00000390: 7a56 213c d76c a73d 8c1e 8abd bb1a dabc
000003a0: c60d 503b 8e84 4dbc 9bcb e0bc 5d7d 67bd
000003b0: 783b 9d3c 8b2a 893c f617 593d 7ef2 d8b9
000003c0: 1255 8f3c a603 223d 972f 95bb bd68 403d
000003d0: ab34 d5bd 3d2b b03d d3b0 81bd 5d50 943d
000003e0: e2da dbbc c2bb 26bc 13bc 163d a1ce cd3b
000003f0: 02dd e0bc 90a3 f13b b8e3 65bc 8a0b 1dbd

linearD2.weight f4 [256, 2]
-0.21847792 0.38899198 -0.33632573 -0.32042706 -0.19684643 0.19165616 -0.56686187 -0.13071002
0.22207016 0.40143737 0.09835209 -0.5597958 0.51757216 -0.098224685 0.69878936 0.2395571
0.60357034 -0.30559385 -0.2963272 0.3595336 -0.6088576 0.4185688 0.5763614 -0.3097594
-0.20037669 -0.33994862 0.3525789 0.12900223 -0.51598465 0.45218715 -0.3688692 -0.58775914
0.13919985 0.47325975 -0.47169745 -0.34319022 -0.09646216 -0.5960638 0.10333937 -0.27334192
0.115701586 0.020234095 -0.49224293 0.41662276 0.46708265 -0.4521458 -0.14065976 0.12785554
-0.5832862 -0.1877107 0.094495155 -0.0007907736 0.08211504 0.52075493 0.3184383 0.5792295
0.4735729 -0.32917953 -0.34158516 -0.3957535 0.12273068 -0.42873138 0.50825286 -0.30957898
-0.5198923 0.34325454 0.5405007 -0.5008167 0.2952051 -0.82002646 -0.7111239 0.28998503
0.04068408 -0.5159115 -0.07507391 0.38259503 -0.68580335 -0.34486818 -0.44135174 -0.2813435
-0.42855108 0.45992368 -0.31999317 0.32391155 0.35656565 0.18899158 0.0676654 0.28997716
0.0046611684 -0.53496003 -0.41913193 0.04565364 -0.14569105 0.56897503 -0.2868243 -0.1732625
-0.34376976 0.2661063 -0.32512724 -0.034431648 -0.21787676 0.5694692 0.5108174 -0.48358616
-0.36671275 0.73027784 0.3723421 0.4152062 0.5870573 0.34700033 -0.35497463 -0.002015703
0.07989251 0.26985008 0.3225467 -0.19541588 -0.42447773 -0.08213681 0.49375504 0.2537594
-0.45239672 -0.6640561 0.2892565 0.23305789 0.14436568 0.31649026 0.054040026 0.41762862
0.65453607 -0.09007109 -0.2357857 -0.4089968 -0.0407818 -0.41434717 -0.44751516 -0.4626509
0.25585932 0.5683184 0.5249247 -0.29128385 -0.4137436 -0.57849807 -0.4319486 -0.49827206
-0.38168752 -0.074262574 -0.17203154 0.27361637 0.4349765 -0.5852197 -0.2207121 -0.5962
0.1723054 -0.47407928 -0.5314277 -0.68123585 0.35442263 0.1361309 -0.74356973 -0.4354035
-0.5547249 0.84309995 -0.30844587 0.014050543 0.30953094 0.23172987 -0.008160514 -0.020083692
0.4113078 -0.20638968 0.14802603 0.6142423 -0.35563514 0.12016072 -0.7763197 -0.44250014
-0.1746892 -0.40043792 0.27331483 -0.6533999 0.11658975 0.33199143 0.20868756 -0.3163725
-0.19122547 0.61592185 0.62103915 0.09622844 0.15903956 0.5501475 -0.27292094 -0.70350575
-0.1273494 -0.56861126 -0.10223685 -0.53429115 -0.4566746 0.06510686 0.54777515 0.28278774
-0.3461018 0.798693 0.442001 -0.032027647 -0.063080706 -0.14977972 -0.10739896 0.2626901
0.61146086 -0.57879156 0.55765754 -0.84627503 -0.07868813 -0.09652564 -0.3845482 0.05559123
0.22783113 -0.30113557 -0.1875943 0.004053309 -0.33096233 -0.12213514 -0.49854618 0.14239608
-0.39951903 -0.47697446 -0.43221924 -0.21742739 -0.1474777 -0.6815451 0.30665788 0.05122892
-0.42796043 -0.4072383 0.5148399 0.07037445 0.45033553 -0.1751862 -0.14386186 0.60194916
0.43708414 0.02739216 0.6176559 -0.23647782 -0.47717637 -0.42016396 -0.010099803 0.4955254
-0.47182623 0.097210035 0.09222369 0.37040797 0.4462323 -0.7894878 -0.17914644 -0.5723395
00000000: adb8 5fbe f529 c73e e332 acbe 040f a4be
00000010: 1c92 49be 8341 443e dc1d 11bf d9d8 05be
00000020: 5c66 633e 3389 cd3e d26c c93d c74e 0fbf
00000030: 9c7f 043f 062a c9bd dce3 323f 754e 753e
00000040: 9683 1a3f cc76 9cbe 33b8 97be ca14 b83e
00000050: 17de 1bbf a64e d63e 6c8c 133f c998 9ebe
00000060: 8c2f 4dbe bf0d aebe 3985 b43e 2919 043e
00000070: 9217 04bf 1385 e73e 6cdc bcbe 6277 16bf
00000080: 688a 0e3e 1a4f f23e 5482 f1be a1b6 afbe
00000090: f48d c5bd a397 18bf 97a3 d33d 79f3 8bbe
000000a0: f4f4 ec3d f9c1 a53c 4407 fcbe 944f d53e
000000b0: 7525 ef3e a87f e7be 1d09 10be 90ec 023e
000000c0: 3f52 15bf 3c37 40be ad86 c13d eb4b 4fba
000000d0: ee2b a83d 3250 053f 580a a33e 6248 143f
000000e0: 2678 f23e 388a a8be 40e4 aebe 34a0 cabe
000000f0: 395a fb3d ae82 dbbe dc1c 023f 2381 9ebe
00000100: a917 05bf 0fbf af3e 415e 0a3f 8635 00bf
00000110: 1f25 973e 41ed 51bf 370c 36bf eb78 943e
00000120: 5aa4 263d c712 04bf 5ac0 99bd 7fe3 c33e
00000130: cf90 2fbf 9092 b0be dbf8 e1be 410c 90be
00000140: 0c6b dbbe 1e7b eb3e 25d6 a3be bcd7 a53e
00000150: c68f b63e 0287 413e 2894 8a3d e377 943e
00000160: b7bc 983b 24f3 08bf 7698 d6be 50ff 3a3d
00000170: 0930 15be 59a8 113f a2da 92be ba6b 31be
00000180: 9702 b0be 163f 883e 1477 a6be 3308 0dbd
00000190: 161b 5fbe bcc8 113f eec4 023f 9b98 f7be
000001a0: c6c1 bbbe 7df3 3a3f a0a3 be3e e895 d43e
000001b0: 6349 163f 07aa b13e 3cbf b5be e219 04bb
000001c0: af9e a33d ca29 8a3e d724 a53e 1a1b 48be
000001d0: 2555 d9be 5837 a8bd 76cd fc3e c1ec 813e
000001e0: 8ba0 e7be 95ff 29bf 6e19 943e baa6 6e3e
000001f0: 99d4 133e 030b a23e 1359 5d3d 6bd3 d53e
00000200: ad8f 273f 3177 b8bd ce71 71be 0768 d1be
00000210: d10a 27bd 5025 d4be b520 e5be 94e0 ecbe
00000220: feff 823e 517d 113f 7761 063f 2823 95be
00000230: 33d6 d3be 7318 14bf 5e28 ddbe 841d ffbe
00000240: 8c6c c3be fa16 98bd 0929 30be 7217 8c3e
00000250: 3db5 de3e f5d0 15bf 5a02 62be 90a0 18bf
00000260: d470 303e 85ba f2be a50b 08bf 7965 2ebf
00000270: e276 b53e e665 0b3e 965a 3ebf 35ed debe
00000280: 7302 0ebf 66d5 573f 9eec 9dbe 4034 663c
00000290: d77a 9e3e 984a 6d3e adb3 05bc 8e86 a4bc
000002a0: f096 d23e d157 53be 2394 173e fc3e 1d3f
000002b0: cf15 b6be d316 f63d e3bc 46bf 618f e2be
000002c0: bae1 32be 3306 cdbe ecef 8b3e 3745 27bf
000002d0: 9bc6 ee3d c8fa a93e 31b2 553e 94fb a1be
000002e0: 9cd0 43be 0ead 1d3f 6cfc 1e3f 6b13 c53d
000002f0: 44db 223e 77d6 0c3f 4bbc 8bbe f418 34bf
00000300: e267 02be 8290 11bf 8e61 d1bd 4ec7 08bf
00000310: 41d1 e9be bf56 853d fe3a 0c3f 8ec9 903e
00000320: 4134 b1be 2577 4c3f f44d e23e 6c2f 03bd
00000330: 7530 81bd db5f 19be fcf3 dbbd 517f 863e
00000340: b388 1c3f af2b 14bf a5c2 0e3f 7ba5 58bf
00000350: 3e27 a1bd 3caf c5bd 80e3 c4be a1b3 633d
00000360: 904c 693e 712e 9abe b818 40be 9fd1 843b
00000370: e573 a9be fd21 fabd 7241 ffbe 47d0 113e
00000380: c28d ccbe ff35 f4be d74b ddbe 49a5 5ebe
00000390: 6504 17be bd79 2ebf 4302 9d3e 6bd5 513d
000003a0: a11d dbbe 8a81 d0be 8ccc 033f 7b20 903d
000003b0: 6192 e63e 0364 33be 8650 13be 5719 1a3f
000003c0: 7ec9 df3e 8665 e03c b21e 1e3f 3e27 72be
000003d0: 7650 f4be bb1f d7be a579 25bc 81b5 fd3e
000003e0: 3593 f1be 0e16 c73d c6df bc3d 1da6 bd3e
000003f0: 8f78 e43e df1b 4abf 2a72 37be d784 12bf

linearD2.bias f4 [256]
0.54788744 0.4086433 -0.07069077 0.55870306 -0.6501796 0.12026466 -0.33989704 0.6736355
-0.42264578 -0.14331396 0.396938 0.58647346 0.025397837 -0.38952526 -0.46555638 -0.17000224
-0.5030959 0.059771713 0.64581 0.18355937 0.53426737 0.5904691 0.45637193 -0.5069903
0.5772072 0.24758922 0.046481147 -0.34084278 -0.22133078 -0.38307726 0.18839061 -0.6246584
-0.2676178 0.5299743 0.53219587 -0.20887521 0.2469785 -0.45515892 -0.6303799 -0.40027225
-0.58289474 -0.514907 -0.101880535 -0.35334596 -0.11631622 -0.16424237 -0.122743964 -0.12394764
-0.46070993 -0.16856524 0.4109393 -0.12341721 0.6966435 0.33667997 0.22669554 0.096627295
0.18897873 -0.13026772 -0.43900824 0.5778617 0.10108107 0.20694491 -0.6986586 -0.67868936
0.36888576 0.5958675 -0.6048724 -0.20532472 -0.59260654 -0.59676117 0.6653745 0.66072464
-0.035878338 0.56829846 0.60128343 -0.5714798 0.3363586 0.20384707 0.16907556 -0.51847905
0.77141345 -0.23937364 -0.31412426 0.020717122 -0.019604506 0.13820152 0.0033024831 -0.65840346
0.35907418 -0.5995776 -0.30478424 0.10914154 -0.13873887 0.60528624 -0.6732911 0.5337817
0.5653211 -0.1498125 -0.51079726 -0.18142115 -0.55197567 0.2236665 0.15692897 -0.20378149
0.08127879 -0.87125885 -0.60929126 -0.2412897 0.2689305 -0.13786976 0.13578115 -0.4882192
-0.21619242 -0.5329117 0.22807877 -0.35344592 0.5644043 0.20339717 -0.094051845 0.43545124
0.6183237 -0.36670363 0.32875216 -0.6545734 -0.0012385756 0.43424687 0.04790961 0.19501206
-0.47046477 -0.6693286 0.4439401 -0.0028221807 -0.27096188 -0.0044519184 -0.4540156 -0.52234226
0.1057614 0.1080932 0.2842233 -0.4679264 0.2766568 -0.38658854 0.50499856 0.475413
0.23264311 0.026705297 0.17651543 0.3637072 0.34515208 0.49457216 0.047733855 0.047239173
0.011934322 -0.13413917 -0.6613673 -0.19709374 0.501372 0.54242086 0.29753977 -0.3347949
0.57875276 -0.4312895 -0.04794249 -0.29570684 -0.020862008 -0.098964445 -0.28519973 -0.33083108
0.07771301 -0.48636964 0.24892478 -0.1593104 -0.35108608 -0.008461421 0.027089985 -0.21331641
0.15907411 0.43559182 0.27590668 -0.33354494 -0.6276692 0.60361654 0.44541082 -0.10365348
-0.27190182 -0.36340904 0.3122035 0.4809325 -0.33377868 -0.7640571 0.082575485 0.561784
0.51506877 0.02523144 -0.5413307 -0.15083458 -0.22160932 -0.20065941 -0.67604715 0.68526816
-0.22116359 -0.39692873 -0.6248819 -0.2172645 -0.00045278211 0.26113686 0.28379118 -0.17920858
-0.26634544 -0.094875105 0.0003778804 0.41533354 -0.5150802 -0.3726466 -0.09238088 -0.24520817
0.0910299 -0.58417565 -0.5846344 0.4011092 0.058544636 -0.6111588 0.51531553 0.022005945
-0.017372962 -0.24098377 -0.49395257 -0.061006457 -0.11318091 0.5289506 -0.36099258 -0.5411364
0.31954455 0.09295554 0.6405546 -0.24552558 0.67687887 -0.5856154 -0.10062771 -0.38370746
-0.051404905 0.17454694 -0.5978853 -0.29934606 0.5769759 -0.046082538 -0.38745397 0.33033913
0.29982382 0.48245743 -0.3168443 0.029993277 -0.38148093 -0.3967618 -0.48014814 -0.08422994
00000000: 5a42 0c3f b239 d13e 53c6 90bd 2a07 0f3f
00000010: 2c72 26bf 514d f63d fc06 aebe 6073 2c3f
00000020: 0765 d8be e5c0 12be 753b cb3e 2023 163f
00000030: 200f d03c db6f c7be 685d eebe 1115 2ebe
00000040: e5ca 00bf 2fd3 743d ce53 253f fdf6 3b3e
00000050: bfc5 083f fc28 173f 95a9 e93e 1eca 01bf
00000060: dac3 133f 0788 7d3e 0463 3e3d f282 aebe
00000070: 89a4 62be b422 c4be 78e9 403e 9de9 1fbf
00000080: 3305 89be 65ac 073f fd3d 083f 62e3 55be
00000090: efe7 7c3e 970a e9be 9460 21bf 7cf0 ccbe
000000a0: 9738 15bf f2d0 03bf bea6 d0bd c3e9 b4be
000000b0: 3337 eebd 272f 28be 3061 fbbd 43d8 fdbd
000000c0: 2ce2 ebbe 5e9c 2cbe a366 d23e 2ac2 fcbd
000000d0: 3a57 323f 5161 ac3e e022 683e 88e4 c53d
000000e0: a483 413e e764 05be b0c5 e0be bfee 133f
000000f0: 9803 cf3d 5ee9 533e 4adb 32bf 96be 2dbf
00000100: 98de bc3e c68a 183f ebd8 1abf a540 52be
00000110: 10b5 17bf 57c5 18bf fc55 2a3f 4025 293f
00000120: 2af5 12bd 027c 113f b6ed 193f 804c 12bf
00000130: 3237 ac3e 49bd 503e 2522 2d3e 0bbb 04bf
00000140: 5a7b 453f 5d1e 75be e5d4 a0be f4b6 a93c
00000150: a199 a0bc b384 0d3e 796e 583b 218d 28bf
00000160: 92d8 b73e eb7d 19bf ae0c 9cbe 9a85 df3d
00000170: 9011 0ebe 0af4 1a3f ce5c 2cbf eba5 083f
00000180: e2b8 103f 7368 19be 9cc3 02bf 77c6 39be
00000190: 474e 0dbf d508 653e fdb1 203e 18ac 50be
000001a0: 7f75 a63d d20a 5fbf 83fa 1bbf a614 77be
000001b0: 42b1 893e bb2d 0dbe 370a 0b3e def7 f9be
000001c0: 8c61 5dbe e76c 08bf 7b8d 693e ddf6 b4be
000001d0: cd7c 103f 5947 503e 419e c0bd 77f3 de3e
000001e0: 764a 1e3f 94c0 bbbe 3452 a83e 1f92 27bf
000001f0: b357 a2ba 9b55 de3e de3c 443d 3eb1 473e
00000200: c2e0 f0be 1e59 2bbf 1e4c e33e 56f4 38bb
00000210: 84bb 8abe 66e1 91bb bc74 e8be 39b8 05bf
00000220: 6f99 d83d f85f dd3d b785 913e 0d94 efbe
00000230: f6a5 8d3e efee c5be 9647 013f 5569 f33e
00000240: ff39 6e3e 11c5 da3c 76c0 343e d537 ba3e
00000250: c6b7 b03e 9038 fd3e 9384 433d dd7d 413d
00000260: 2d88 433c c75b 09be 5e4f 29bf f1d2 49be
00000270: ea59 003f 18dc 0a3f 2257 983e 3d6a abbe
00000280: 2429 143f fad1 dcbe 585f 44bd e366 97be
00000290: cde6 aabc dfad cabd b305 92be b162 a9be
000002a0: 0028 9f3d 7105 f9be 23e6 7e3e 4422 23be
000002b0: 8ec1 b3be c6a1 0abc d1eb dd3c 9e6f 5abe
000002c0: 53e4 223e e405 df3e a443 8d3e 67c6 aabe
000002d0: eeae 20bf 9d86 1a3f e30c e43e 4748 d4bd
000002e0: b736 8bbe c010 babe 23d9 9f3e c93c f63e
000002f0: 0ae5 aabe 3f99 43bf 561d a93d 14d1 0f3f
00000300: 8cdb 033f 2ab2 ce3c a694 0abf 6174 1abe
00000310: 8eed 62be a979 4dbe 6d11 2dbf bc6d 2f3f
00000320: b578 62be 3e3a cbbe 43f8 1fbf 967a 5ebe
00000330: 6363 edb9 bbb3 853e 144d 913e 7482 37be
00000340: 6e5e 88be e14d c2bd 401e c639 99a6 d43e
00000350: 4cdc 03bf 89cb bebe 3032 bdbd da17 7bbe
00000360: e26d ba3d 898c 15bf 9aaa 15bf 2f5e cd3e
00000370: 80cc 6f3d e774 1cbf b8eb 033f d045 b43c
00000380: be51 8ebc 73c4 76be 5ae7 fcbe e8e1 79bd
00000390: 65cb e7bd 4e69 073f 05d4 b8be ea87 0abf
000003a0: 589b a33e 795f be3d 63fb 233f 0f6b 7bbe
000003b0: ef47 2d3f e4ea 15bf e715 cebd 4e75 c4be
000003c0: f38d 52bd 6fbc 323e 030f 19bf e343 99be
000003d0: b1b4 133f 0bc1 3cbd 5e60 c6be 3622 a93e
000003e0: 8282 993e a904 f73e 6b39 a2be 76b4 f53c
000003f0: 7851 c3be 5d24 cbbe fad5 f5be bf80 acbd

linearK3.weight f4 [2, 256]
-0.023826689 -0.013528807 0.015475505 0.077877805 0.072872885 -0.042978667 -0.029372841 0.024247983
0.047786806 0.047946464 0.0034028443 0.022342809 0.01940919 0.032022722 0.04620402 0.06546163
0.0009578522 0.033739995 -0.022144342 -0.012984663 -0.05262671 0.022168096 -0.0042909933 -0.008336347
0.03677434 0.019537218 -0.030769676 -0.019964566 -0.05220114 0.03305783 -0.08375756 -0.06718039
-0.024675848 -0.011947938 0.04206219 -0.018830601 -0.06623722 0.056107447 0.06446814 0.04465099
0.071211524 0.06522787 0.026498338 0.0070006903 -0.0005048896 0.07677386 0.021114055 0.024597798
0.029306052 0.073439635 0.03477235 -0.002325495 0.06533239 -0.070209846 0.0021168578 0.07382592
-0.005079322 -0.019162677 -0.0022523697 0.006510277 0.029053489 0.022975214 0.07012031 0.11518977
-0.019422302 -0.10890723 -0.014553939 0.006983141 0.0023047598 0.025263287 0.031112071 0.01187578
0.010800536 0.019293366 -0.031323753 -0.0061503807 -0.051538568 0.020491034 0.034958202 -0.05263713
0.0031536582 0.016866747 -0.032158416 -4.3086377e-05 -0.08275806 -0.039728608 0.092385255 0.0126628345
-0.014964951 -0.054543983 0.00069471984 -0.02651867 -0.022440314 0.04825296 0.11953081 0.02828433
-0.06100636 0.04997455 0.073806934 0.03398379 -0.058715597 -0.02248201 -0.00051916635 0.116361
0.03610712 -0.0580536 -0.012302031 0.0021375485 0.0005579798 0.048168257 -0.018197786 0.056854505
-0.037838213 0.007978889 0.04523141 -0.025763383 -0.016307961 -0.05437536 -0.060220763 0.03994152
0.033997763 -0.017581446 0.03282677 0.073691785 0.038652036 -0.043885525 0.033366762 0.0028358826
-0.0052218637 -0.07081605 0.02631196 0.041830033 0.042124044 0.017134957 -0.027934514 0.05625134
-0.09293643 -0.01235409 -0.080587044 0.07085714 0.05528871 -0.043700106 0.014354348 0.025175462
-0.035639565 0.015632274 0.041906275 -0.027465586 -0.05221401 -0.009849871 -0.062522985 0.054410156
0.072571434 0.00048490564 -0.022148306 -0.027028529 0.04432652 0.029724449 0.005769051 0.1035908
0.018640174 -0.013699033 0.09247422 0.030274699 0.06427561 0.009445519 -0.06785331 0.036899354
0.0018361155 0.014575448 -0.026679521 0.0005289212 -0.0016396049 -0.019219317 -0.0057432894 -0.017090969
-0.06377397 0.04533165 0.05398418 0.013209403 -0.016798051 0.02670533 -0.05818317 -0.013617721
0.036216527 0.06953779 0.027016617 -0.0033528153 0.0021916737 -0.056155324 -0.026770758 0.037573736
0.019901622 -0.048831895 0.03542914 0.024529923 0.064287744 0.0035531544 0.04659552 -0.027671142
0.03831016 -0.0028232173 0.0539658 -0.00018259298 8.667157e-05 -0.041607913 -0.019134391 0.030521955
-0.0124966735 -0.0069574793 0.017288623 -0.024437359 0.017235262 0.054411214 0.011218312 0.010670079
0.033509467 -0.012852745 0.024067879 0.033042397 -0.016979432 -0.021901086 -0.019806322 -0.018592278
0.02648178 0.005964008 0.028208394 0.02735198 -0.028338918 -0.0070567033 0.088785514 0.024558913
0.0070736646 -0.052353196 0.056457985 0.04886293 -0.044502404 -0.069279864 -0.020727804 -0.011179273
0.036286257 0.01045467 0.017143132 0.027426798 -0.028595446 0.015330474 0.00028073924 0.044198073
0.008090351 0.05689403 -0.05784956 -0.04726837 0.027427774 -0.005622299 -0.034330484 0.011794294
00000000: 3030 c3bc eea7 5dbc f98c 7d3c 667e 9f3d
00000010: 613e 953d 660a 30bd 509f f0bc b5a3 c63c
00000020: 19bc 433d 8363 443d 4102 5f3b 4408 b73c
00000030: 0600 9f3c 422a 033d 6d40 3d3d bf10 863d
00000040: 5f18 7b3a f332 0a3d 0d68 b5bc a0bd 54bc
00000050: 1b8f 57bd de99 b53c 769b 8cbb 2c95 08bc
00000060: b1a0 163d 840c a03c b010 fcbc bb8c a3bc
00000070: ddd0 55bd a667 073d 1589 abbd df95 89bd
00000080: 0125 cabc 49c1 43bc 6749 2c3d a242 9abc
00000090: 61a7 87bd ecd0 653d df07 843d f5e3 363d
000000a0: 59d7 913d 3196 853d 0b13 d93c 0c66 e53b
000000b0: 915a 04ba 9d3b 9d3d 62f7 ac3c 5281 c93c
000000c0: 3f13 f03c 8567 963d 746d 0e3d 5567 18bb
000000d0: fdcc 853d 2eca 8fbd fbba 0a3b 0b32 973d
000000e0: 7170 a6bb 0cfb 9cbc 7e9c 13bb 2954 d53b
000000f0: 9501 ee3c 8436 bc3c 3d9b 8f3d 9de8 eb3d
00000100: 851b 9fbc c10a dfbd a573 6ebc d5d2 e43b
00000110: 740b 173b f4f4 ce3c bede fe3c a292 423c
00000120: bbf4 303c 1f0d 9e3c 564d 00bd 2289 c9bb
00000130: 1b1a 53bd d0dc a73c 5530 0f3d 089a 57bd
00000140: 9bad 4e3b 222c 8a3c 8bb8 03bd a5b7 34b8
00000150: 0f7d a9bd 77ba 22bd 7b34 bd3d c777 4f3c
00000160: 8e2f 75bc 8369 5fbd dc1d 363a af3d d9bc
00000170: c0d4 b7bc e5a4 453d 92cc f43d 8ab4 e73c
00000180: cee1 79bd 1db2 4c3d 1728 973d 9632 0b3d
00000190: c47f 70bd 312c b8bc aa18 08ba ad4e ee3d
000001a0: 0fe5 133d 9dc9 6dbd 758e 49bc 1d16 0c3b
000001b0: 6445 123a 144c 453d 8613 95bc 45e0 683d
000001c0: 3efc 1abd e3b9 023c 9244 393d bb0d d3bc
000001d0: 4698 85bc b3b8 5ebd 0caa 76bd b899 233d
000001e0: 3d41 0b3d f706 90bc 5d75 063d b8eb 963d
000001f0: 9951 1e3d 4fc1 33bd 96ab 083d 37da 393b
00000200: 2b1c abbb 0108 91bd 2e8c d73c f855 2b3d
00000210: 438a 2c3d 9c5e 8c3c ecd6 e4bc ce67 663d
00000220: 7455 bebd cf68 4abc d20a a5bd 8c1d 913d
00000230: 6a76 623d e2fe 32bd 802e 6b3c c53c ce3c
00000240: cbfa 11bd 410f 803c eaa5 2b3d 82ff e0bc
00000250: 5cde 55bd 5a61 21bc 0d0c 80bd 2fdd 5e3d
00000260: 55a0 943d ef3a fe39 5d70 b5bc ef6a ddbc
00000270: ba8f 353d b080 f33c 4f0a bd3b 6a27 d43d
00000280: 47b3 983c e971 60bc 2063 bd3d a502 f83c
00000290: eea2 833d 61c1 1a3c adf6 8abd c723 173d
000002a0: d0a9 f03a dccd 6e3c 038f dabc 4da7 0a3a
000002b0: 03e8 d6ba d471 9dbc 3432 bcbb 5c02 8cbc
000002c0: ed9b 82bd aead 393d 841e 5d3d 406c 583c
000002d0: 119c 89bc 23c5 da3c 7a51 6ebd dd1c 5fbc
000002e0: c857 143d d469 8e3d f451 dd3c e8ba 5bbb
000002f0: 2fa2 0f3b 2003 66bd 594e dbbc ebe6 193d
00000300: ba08 a33c f403 48bd 251e 113d faf2 c83c
00000310: 4ba9 833d 0adc 683b f2da 3e3d 97ae e2bc
00000320: 1deb 1c3d ba05 39bb 3e0b 5d3d 6e76 3fb9
00000330: 72c3 b538 0f6d 2abd babf 9cbc 2e09 fa3c
00000340: d9be 4cbc 91fb e3bb dfa0 8d3c db30 c8bc
00000350: f730 8d3c 4bde 5e3d 03cd 373c 8ed1 2e3c
00000360: 3941 093d 5294 52bc 002a c53c 7757 073d
00000370: 7318 8bbc e869 b3bc de40 a2bc d54e 98bc
00000380: 51f0 d83c ba6d c33b 4a15 e73c 4211 e03c
00000390: 0527 e8bc eb3b e7bb 2ed5 b53d c62f c93c
000003a0: 33ca e73b 4e70 56bd 7d40 673d 7f24 483d
000003b0: 2748 36bd 9ae2 8dbd 5bcd a9bc 4529 37bc
000003c0: e6a0 143d 104a 2b3c c16f 8c3c 2aae e03c
000003d0: ff40 eabc ab2c 7b3c 2f30 9339 0a09 353d
000003e0: 648d 043c b709 693d a9f3 6cbd 7a9c 41bd
000003f0: 36b0 e03c 433b b8bb 1f9e 0cbd db3c 413c

linearD3.weight f4 [6, 2]
0.051041406 -0.20994328 -0.5040745 -0.38783327 0.09947419 0.005845035 0.8521183 -0.13424726
0.4912339 -0.51159406 0.49986857 -0.5153842
00000000: cb10 513d 5ffb 56be 070b 01bf 1592 c6be
00000010: 20b9 cb3d b587 bf3b 6d24 5a3f 1d78 09be
00000020: 0283 fb3e d4f7 02bf c6ee ff3e 38f0 03bf

linearD3.bias f4 [6]
-0.21329024 -0.49675933 0.023250949 0.0032390053 0.3969283 0.40073287
00000000: c268 5abe 3d57 febe c678 be3c 7e45 543b
00000010: 303a cb3e dc2c cd3e
