continous_state/pretrained/VE/VE4_128.pt (torch, 21980 bytes, 9 tensors)

linearK1.weight f4 [4, 8]
000000 38 bc 23 3d 61 d2 2d 3d 1c 10 84 3e aa 47 8e 3e
       0.03997442 0.04243696 0.2579354 0.2778905
000010 3b 80 1e 3e de 52 f4 b9 6f 0b c1 3e eb 95 cf bb
       0.15478604 -0.00046601048 0.37704036 -0.0063350103
000020 ef ae 56 be 2e a0 90 be 5d da 29 3d 89 b2 99 be
       -0.2096517 -0.28247207 0.041468013 -0.30019024
000030 e4 da 1d 3e 68 ff 14 3c 75 3b 33 3e 6e ec cc bd
       0.15415531 0.009094097 0.1750315 -0.10006033
000040 41 e3 b2 3e a6 ec 60 bd e1 a6 76 be 07 64 6c be
       0.34939006 -0.054913186 -0.24087097 -0.23085032
000050 29 cf 25 3d d1 d4 8e 3e dd a6 6c 3e a7 f1 51 3e
       0.040480766 0.2789674 0.23110528 0.2050234
000060 e4 10 07 be 66 ef a8 3e 18 cc 84 bd 12 e3 b8 be
       -0.13190037 0.32995147 -0.0648424 -0.3611074
000070 bb 54 48 bc 7d 56 53 3c 85 b7 b0 be 62 57 1a be
       -0.012227233 0.012899038 -0.34515014 -0.15072396

linearD1.weight f4 [256, 4]
000000 5c 3b e8 be a4 24 69 3e fe 27 a2 be e2 40 21 be
       -0.45357788 0.22767884 -0.31671137 -0.15747407
000010 6b b9 d2 be 71 f9 0c be 1c b2 c0 3e be 11 01 bf
       -0.41157088 -0.1376703 0.37635887 -0.504177
000020 ec b8 a4 3e 00 97 c6 bd 8d 0f 5a 3e 2f 18 ff 3d
       0.32172334 -0.0969677 0.21294995 0.124557845
000030 99 b6 9f 3c f6 56 ce be 26 92 ff 3e b5 9e bc be
       0.019496249 -0.4030072 0.4991619 -0.36839834
000040 24 2a d2 be e7 f3 2c be e5 ab 6d 3e 8a b1 14 bf
       -0.41047776 -0.16889916 0.23210104 -0.58083403
000050 32 e7 7e bd 22 ac 16 be 1d a2 d5 be 19 18 64 3e
       -0.062232204 -0.14714101 -0.41725245 0.22274818
000060 fd 77 42 be a4 56 88 3e 34 4e fa 3e d9 ee 86 be
       -0.18991084 0.26628602 0.4888779 -0.263541
000070 05 3d 1b 3e f4 be 6c be 21 42 af be f0 ab cb be
       0.15159996 -0.23119718 -0.3423014 -0.39779615
000080 47 08 82 3e ea 86 41 be a5 bc ff 3c f5 c7 83 3d
       0.2539694 -0.18899122 0.031217882 0.06434623
000090 96 0c 5f be 6e 9e af 3e 12 cf 48 be 23 d7 a6 be
       -0.21782145 0.3430056 -0.19610241 -0.3258601
0000a0 b1 a6 06 bf 49 85 36 bd 04 22 95 3e a7 a9 c4 3d
       -0.525981 -0.044560704 0.29127514 0.09602671
0000b0 e4 d8 41 be 09 d3 12 bd c8 77 b8 3e 1f e8 06 3f
       -0.18930393 -0.03584579 0.36028886 0.5269794
0000c0 55 ec e4 be a9 e2 29 be d4 ab 61 3e fa 09 99 3e
       -0.44711557 -0.1659037 0.22038203 0.29890424
0000d0 75 9b eb 3e f9 9e dc 3e 1c 26 94 be f3 8d df 3d
       0.46017042 0.43090037 -0.28935325 0.109157465
0000e0 e7 e2 7f 3d c6 6e 40 3e 9b dd c3 3e 0a c9 93 3d
       0.06247225 0.18792257 0.3825501 0.072160795
0000f0 41 eb 22 3e ec f5 9b 3c 55 9b d0 bd 8d 84 d9 3e
       0.15910055 0.019038163 -0.10185877 0.4248394
000100 b5 52 22 bd 3e c9 ff bd 5f 23 e4 be 62 f1 c6 bd
       -0.039629657 -0.12489556 -0.44558236 -0.09714009
000110 f5 c4 d8 be 70 5e fd 3d 84 20 d7 be 46 1b cd 3e
       -0.42337766 0.12371528 -0.42016995 0.4005987
000120 bc 90 f6 3c c6 10 31 3d 2a 18 88 3d ae 29 9f 3e
       0.030098312 0.043228887 0.06645234 0.31086487
000130 7b 52 19 bd 60 3a be 3e da f6 0b bf 98 f1 be 3e
       -0.037432175 0.37153912 -0.5467354 0.37293696
000140 a3 1f d7 3e 33 b1 a4 be 8e 62 1a 3e ab 8f 59 3e
       0.42016324 -0.32166442 0.15076658 0.21246211
000150 8f f1 ed 3e 41 a0 63 bd da f3 a8 3e 7f 1e 9a 3e
       0.46473357 -0.055572752 0.32998544 0.30101392
000160 1a 87 17 3e 3b 14 c3 be 4d f5 99 3e 33 a0 c4 be
       0.14797631 -0.38101372 0.30069962 -0.38403472
000170 58 fa d4 be 3e 8b bb bd dc b2 f0 be 20 43 b8 be
       -0.41597247 -0.09157418 -0.4701146 -0.35988712
000180 84 c7 87 3e e2 1d 57 3e 5a aa ae be df 24 66 be
       0.26519406 0.21007493 -0.34114343 -0.22475003
000190 e1 02 8d be 2b 8b a5 3e b5 f1 e3 bd e7 4e 22 be
       -0.2754126 0.3233274 -0.11130086 -0.15850411
0001a0 4a c0 6e be 63 65 69 3d 60 57 ec 3d 42 10 2b be
       -0.2331554 0.056981456 0.11540103 -0.1670542
0001b0 d4 76 48 3b 2b 29 7a be b6 8d a9 3e 45 46 60 3d
       0.0030588405 -0.24429767 0.3311593 0.054754514
0001c0 25 4a e8 bd 9e 9d f2 3e 71 47 50 be e8 a4 8d 3e
       -0.11342267 0.47385877 -0.20339753 0.27664876
0001d0 c0 35 01 3f d4 00 a5 3d 76 01 22 bf 5b a1 b5 3e
       0.5047264 0.080567986 -0.6328348 0.35474667
0001e0 8f e1 02 bf 0a c5 3c bd 25 c4 81 3e 0d 26 22 3e
       -0.51125425 -0.04608635 0.2534496 0.15834828
0001f0 24 2c 8b 3e ba d9 a1 bd 41 da 00 be 02 ae 93 3e
       0.27182114 -0.07902856 -0.12583257 0.28843695
000200 26 f2 99 3c 03 62 64 be 1e 00 00 bf 2f 6d dd 3e
       0.018792223 -0.22303014 -0.5000018 0.43247363
000210 65 49 dd 3d 0c 6b 73 be 9a 29 99 3e 89 d0 e2 3d
       0.108050145 -0.23771304 0.29914552 0.11074931
000220 7b 78 1a be 2e 17 34 be 65 e0 05 3f db 4f 0a bd
       -0.15085022 -0.17586967 0.52295524 -0.033767562
000230 51 aa 49 be 70 53 c9 be 92 d1 08 bf 0e c8 93 3d
       -0.19693877 -0.3932147 -0.5344478 0.07215892
000240 08 ed b1 be b2 d9 d9 3d 02 5c ec be 01 b8 a6 be
       -0.34751153 0.10637225 -0.46163946 -0.3256226
000250 d5 a8 a5 3e 5d 4a 1c 3e 54 6c 08 3f 4e 23 57 be
       0.3235537 0.15262742 0.53290296 -0.21009561
000260 26 73 bb 3e 4c 78 9e 3e cf 0c d5 3e 69 62 91 3d
       0.3661129 0.30951154 0.41611335 0.070988484
000270 a3 3b 6f 3e 3f d8 ef be d7 4d f6 bb 9c b9 a1 be
       0.23362593 -0.4684467 -0.0075166035 -0.3158692
000280 2a 62 8b be c7 84 d6 3e 8f a4 bd be 0c f6 16 3e
       -0.2722333 0.41898176 -0.3703961 0.14742297
000290 1b 7f f9 be 6f bb cc 3e 73 9a 6a be d6 9b ad be
       -0.48729786 0.3998675 -0.2291048 -0.33907956
0002a0 a6 b3 ec be ce 0e 81 bd 7a 9f fa 3b 6d 82 fa 3e
       -0.4623081 -0.06301652 0.0076484056 0.48927632
0002b0 fa 6c c3 be d3 6d 8a 3e 9b e1 10 be 9f 1d f7 bd
       -0.3816908 0.27036914 -0.14148562 -0.12066197
0002c0 b1 29 1f 3e 23 24 1d be b9 fe 08 3e 87 9b 5d 3e
       0.15543248 -0.15345816 0.13378419 0.2164136
0002d0 50 81 eb 3c c5 de c8 be af 30 5c 3e b8 a7 92 3d
       0.028748184 -0.3923246 0.21502946 0.07160896
0002e0 5d 63 4e be 31 4b 98 be 3a 7d f0 be 87 86 eb 3e
       -0.20155092 -0.29744866 -0.4697054 0.46001074
0002f0 af f5 95 be 1b 75 af 3e b8 c7 dd 3e 5a a1 ae 3e
       -0.29289004 0.34269032 0.43316436 0.34107476
000300 46 f6 f2 be 8c 94 1a 3e e1 2c 8f be 8f 92 b5 be
       -0.47453517 0.15095729 -0.27963927 -0.35463378
000310 c1 d8 d5 bd d2 62 1b be f7 14 c3 3e 1f c4 f3 bd
       -0.10441733 -0.15174416 0.38101932 -0.119026415
000320 9e dd d7 bc 3d e2 00 3e f2 d5 9f be e1 4c de 3e
       -0.026350792 0.12586303 -0.31217915 0.4341803
000330 65 a2 81 be 9b 71 e7 3e 4b 45 d1 be 7c 7d f6 3e
       -0.2531921 0.45203862 -0.4087318 0.48142612
000340 5e b4 7f bd 7b 0f 70 be f3 f0 2e bd bc 03 b6 be
       -0.06242787 -0.23443405 -0.042710256 -0.35549724
000350 e2 53 aa be b7 ee 38 3c ae 7b 9c 3b 50 97 a8 be
       -0.33267123 0.011287383 0.004775486 -0.32927942
000360 8f a5 84 be cd 99 52 3e 84 94 0a bf c6 2c b1 be
       -0.2590756 0.20566483 -0.54132867 -0.34604472
000370 52 b9 8c 3d 7c db bd 3e c6 1c 32 3e dc 9b d9 be
       0.068712845 0.37081516 0.17393789 -0.42501724
000380 e4 90 8b 3e a2 af 91 be 2b 7d f4 bb f9 d6 46 3e
       0.2725898 -0.2845431 -0.0074612102 0.19417943
000390 db 56 d3 3e d2 d3 d4 be 91 1a f5 be 5c e1 cf bd
       0.41277203 -0.41567856 -0.4787183 -0.10150406
0003a0 1f cd 70 3e dd 36 9b be 80 11 f4 3e d9 bb 09 3e
       0.23515747 -0.30315295 0.476696 0.13450564
0003b0 ed 8d b0 be 2e 04 85 bd 3d f3 5f 3e 13 cd 50 3e
       -0.3448328 -0.06494938 0.21870132 0.2039073
0003c0 de 37 fb 3e 1e 58 49 3e e0 ac 24 be 19 24 b5 3e
       0.4906606 0.1966252 -0.16081572 0.35379103
0003d0 07 f2 8c 3e 5a f8 19 bb a1 39 08 bf 62 a9 8d 3e
       0.27528402 -0.0023493976 -0.53212935 0.2766829
0003e0 da 46 af be 5b 4c 0b 3f a8 e1 05 3e d4 59 86 be
       -0.34233743 0.54413384 0.13074362 -0.26240408
0003f0 94 76 dd be c8 8a e4 3c 9c f1 bf bd f1 7d 5a 3e
       -0.4325453 0.027898207 -0.09372255 0.21337105

linearD1.bias f4 [256]
000000 df b9 f6 3e 27 d7 bb 3e b6 20 ea 3e 46 e0 42 be
       0.48188683 0.36687586 0.4572808 -0.19030866
000010 42 fe a5 be c8 d4 c6 3e 37 37 b5 be fa c0 97 bd
       -0.32420546 0.38834214 -0.35393688 -0.07409854
000020 e6 03 10 3e 76 14 87 3e 5a dc 87 3e 4f cf 09 be
       0.14063987 0.26382798 0.26535302 -0.13457988
000030 ee 4c e8 be ab 3e a1 3e b4 d7 c4 3e c3 1f 4d 3d
       -0.45371193 0.31493124 0.38445818 0.05007912
000040 46 67 49 be 5c 7a d9 3e 5e 20 ac 3d 80 65 63 3e
       -0.19668302 0.42476165 0.08404611 0.22206688
000050 8b 11 a1 be 18 32 d0 be 6b c6 6e 3e de ab eb be
       -0.31458697 -0.40663218 0.23317878 -0.46029562
000060 c7 66 ab be 49 61 82 3e 9b c9 39 be ce cf c8 bd
       -0.3347685 0.25464848 -0.18143313 -0.098052606
000070 c0 d6 33 be e6 c3 10 3e 96 94 63 be 38 4f 96 3e
       -0.1756239 0.1413723 -0.2222465 0.29357314
000080 a5 49 a9 3e 3d 0f a4 be 07 87 1d be a1 f5 c4 3d
       0.33064 -0.32042876 -0.1538354 0.096171625
000090 c0 c0 29 3e eb 54 e6 be 11 0b 71 3e b0 c2 42 3e
       0.16577435 -0.44986662 0.23539378 0.1901958
0000a0 11 fe 9a be 61 b5 a7 bd e0 e6 51 be b4 9f 74 3e
       -0.30271962 -0.08188892 -0.20498228 0.23889047
0000b0 3a ad 06 3e 53 c9 d7 be 6c 96 b7 3e e1 43 c2 3e
       0.13152018 -0.42145786 0.3585695 0.37942412
0000c0 b2 5e d6 3e f7 8f 99 be a0 97 f8 3e 49 e7 ae be
       0.41869122 -0.2999265 0.4855318 -0.34160832
0000d0 41 29 94 be ce 32 7b be 39 56 97 bc 8f fd df be
       -0.28937724 -0.24531099 -0.018473731 -0.43748137
0000e0 81 8e 0e be f4 74 9c bd a7 66 09 3e 26 0a 1f 3e
       -0.13921548 -0.076394945 0.13418065 0.15531215
0000f0 bc 88 00 be 48 46 a0 3e 63 65 b7 3e 5e aa 30 3e
       -0.1255216 0.3130362 0.3581954 0.1725249
000100 2c 85 e6 bd 20 f6 24 3e b6 83 9a be d3 3e 0d be
       -0.11255869 0.16109514 -0.30178612 -0.13793497
000110 30 8e 66 3b 9d ee c5 bd 5e 1b 8b be 79 29 29 3d
       0.0035179965 -0.096646525 -0.27169317 0.041299317
000120 29 b8 7b be d5 d9 15 bd 83 9f b0 3e 87 d3 e2 3e
       -0.2458197 -0.036584694 0.34496698 0.44302008
000130 6d d3 0f be 17 4d 9c 3e 11 d1 3a 3e 00 a9 15 3c
       -0.14045496 0.30527565 0.18243815 0.009134531
000140 f6 c6 0d 3e 99 44 80 be 8d 53 43 3c 28 85 ca be
       0.13845429 -0.25052336 0.0119217755 -0.39554715
000150 8f d4 bc 3e 00 73 33 bb 71 22 ac 3e 5d 6c 4d 3e
       0.3688092 -0.0027381778 0.33620027 0.20060869
000160 fe 4f cc 3e b8 cd 9f 3e f8 e2 47 3e ac 7f b3 3e
       0.3990478 0.31211638 0.19520175 0.35058343
000170 20 ee ca 3e 14 e2 c0 bd f3 51 0d be 2f a2 58 be
       0.396348 -0.09418121 -0.13800792 -0.21155618
000180 42 81 d8 3e 42 d0 ad 3e c3 7a 00 be 2e c3 a6 be
       0.42286116 0.3394795 -0.1254683 -0.32570785
000190 ab aa ee bc 8f 0f b3 be a5 d4 c7 be 1e 56 95 3e
       -0.029134115 -0.34972808 -0.39029422 0.29167265
0001a0 2a 9c ca 3d 10 a7 9d 3d d1 17 c5 bc 45 4c 94 3e
       0.09893067 0.0769788 -0.024059208 0.2896444
0001b0 f4 1d e0 be 83 8f c1 3e cf a2 b3 be 7b b0 cd be
       -0.43772852 0.37804803 -0.3508515 -0.40173706
0001c0 50 e0 bb be a6 a9 75 3e f0 77 d0 3c 71 e1 4d 3e
       -0.36694574 0.23990497 0.025447816 0.2010553
0001d0 b2 b3 b0 3e ea e2 c5 be 2f a3 4e 3e 05 71 dc 3e
       0.34512097 -0.38649684 0.20179437 0.43054977
0001e0 f1 1c ae be 11 f0 f4 3e 06 b0 a2 3d c7 4c b0 3d
       -0.34006456 0.47839406 0.0794373 0.08608394
0001f0 b0 92 f3 3e e2 5a 16 be 5a 93 89 be fc 7a 5e bd
       0.4757285 -0.14683107 -0.26870233 -0.054316506
000200 68 52 b1 bd 82 c2 d8 bd 22 ce cd 3d e4 09 3c 3e
       -0.08658296 -0.105839744 0.10049082 0.18363148
000210 d8 33 16 3e 86 b8 01 3f 6c 83 eb be d0 c5 08 bd
       0.14668214 0.50672185 -0.45998704 -0.033391774
000220 62 2e fc 3c 56 50 ea 3e dd 05 c6 be 36 33 89 3e
       0.030783836 0.45764416 -0.38676348 0.26796883
000230 97 4f a8 be f7 e7 be be 0d 08 9e 3d 50 5a c1 3d
       -0.32873222 -0.3728635 0.07716379 0.09441054
000240 6d ca 9e 3d b8 87 a8 3e 6d 0a ab 3e 3f 31 21 3e
       0.077534534 0.32916045 0.33406392 0.15741442
000250 0b 57 f7 3e bb 93 f8 bd be cb da 3c 83 0e e1 be
       0.48308596 -0.12137552 0.02670848 -0.43956384
000260 a1 ef 35 3e 03 c4 01 3d 19 94 80 be e3 f6 d2 3e
       0.17767192 0.031681072 -0.2511299 0.41203985
000270 8a 8f a0 3e b9 68 cc be df 0f 96 3e 6d 8d 05 bd
       0.31359512 -0.39923647 0.29308984 -0.032605577
000280 44 e1 d0 be 23 fc 00 be 2f 6b 1b be 3f 8b 39 bd
       -0.40796864 -0.12596183 -0.15177606 -0.04529881
000290 52 9f 98 3e 5d 37 29 be 4d 51 3a 3c 78 24 03 3e
       0.29809052 -0.16525026 0.011371923 0.1280688
0002a0 b6 5c 65 be f8 3c 1b be 03 86 5a 3e 82 70 4a bd
       -0.22398648 -0.15159976 0.21340184 -0.049423702
0002b0 5e 97 8e 3e 7a 5a 33 3e 6d ab 4e 3d 69 07 ad be
       0.2784986 0.17514983 0.050456453 -0.33794716
0002c0 25 d5 a4 3e 0c 9b 97 3c b7 fc d9 be 7f e5 f2 bd
       0.32193866 0.01850655 -0.4257562 -0.11860179
0002d0 49 69 3f 3e e8 4b 9a be 45 04 d1 3d 60 be 15 be
       0.18692507 -0.30136037 0.102058925 -0.14623404
0002e0 3d 13 f9 3d 9c 2f 9c be c4 fa 06 be aa 91 aa be
       0.121618725 -0.30505073 -0.13181597 -0.33314258
0002f0 86 d5 25 3e bf 13 c2 3e a6 bc d3 3e d7 f0 ff 3d
       0.16194734 0.3790569 0.41354865 0.124971084
000300 ea 35 cd 3e 63 43 64 3e f3 23 8e be cb 78 a2 3e
       0.40080196 0.22291331 -0.27761802 0.31732783
000310 a7 20 83 3e 63 8f d6 be 2a 20 aa be 29 96 95 be
       0.2561085 -0.4190627 -0.33227664 -0.29216126
000320 0a 8c d2 3d ab 32 b4 be 09 91 c0 3d 33 62 db 3e
       0.102806166 -0.35194907 0.09402663 0.42848358
000330 05 ae 09 3e 15 ae f5 be 6e ae 74 3e d8 b1 88 bb
       0.1344529 -0.47984377 0.23894665 -0.0041715913
000340 8d 72 b6 3e 7f 92 91 3e 3a de ad 3e 7e fd 89 bd
       0.3563427 0.2843208 0.33958608 -0.06737803
000350 11 b4 cd 3e 0e cf af 3e 5e ee be 3d d9 98 fe bd
       0.40176442 0.34337658 0.09322809 -0.12431497
000360 5d 55 01 3e 60 25 25 3d 5f 2e 0c be 88 63 21 be
       0.1263022 0.040318847 -0.13689564 -0.15760624
000370 6f 8b c8 3e d3 1d 8d be c1 18 e0 be ec 24 34 be
       0.3916888 -0.27561817 -0.43768886 -0.1759221
000380 aa cf e2 be 66 1d 35 bb 44 da b8 bd 9f 17 2c bc
       -0.4429906 -0.002763593 -0.09026006 -0.010503679
000390 09 9e e2 be 1a 20 b9 3e 2f e2 f5 bd bc 66 39 3e
       -0.44261196 0.36157304 -0.12006032 0.18105596
0003a0 5b a2 c5 bc 1c 28 a2 3e cb cc 4a be d2 d8 18 3e
       -0.024125269 0.31671226 -0.19804685 0.1492646
0003b0 8a fb cd be 52 b3 e7 be 48 55 b6 3d ed 74 df be
       -0.40230972 -0.45253998 0.08902985 -0.43643895
0003c0 dc 06 1d be e5 e9 dd 3e 82 13 6b 3e 6a 1f 9b bc
       -0.15334648 0.4334251 0.2295666 -0.018935878
0003d0 69 4c eb be 7a 92 86 3e 54 8c cc bc e2 f1 8f be
       -0.45956734 0.26283628 -0.024969257 -0.2811423
0003e0 29 20 f4 bd 94 20 15 3e e4 da ee be dd 59 f8 3d
       -0.119201966 0.14563209 -0.46651375 0.12126515
0003f0 2f 0c 39 3e 86 64 cc 3d a8 ad 82 be ed fd bb be
       0.18071054 0.09980111 -0.25523114 -0.36717167

linearK2.weight f4 [4, 256]
000000 1a ec 09 bc f4 1f 5e bb d0 11 c5 3c 01 84 b7 3c
       -0.008418107 -0.0033893557 0.024056345 0.022401812
000010 cb 52 ea 3d b7 50 6d bc b1 94 13 3e a1 30 00 3d
       0.11441573 -0.014484576 0.1441219 0.031296376
000020 5b 06 9f bd 7c ce 84 3d 14 38 01 bd 80 db 6e 3d
       -0.07764884 0.06484696 -0.03154762 0.0583148
000030 94 88 5e 3d f4 08 3a bd 1c 8b 47 bc 48 75 80 bd
       0.05432947 -0.045418695 -0.012179162 -0.062723696
000040 ff 71 38 3d bd 87 be 3c c0 4b c7 bc 0c 5c 5c bb
       0.04503059 0.023258084 -0.024328113 -0.00336242
000050 56 6d 6a 3c 8f db 0e bd 22 e5 48 3b 5c 5b 74 3d
       0.014308294 -0.034877356 0.0030654152 0.05965744
000060 ec cf a1 3c e6 e1 42 3d 54 12 7c 3d 79 dd e8 bc
       0.019752465 0.047578715 0.061540917 -0.028425919
000070 bc c5 cd 3a bd d0 e4 bd 09 ab 75 3d 14 bb cd 37
       0.0015699188 -0.11172626 0.059977565 2.452502e-05
000080 e9 1a 1a be d7 37 88 bd 44 43 88 3c 84 93 98 bd
       -0.15049328 -0.066512756 0.016633637 -0.074500114
000090 21 b9 97 3d 7d a9 50 3c f9 92 6e 3b 67 9a b9 bd
       0.074083574 0.012735722 0.003640352 -0.09062653
0000a0 e1 43 8a 3d 28 fb 0f 3e 2c 30 75 3d 56 bd 46 3d
       0.06751228 0.14060652 0.059860393 0.04852041
0000b0 2b b1 71 bd af eb 6f bd 54 04 be bd e8 23 b5 bc
       -0.05900685 -0.058574375 -0.09278169 -0.022111848
0000c0 5d 0f cb bc 84 c5 43 3d ee 12 88 bd 01 ea 97 3d
       -0.0247876 0.047795787 -0.066442356 0.074176796
0000d0 51 e4 66 3d 26 44 dd 3d 1f d3 ab 3d ac d3 ac 3d
       0.056370083 0.10804014 0.083898775 0.08438811
0000e0 a2 83 50 bd 5b fb 88 ba 70 43 c7 bd da 29 d9 3b
       -0.050906785 -0.0010450886 -0.097296596 0.0066273035
0000f0 3c 52 09 be 34 03 6e bd ce 0a 51 3c 28 e0 3e 3c
       -0.13410276 -0.058108523 0.012758924 0.011650123
000100 3a df d7 3c 92 e2 0c bd 17 92 51 3d 5e 47 c5 bc
       0.02635156 -0.03439576 0.051164713 -0.024081882
000110 dd f1 f0 3b d3 5d 8c 3d 8c d5 9b 3b 72 39 95 bd
       0.007353051 0.06853833 0.0047556814 -0.072863474
000120 1a fb 23 3d 48 f9 74 3c dc 8f 20 be 58 17 db bd
       0.04003439 0.014952011 -0.15679878 -0.10697812
000130 8c 78 17 3d a0 e0 76 bc b9 d3 2d bd 29 6d b4 3d
       0.036980197 -0.015068203 -0.042438243 0.08809883
000140 b5 85 49 bc f1 de c4 3c f4 a3 c0 3c dd f1 2b 3d
       -0.012299945 0.024032088 0.023515679 0.041978706
000150 60 ec d4 3c 0c 1f 0c 3d 93 50 17 3d c4 02 b3 3c
       0.025991619 0.034209296 0.036942076 0.021851905
000160 0f 1d a5 3c d5 44 8f bc da b3 97 bc a6 ce 21 3d
       0.020155458 -0.017488876 -0.018518377 0.039503716
000170 93 a3 ab bd 33 0f b9 bc 5c 1b 14 3c 9f 6c 4d 3e
       -0.08380809 -0.022590255 0.009039726 0.20060967
000180 3b 04 ce bd 74 86 c8 3c 1e 9f e5 bd 8d c1 07 3d
       -0.10059401 0.024478175 -0.1121199 0.03314357
000190 75 20 8a bc b1 79 84 3b 70 f1 88 bc a5 74 d5 bd
       -0.01686118 0.004042827 -0.016716689 -0.10422639
0001a0 e0 1c 4b be 71 e3 be 3c 03 ff 29 3d 39 de c6 3c
       -0.19835234 0.023301812 0.041502964 0.024275886
0001b0 26 9c a6 3d ad db 95 3c c8 8d 96 3c d6 9d 88 bc
       0.08135252 0.018293226 0.018378153 -0.016676825
0001c0 b3 3f 41 3d 8a 20 1d 3a 8b 4a e0 bc 1a 2c 9f 3c
       0.04717989 0.00059939234 -0.027379295 0.019430209
0001d0 7f 20 83 bd 78 2e a0 3d f5 17 fe bc 90 32 0c 3d
       -0.064026825 0.07821363 -0.031017283 0.034227908
0001e0 15 22 6e bd 5b 4b 7b 3a a1 88 01 3c 69 29 91 bb
       -0.058137972 0.0009586119 0.00790611 -0.0044299853
0001f0 c9 f5 2f bc 20 94 b3 3b ab 35 47 bc a2 22 dd bc
       -0.010739752 0.0054803044 -0.012158792 -0.026994053
000200 38 b2 95 bd 2e 40 ab 3d 0b 1c a0 3d 4e 73 a4 bd
       -0.07309383 0.08361851 0.07817849 -0.08029805
000210 35 04 e1 3c ca f8 a6 bd 43 56 0c bd d4 76 7d 3d
       0.027467826 -0.081529215 -0.034261953 0.0618809
000220 54 09 58 3d e0 f8 a3 3c 46 0a eb bc 53 a4 45 bd
       0.05274327 0.020016134 -0.028691422 -0.048252415
000230 c2 69 ec 3b 6f 06 16 3e 21 7f 29 bd 8d 22 ab bd
       0.0072147558 0.14650892 -0.041381005 -0.083561994
000240 42 49 1f 3d 9c b9 2f bd 09 e8 34 3d c8 c0 97 3d
       0.038888223 -0.04290162 0.0441666 0.07409817
000250 e8 f0 d4 3c 15 cd a0 3a 82 8a c9 3c ac 96 30 3d
       0.02599378 0.001226815 0.024602178 0.043112442
000260 b6 b7 ce bd 9e e2 27 be 81 2f 54 3d c4 bb b3 bc
       -0.10093634 -0.16395041 0.051803116 -0.02194012
000270 8f e8 c0 bd 22 71 17 3d c5 1a 26 3d b6 45 43 3c
       -0.09419357 0.036973126 0.040552873 0.011918476
000280 a9 c9 c4 3c b1 1b 88 bb c1 a5 12 3d ee 87 ce 3c
       0.02402194 -0.0041536917 0.035802606 0.0252113
000290 31 6b 20 3d 67 1f c3 3c 92 fc 15 bc 19 1f 3b bc
       0.039164726 0.023818685 -0.009154456 -0.0114209885
0002a0 2a e2 40 3d 78 a3 c3 3c c8 7d c3 bd fd ec 09 3e
       0.047090687 0.023881659 -0.09545475 0.1346931
0002b0 5a 12 f1 3a cb a1 a3 bc 26 58 16 3c dd 22 45 3d
       0.001839231 -0.01997461 0.00917629 0.04812895
0002c0 38 bd a3 bc a2 b7 81 3d b9 77 02 3a 07 ba ae bd
       -0.019987687 0.06333853 0.00049769465 -0.08531576
0002d0 97 e0 b4 3b 75 2e c6 3d 61 1a 03 be 0c 71 bc bb
       0.0055199373 0.0967683 -0.12803032 -0.005750781
0002e0 60 2d 04 be cb 46 1f 3d 0a fe f6 bd 12 7f fd 3c
       -0.12907934 0.038885873 -0.12060173 0.03094438
0002f0 8d 73 76 3d a2 4e 9e bc 5a f8 3f b9 a3 96 86 bb
       0.06016879 -0.019324604 -0.00018307698 -0.0041073128
000300 5d 4a 4e bd 58 a0 23 3d db c6 b3 3c d0 6c a5 3b
       -0.050363887 0.039947838 0.021945408 0.005048372
000310 07 d3 50 bc 66 4f 1e 3d 04 43 aa 3d a8 de 81 3d
       -0.012745625 0.03864994 0.083135635 0.063412964
000320 64 b2 6b 3b 76 d4 5e 3d be 77 15 be 69 f2 9a 3c
       0.0035964483 0.054401837 -0.1459646 0.018914418
000330 0f 3f 8f bd 10 9a 5b 3c de 8b b9 bd c1 b1 9e 3d
       -0.06994449 0.013403431 -0.09059881 0.077487476
000340 f7 6b 07 3d 1a 21 0e bd 64 87 b7 3a 14 0d dc 3c
       0.033061948 -0.034699537 0.0014002142 0.026861705
000350 7b 00 68 3d 5c de 5b bd 32 53 eb 3c 2b 39 0f bd
       0.056641083 -0.053678855 0.028726194 -0.03496663
000360 78 94 eb 3a 25 5d e7 bd eb 96 c4 ba 78 ac 71 bb
       0.0017973324 -0.11297063 -0.001499859 -0.003687648
000370 d1 e7 a4 bd 21 05 93 3d 08 d0 ca 3c ae 05 38 bc
       -0.08052028 0.07178713 0.0247574 -0.011231823
000380 9a a1 9c 3d 7f a2 38 3d 76 7f 07 3d 81 85 f6 3d
       0.076480106 0.045076843 0.03308054 0.120371826
000390 81 fa 5e 3a b5 6d b7 bc 01 4d af bc 6a c3 04 3d
       0.0008505956 -0.02239118 -0.021399023 0.032412924
0003a0 a1 45 36 3d e2 67 84 bd f6 b4 eb bc c8 3e 20 bd
       0.044499997 -0.064651266 -0.028772812 -0.039122373
0003b0 c6 d5 37 3d 57 2d de 3b a8 de 19 bc da dc a7 bc
       0.044881605 0.0067803073 -0.009391464 -0.020491052
0003c0 06 21 81 3d db 57 cf 39 47 43 27 bd 73 94 fe bd
       0.06305127 0.00039547574 -0.040835645 -0.12430658
0003d0 59 f0 18 3a 8a 3b 20 be c8 73 11 bd c7 af c5 3d
       0.00058341544 -0.15647712 -0.03551081 0.096526675
0003e0 a9 3f 61 bd a4 34 c3 bd a1 7f db bc e0 e0 0c bd
       -0.05499235 -0.09531525 -0.026794257 -0.034394145
0003f0 5d ab bd 3d 38 d4 60 3d e3 67 ce 3c 54 bd 8d 3d
       0.092612006 0.054889888 0.025196021 0.06920877

linearD2.weight f4 [256, 4]
000000 c9 91 85 be ea bb 34 3e f0 46 89 3c d9 ad 9c be
       -0.26087788 0.17649809 0.016757458 -0.30601385
000010 01 87 9f be bf c8 f0 3e 26 fd 50 3f db d1 15 bc
       -0.31157687 0.47028157 0.81636274 -0.009144272
000020 e4 53 6f 3d 44 8c d4 be b0 04 0d 3e ad ab f2 3e
       0.058429614 -0.41513264 0.1377132 0.47396603
000030 bc e7 0a bd e4 7e 1e 3c 4b a5 42 3f 92 f2 fa 3d
       -0.033912405 0.009673808 0.7603347 0.12253298
000040 39 2d d7 bd 35 45 c4 be 46 9b 8b be 61 71 84 3e
       -0.105066724 -0.3833405 -0.27266902 0.2586775
000050 91 9e bf be b8 69 b3 bd 31 9a f9 bd c7 e5 46 be
       -0.37425664 -0.087603986 -0.12187613 -0.1942359
000060 e0 94 2d bc 7c cf a9 be 69 70 c1 be 75 59 c6 3d
       -0.010594577 -0.3316611 -0.37781075 0.09685031
000070 de 90 e2 3c 9a 5d 85 3d 86 75 80 3c a1 66 a1 3c
       0.027656969 0.06511994 0.01568104 0.019702258
000080 93 bf b0 be 03 8a ea 3e 44 df 22 be a7 c8 ec be
       -0.3452116 0.4580842 -0.15905482 -0.46246836
000090 10 a7 96 be 16 b8 07 3e bc 05 15 3e cd 91 46 3e
       -0.29424334 0.13253817 0.14552969 0.19391556
0000a0 88 46 83 3e 05 24 01 3e 6c f9 e2 be 18 aa 30 3d
       0.2563975 0.12611397 -0.4433092 0.043130964
0000b0 94 0a 88 be 82 75 ce be 00 f2 68 be 13 3d a0 be
       -0.2657057 -0.40324026 -0.22748566 -0.31296596
0000c0 67 ec 1a bd bf f0 67 be 26 68 80 3e 32 63 53 bf
       -0.037823107 -0.22650431 0.2507946 -0.82573235
0000d0 38 08 b7 be 07 c4 c1 be ec 4c 20 3e 66 44 90 3c
       -0.35748458 -0.3784487 0.15654343 0.01761074
0000e0 48 45 32 3e 22 27 4d be d7 73 91 bc e7 44 01 3d
       0.17409241 -0.20034459 -0.017755432 0.03155985
0000f0 18 94 a7 be 0b 3c dc be 4d bb bb 3e d8 f4 40 be
       -0.32730174 -0.4301456 0.36666337 -0.188434
000100 23 93 a3 be 9a 17 36 bd 6e 7e 9a 3d a4 ce a6 3d
       -0.31948194 -0.044456102 0.07543646 0.08144882
000110 70 cc 73 3e 0f 50 95 3e 61 14 ef bd 63 d0 14 3d
       0.23808455 0.29162642 -0.11673809 0.036331546
000120 26 40 45 3f ea ff b7 3e 89 1c ad be 16 95 04 bf
       0.7705101 0.35937434 -0.33810833 -0.5178999
000130 b1 88 85 3e 6f 1c 62 bc 0c bc 1e 3e 05 01 00 3e
       0.2608085 -0.013800724 0.15501422 0.12500389
000140 66 02 cd be f0 8d 47 be 0f 77 a6 bc 13 91 21 3f
       -0.40040892 -0.19487739 -0.020320443 0.6311199
000150 ce be 3d 3d 31 3b ca be 32 9b c1 bd f4 b2 2d 3e
       0.046324544 -0.39498284 -0.09453429 0.16962796
000160 0a cb c1 3d d0 54 e6 3e 9e 7d 95 3d 86 2d d1 be
       0.09462555 0.44986582 0.0729935 -0.40855044
000170 06 9a 87 3e 00 ad 34 be 96 32 b9 3d 8a 5f e8 3e
       0.26484698 -0.1764412 0.090428516 0.4538539
000180 0a b4 f9 be 7a 4e 81 3d 9d b2 2b 3d d5 2b 9f 3e
       -0.4877017 0.06313796 0.041918386 0.3108813
000190 e9 ba 8f 3d 43 fb 18 3c 54 4b 86 be 5c d1 cf be
       0.07018072 0.009337249 -0.26229346 -0.40589416
0001a0 25 13 b0 bd 1f ac 1c bf 6e d1 2c 3d 98 23 94 be
       -0.085974015 -0.61200136 0.042191915 -0.28933406
0001b0 59 65 e0 3c 6d d0 02 bf 94 ca 04 3e a9 56 2d bd
       0.027392076 -0.5109928 0.12967902 -0.042318974
0001c0 39 67 1d 3e cb e2 81 3e 1c 3e 97 3e ca 00 03 3f
       0.15371408 0.25368342 0.29539573 0.5117308
0001d0 e8 05 46 bd 57 60 87 bc b8 59 8d be b3 37 b7 be
       -0.048345476 -0.01652543 -0.27607512 -0.35784683
0001e0 42 fb 77 be 62 e2 e2 3e ae 1a 8c be 75 33 c1 be
       -0.24216941 0.4431334 -0.27364105 -0.3773457
0001f0 3d 72 76 be fd 7f 42 3e 99 41 dc 3b 3d 34 de be
       -0.24067016 0.18994136 0.006721687 -0.4339923
000200 55 ef d0 be 69 fd 07 3e 4d 3a 04 3e a4 24 b1 3e
       -0.40807596 0.13280262 0.12912865 0.34598267
000210 20 6b de be e8 20 a0 bd 93 8c c7 bd e5 11 7b bd
       -0.43441105 -0.07818776 -0.09743609 -0.061296362
000220 8b 32 09 be c8 72 4c be 41 a9 cd bd d5 0f cf 3e
       -0.13398187 -0.1996566 -0.10042048 0.40441766
000230 7e c8 e5 be 99 f1 09 be 3a 81 bd be 68 5f cb be
       -0.44879526 -0.13471068 -0.37012655 -0.39721227
000240 4f e3 d8 3e 34 6a 3d 3b e1 2c 04 bf 3b 0c 4f 3e
       0.42360923 0.0028902413 -0.5163098 0.2021951
000250 a6 fa 8f 3e 9a 4b fc bd 28 ab 37 be ef 57 a7 be
       0.28120917 -0.12319107 -0.17936385 -0.32684276
000260 bd 70 7f 3d 5d 7f 35 be 05 f7 c9 3d b5 20 8c 3e
       0.062363375 -0.17724366 0.09861568 0.27368703
000270 35 08 6c be 59 34 26 3d 82 74 63 be 5b 4b 6a be
       -0.23050006 0.040577266 -0.22212413 -0.22880308
000280 02 f2 38 3f a6 79 9a 3b f0 96 ac bd 82 87 83 be
       0.72244275 0.0047142087 -0.084272265 -0.25689322
000290 5f 10 6c 3e 6d 20 75 3e 8b 03 85 3d 82 c5 ad 3e
       0.2305312 0.2393815 0.064948164 0.3393975
0002a0 88 dc ad bd a6 ca b6 3e 47 9d 81 be ac e3 f7 be
       -0.084893286 0.35701483 -0.25315306 -0.48415887
0002b0 06 92 55 3e 7a 5f 50 be 12 d7 00 3c ba 52 3d be
       0.20856485 -0.20348921 0.007863777 -0.18488589
0002c0 36 84 b0 3e 94 a0 fe 3d b6 e6 9b bd 68 98 25 be
       0.3447587 0.124329716 -0.07612364 -0.1617142
0002d0 ae 51 a5 bd b3 79 a6 3e 1a af 89 bc bd 88 1a bd
       -0.0807222 0.32514724 -0.016807128 -0.03772806
0002e0 ad 2a 7c 3e 9d af e2 3d cc 9f a6 3e 5e 75 7a be
       0.24625655 0.11068652 0.3254379 -0.24458835
0002f0 c0 ed d7 3e 14 dc 39 3f 7c 78 bb be 75 39 55 3d
       0.42173576 0.7260144 -0.3661536 0.05205675
000300 cf 66 c1 be 72 2e a5 be e0 02 59 3e aa 59 8e 3d
       -0.3777375 -0.32261997 0.21192503 0.06950696
000310 66 e0 0b bf a1 94 9e 3d db b1 2f 3e 1e 46 67 be
       -0.5463928 0.077431925 0.1715769 -0.22585341
000320 78 72 64 3c 4f 0d 93 3e ee 6b 4f 3e 00 80 ba be
       0.013943307 0.2872109 0.20256016 -0.3642578
000330 3f a2 bd 3e 98 f5 95 3e c1 9b 62 3d 08 0d 96 3e
       0.37037846 0.29288936 0.05532432 0.29306817
000340 c5 d8 0c be a3 23 45 3f 7a fd 1c 3f e2 f1 95 3e
       -0.13754566 0.770075 0.61324275 0.29286104
000350 3c 54 4c bd bf cf a0 3d 39 b4 df be 06 7e 80 3e
       -0.04988502 0.078521244 -0.43692186 0.25096148
000360 8a 4a a6 3e 4e 98 aa 3e 83 02 a4 3c 5d 36 6f 3e
       0.32478744 0.33319324 0.020020729 0.23360582
000370 69 0f fc 3e 0a 17 7d be 36 31 42 bf 94 45 f1 bd
       0.49230507 -0.2471582 -0.7585634 -0.11780849
000380 57 7f 88 be 75 3c 85 3b 7a a0 f5 3d bc 74 5a 3e
       -0.26659653 0.004066045 0.11993499 0.21333593
000390 22 99 ec 3d c7 52 e3 3e de 9d 63 3e cf 75 03 3f
       0.11552645 0.44399092 0.2222819 0.51351637
0003a0 c7 03 0d be 39 84 49 bd a3 84 ad bd ec a6 7c 3f
       -0.13770972 -0.049198363 -0.08472564 0.986922
0003b0 9f a8 aa bd 97 dd 1e be 82 8b bc 3c 4f fe 70 be
       -0.08332943 -0.15514217 0.023015741 -0.23534511
0003c0 57 e3 39 be 1c 42 c3 be d8 be 9f 3d 90 07 99 3e
       -0.1815313 -0.38136375 0.078000724 0.29888582
0003d0 42 ca a7 3e 61 97 f5 be da 2c a2 3e ea 83 e1 be
       0.32771498 -0.47967055 0.31674844 -0.44045955
0003e0 56 c6 f6 be 29 15 71 3e 68 0f 2f 3f 7a 67 e3 bd
       -0.48198193 0.23543228 0.68382883 -0.11103721
0003f0 25 a3 e4 be ff aa 80 be 5f 72 b4 bd bd f9 be 3e
       -0.4465572 -0.2513046 -0.08810877 0.3729991

linearD2.bias f4 [256]
000000 ae 55 72 be 2e b2 0b 3f a5 29 96 bc 86 e4 60 3e
       -0.23665497 0.54568756 -0.018330405 0.21962175
000010 6e ba d8 be 62 1b f9 be 6b 53 01 bf 53 1a 35 be
       -0.42329735 -0.48653704 -0.5051791 -0.17685823
000020 fb 1f a8 bd 0b 46 07 3d de 7f 57 be f2 77 95 be
       -0.08209225 0.033025783 -0.21044871 -0.29193074
000030 56 c4 09 bf 0b 8f a3 be 4d 72 96 be 03 84 cc 3e
       -0.5381521 -0.3194507 -0.2938408 0.39944467
000040 fa 93 d5 be f8 5c 2d 3e 71 43 53 bb 78 6c c9 bd
       -0.4171446 0.16929996 -0.0032236243 -0.09835142
000050 cb 8c eb 3e 8f 35 77 3e d0 8d f9 3e a7 01 9b be
       0.46005854 0.24141525 0.48741007 -0.30274698
000060 44 4c d6 be 25 3c c8 3a 04 cf f0 be 93 ca 25 be
       -0.4185506 0.0015276714 -0.4703294 -0.16190557
000070 45 7e 70 be f7 4c a1 be 70 bc ad 3e d9 0e db bc
       -0.23485668 -0.31504032 0.3393283 -0.026740478
000080 41 f7 ba be ef 01 a5 be 64 ea d9 be d0 e0 01 3f
       -0.36516765 -0.32228038 -0.42561638 0.5073366
000090 ec a8 29 bf 5d 22 c8 bd d7 dd ac be 8c 6b aa 3e
       -0.6627338 -0.09772179 -0.33763 0.33285177
0000a0 99 b1 4e bd 1f ee 5f be 66 d1 f8 be 22 26 f4 3e
       -0.05046234 -0.2186818 -0.48597258 0.47685343
0000b0 4c 1b 8a 3e 33 d0 b0 be b0 91 75 be e5 0c ea 3e
       0.2697395 -0.34533843 -0.23981357 0.45712963
0000c0 80 be 00 3c 22 56 36 3e ed 72 e4 be 9c cd da be
       0.007857919 0.17806295 -0.4461893 -0.42734993
0000d0 a5 03 08 3e 66 aa da be 03 cf e1 be 94 17 a6 3e
       0.1328264 -0.4270813 -0.4410325 0.32439864
0000e0 8a eb 89 3e 96 ee 8b be be e1 a5 3d 95 65 ce 3e
       0.26937515 -0.27330464 0.080996975 0.40311876
0000f0 92 87 f0 3e f9 5f 58 be 94 07 b9 3d ce 05 a7 be
       0.46978432 -0.2113036 0.090346485 -0.32621616
000100 5b 37 9b bd be 0e aa be 87 88 02 be 63 74 5b be
       -0.075789176 -0.33214372 -0.12747394 -0.21431117
000110 e6 07 b8 be a7 10 f1 3e 56 25 38 be 69 b0 9a bd
       -0.35943526 0.47083017 -0.17982993 -0.07553179
000120 50 e2 f5 3e c1 bf f0 be 1b 7f 06 bf 61 7d 33 3e
       0.48024225 -0.47021297 -0.525377 0.17528297
000130 db 0e 81 3e e9 5d fb be da 6d 85 bd e0 f1 b6 bc
       0.25206646 -0.49095085 -0.06515093 -0.022332132
000140 fa b6 f2 3e 36 8a 84 3e 2d 50 ee 38 5f 4c 71 3d
       0.47405225 0.25886697 0.00011363658 0.058910724
000150 1d 00 a4 be d5 f1 04 be d3 82 0d 3e 06 1b a8 be
       -0.32031336 -0.12982877 0.13819437 -0.32833117
000160 03 be ec 3e 15 25 13 be 0e bd 2f be 44 2d 15 bf
       0.46238717 -0.14369614 -0.17161962 -0.58272195
000170 46 5f 13 3f 59 e1 66 3e 02 b5 b7 be fa 15 a0 3e
       0.5756725 0.22546901 -0.35880286 0.31266767
000180 fc d8 ac 3e fa 7e 93 be 87 fd 98 be e5 d4 84 3d
       0.33759296 -0.28807813 -0.29880926 0.06485919
000190 3b 7c 0a 3f 0c 3e b5 be 7f 06 a3 3e 9c bc 9c 3d
       0.5409581 -0.353989 0.31840894 0.07653162
0001a0 ef 03 0d bd 07 c2 ed 3d f6 dc 82 3d 63 a3 d3 be
       -0.03442758 0.116092734 0.06389801 -0.41335592
0001b0 81 d1 a6 3e e9 72 1f be 9b 95 04 be 1d 01 c2 3c
       0.32581714 -0.15571178 -0.12947695 0.023682171
0001c0 39 3e d7 3e 95 c9 5a be 5b 7a 2d 3e e2 e3 c8 3d
       0.4203966 -0.2136596 0.16941206 0.0980909
0001d0 ce 3b 42 3e a3 05 02 3f a5 c9 1c be 64 21 ca be
       0.18968126 0.5078985 -0.15311296 -0.394786
0001e0 cf 8a c6 3d a3 0d b1 3e 51 ea fc 3e c7 4c 4c 3e
       0.096944444 0.34580716 0.4939752 0.19951163
0001f0 ea 5f e5 3e 09 2f 72 3e 39 fe 72 be 32 18 84 3c
       0.4479974 0.23650755 -0.23729791 0.016124818
000200 06 08 92 be 89 15 ed 3e b2 26 17 3e 1b 52 34 be
       -0.28521746 0.46305493 0.14760855 -0.17609446
000210 54 cf 84 3d 75 96 95 be b4 3a 7c 3e fb 4e f8 3e
       0.06484857 -0.29216352 0.24631768 0.48497757
000220 94 d8 36 3e e2 fd 43 3e de fd 72 bd f7 c8 ae 3e
       0.17856055 0.19139817 -0.059324138 0.341377
000230 e2 6b e0 be ae a6 0c 3e 24 88 bd be 9d f0 6e 3e
       -0.43832308 0.13735458 -0.3701793 0.23333974
000240 5d 25 92 3e 47 e1 1e be 40 10 92 be 17 1a e5 3e
       0.2854413 -0.15515624 -0.28528023 0.44746467
000250 a4 3a 1a 3e 4a dc f6 3e 1b d7 f3 3e 34 ec 8e 3e
       0.15061432 0.48214942 0.4762505 0.27914584
000260 df 26 bd be 19 ce 81 be d4 b1 fc be 3f f3 38 be
       -0.3694372 -0.25352553 -0.49354422 -0.18061541
000270 eb d5 14 be 34 3a 87 3d 6c 0e 0b 3d f9 e3 ea 3d
       -0.14534728 0.06602898 0.0339493 0.114692636
000280 0e 88 86 3e b0 41 ac 3e 45 fa a9 3e 6c e7 67 3d
       0.26275676 0.33643866 0.33198753 0.056617185
000290 2d 44 80 be 4a 21 8f 3e d3 24 43 3f de 60 e7 be
       -0.25052014 0.27955085 0.76228064 -0.4519109
0002a0 a7 81 fa 3e 2b 3d 55 be fb 00 c4 be 3a 69 a0 be
       0.48927042 -0.20824115 -0.38281998 -0.31330281
0002b0 87 b5 c4 3d 21 78 93 3e 3d a6 f0 be d4 91 dc be
       0.09604936 0.2880259 -0.4700183 -0.43080008
0002c0 3a d7 ed be 72 29 9e be fb c3 cd 3e dd fe cd 3e
       -0.46453267 -0.30890995 0.40188584 0.40233508
0002d0 4e ba 74 be b1 2d b7 3e 82 e2 2c be 78 9b 21 3f
       -0.23899195 0.35777047 -0.16883281 0.6312785
0002e0 db 82 f8 be d3 ef 0d 3f 06 56 a2 3e 64 c7 90 be
       -0.48537335 0.5544407 0.31706256 -0.28277123
0002f0 8d 62 e9 be 10 a8 a7 be 9f c1 eb 3e ff d6 89 bd
       -0.45583 -0.3274541 0.4604616 -0.067304604
000300 73 01 9c 3e 47 c7 d0 be 97 72 af 3e 36 18 b5 bd
       0.30469856 -0.40777037 0.34267113 -0.088425085
000310 e7 c7 92 3e 46 e2 05 3e 2c 14 ce 3e 20 aa e7 be
       0.28668138 0.13074598 0.40249765 -0.45246983
000320 85 e4 35 3d b0 b8 46 be 6f 47 ec bd 2a 42 28 be
       0.044407386 -0.1940639 -0.115370624 -0.1643149
000330 e5 6b b0 3d e3 c0 d2 be 02 32 b9 3e f0 0f 08 3f
       0.08614329 -0.41162786 0.36170965 0.5314932
000340 d7 6b d7 bc c7 10 c4 be b6 bd e3 3e fc 02 a6 be
       -0.02629654 -0.3829405 0.44480675 -0.32424152
000350 77 81 4a be d4 a8 a6 3e e0 00 ed be c7 10 57 bd
       -0.1977595 0.3255068 -0.4628973 -0.052506234
000360 e6 91 8a 3e 56 3b b4 be cb 37 f6 3e ed f1 6d be
       0.27064437 -0.3520152 0.48089442 -0.23236819
000370 f9 1e 92 bb 0d 57 83 3e ab 9c 59 3e 9c 6f 85 3e
       -0.0044592586 0.25652352 0.2125117 0.26061714
000380 5a 2d d4 be 2b af bd bd 8f 3b c4 3e c7 b7 06 3e
       -0.4144085 -0.09261926 0.3832669 0.13156043
000390 ff b8 a5 be bf a0 d1 bc e7 92 08 3f a5 9e 4e be
       -0.32367703 -0.025589345 0.53349155 -0.20177706
0003a0 32 23 26 3e c4 56 ad 3e 2c 09 9e 3e 07 cb 3a 3e
       0.16224363 0.3385526 0.30866373 0.18241511
0003b0 8e ad 7e 3e cb 54 69 bc a0 42 d4 ba 33 d5 8d 3e
       0.24870893 -0.014241408 -0.0016194172 0.2770172
0003c0 22 35 93 be 04 c6 c8 be 8d c3 ca 3e f4 ef 24 bf
       -0.28751475 -0.39213574 0.39602318 -0.6442864
0003d0 d4 3d d8 3e ab 34 a6 be de 5e 5a 3e d4 7b 7b 3e
       0.4223467 -0.32462057 0.21325251 0.24558955
0003e0 8c 6d d8 be 4d 3c f5 3e 4e c6 a2 be ae 03 15 bc
       -0.42271078 0.47897568 -0.3179192 -0.009095116
0003f0 d3 5f 95 3c 76 c2 c8 3d 74 eb 98 3e 7f 10 cb be
       0.01823417 0.098027155 0.29867136 -0.39661023

linearK3.weight f4 [4, 256]
000000 74 ff 06 bc 06 e0 2d bd b0 b0 27 3d c5 7f 8e bb
       -0.008239616 -0.042449974 0.040939987 -0.0043487274
000010 ff 14 8a 3d ee e8 8c 3d f1 5e e4 3d 7d cf 7a 3b
       0.06742286 0.06880365 0.11150921 0.0038270645
000020 9f 1b 42 bd 1d fb cb bc b3 8f 47 bc 2a 96 85 3c
       -0.047389623 -0.024900014 -0.012180257 0.016306955
000030 6e 99 47 3d 8d f4 43 bc 19 3f 12 3d bd 6d c7 bc
       0.048730306 -0.011960161 0.035704706 -0.02434432
000040 e8 32 9b 3d 5e 6c 21 be 2d 1d f9 bd 69 10 53 bd
       0.07578069 -0.15763995 -0.12163768 -0.05152932
000050 a4 94 84 3d 4b 22 a1 3d 9f 78 f8 bc d1 6d 33 bd
       0.064736634 0.07867869 -0.030330954 -0.0438059
000060 f1 16 4e 3d b2 f9 16 3d 96 a5 a0 3d 54 e4 c0 3d
       0.050314847 0.03685922 0.07844083 0.0941855
000070 10 41 cd bd 93 66 97 3d 4a e2 a6 bd 11 43 cc 3b
       -0.10022175 0.07392611 -0.0814863 0.006233581
000080 3d 54 03 3d 0e 75 c9 bb 99 d7 72 3d 62 bd fb 3c
       0.032062758 -0.006147987 0.05928764 0.030729953
000090 db 1b 79 bd 36 9a 3e ba 72 02 b0 3c af 60 04 3d
       -0.06081758 -0.0007270904 0.021485541 0.032318767
0000a0 2c f9 dc bd 7e 10 da bd 31 32 17 bd 66 c5 f4 bc
       -0.10789713 -0.10647677 -0.0369131 -0.029879283
0000b0 90 2a 0c bd 95 a3 a0 bd 57 f5 9a bd b4 c3 b1 bd
       -0.03422028 -0.07843701 -0.07566326 -0.086799055
0000c0 23 0d a8 3d a6 c9 7a 3d ab da c3 bd d0 58 c0 bb
       0.08205631 0.061227463 -0.09563192 -0.0058699623
0000d0 9b 0a 06 be bf 44 71 3d 38 c8 56 3b f5 3a cf bc
       -0.13089983 0.058903452 0.0032773148 -0.025296668
0000e0 5c a7 c7 3c 1a 8d 0e be 3f 3b 3c 3d cb 90 6b 3c
       0.024371795 -0.13921013 0.04595494 0.014377783
0000f0 f9 0b b3 3d fd ee fd bc 75 ba 24 bd 19 70 8e 3d
       0.08742518 -0.030997748 -0.04021688 0.06954975
000100 5f ed bd 3b 43 38 15 bd 9d 24 46 bd 2d 5b aa 3d
       0.005796119 -0.03643061 -0.04837476 0.08318172
000110 e7 f6 98 3d 91 fa 65 bd 78 95 bd bd 8e 37 3d 3d
       0.07468968 -0.056147162 -0.092570245 0.04619556
000120 1b ec e9 bc 91 7e 23 bd 07 21 2b bd d9 d3 e4 3d
       -0.028554967 -0.039915625 -0.041779544 0.11173219
000130 39 fd 97 bc cb b1 b7 3d a7 91 54 bd 65 93 e8 3d
       -0.018553363 0.08969458 -0.051896717 0.11356238
000140 20 a5 90 3d b5 3a 95 bc 86 fe 23 3d dc 76 22 bd
       0.07062745 -0.01821647 0.040037654 -0.039664134
000150 78 c6 66 3d 25 f3 a7 bc fa 32 a0 bd 1e 89 70 bd
       0.05634162 -0.020501683 -0.07822223 -0.058724515
000160 c8 ee 0e bd 3d 75 94 3d e6 4f f4 bb 7e 79 c6 bb
       -0.03489569 0.07248924 -0.0074558137 -0.0060569635
000170 02 69 ce bc 44 d0 00 3e 9c 75 35 3d 8f fa 7f 3c
       -0.025196556 0.12579447 0.044301614 0.015623703
000180 a0 2e 53 bd 19 f8 8b 3d 10 7d 1b bd 59 ad 94 3d
       -0.051558137 0.0683443 -0.037961066 0.07259626
000190 47 fb 2f 3c ea 9d 69 bd 17 ef 1e bc 12 83 98 3d
       0.0107410615 -0.057035364 -0.009700558 0.07446875
0001a0 78 0b 85 3b 7f db 78 3d b8 17 a7 bb ba 27 71 3b
       0.004060205 0.060756203 -0.005099263 0.003679736
0001b0 9d 6a af bd 20 ce 24 bd 25 da c7 3d a8 3e 13 bd
       -0.08565257 -0.04023564 0.09758405 -0.035948426
0001c0 9c 10 b5 3c 41 14 93 3d ff e8 fa bb 47 d2 3c bd
       0.022102647 0.071815975 -0.00765717 -0.046098974
0001d0 31 ac 0c bb 17 08 c2 bd 26 3e e4 3d f7 f9 55 bd
       -0.0021464939 -0.09474199 0.111446664 -0.05224034
0001e0 e4 53 8a bd e1 da 50 3d f4 82 44 bc b0 c3 91 bc
       -0.06754282 0.05098999 -0.011994112 -0.017793506
0001f0 d2 23 9d bc 00 f6 a6 3c 87 ab 93 3d 72 61 31 bb
       -0.01918212 0.020380974 0.072104506 -0.0027066139
000200 be 44 ca bd 1a ac 32 bb de e6 b2 bc ca a2 ea 3c
       -0.09876393 -0.0027263225 -0.021838602 0.028642077
000210 f6 78 d1 bd 72 08 eb bc 79 f0 e9 3d da a6 a3 3d
       -0.102281496 -0.02869055 0.1142282 0.07990809
000220 c7 0c 9f bb 36 c6 30 bd e2 69 0e bc bd a6 40 3c
       -0.004853818 -0.04315778 -0.008692237 0.0117585035
000230 59 4d 1b bd 86 ed fe bc 32 be 12 3d b0 71 36 bd
       -0.03791556 -0.03111912 0.035825916 -0.044542015
000240 77 ff 72 3c ad a5 80 3c 80 05 b3 3d e5 87 45 3b
       0.014831415 0.015704 0.087412834 0.0030140814
000250 26 56 73 bd 2e a7 80 bd ad 7e 2c bd 93 26 d0 3d
       -0.05940833 -0.06281887 -0.042112995 0.101636074
000260 03 9a fa 3d f8 45 b0 3a ca 7e 71 3d 95 1e a2 bd
       0.12236407 0.0013448587 0.058958806 -0.07915989
000270 25 6a f7 3c b8 49 70 3c a8 6e 00 be 2c f4 dc bd
       0.03020198 0.014666013 -0.12542212 -0.107887596
000280 7b a0 be bc b4 02 28 bc 27 c2 8c 3c 18 35 18 bd
       -0.023269882 -0.010254551 0.017182423 -0.03716001
000290 87 68 80 bd 8d 1d cb bd 65 5f 2c 3d f2 80 87 3d
       -0.06269937 -0.09917746 0.042083163 0.06616391
0002a0 e8 c9 c3 bd 86 2b 6f bd 73 6b 61 3c c2 34 53 3c
       -0.09559995 -0.058391117 0.013758528 0.012890996
0002b0 7b 12 1f 3d ff 23 a0 bd d9 4b 00 3d 04 75 2c 3d
       0.038835984 -0.07819366 0.031322334 0.042103782
0002c0 8f 41 a3 3c 40 87 a1 3d c4 7f b6 bd a0 80 81 3d
       0.019928722 0.07887125 -0.08911088 0.063233614
0002d0 e1 31 d6 3c 14 7e ea 3c ba d6 61 bd 74 4a 07 bd
       0.026146831 0.028624572 -0.05513642 -0.03302999
0002e0 95 37 9f 3b fd 24 73 3d b5 57 61 bd f7 2d ea bc
       0.004858921 0.059361447 -0.055015285 -0.02858637
0002f0 f7 90 75 bd 3c f3 7c bb 56 53 b6 3d 92 84 0d 3e
       -0.059952702 -0.0038597127 0.08902614 0.13820103
000300 e5 fa 95 bd dc 68 52 3a e0 9f 5c bc dd fe 36 3d
       -0.07323245 0.00080264895 -0.013465852 0.04467665
000310 a4 61 c7 bd 53 d7 e6 3c d5 e6 24 3d 95 25 e3 bc
       -0.0973542 0.028178846 0.0402592 -0.027727881
000320 1c fc df 3c 73 20 1b ba 3f 82 34 3c f4 f1 4f bd
       0.027341895 -0.0005917616 0.011017381 -0.050767854
000330 fd f6 c3 3d be ce 14 3d 4c 67 ce bc 15 b8 8a 3d
       0.09568594 0.036329977 -0.02519574 0.06773392
000340 2d 07 89 3d e4 48 73 3d 0c 9e 15 39 50 1d 1f 3c
       0.06690822 0.059395686 0.00014268624 0.0097115785
000350 dc 20 8d 3d a9 a2 bb 3b 5e b9 0d bd 3a e9 16 3c
       0.06891033 0.0057261777 -0.034600608 0.009210879
000360 d3 71 ba 3c 88 9c 69 bd ff ad b2 3d 5b ff e1 3d
       0.022759354 -0.057034045 0.08724593 0.11035033
000370 8b a2 ab 3a 6b 93 3f bd b0 6f d5 bd e0 b0 69 3d
       0.0013094706 -0.046771448 -0.10421693 0.057053447
000380 7b 1d b9 bd 25 8b 35 bd bf d0 4a bd 73 30 93 3c
       -0.09038826 -0.04432215 -0.049515482 0.017967438
000390 7d fc 99 bd bc 39 6b bc a5 05 00 3d 34 d3 46 3d
       -0.075188614 -0.014357027 0.031255383 0.048541263
0003a0 eb 49 4c bd cc 01 7b 3b 92 85 3c bd 9b a4 d2 3c
       -0.04987518 0.0038300632 -0.04602582 0.025713256
0003b0 a1 92 d3 3c e3 df 31 ba 35 07 c1 bd f6 17 89 bd
       0.025826754 -0.0006785376 -0.09425203 -0.06694023
0003c0 ed 2b 5d 3d 42 d8 c4 3c c8 f2 ae bd cd 33 5f bb
       0.05399697 0.024028901 -0.085424006 -0.0034057975
0003d0 fa a9 8b 3d b2 e1 85 bd 3b bb 06 3c 52 43 0c bd
       0.0681953 -0.065371886 0.00822335 -0.03424389
0003e0 7d 7e ef 3c d1 8f a1 bd f6 09 3b 3d 2d bc 58 bd
       0.029235119 -0.07888759 0.045663796 -0.052913833
0003f0 a2 4a 58 ba c1 57 18 bc 85 72 43 bc 1f 87 9b 3d
       -0.0008250867 -0.009298266 -0.011929159 0.07594132

linearD3.weight f4 [6, 4]
000000 4a 92 8c 3e 5e 36 3a 3d 4e a1 12 3f 69 38 a5 be
       0.2745536 0.045462005 0.5727738 -0.322696
000010 f6 5e 93 3e ad a9 a3 be 43 c2 df be 32 f1 93 3e
       0.28783387 -0.3196539 -0.43702897 0.28894955
000020 b0 5f e1 bd b3 8d 0d be 7a f7 82 be 77 fc 10 3e
       -0.11004579 -0.13823585 -0.25579435 0.14158808
000030 af 6f 04 be b0 4e 89 be e5 de 9f 3e ad 63 59 be
       -0.12933229 -0.26817846 0.31224743 -0.2122943
000040 0a 4a 8b bd 82 bf c3 3d c3 ab 20 bd cd 21 15 3f
       -0.06801231 0.095580116 -0.039226305 0.582547
000050 5b 13 8d bd 7b f4 c2 3d 7a 21 1e bd 3b 93 15 3f
       -0.068884574 0.09519287 -0.038606144 0.5842778

linearD3.bias f4 [6]
000000 52 08 9f 3e 17 77 41 3e 21 fe c8 bd a8 ec 52 3d
       0.31061035 0.18893085 -0.09814096 0.051495224
000010 6b e1 9a 3c 74 e7 a2 3c
       0.018906316 0.019885756
