continous_state/pretrained/VE/VE6_128.pt (torch, 30300 bytes, 9 tensors)

linearK1.weight f4 [6, 8]
00000000: e9c1 0b3e fe0d 253c a5fe e7be 771a f93e
00000010: 31c3 013e d802 f8bd 7fcb 373e 8bf2 603c
00000020: 036c b8bd 025b e0be 3c4a 673e 4d6c 56be
00000030: 3b2b f33d 5573 693d 98cf 983e c63e 763d
00000040: 1957 783e ac0f cd3c 6078 ad3b ab9f a8be
00000050: 8d54 9e3e c581 33bd 45fe fabd f178 30be
00000060: c30c 063e 6a54 863c 4a57 503f 34e4 9a3e
00000070: d7f6 263e 006f a8bc f5e0 513e 1f3d 3d3d
00000080: c114 cf3e 0fef 80bd cdea fd3d 9817 89be
00000090: f495 65be 8170 3e3b 19fc 8d3e 7851 91bd
000000a0: 3c07 803e 3a4e 21be 76b5 dbbd 89b4 2e3e
000000b0: 4f0a 8dbe 744c 593e 0b0a 2abe 2883 b03e
0.1364819 0.010074137 -0.45311466 0.48653004 0.12672116 -0.121099174 0.17948721 0.013729702
-0.090049766 -0.43819433 0.22586912 -0.20939751 0.1187348 0.056994755 0.2984588 0.06011846
0.24251975 0.025031887 0.005293891 -0.32934317 0.30923882 -0.04382493 -0.12255529 -0.17233635
0.13090806 0.016397674 0.8138319 0.3025223 0.163051 -0.020560741 0.2049597 0.046200868
0.4044552 -0.06295597 0.123983 -0.26775813 -0.22420484 0.0029058757 0.27731398 -0.07095617
0.2500552 -0.15752497 -0.1072797 0.17061056 -0.27546927 0.21220571 -0.16605394 0.34475064

linearD1.weight f4 [256, 6]
00000000: 9fd8 a3be 7105 133e 7f74 413e 6e53 ebbe
00000010: fd2f 5d3e 340d 113d acab ccbd 0dc5 42be
00000020: 9ec5 8fbe 2201 cc3e 71f2 6c3e d9ce 803b
00000030: ba70 e03e 4847 a13e eec2 7e3e b086 9ebe
00000040: b2ea bcbe 7584 18be a4f1 cd3c 564f c03e
00000050: 2db3 23bd e9c9 113d 8a74 bb3e c95c 9e3d
00000060: e455 cb3d f99b aebe 81d1 cdbd d182 1e3e
00000070: 5013 fe3d e3fd 84be d04e d33b c9bc 51be
00000080: 12d7 383e 10f7 eebe 9825 923e 2ae0 19be
00000090: a33b 473e 04f6 353d b027 9dbe 1238 37be
000000a0: 1e01 c0be 9a70 44be 63d5 e43e 23b3 8f3e
000000b0: 351b d83e ccef 823c 699b 373e 161b b7bc
000000c0: 2837 8abe 309e bcbd 547e 35be 3953 523e
000000d0: 9bdd d9bd c102 963e 3f72 643e 5d2f bcbe
000000e0: f753 e3be d58c 813e 3696 50be 11a1 6f3c
000000f0: 95b7 f2bd 5ad3 82be bbec 233e 16a6 693d
00000100: 9865 d8bd 8c8e 0fbe 2756 cabe a131 ff3c
00000110: dd7f 5cbd e154 bebe 81c6 2e3e 84f8 db3d
00000120: 8f7f 6ebb e666 4abe 2572 a23e 03cc 0fbe
00000130: d677 43bd 6a5e babe e644 163e e701 9bbe
00000140: f875 f8be 43d7 b9be d092 d13d b99a b5be
00000150: a570 d03d e0b5 c4be 4b53 e43c ad62 9c3e
00000160: 37f2 b1bc de67 bebe e0f4 013d 96e4 c53e
00000170: 23c5 63bd 7a33 d53e 2c43 063e 19d1 6abd
00000180: 1b4f 57be 3e07 89be 1506 d1be b839 e63e
00000190: c65a 3bbc 39d4 77be c724 59be d5a8 233e
000001a0: ac32 bbbe e204 b33e 5efd 1b3e 6ce1 6bbe
000001b0: e1cf ae3e 0ff6 51be cacd e7be 649b 63be
000001c0: dacf 98be 4157 95be 0c53 a73e 7f87 f83d
000001d0: b78a d73e d8f7 a23e e44c 943e 84e9 793e
000001e0: f50e 29be 4642 fcbd 9b54 6bbe c8a9 063e
000001f0: ad28 85be 473e 7d3d 601e a9bd 2678 883e
00000200: fb64 5abe b7a8 a03c 30a2 6ebe 7595 f13e
00000210: 42b3 263e 9f03 c0bc 2b53 e33e afa4 86be
00000220: 95e4 a1be 43bb 4bbe d7d3 f03d 29aa f43d
00000230: fe8d 70be 3347 b23e d6f3 c3bc 14de 933e
00000240: f027 3a3e 3249 d4bd 4b00 5e3d 61c8 61be
00000250: ca21 ea3d cf0c 5dbe 57ad babe 8605 72be
00000260: fcc8 e93d 25a7 7fbe 90eb c1ba 0efc 983d
00000270: f9a2 28be 5d0c 9d3e 2272 d1be 0901 3fbe
00000280: aea3 283e 80f1 06be cb78 5d3e ac96 bbbe
00000290: 209a 3bbd 67f4 e3be 737c 0fbd 9e91 483e
000002a0: b6bc 7b3e 4eea b63c 0357 b8be ee1f 60bd
000002b0: 5d90 a5be 5d95 f7bd 6703 873d d30a 91be
000002c0: 06d1 05bf 7d5c 0ebe 8c4a 493e 1d10 7dbc
000002d0: 2092 2e3a e448 893e b750 d3be 55eb 63be
000002e0: c48f 36be 26fc 73bd 86e7 91be 15e9 ad3e
000002f0: ab54 3a3e b8c5 8fbe 7747 9c3e e619 e93e
00000300: bc32 9fbe bae8 e63d 56bf 71bd 52f4 4e3e
00000310: a8af 8abe 8880 e23e 29dc 343e 491d 61be
00000320: dd06 b53e 1692 8cbe ce71 773e 9a6a a73d
00000330: dca0 cdbd 512b da3d d472 cfbe 834c 5a3e
00000340: f96d 513e 4946 5b3e 88b2 65be 0277 62bd
00000350: 0175 9fbe 3ab2 923e dc7e e6bd b738 673e
00000360: 9ff8 913e fefa 05be 3b31 7a3e 1c92 c1bc
00000370: c4d4 3cbe 5c18 80bd b189 c43d 41b7 003d
00000380: bfba 2bbd 06e5 b23e fe76 4ebe b50c 42be
00000390: 0f68 ca3d 372a 903e 6f39 283e e6a1 a53d
000003a0: 23b9 35be 9155 99be bc6e 973e 4f8a d9be
000003b0: c866 21be 586c c5be 4a68 423d e318 723e
000003c0: 15d6 c73e bafa 2f3e 8aa0 9a3e fa06 a53e
000003d0: 8922 a5be 6fac b13e 6705 3ebd a857 67be
000003e0: f882 7b3d 0acc 3cbe 526b 483d 5638 0a3e
000003f0: 1131 90be b415 52be 50a9 f7bd 6e6c 183d
-0.32001206 0.14357544 0.18892096 -0.4596209 0.21600337 0.035412982 -0.09993681 -0.19020481
-0.28080457 0.39844614 0.23139359 0.003930908 0.43836004 0.31499696 0.24879047 -0.30962133
-0.36897808 -0.14894278 0.025139637 0.3756053 -0.039965797 0.035592947 0.3661235 0.07732541
0.09928492 -0.34103373 -0.10049725 0.1547959 0.12406027 -0.2597495 0.006448604 -0.20482172
0.18050793 -0.4667287 0.28544307 -0.15026918 0.19456343 0.044424072 -0.30694342 -0.17892483
-0.37500852 -0.19183579 0.4469405 0.28066358 0.42208257 0.015983485 0.17930378 -0.022351783
-0.26995206 -0.09209859 -0.17723972 0.2053956 -0.10637971 0.29298976 0.22309206 -0.36754885
-0.44399998 0.2530276 -0.20369801 0.014625804 -0.11851422 -0.25551873 0.16008274 0.057043158
-0.105662525 -0.14019221 -0.39518854 0.031151595 -0.053832877 -0.37174132 0.1706791 0.1074076
-0.0036391949 -0.19765815 0.3172771 -0.14042668 -0.047721706 -0.36400157 0.1467472 -0.3027489
-0.48527503 -0.36297044 0.102330804 -0.35469607 0.10177735 -0.3842001 0.027871748 0.30544034
-0.021721942 -0.3718862 0.03172767 0.3865096 -0.055607926 0.41640836 0.13111562 -0.057328317
-0.2102627 -0.26763338 -0.40824953 0.4496591 -0.011435216 -0.2420205 -0.21205436 0.15982373
-0.36562097 0.34964663 0.1523337 -0.2303521 0.34142974 -0.2050402 -0.45274192 -0.22227246
-0.29846078 -0.29168132 0.32680547 0.12135219 0.4209802 0.31829715 0.28964913 0.24405485
-0.16509612 -0.12317328 -0.22981493 0.13150704 -0.26007596 0.06182697 -0.08257747 0.26654166
-0.21327583 0.0196117 -0.23304057 0.4718434 0.16279319 -0.023439227 0.4439939 -0.2629752
-0.31619707 -0.19895653 0.11759155 0.11946518 -0.23491666 0.34819946 -0.023919981 0.2888037
0.18179297 -0.103655234 0.0541995 -0.22049095 0.11432226 -0.21586917 -0.36460373 -0.2363492
0.11415288 -0.24966104 -0.0014794935 0.074699506 -0.16468419 0.30673495 -0.4090739 -0.18652739
0.16468689 -0.13178062 0.2162811 -0.3663839 -0.045801282 -0.44522402 -0.035030793 0.19586799
0.24583706 0.022328522 -0.36003885 -0.05471795 -0.32336703 -0.12089036 0.06592446 -0.2832857
-0.5227207 -0.13902469 0.19657344 -0.015445736 0.00066593476 0.26813424 -0.41272518 -0.22257741
-0.1782828 -0.05956664 -0.2849695 0.3396689 0.18196361 -0.28080535 0.30523273 0.4552757
-0.31093395 0.11274858 -0.059020363 0.20210388 -0.2708714 0.44238687 0.1766211 -0.21983828
0.353568 -0.27455205 0.24164507 0.081746295 -0.10040447 0.10652793 -0.40517294 0.2131825
0.20452107 0.2141353 -0.22431386 -0.055289276 -0.31143954 0.286516 -0.11254665 0.22580229
0.28509995 -0.13084027 0.24432842 -0.02362924 -0.18440539 -0.06254646 0.09596575 0.031424765
-0.04192614 0.34940356 -0.2016258 -0.1895016 0.09883129 0.28157207 0.16428159 0.0808752
-0.17746405 -0.29948094 0.2957667 -0.42488334 -0.15761864 -0.38559222 0.04746274 0.23642306
0.3903052 0.17185488 0.30200607 0.32231885 -0.3225291 0.3470187 -0.04639187 -0.22592032
0.0614042 -0.1843721 0.048930474 0.13498053 -0.28162435 -0.20516092 -0.12092841 0.03721278

linearD1.bias f4 [256]
00000000: c328 35be 2438 7bbe 9cff 89bd 3a4f 6d3e
00000010: 8ccf 4ebe 25fd babe 9d08 ba3e a813 98be
00000020: 11a1 983c b25d 733e b595 033e 447c e03d
00000030: 9c32 aa3e e4ff 13be bcdd 36bd 1264 46be
00000040: e614 cf3d 2608 80be 44d9 b83e cfa8 943e
00000050: 90a8 b93e 2d7a b93e de91 0a3e 1719 f03d
00000060: f805 9a3d 847f 4a3e d123 10be 4174 783e
00000070: 6425 45be 2612 a83e 4bc8 81be 24b2 073e
00000080: 3758 313e 6c7b 9b3e 2183 893e 8d76 5e3d
00000090: e836 bd3e eda3 d03d 295f 4dbe 4e79 863e
000000a0: 9aa6 88be 16f6 723d dc15 b2be a776 cabe
000000b0: f8ee c93e 7569 aa3e efd2 5d3e f25a de3d
000000c0: 5ef5 b5be b3e4 9ebe f781 e8bd b196 5cbe
000000d0: 4718 b43d ea19 87be b25b c7be b222 083e
000000e0: 3c54 8ebc a193 8abe 8277 093e ef7b 1cbc
000000f0: b97a b8be 6acf 65be ff1a 5f3e 0b02 513e
00000100: efca 423e fb1c 963e 67d0 2bbe ea0c d03d
00000110: c667 38be 8cdc d4bd 8394 7abe f967 01bd
00000120: 4f30 d0bd f01c 26be b075 923e a716 833e
00000130: 18a9 7a3e a786 933e 7368 2bbe 2222 7a3e
00000140: c955 4f3e 6c3b 82be 0282 ad3e 0b38 4abd
00000150: 4cc4 78be d98c ab3e 324d 7c3e 9207 503c
00000160: 8f20 763e 0141 14be b1c4 1b3d 0d36 5bbd
00000170: 5cf5 093d 48d2 f53d 15fb f3bd f8d3 ad3e
00000180: 458c 7bbd d32d 173e 6d6a 07be 104c 7a3e
00000190: b593 b6be 1179 abbe 8896 cfbb 3e8c c63d
000001a0: d941 883d 7ddb b7be e402 b3be d34e 003d
000001b0: 34db b8be a1f3 87bd 9509 63be 4b91 a4be
000001c0: d05d 023e 0d94 53be 91f8 15be 29e9 92be
000001d0: 4bff c33d 9af7 3a3e 76d3 9fbe 44bf a83e
000001e0: d280 b03d fc7e c63e 8054 5bbe 2701 7fba
000001f0: e354 a53e a0a0 7fbe 0c48 193e 3e61 c03d
00000200: 043a 373e df38 94be be5e 633e 9a15 e8bc
00000210: 4732 9ebe a768 b53e 40a4 99bd b101 6bbe
00000220: 5516 2cbd 211b 893e 0ded ba3e ab7e 94be
00000230: 4b88 c73d cd82 2dbe b7c9 72be ad8e 97be
00000240: 5fe3 1bbd fdb1 1abe 3af9 4cbe 8134 d23d
00000250: 5f30 843e 53aa 96be 1e4d c63c 788b 973e
00000260: 2073 41be e5bb 92bd 097b 1f3e fd4d 01be
00000270: b724 a5bd a945 ad3d 4712 743e ee24 0c3d
00000280: e39b 6dbe 1b0b 1bbe 73a4 93be 10f4 773e
00000290: 6793 4a3e 8d1e 78be b01b 05be 66ac 6b3e
000002a0: 6fb1 d5bd 7ca1 bd3e 18b6 6dbd 50dc a83e
000002b0: 2cfe 19be 52cb 8fbe cd45 b1bc 3200 4abc
000002c0: 0806 933d 904f 1bbd 3db0 74be b3be 71be
000002d0: 95ab 15be 2936 c23e 5ca7 34bc 2bb1 9c3e
000002e0: 29de 7b3d 3923 823e bd32 a0be ff4c 97bd
000002f0: 5a2c 8bbe c12a 27be e704 ef3d 4f2f 6fbe
00000300: e5c0 9ebe dd05 3b3d 4948 fcbc 31ea d53c
00000310: 1d6d 5d3e 3a06 a63d 5d85 ae3e c2d0 aabd
00000320: 9b28 9bbe e8dc 48be 2a0c 32be 64f4 e13d
00000330: 5976 733e 1ec5 113e a406 82be 9b68 40be
00000340: e394 c63e f792 d13d 7d0e 443e cde1 8dbc
00000350: 4363 183e ca19 463d 47f2 9fbe 1e4e 953e
00000360: 5f32 7dbe b35a 6bbe 8c0b a4bd ee58 663e
00000370: d150 07be 0e88 a03e 0c02 debc 948f cb3e
00000380: b9b3 07be 805d cb3d 033c b63e 4005 acbe
00000390: 6dfa 86be 9d34 953e 60cd 90bd a2f6 503e
000003a0: ee12 953d 3a4b 55be 6207 cb3e 36a9 99bc
000003b0: 050d b63e 4fbc 393e 6a2a eabd 6b3e ad3e
000003c0: 7680 b2be 6082 8abd a43a 823e a9ba 7c3e
000003d0: a0cb 1c3e 0274 b2bd dbb3 30be 8dbb d5bd
000003e0: 873d 5fbc 2ce7 a33b 3364 773e 4ceb c3be
000003f0: 9b1b 7c3e decd ee3c 3767 843e ade9 6dbe
-0.1769133 -0.24533135 -0.06738207 0.23174754 -0.2019636 -0.3652126 0.36334696 -0.29702497
0.01863149 0.2376621 0.12850077 0.10961202 0.33241737 -0.14453083 -0.044645056 -0.19374111
0.10111408 -0.25006217 0.3610326 0.2903504 0.36261415 0.36226025 0.13532206 0.117235355
0.0752067 0.19775206 -0.14076163 0.24263097 -0.19252545 0.32826346 -0.25348124 0.13251549
0.17318808 0.303676 0.26857856 0.054312278 0.36955953 0.10187516 -0.20055832 0.26264423
-0.26689607 0.059316717 -0.34782302 -0.3954365 0.3944013 0.33283582 0.21662496 0.1085719
-0.35538763 -0.3103386 -0.11352914 -0.21541859 0.08793693 -0.26386958 -0.38937145 0.13294485
-0.01737415 -0.27065757 0.13424495 -0.009551032 -0.3603113 -0.22442403 0.21787642 0.20410936
0.19022726 0.29318985 -0.16778718 0.10158713 -0.18008336 -0.103936285 -0.24470715 -0.031593297
-0.10165464 -0.16221976 0.28605413 0.2560322 0.24478567 0.2881367 -0.16739063 0.24427083
0.20247568 -0.2543596 0.3388825 -0.049369853 -0.24293631 0.33505896 0.24638823 0.012697117
0.24035858 -0.14477922 0.038029376 -0.053518344 0.03368126 0.120029986 -0.119131245 0.33950782
-0.06141307 0.14763574 -0.13224192 0.24443078 -0.35659567 -0.33490804 -0.0063350834 0.09694718
0.066531844 -0.35909644 -0.34963143 0.031325173 -0.3610474 -0.066382654 -0.22171624 -0.321421
0.12731099 -0.20661946 -0.14645602 -0.28693512 0.09570178 0.18258515 -0.3121602 0.32958424
0.086183205 0.38768756 -0.21418953 -0.000972765 0.32291326 -0.24963617 0.1496889 0.093935475
0.17893225 -0.2894964 0.2220411 -0.028330613 -0.30897734 0.35431406 -0.07502031 -0.22949864
-0.042013485 0.2677851 0.3650898 -0.2900289 0.09742793 -0.16944428 -0.2370976 -0.2960104
-0.038058635 -0.1510696 -0.20016947 0.102639206 0.25818154 -0.29426822 0.024206694 0.29598594
-0.18891573 -0.07164744 0.15574278 -0.12627406 -0.080636434 0.08460552 0.23835097 0.034214906
-0.23203997 -0.15140955 -0.28836402 0.24214196 0.19782792 -0.24230404 -0.12998843 0.23014984
-0.104342334 0.37037265 -0.058034986 0.32980585 -0.15038365 -0.2808481 -0.021639729 -0.012329148
0.07178885 -0.037917674 -0.23895355 -0.23607902 -0.14616235 0.37931946 -0.01102623 0.30603918
0.061491165 0.25417498 -0.3128871 -0.07387733 -0.27182275 -0.16324903 0.11670857 -0.2335789
-0.31006542 0.04565989 -0.030796187 0.026112648 0.21623655 0.081066564 0.34086123 -0.08340599
-0.30304417 -0.19615519 -0.17387453 0.11032942 0.23775615 0.1423535 -0.2539569 -0.18789904
0.38785467 0.102331094 0.19146152 -0.017319584 0.14881615 0.048364438 -0.3123953 0.2916116
-0.24726246 -0.22983818 -0.08010015 0.22494861 -0.13214423 0.313538 -0.027100585 0.3975798
-0.13252153 0.09929943 0.3559266 -0.33597755 -0.26362935 0.29141703 -0.07070422 0.20406583
0.07279001 -0.20829478 0.3965407 -0.018757444 0.35556808 0.1813824 -0.11433871 0.33836684
-0.34863633 -0.06763148 0.25435364 0.2468058 0.15312052 -0.08713533 -0.1725611 -0.10436163
-0.013625509 0.005001923 0.24159317 -0.38265455 0.24619906 0.0291509 0.25859997 -0.23233671

linearK2.weight f4 [6, 256]
00000000: c670 943d 3054 09bd 7f96 cb3d 3a98 0f3d
00000010: 6fc3 233c bfe9 8e3d c672 853c 7635 fd3d
00000020: aadd 29bd e9cf b8bd 2d0a 3ebc b87d 16bc
00000030: 3d98 37bc e289 a43b 681e d1bd 1284 553c
00000040: 6d50 6dbe 5190 b43c 8463 84bc 5134 583c
00000050: cc5f a0bc 337c fc3c bc24 02bd c277 dbbc
00000060: 9714 f03c 3bc0 afbd 3614 973a b291 683d
00000070: a47d d2ba dae8 8bbd c838 273c 9377 c83d
00000080: 9cfd 6b3c 018c 26bd 24e3 aebd 8788 93bc
00000090: 3d08 84bd e276 93bc a55d 993d 3312 3dbd
000000a0: 4db2 843d ac3b fabb fe54 5f3d c94e 22bd
000000b0: 03d4 70bd 7a67 38bc 30b9 ee3c ef0c 52bd
000000c0: 4c43 a13c 6e24 5e3d fc5d 4a3d f7b3 a03d
000000d0: cb14 b73c c256 1fbd 3e00 6b3d 7c4e 26bd
000000e0: efe7 553c 9a1c 523d 1a8e 9ebd 2d69 f43d
000000f0: b208 993c 6a19 92bd b4fc 34bd 3be5 edbd
00000100: c45a 47bd 2bff e5bd 04fe 123e da41 af3d
00000110: fa6a 77b9 922c ebba 23c8 823d 3aa5 aa3d
00000120: de34 a23d b240 2dbd 0778 e5bd a026 3c3d
00000130: 045e b5bd 0870 c0bc b32f 92bc 2f2c 26bc
00000140: 3db4 1e3d 8868 cb3c afe1 3ebd 435b 093d
00000150: 2883 bcbc f78a 36bd cd87 8fbc df4c 5fbb
00000160: aa9f 5dbc eca2 36bd 98fc eabd 2085 32bd
00000170: 1a6a ddbd 451f 84bc 3d7a a83b d0d8 d1bc
00000180: 510c 7a3a 27a9 98bc 95d9 5c3d 88bc 9dbd
00000190: fd17 ca3c fcf9 1a3d 725a af3d d0e0 ecbb
000001a0: 2555 db3c 13dd cabc 1421 9739 52d6 0cbc
000001b0: 78f7 233d 76b0 80bd e2dd 023d bd2c 6a3d
000001c0: a671 c43d 1795 b13d 82f6 713d 2701 63bd
000001d0: 9bf7 843b 2c67 a93c f5a7 c9bc 391a 81bd
000001e0: 7edc 28bd 22e5 37bd dded 5c3d e2fe dabb
000001f0: 6b6a aaba d42b 933d 5285 db3c 7ca8 113d
00000200: ddce acbc c67d 213d df50 533d 9bd6 a2bb
00000210: 8630 b13d 065c 99bd ffcb 8ebd 2674 153e
00000220: 8424 95bd 8bd7 b9bd 9107 48bd 323c ffbb
00000230: a3f9 893d c56e b1bc de88 db3d c31c 6d3d
00000240: 34fe 643d a708 953b f543 63bd d977 94bd
00000250: 1323 603d 17e4 e3bc f6dd a93d 7293 793d
00000260: 03b5 81bd 1181 2839 ad7f cc3d 6379 493d
00000270: e8f7 563c 9741 7fbd 15c5 a73d 9b91 6c3d
00000280: f8db 7f3d fb1b 54bd 2e5b a93d 77af c93c
00000290: 56f6 41bd a693 7b3d 5661 aa3d b524 dabd
000002a0: 7f4e 7c3d e79c c7bd 59c2 a5bd 969f cf3b
000002b0: e2cc 3d3d 99c4 cf3d 780a cf3c d548 1b3e
000002c0: 36eb b5bc 2cf4 153d 3c8b 553d d34b a23d
000002d0: ad52 22bc 974e 99bd 1440 6c3d 3881 41bd
000002e0: 0fa1 143e 6a0d 253d 3050 bebc 73dd eb3b
000002f0: 289b 863c 1b8a be3d 4c5c 353d 52e4 ca3d
00000300: b949 ccbc 4716 9e3d 7a4a 80bd f867 823c
00000310: 0f78 23bd 4d28 303c dc04 b3bd e096 613e
00000320: f248 8c3d 494b 953d 16a9 033d 060f 6e3b
00000330: 12ca 7ebd afd9 3ebd 1dc1 973d 395b 5c3d
00000340: 3070 e0bc 1376 7c3d eb8b 723c 6364 1e3d
00000350: a4f5 183e 9d6d 4e3d b23a d43d f521 a0bd
00000360: 698b 91bc 22ee 853d 394d 29bd ad30 943d
00000370: 5bde c53b 7fb8 96ba d23a f8bd 1402 9cbc
00000380: 4f3d f83d c10e 41be e55a 043c 78a9 983d
00000390: b459 c9bc c44e 71bd d349 94bd fe61 f3bd
000003a0: b121 11bc 4c56 3a3d 4c79 73bd 9b97 3cbd
000003b0: 4c49 c93c 970f 7f3d c410 a1bd 5c3a 43bd
000003c0: a5a6 de3c 0a4c 423d b5af 7f3d c89f 15bd
000003d0: 8416 e6bc 037d 913c 066b 9a3c 1229 e1bb
000003e0: 70c5 873c 3ebb c93d 72f9 c83c 43a4 9d3c
000003f0: a2a9 68bd f67a 023e 3d70 35bd d759 ec3c
0.07248072 -0.033527553 0.09940814 0.035057284 0.0099953255 0.06978177 0.01629008 0.123637125
-0.04147116 -0.09024031 -0.011599106 -0.009185247 -0.01120573 0.0050213197 -0.10210878 0.013031976
-0.23175211 0.022041472 -0.016160734 0.013196067 -0.01957693 0.030820942 -0.031773314 -0.026790503
0.029306693 -0.08581587 0.0011526409 0.05677957 -0.0016059172 -0.06831522 0.010206409 0.09788432
0.014403727 -0.040660862 -0.085394174 -0.018009437 -0.06446884 -0.018001024 0.074885644 -0.046159934
0.06479321 -0.007636508 0.054524414 -0.039625917 -0.05879594 -0.0112551395 0.029141039 -0.051281866
0.01968541 0.05423396 0.049406037 0.078468256 0.022348782 -0.038901098 0.057373278 -0.040602192
0.013055786 0.051296808 -0.077419475 0.11934123 0.018680904 -0.071337536 -0.04418631 -0.11615988
-0.048670545 -0.1123031 0.14354712 0.08557482 -0.00023595607 -0.001794236 0.06385829 0.08332296
0.0792024 -0.042298026 -0.11204534 0.045935273 -0.08855823 -0.02349092 -0.01784501 -0.01014237
0.038746107 0.024830118 -0.046601947 0.0335343 -0.023011759 -0.04456612 -0.01752081 -0.0034072918
-0.013526836 -0.04458897 -0.1147396 -0.04358399 -0.10811253 -0.016128192 0.005141525 -0.02561608
0.00095385785 -0.018635346 0.05391844 -0.07701975 0.024669642 0.03783606 0.08562173 -0.007228948
0.026773999 -0.02476362 0.0002882561 -0.00859602 0.040030926 -0.06283657 0.031949885 0.057171572
0.09591989 0.08671015 0.05907298 -0.05542102 0.004057837 0.020679079 -0.024616221 -0.0630383
-0.041225903 -0.044896252 0.05393778 -0.0066832164 -0.0013001686 0.07186094 0.02679697 0.03556107
-0.021094734 0.039426588 0.051590797 -0.0049694306 0.08651833 -0.07488255 -0.06972503 0.14595088
-0.072823554 -0.09074315 -0.04883534 -0.0077891583 0.067370676 -0.021659264 0.10719465 0.057888757
0.05590649 0.0045481506 -0.05548473 -0.072494216 0.05472095 -0.027818723 0.08294289 0.06093163
-0.06333353 0.0001606981 0.0998529 0.04918803 0.013120629 -0.06231841 0.08191887 0.057756048
0.062465638 -0.051784497 0.08269344 0.024619801 -0.047354065 0.061420105 0.083193466 -0.106515326
0.061598297 -0.097467236 -0.080937095 0.006336163 0.04633797 0.1014492 0.025273547 0.15164502
-0.022206884 0.036609814 0.052134737 0.079246186 -0.009907407 -0.07485693 0.057678297 -0.047242373
0.14514564 0.040295996 -0.023231596 0.0071980297 0.016431406 0.09303685 0.044277474 0.0990683
-0.024937497 0.07719093 -0.06264205 0.015918717 -0.03990942 0.010751796 -0.08741161 0.2203021
0.06849851 0.0728975 0.032143675 0.0036324873 -0.062204428 -0.046594318 0.0740988 0.053797934
-0.027397245 0.06163604 0.014803867 0.038669955 0.14937454 0.050397504 0.10362758 -0.07818977
-0.017766671 0.06539561 -0.04133341 0.07235847 0.0060384697 -0.0011499076 -0.12120594 -0.01904396
0.12121069 -0.18853284 0.008078312 0.074541986 -0.024578907 -0.058913007 -0.07240643 -0.11883925
-0.00885813 0.045492455 -0.05944185 -0.04604302 0.024571083 0.062270727 -0.07864526 -0.047663078
0.027179072 0.047435798 0.062423427 -0.036529332 -0.028086908 0.017759806 0.01884986 -0.006871351
0.016573638 0.09850167 0.024533007 0.019243365 -0.0568024 0.12742218 -0.044296492 0.028851433

linearD2.weight f4 [256, 6]
00000000: 65b6 973e 8056 6bbe a9ae 853e 8e85 b8be
00000010: 60f0 863e 80ae 95be 0b90 1cbc 27d0 09be
00000020: ed6a 483e 4f4e 79be 6c8b 25be 7fa0 b1bd
00000030: f861 8c3d d67d 973e 7bfa 2d3d 4917 9f3e
00000040: 2bfa 4f3e ab69 203e 7883 4cbe 905f 5dbd
00000050: 3154 6bbd 46fa d43c c349 803e 654e 563e
00000060: eb70 ab3e db03 843e 1983 85be 6935 87be
00000070: d951 fd3c ca8a 813e 58dd d13d d667 39be
00000080: 2564 2dbe cc70 d63e 50ca 1fbe 9f07 e93d
00000090: 3739 453e 4884 92bc 7efb bebb f10f 96bd
000000a0: d86d a33e 7cf1 1c3e 35b9 2abd 9f03 b7be
000000b0: 85a8 4dbe f956 5bbe 1488 473e 11fb e73d
000000c0: 9a7a 79be bbd0 383e 4cd7 babc db6e 973e
000000d0: 6334 97be 5aa4 9d3d f9c5 d6be 83de 243d
000000e0: d987 20be 0c60 8fbe 8c72 b03c 2434 223e
000000f0: 6aef aabe 1646 5bbe d66e b93e 8b67 0d3d
00000100: 7740 cdbd 5a0b 7c3e bd7d cfbe 954d 0e3e
00000110: d5a8 62be 579d 373e ee20 013f c908 3c3e
00000120: 174a bdbe 87b3 61bd da9e 863e 469d 93bd
00000130: 22b2 55be bfd3 2cbe 2b03 f6bd 6daf cdbe
00000140: bc6d 423e 94a4 133e e924 373e 298c 3abe
00000150: f905 d2bd 4270 063e 6a73 f33e caf3 763e
00000160: 2ac3 a93d 7c5d 743e 6931 babd ab14 b9be
00000170: 75a1 193e 7de7 9d3e eb38 bbbe 84f2 c8bd
00000180: b785 6a3d fb93 07be d4be 86be 1c7a ec3d
00000190: 1124 31be 587f efbe fae1 8c3e 90a5 92be
000001a0: f5e8 103e 2d09 5f3e 49ec b93d 8c25 71be
000001b0: 46c2 0bbe 1a0a d23d 7c2e 263e 1395 71be
000001c0: 765b 39bd 6d35 07be f77f 793e 84f9 203e
000001d0: 3865 71bd b535 8ebe 0dde 6e3c 4f13 393e
000001e0: 1c9c 883e 353a 893d df69 183d 7543 943d
000001f0: 445c 71be 6ce6 9dbe 00c5 6cbe 6a54 4bbe
00000200: d631 87be d035 36be a038 403e 4159 f8be
00000210: 561e 323e 7d59 64be 7ad0 a0be 4469 b33e
00000220: 2221 acbd 494d e43c dc98 98bd d629 f03e
00000230: 8af5 823e 45c4 523e 1eef 343e aeb7 8dbe
00000240: 0eaa ac3d cef7 46be b847 d1bd 7b9b d73e
00000250: ab08 edbd 316e 933e 0629 4ebe bdd1 813e
00000260: 00bd 33be 0eed af3c 3840 693c 5265 1f3e
00000270: a842 a13d c505 373e 1183 133c f373 59be
00000280: 7b4f ad3e 6574 693e 0551 5cbe 6c7b 43be
00000290: bf8c 9abe 9462 43be d953 bb3e f4fb a7be
000002a0: 6b22 f9bd 47fd 94be 476b 3b3e 95dd ba3e
000002b0: f1b2 6b3c 77f3 523d f684 cabe 0b41 35be
000002c0: 01b1 693e 6a1d 323d de8d 123e 2a56 323e
000002d0: 93e7 12bd 8a4e 553d 5ca0 8e3e 27e1 293e
000002e0: 11c2 b73e b612 28be f7fe 853e a01a 833e
000002f0: 6765 afbe b3a5 223d af0e b53e f46a b1bd
00000300: d628 9cbb 0e67 e0bd 0a27 b2bd 3a50 683d
00000310: 0807 8fbe 519a 203d 9330 083e 61fb 23be
00000320: d9ab 473e b91d 42be 4a4e 5a3e 11b8 573d
00000330: da15 63bd 3b61 0a3e d751 4cbe 76fb e83d
00000340: b0a5 a73d 1fb7 1dbe 1a60 adbe fffa 54be
00000350: 3015 74be 0471 9cbd 5696 b4be 5df7 bdbd
00000360: 98c6 863e 6d82 473b 82d3 fd3e 6afd 9b3e
00000370: 07af 01be 458a 123e 8d88 3b3e 7e72 873e
00000380: 076b 6b3e cb6c 1fbe 3caf 833e ea56 87be
00000390: e3d6 6c3e 981f 023e 69fa cabe de0a 443d
000003a0: 0bd2 973e 118c d83e 0318 a73e aba5 cd3a
000003b0: dad6 b8be 20fd 6bbe e67d 73bc abd0 6ebe
000003c0: 3485 7bbe b7cd d7be 020a 8d3e 9219 ab3e
000003d0: 7df9 b43e 9670 33bd 7ef8 5ebe 5b60 153f
000003e0: d8a3 883d 0ac9 2d3d 0c7d ca3e 9887 babd
000003f0: cb46 00be 0b5b e9bd 84a8 6cbe e9bd 11be
0.29631343 -0.22982216 0.26109818 -0.36039394 0.26355267 -0.29234695 -0.009555827 -0.1345831
0.19572039 -0.24346279 -0.16166466 -0.0867319 0.068546236 0.29588193 0.042475205 0.31072453
0.20310275 0.15665309 -0.19972026 -0.054046214 -0.057453338 0.025998246 0.25056276 0.20928343
0.33484587 0.2578419 -0.26076582 -0.26407936 0.030922817 0.253012 0.10247296 -0.18106017
-0.16932733 0.41882932 -0.1560452 0.11378407 0.19260107 -0.017885342 -0.00582832 -0.07327259
0.31919742 0.15326494 -0.041680533 -0.3574495 -0.20083816 -0.21419896 0.19485503 0.11327184
-0.24363175 0.18048374 -0.02280774 0.29576764 -0.29532155 0.07697363 -0.41947916 0.040251266
-0.15676822 -0.28002965 0.021538995 0.15840203 -0.33385783 -0.21413454 0.36217374 0.034522574
-0.10022061 0.24613705 -0.40525618 0.13896783 -0.22134717 0.17931114 0.5044087 0.18362726
-0.3697059 -0.05510285 0.2629307 -0.07207732 -0.20868734 -0.1687765 -0.12012323 -0.40172902
0.18987173 0.1441825 0.17885174 -0.1821753 -0.102550454 0.1312876 0.4754899 0.24116436
0.08289178 0.23863786 -0.090914555 -0.3614858 0.15002997 0.30840674 -0.36566862 -0.09811881
0.057256427 -0.13240044 -0.26317465 0.11546728 -0.17298914 -0.46776843 0.27516156 -0.2864194
0.14151366 0.21780844 0.09078271 -0.23549479 -0.13648328 0.10255833 0.1622867 -0.23592024
-0.04525324 -0.13203974 0.24365221 0.15720183 -0.05893442 -0.2777535 0.014579308 0.18073772
0.26681602 0.06700555 0.03721034 0.07239429 -0.23570353 -0.3083986 -0.23122025 -0.1985642
-0.2640521 -0.17793965 0.187716 -0.48505595 0.17394385 -0.22299762 -0.31409055 0.3504125
-0.08404757 0.027868884 -0.074510306 0.46906918 0.25577956 0.20582683 0.17669341 -0.276792
0.08430873 -0.19430467 -0.102187574 0.4211081 -0.11573919 0.28795007 -0.20132837 0.2535533
-0.17552567 0.021475341 0.014236502 0.15565994 0.07874042 0.17873295 0.009003417 -0.21235637
0.338497 0.22798307 -0.21515281 -0.1909005 -0.30185506 -0.19080573 0.36587408 -0.32809412
-0.12164768 -0.29099485 0.18302642 0.3649718 0.014385925 0.051501717 -0.39554566 -0.17700593
0.22821428 0.043485083 0.1431193 0.17415681 -0.035865378 0.052076854 0.2785672 0.16589795
0.35890248 -0.16413388 0.26171085 0.2560625 -0.3425705 0.039708804 0.35362765 -0.08662978
-0.00476561 -0.10957156 -0.08698852 0.056717135 -0.27935052 0.039209668 0.1329978 -0.16013862
0.19499148 -0.18956651 0.21318927 0.052665774 -0.05544076 0.13513653 -0.19953094 0.11376087
0.08185899 -0.15401886 -0.33862382 -0.20798872 -0.23836207 -0.076387435 -0.35270947 -0.092756964
0.2632339 0.003044273 0.4957543 0.30466777 -0.12664424 0.14310558 0.18313809 0.26454538
0.22990046 -0.15568845 0.2571963 -0.26433498 0.23128848 0.12707365 -0.39644173 0.047861926
0.29652438 0.42294362 0.32635507 0.0015689632 -0.3610142 -0.23045778 -0.0148615595 -0.23321788
-0.24562532 -0.42149135 0.27546698 0.33417946 0.35346594 -0.043808542 -0.2177448 0.5835015
0.06671876 0.042428054 0.39548528 -0.09107894 -0.12527005 -0.11394318 -0.23111159 -0.14232601

linearD2.bias f4 [256]
00000000: be50 94be e1b7 9ebd 8ae9 7c3e 1d1d 94bd
00000010: b80c 8e3e 3bb0 093e 735d 933e f71a 983e
00000020: 92d4 933e 6c74 4d3e e224 c33e 4b8f f23e
00000030: dec1 51be 0da0 a3be a10f 5bbd f803 02be
00000040: 81a5 833e 4acf 9a3e 4e19 453d de88 ad3e
00000050: fb61 e9bd 9050 cfbd f05e 813c c555 45be
00000060: eefd 8c3e ccf4 4fbe 5aa2 683d 8474 4fbe
00000070: 71c9 13be d949 8fbe 9b50 bebd c460 aabe
00000080: d756 bf3d 24e5 b23d e03b c9be f973 a03e
00000090: af24 b1be 2218 a63e 0eab 95be e923 b83e
000000a0: 6d56 07be c535 85bd 3862 a5be b41b b9be
000000b0: 3fd6 b9be d883 96be 9745 be3e 8a28 873e
000000c0: 62f9 913e 01ca d3bd 208e e53d 8bc2 9d3e
000000d0: 87e8 b33e 66c7 4abe 46fa 8e3d 7c45 ca3e
000000e0: 3ac3 24be 6715 4c3e db36 00be 6fe0 c83e
000000f0: f2f2 863e d440 783e 278b 7ebe 7aaf 34bd
00000100: 584b 713b 59f1 d9be c6af 243e 5897 75be
00000110: be7d 913e 42ef 47be 9871 513e 9d2d d9bc
00000120: 05ba 5b3e c93c 863e 3ac4 103e 3737 cc3d
00000130: e8de 9c3e 7ed7 b4be e11a 593e 2ee5 c73e
00000140: 1a32 0fbb 55a4 96bd 2200 a3be 7bd6 f53d
00000150: 6106 193e 21e2 c53e ec68 fc3d 8a40 4ebe
00000160: 8bc9 aa3c 13e7 3e3e d0bd 823e 8c38 6abe
00000170: 4948 843d edae e0bd 6c9d e6be 2721 d53d
00000180: b3d9 23be 2efc a23e 0395 91be 2c81 b8be
00000190: 8104 2ebd 35a0 423e a7c2 78be 2757 193e
000001a0: b57b 283e 2561 aebe 73ea aebd 2114 10be
000001b0: ebb3 f53d 7405 ecbd 41d0 973e e9e5 c5be
000001c0: 10aa 7abe 7273 fc3d 9362 6a3d 40bf c93d
000001d0: bd67 15be cce5 89be e9f6 fabd d02d ef3d
000001e0: 9f05 003e 97c2 1e3e 4548 27be ebed bd3e
000001f0: 198c 963e 77c4 b73e 8064 e5bd 91ad bf3e
00000200: db0c 8b3e defa 1f3e 9536 b73d 1906 6d3e
00000210: 9109 6a3d 875a 87bd deb1 dbbe 0c4d c8be
00000220: 62fe abbe e606 bdbe 8670 903d 20d5 83be
00000230: dc33 bebe 763c 4ebd b422 b63e de5e a53e
00000240: faab 3e3e 8827 6d3e 0f45 b0bc 6485 5c3e
00000250: 4ee6 5cbb e5df 8ebe 5b29 b3be ce25 8f3e
00000260: bde3 97be 95e3 78bd 1aee a6be 6ba8 3fbd
00000270: 2df3 aa3d b2db 2fbe ae28 82bd 7de8 97be
00000280: c5e2 8b3d ed00 93be d611 e33d 3256 2f3e
00000290: a080 97be d5b5 34be 7e33 34be cce2 8e3d
000002a0: ed75 aabe 16e9 96be cb06 92be 3f2a a73e
000002b0: 6e09 ffbe d721 4abe a1db 363d 895e 42be
000002c0: 7fea cb3e c8a1 343e 9020 343e a364 9a39
000002d0: 16cd ab3e 42d8 41be 1802 b93e 7fac 9a3e
000002e0: 0600 61bd dab1 e33c c2c7 65be f041 ae3e
000002f0: be89 84be ceac 7fbe 8a0f b13e 71bd bc3e
00000300: 8fb9 4cbe 30b5 ad3e 9a8c 483e 8456 143e
00000310: abcf 633e d772 d0be 4485 433e da31 bdbe
00000320: 3987 f43d bc1b 293e 9187 aebe 9c91 33bc
00000330: a8d4 643e a0cf 81be 1546 b63e cdf3 14be
00000340: 9c6e 863d 1f8e 9cbe 2dee 3ebe a852 f4bd
00000350: 4302 f23d 845d cfbe 3bde 0c3d 2e7e 803d
00000360: 74a2 8f3e 5d84 cd3e 7839 7abe 0723 3a3d
00000370: 7d31 c7bd 63b2 973e f650 593e 361f 863d
00000380: 0226 74be 529c 4dbe 9411 cebd 76e7 2b3e
00000390: 434d 05be f3be 68be 13e2 94bd 4765 3fbe
000003a0: be4b 7f3e cd16 53be fd19 583e 1f5d 8f3e
000003b0: 29ec 24be 8661 033e 572a 80be 9d14 d13d
000003c0: f78b 903d a7ff 8b3e fe99 a43e 3ce7 793c
000003d0: 252b 0cbd 5f39 2d3e f950 48be 36d8 c93e
000003e0: 3ad5 ab3e 9830 e03c b768 923e c5bf 1c3e
000003f0: 1160 42be 64d5 5ebd 2824 dc3e 05b5 c1bd
-0.2896785 -0.07749916 0.24698463 -0.072321154 0.2774408 0.13446133 0.28782234 0.29708073
0.28873116 0.20063943 0.38114077 0.4737495 -0.2048411 -0.31958047 -0.0534817 -0.12696826
0.25712207 0.30236274 0.048119836 0.33893484 -0.113956414 -0.10122788 0.01579234 -0.19271
0.27537483 -0.20308226 0.056795456 -0.20259291 -0.14432313 -0.2798603 -0.09292718 -0.3327695
0.09342735 0.08735111 -0.39303493 0.3133848 -0.345983 0.32440287 -0.29232067 0.35964897
-0.13216563 -0.06504396 -0.32301497 -0.36153948 -0.3629627 -0.29397464 0.37162468 0.26398116
0.28510576 -0.103412636 0.11208749 0.30812487 0.35138342 -0.19802627 0.069813296 0.39506137
-0.16090098 0.1993004 -0.12520926 0.3923373 0.26357228 0.2424348 -0.2485777 -0.04411266
0.003681859 -0.42566946 0.16082677 -0.23983514 0.28416246 -0.19524863 0.20453489 -0.026511008
0.2145768 0.2621825 0.14137354 0.09971469 0.30638814 -0.35320657 0.2120166 0.39042038
-0.0021849931 -0.073555626 -0.3183604 0.120037995 0.1494384 0.38649085 0.123247 -0.20141807
0.020848056 0.18642835 0.2553544 -0.22873133 0.064591 -0.109708644 -0.45041978 0.10406714
-0.16001014 0.31833023 -0.28434 -0.3603605 -0.042484764 0.19006427 -0.24293004 0.14974652
0.1645344 -0.3405849 -0.085408114 -0.14070179 0.11997207 -0.115244776 0.29651073 -0.3865197
-0.24478936 0.12326707 0.057222914 0.09850931 -0.14590354 -0.26933134 -0.122541256 0.1167866
0.12502144 0.15503918 -0.16336162 0.3709558 0.2940376 0.35892078 -0.112008095 0.37437108
0.27158245 0.15623042 0.089459576 0.23146857 0.05713803 -0.066090636 -0.4290914 -0.39121282
-0.33592516 -0.36919326 0.07052712 -0.2574854 -0.3714894 -0.05035063 0.3557335 0.3229894
0.18620291 0.23159611 -0.021517305 0.2153526 -0.0033706608 -0.27905193 -0.3499249 0.2795853
-0.29665938 -0.060763914 -0.32603532 -0.046791475 0.08347163 -0.17173651 -0.06355415 -0.29669562
0.06830362 -0.28711644 0.11087386 0.17122725 -0.2959032 -0.17647488 -0.17597768 0.06976852
-0.33293095 -0.29474705 -0.28520808 0.3264942 -0.49811882 -0.19739471 0.04464305 -0.18981375
0.39827344 0.1763984 0.17590547 0.0002944815 0.33554906 -0.18930152 0.3613441 0.3020973
-0.054931663 0.027794767 -0.22439483 0.3403468 -0.2588634 -0.24968264 0.34582168 0.36863282
-0.1999266 0.33927298 0.19584885 0.14486128 0.22247188 -0.40712616 0.19093806 -0.36952096
0.11939854 0.16514486 -0.34087804 -0.010960009 0.22346747 -0.25353718 0.35600343 -0.14546128
0.06564066 -0.3057718 -0.18645544 -0.11929828 0.11816838 -0.40501034 0.034391623 0.06274067
0.2805363 0.40140048 -0.24435985 0.04544356 -0.09726236 0.29628286 0.2122229 0.06548922
-0.23842624 -0.20079163 -0.100619465 0.16787514 -0.13017754 -0.22729091 -0.07269683 -0.18690978
0.24931237 -0.20614167 0.21103664 0.28000733 -0.16105713 0.12830171 -0.25032303 0.1020901
0.07057946 0.27343485 0.32148737 0.0152528845 -0.034220833 0.16916417 -0.19562139 0.39422768
0.33561116 0.027366921 0.28595516 0.1530753 -0.18981959 -0.054402724 0.42996335 -0.09458355

linearK3.weight f4 [6, 256]
00000000: 9633 5e3d 8aee 5f3c 6db4 8a3b 215f dcbc
00000010: 3cc8 4c3d 6cd1 40bd 7374 893c 1d66 ecbc
00000020: 7f2e ccbc 3290 823c ab71 4b3d 7c87 30bd
00000030: 5d5b da3c 42ba 32bd 4c41 bb3c 8daf f0bb
00000040: 1538 1cbd 9ce2 1fbd 679d 5e3c b029 943d
00000050: 5f06 10bd 9482 4dbd b949 9bbd a1fd 9d3d
00000060: 7c4e 19bd d3d8 2d3d 0eac 753d 1d50 babd
00000070: 8703 2b3c 679c 4c39 4021 733b b4b6 edbd
00000080: 9cb9 a0bc 02bf 333c 30f9 34bc 8171 7ebc
00000090: fa51 73bc b2c8 103b d682 903c 0479 703d
000000a0: ae1d c2ba 286c 5b3d a3f6 abbd 44bb 983c
000000b0: 7c92 20bd 586b 063d cb07 2bbd e721 9e3d
000000c0: 6e28 cc3c c247 ae3d 3a94 4abc d25d 623b
000000d0: 8c6b 9bbc 05d9 093c 0d2b 063d de55 963d
000000e0: b7e2 ffbb b5b0 473d f54d 0f3d 21f4 0c3d
000000f0: 077d b63a b811 733c fef4 15bb 1773 d13d
00000100: 1a28 a4bc 0686 b2bc ff5f 803d 1f85 94bd
00000110: a2c0 903d 81cc 7e3d e82c 8ebd 034f 3ebd
00000120: 87a6 3ebd 7550 e73c 7296 1cbd d593 90bd
00000130: d71f 0a3d 8c18 d1bb c4f3 de3c 9c1a c63b
00000140: aa3a febc da8d 19be 8d1d 6c3b 168c 7bbd
00000150: fe90 6fbd f1ef 7a3d d1de 0dbd f834 2a3d
00000160: 0d6c 533b ab6c 5dbd 033e 35bd 6a31 e1bc
00000170: 6e84 8c3d 9a11 b0bd ebf1 c5bd 53bb c53d
00000180: bcf3 dabc 1709 59bd 93ad 8b3d b7ea b0bd
00000190: eb70 17bc e0bf 283d 9f0e f438 b875 84bd
000001a0: a4fd 613d 881f a93d 636e 19bd 1bd5 6dbd
000001b0: fe40 323c c0de 953d 99e4 5d3d c6fb 84bc
000001c0: 2304 04bd a901 09bc 4172 df3c 7715 f7bc
000001d0: 0c66 7938 5b56 9a3d 6ce4 893b 12a0 083c
000001e0: fd64 d9bd 0d0d 753d e134 aebc b200 c23d
000001f0: 3a04 833d 7944 af3c 3edc 923d 55f3 9ebd
00000200: a764 c53d f538 063d 6a12 2a3d e21a 6bbd
00000210: 0aca 5bbd c149 333d afb7 84bd b409 843d
00000220: 2e81 093d 59e0 26bd 98ce 25bd c7fd ff3c
00000230: 5738 d53b a012 613d 2aa3 b23d 8dd3 07bb
00000240: edb6 393d 1b52 483d 6fd8 87bd 3030 a93c
00000250: 9369 473d f6b9 053d 0fb7 b6bd a596 313c
00000260: 03f5 16bd 06a6 f0bd 4eb2 1b3d ef0d ca3c
00000270: 5b51 6cbb 7ce1 153d f439 6c37 1f81 f53b
00000280: afed a53b e262 7bbb a6ab 9fbd c8ff cdbc
00000290: c73a 3b3d 78c6 abbc 5c81 bebc 535f 2c3d
000002a0: 5f8f 10bd ceaf a5bd 2093 3e3c 9f62 53bb
000002b0: 73b4 aeba 5a74 a23c f718 36bc d4fe eabb
000002c0: 84ff 14bc 7c15 643d 8ddd 313d f947 b8bd
000002d0: 7708 e73c 41bf 403b 78b9 10bd e1b8 1fbc
000002e0: d15b 70bb 0394 333d 63f9 62bd 0410 073d
000002f0: 15d5 e5ba 1010 293c b1b4 a0bd 155d 8c3d
00000300: 2e40 f3bc c526 523c 5f2e 563d 4fc3 0939
00000310: 17e3 7e3c 6bd4 023d b56c 203d 1400 b5bd
00000320: a7f9 8c3c dd78 c8bd 0dc8 9f3b 4303 0a3d
00000330: e639 143d 68c0 35bd 03bb 283d 64a7 f2bc
00000340: be16 b43d 3f47 1cbc f469 a6ba 3e13 16bd
00000350: 0402 6cbd ed21 a4bc ed09 85bd cb85 b33c
00000360: f627 acbd f135 493d 4e5a ba3d d3fe bfbd
00000370: 5fcf 0fbc 36c9 2e3d e11e a83a c97e b33d
00000380: 062e b53c a575 2e3a 2836 dd3c f069 80bd
00000390: 7434 17bd 6fb5 e9bc 6966 a33d 07e2 fa3c
000003a0: 4097 bf3c e748 36bd ba8d f4bc 52a0 12bd
000003b0: 21a5 4c3d 9a94 da3c 5006 0a3d 2c2b 45bd
000003c0: cac4 ec3b e7e6 1abd 38a5 2b3d 77bc a1bd
000003d0: 54ab 413d 6832 0bbd d6c3 193d 835d 143d
000003e0: bf51 243c 6e1f 833d c0b9 a0bd 00b7 b83d
000003f0: 8422 023b 6ec0 c2bd f294 58bc 1889 1e3d
0.054248415 0.013667712 0.004232934 -0.02690083 0.049995646 -0.04707472 0.01677916 -0.028857285
-0.024924515 0.015937898 0.04966895 -0.043097958 0.026654894 -0.04363466 0.022858284 -0.007345146
-0.03813942 -0.03903447 0.013587332 0.07234514 -0.035162326 -0.050173357 -0.07582421 0.077143915
-0.037428364 0.042443108 0.059978537 -0.09097312 0.010437853 0.0001951322 0.0037098676 -0.116071135
-0.019619755 0.010970833 -0.011045739 -0.015529991 -0.014851088 0.002209228 0.017640512 0.05870916
-0.0014809871 0.053569943 -0.083966516 0.018643983 -0.0392022 0.032817215 -0.04175548 0.0772131
0.024921622 0.085097805 -0.0123644415 0.0034540785 -0.01897218 0.008413558 0.0327559 0.073405966
-0.007809009 0.048752505 0.034986455 0.034412507 0.0013922759 0.014835767 -0.0022881622 0.1022703
-0.020038653 -0.021792423 0.0626831 -0.07251953 0.07067992 0.06220675 -0.06942159 -0.04646207
-0.04654553 0.028236607 -0.038229413 -0.07059447 0.03372177 -0.0063811 0.027215846 0.0060456526
-0.031033833 -0.14995518 0.0036028356 -0.061412893 -0.058487885 0.061263982 -0.034636322 0.04155442
0.0032260448 -0.054058712 -0.044248592 -0.027489383 0.068611965 -0.08597107 -0.09665283 0.0965487
-0.02672755 -0.052987184 0.06820216 -0.08638518 -0.00924323 0.04119861 0.0001163755 -0.064677656
0.05517353 0.08257967 -0.03745879 -0.05806456 0.010879753 0.07317877 0.054173086 -0.016233336
-0.032230508 -0.008362212 0.02727616 -0.030161602 5.9461265e-05 0.07536002 0.004208138 0.008338945
-0.10614965 0.0598269 -0.021265449 0.09472789 0.063972905 0.021394955 0.07170914 -0.07761256
0.096383385 0.032769162 0.041521467 -0.057398684 -0.053659476 0.04377151 -0.06480347 0.06447163
0.03357046 -0.0407413 -0.040480226 0.03124894 0.0065069604 0.054949403 0.08722527 -0.002072546
0.045340467 0.048906427 -0.06633078 0.02065286 0.048684668 0.03264805 -0.089216344 0.010839139
-0.036854755 -0.117504165 0.03801184 0.024664847 -0.0036059234 0.03659199 1.4080189e-05 0.007492199
0.0050637345 -0.00383585 -0.07796411 -0.02514638 0.04571035 -0.02096866 -0.023255043 0.042083096
-0.03529298 -0.08090173 0.011631757 -0.0032254828 -0.0013328925 0.019830871 -0.0111143505 -0.007171491
-0.009094123 0.05568455 0.043424178 -0.08998103 0.028202279 0.0029410871 -0.035333127 -0.009748668
-0.003667582 0.043842327 -0.055413615 0.032974258 -0.0017534817 0.010318771 -0.07846964 0.068536915
-0.02969369 0.012826626 0.052290317 0.00013138096 0.015557072 0.03194086 0.03916617 -0.088379055
0.017208887 -0.09788678 0.004876143 0.033694517 0.03618803 -0.044372946 0.041193973 -0.029620834
0.087934 -0.009538471 -0.0012696371 -0.036639445 -0.05761911 -0.020035708 -0.06496034 0.021914383
-0.084060594 0.04912371 0.090992555 -0.09374776 -0.008777468 0.04267236 0.0012826585 0.08764417
0.022116672 0.00066551036 0.027003363 -0.06270206 -0.036915258 -0.028528897 0.079785176 0.030625356
0.023387551 -0.04450312 -0.029852737 -0.035797425 0.049962167 0.026682187 0.033697426 -0.048136875
0.0072256075 -0.037817862 0.04190561 -0.07897275 0.04728253 -0.033983618 0.03754028 0.036221992
0.010029255 0.06402479 -0.07847929 0.090192795 0.0019856999 -0.09509359 -0.013219105 0.03870496

linearD3.weight f4 [6, 6]
00000000: 662f c8be 7750 45be 28d0 513e 0ba0 743e
00000010: f20e 9dbe 8282 4e3d d8df 4abe 094d 853e
00000020: 5882 b4be a91c 853e 78cd 163e 6bab 0bbd
00000030: 3119 95bc 87d6 52be a588 9f3e e586 653c
00000040: 1025 9d3e 09ff d0be f5c2 a53e 8456 823c
00000050: cc83 403e c3ee 963e c75d 85bd 1471 a3bc
00000060: ae04 c93d 323a 6dbe 654e 3cbe 724d 9abd
00000070: ee62 afbe 1893 4cbe 3ffb 203e 8269 98be
00000080: 5633 6fbe 5c12 1e3c ebdd 89be 82f9 97bd
-0.39098662 -0.19268976 0.20489562 0.23889177 -0.30675465 0.05041743 -0.19811952 0.26035336
-0.35255694 0.25998428 0.14726818 -0.034099024 -0.018200489 -0.20589648 0.3115894 0.014009212
0.3069234 -0.40819576 0.32375303 0.015910394 0.18800277 0.29479036 -0.06512027 -0.01995138
0.09815346 -0.23166731 -0.1838928 -0.07534303 -0.34255165 -0.19977987 0.15720843 -0.29767996
-0.23359427 0.009647932 -0.26927122 -0.07420637

linearD3.bias f4 [6]
00000000: 5edf 3e3e b231 03be a77c c33d cb44 b23d
00000010: e5cf 0ebe aad3 afbd
0.18639895 -0.12811926 0.0954526 0.087045275 -0.13946493 -0.085852936
