continous_state/pretrained/VE/VE8_128.pt (torch, 38620 bytes, 9 tensors)

linearK1.weight f4 [8, 8]
0	0x3d985a10	0.07439053
1	0xbeaa5265	-0.33265987
2	0xbee118d6	-0.4396426
3	0xbdba7afc	-0.09105489
4	0x3e897a0e	0.26850933
5	0xbeb028c7	-0.3440611
6	0x3e06c786	0.1316205
7	0xbc53d553	-0.012929278
8	0x3e04fd54	0.12987262
9	0xbe04bed9	-0.12963428
10	0x3eaf4b17	0.34236977
11	0x3e726288	0.23670399
12	0x3cd62204	0.026139267
13	0x3e32a80d	0.17446919
14	0x3e875f9b	0.2644013
15	0xbc5d22c0	-0.013497055
16	0x3e25f9db	0.16208594
17	0xbe268a8f	-0.16263793
18	0x3e70b5ea	0.23506895
19	0xbe9645ae	-0.29350036
20	0x3d6a8e5d	0.057264674
21	0xbd8b11be	-0.067904934
22	0xbe6dc953	-0.2322133
23	0xbe50acd9	-0.20378436
24	0x3ebeff39	0.37304094
25	0xbc54a137	-0.01297789
26	0xbeffb6c9	-0.49944142
27	0xbea86a56	-0.32893628
28	0xbc09c850	-0.008409575
29	0xbd339ec4	-0.043852583
30	0xbe7e28fa	-0.24820319
31	0xbe75c7ec	-0.24002045
32	0x3e37b648	0.17940629
33	0x3e6e03aa	0.23243585
34	0x3e6fbbe3	0.23411517
35	0x3ed4ef7c	0.41588962
36	0xbdaa3e03	-0.08312609
37	0xbe9ee75f	-0.31035897
38	0x3e397e02	0.18114474
39	0xbd95e552	-0.0731913
40	0x3eb29fcf	0.3488755
41	0x3e55168b	0.2080938
42	0x3dbdd594	0.092692524
43	0xbc863e67	-0.016387178
44	0x3e724ee9	0.23662914
45	0xbdb69262	-0.08914639
46	0xbe9b947f	-0.3038673
47	0x3dbba66d	0.091626026
48	0xbd9496dc	-0.07255337
49	0x3eb1b63d	0.3470935
50	0x3e586f05	0.211361
51	0xbe8b6305	-0.27223983
52	0x3e0261df	0.12732647
53	0x3df35160	0.118807554
54	0x3dd77770	0.10520828
55	0xbd8963ca	-0.067084864
56	0xbe384781	-0.17996027
57	0x3e1c2e1b	0.15251963
58	0xbf2ed08c	-0.6828697
59	0x3ec48458	0.3838222
60	0x3e188813	0.14895658
61	0x3c317c60	0.010832876
62	0x3c703a5c	0.014662351
63	0xbdeb5876	-0.11491482

linearD1.weight f4 [256, 8]
0	0x3d04be02	0.032407768
1	0x3da7bf43	0.08190777
2	0x3e397068	0.18109286
3	0xbe058668	-0.13039553
4	0x3dc917ac	0.09818968
5	0xbdc78c20	-0.097435236
6	0xbeb42356	-0.3518321
7	0xbe0d4954	-0.13797504
8	0x3e98e5c8	0.2986281
9	0xbd91a081	-0.07110692
10	0x3e440af1	0.19144799
11	0x3d32e5bd	0.043676127
12	0x3e9b65a0	0.3035097
13	0x3e3ba188	0.18323338
14	0xbea5157f	-0.32242963
15	0x3e28bb95	0.16477807
16	0x3e0b0fe3	0.13580279
17	0x3d482176	0.048860036
18	0xbe3e0626	-0.18557033
19	0x3c8cdd70	0.017195433
20	0xbe070830	-0.13186717
21	0x3e46c348	0.19410431
22	0xba454da2	-0.0007526522
23	0xbe1bd429	-0.15217651
24	0x3dd469a4	0.10371712
25	0xbc6e4bf0	-0.014544472
26	0xbce07723	-0.027400559
27	0xbeb48118	-0.3525474
28	0x3d44b97b	0.04802845
29	0x3e46085b	0.19339125
30	0xbe2ca9e2	-0.1686168
31	0xbe818f1c	-0.25304496
32	0x3eb4e2c3	0.35329255
33	0x3dd61c10	0.10454571
34	0x3e833184	0.25623715
35	0x3eaddb62	0.33956438
36	0x3e628113	0.2211955
37	0xbe03e372	-0.12879732
38	0xbd499ac2	-0.049219854
39	0xbe1e8379	-0.1547984
40	0x3e98f53b	0.29874596
41	0xbd1fa316	-0.03897389
42	0xbe8bb7af	-0.27288577
43	0x3e937b45	0.28804985
44	0xbe259771	-0.16171052
45	0x3e530703	0.20608144
46	0xbda623b8	-0.081122816
47	0xbe11e3c4	-0.14247042
48	0x3e8afd77	0.27146503
49	0xbdfb9e70	-0.12286079
50	0xbe88b37a	-0.2669943
51	0xbeb50898	-0.3535812
52	0xbe55b2e4	-0.20869023
53	0xbea63b80	-0.3246727
54	0xbe0b2394	-0.1358779
55	0x3e347e52	0.17626312
56	0xbe774d45	-0.2415057
57	0xbea740fb	-0.32666764
58	0xbe690007	-0.22753917
59	0x3e7f1c48	0.24913132
60	0x3d5e3e43	0.054258596
61	0xbe84ecee	-0.25962013
62	0x3df5bd9d	0.119990565
63	0xbe580aa6	-0.21097812
64	0xbe1dd3c7	-0.15412818
65	0x3e3a8466	0.18214568
66	0xbe8219fe	-0.25410455
67	0xbe83e9df	-0.25764367
68	0x3e58c56c	0.2116906
69	0x3d0b375b	0.033988338
70	0x3e87971c	0.26482475
71	0xbdaf6fed	-0.0856627
72	0xbd198dbe	-0.03748869
73	0xbea4da2b	-0.321977
74	0xbe5068f1	-0.20352532
75	0xbe92ece1	-0.2869635
76	0xbec7309e	-0.3890428
77	0x3e62d49f	0.22151421
78	0x3e6f1f20	0.23351717
79	0x3e02d707	0.12777339
80	0x3dd23078	0.10263151
81	0x3e06a9d6	0.13150725
82	0xbe35594a	-0.17709842
83	0xbd665473	-0.05623288
84	0x3e62892d	0.22122641
85	0x3d8f5f2b	0.07000574
86	0x3d6df82c	0.058098003
87	0x3e06d223	0.13166098
88	0xbd0e9dbf	-0.034818407
89	0xbea0c976	-0.31403702
90	0xbc69f8ff	-0.014280557
91	0xbdc11212	-0.09427275
92	0x3e946e3b	0.2899035
93	0xbe5d3d75	-0.21605475
94	0x3e8622ee	0.26198524
95	0x3ddb3d60	0.10705066
96	0x3d7e1f84	0.062041774
97	0xbe930eea	-0.28722316
98	0x3dd510b1	0.10403574
99	0xbddb5f13	-0.10711493
100	0x3e444d81	0.1917019
101	0x3ccd898c	0.025090002
102	0x3eaa8904	0.3330766
103	0x3e73a2f4	0.2379263
104	0xbe223e61	-0.15844108
105	0x3e5bdb3d	0.21470352
106	0x3ea4f764	0.32219994
107	0x3e205874	0.15658742
108	0xbe4ebd3d	-0.20189376
109	0xbe669591	-0.22517993
110	0xbe1a2b5d	-0.15055604
111	0xbea765e1	-0.32694915
112	0xbe9c1bd4	-0.3048998
113	0xb9808dda	-0.0002451975
114	0x3ca1f6ef	0.019771067
115	0xbda4015e	-0.08008073
116	0x3e18c4aa	0.14918771
117	0x3d8d6189	0.06903369
118	0x3dfd7b3f	0.12377023
119	0x3da6a3e0	0.081367254
120	0x3e7c0c5a	0.24614087
121	0xbe0abc11	-0.13548304
122	0x3eccbd43	0.39988145
123	0xbe774a22	-0.24149373
124	0xbd8351bc	-0.06412074
125	0xbe3ed79f	-0.1863694
126	0xbe16da83	-0.14731793
127	0xbd07895f	-0.03308999
128	0xbe4a3878	-0.19748104
129	0x3da0e8d3	0.07856908
130	0xbe728544	-0.2368365
131	0xbce35bf3	-0.027753806
132	0x3e48afe6	0.1959835
133	0x3ea34adc	0.3189305
134	0x3da3c503	0.079965614
135	0xbe649e82	-0.22326091
136	0x3ccfc3ac	0.025361858
137	0xbe812876	-0.25226182
138	0xbe100a05	-0.14066322
139	0xbe8ff0a2	-0.28113276
140	0x3ea0db61	0.31417373
141	0x3ed8d740	0.42351723
142	0xbe12476f	-0.14285062
143	0xbe579a5b	-0.21054976
144	0x3d0f53c8	0.03499201
145	0x3eb771f2	0.3582912
146	0x3eb6211d	0.35572138
147	0x3e8a2226	0.26979178
148	0x3eaff86f	0.34369227
149	0xbd1e77bb	-0.038688403
150	0x3de74427	0.11292296
151	0xbd46fb1d	-0.048579324
152	0x3df1297e	0.11775492
153	0xbe8c7373	-0.2743183
154	0xbe24718c	-0.1605894
155	0x3de97c66	0.1140068
156	0xbdaee2bc	-0.0853934
157	0xbe18c5f3	-0.14919262
158	0xbe87366f	-0.26408717
159	0xbd412ad3	-0.04715998
160	0xbc77030b	-0.015076409
161	0xbe42020d	-0.18946095
162	0x3e45e00d	0.1932375
163	0xbd934934	-0.07191697
164	0xbe9cff6d	-0.30663624
165	0xbe246615	-0.16054566
166	0x3e994829	0.29937866
167	0xbe0ce2ab	-0.13758342
168	0xbe6a0df2	-0.22856882
169	0x3b938e33	0.0045030355
170	0x3e829308	0.255028
171	0xbe5d60ae	-0.21618912
172	0x3d8590b6	0.06521742
173	0x3e86ec49	0.26352146
174	0x3e644db0	0.2229526
175	0xbd9776d2	-0.0739571
176	0x3e6c14ea	0.23054853
177	0xbe6425d9	-0.22280063
178	0xbec947ee	-0.3931269
179	0xbd02294b	-0.03177766
180	0x3e1f7f8c	0.15575999
181	0xbec898fe	-0.39179224
182	0x3e74c808	0.23904431
183	0xbc27fd01	-0.010253192
184	0xbeaa4150	-0.33252954
185	0x3e325efd	0.17419048
186	0xbeb76007	-0.3581545
187	0xbeb0694d	-0.34455338
188	0xbe69a62d	-0.22817297
189	0xbdefed7e	-0.1171522
190	0xbe14ef4b	-0.14544408
191	0xbe78a785	-0.24282654
192	0x3e9cb9f7	0.3061063
193	0x3dd4cc1c	0.10390493
194	0xbd88c582	-0.066782966
195	0x3e28f347	0.16499053
196	0xbd62e735	-0.055396277
197	0x3e4214a3	0.18953185
198	0x3eb21d5b	0.3478802
199	0xbec3d0cd	-0.3824524
200	0x3dda2e09	0.10653312
201	0x3e0125ba	0.12612048
202	0xbebd7267	-0.37001345
203	0x3d222235	0.039583404
204	0xbe33f09e	-0.17572257
205	0x3df76126	0.120790765
206	0x3e6fc897	0.23416363
207	0x3e4945f3	0.1965559
208	0xbe901a2d	-0.2814497
209	0x3e80682b	0.25079474
210	0xbe73411e	-0.23755309
211	0x3d18d12e	0.037308864
212	0x3ea22106	0.3166582
213	0x3e14ccfa	0.14531317
214	0xbe573949	-0.21017946
215	0x3c735fa1	0.014854343
216	0xbea32355	-0.31862894
217	0xbe81011f	-0.25196168
218	0x3d7308c0	0.059334517
219	0xbe67c197	-0.22632442
220	0x3e1e5ef0	0.15465903
221	0x3e12ae05	0.14324196
222	0xbd248226	-0.04016318
223	0x3ed64314	0.41848052
224	0x3dfc672d	0.12324367
225	0x3dc01c3f	0.093803875
226	0xbe170eba	-0.14751711
227	0xbba5e301	-0.0050624614
228	0xbe83e583	-0.2576104
229	0xbd5c46e7	-0.053778555
230	0xbe695c65	-0.22789152
231	0xbe1079cb	-0.1410896
232	0x3e0ff135	0.14056857
233	0xbe6c15a1	-0.23055126
234	0x3e253ca3	0.16136412
235	0xbd88a859	-0.06672735
236	0x3e8d4a56	0.27595776
237	0x3e1b0b4f	0.15141033
238	0xbd5843ff	-0.05279922
239	0x3dced531	0.10099257
240	0xbc950353	-0.018190062
241	0x3e69bafa	0.22825232
242	0xbe74fc48	-0.23924363
243	0x3da15a51	0.078785546
244	0x3c84a998	0.01619415
245	0xbe7e439e	-0.24830481
246	0xbe660326	-0.22462139
247	0xbe7c5196	-0.24640498
248	0xbe9c20b7	-0.3049371
249	0x3cbfa73c	0.023395173
250	0x3e0bd74a	0.13656345
251	0x3c5b3472	0.013379203
252	0xbe26a6b6	-0.16274533
253	0x3e76c47f	0.24098395
254	0xbea7d28c	-0.32777822
255	0x3e22cf9c	0.15899509

linearD1.bias f4 [256]
0	0xbe63a064	-0.22229153
1	0xbdfdaf0d	-0.12386904
2	0xbea8f9a0	-0.3300295
3	0xbe515b0c	-0.20444888
4	0x3dd28cc6	0.10280757
5	0x3c6d50da	0.014484609
6	0x3dc82398	0.09772414
7	0x3e29aa64	0.16568905
8	0xbe509f80	-0.20373344
9	0x3ea45f54	0.3210398
10	0x3e259f3a	0.16174021
11	0x3e3ebbd8	0.18626344
12	0xbe822a67	-0.25422975
13	0xbe328500	-0.17433548
14	0xbe8d68b5	-0.27618948
15	0x3df85fed	0.121276714
16	0x3e94a5f2	0.29032856
17	0xbe590771	-0.21194245
18	0xbe76e33a	-0.24110118
19	0x3dae3287	0.08505731
20	0xbe1d164a	-0.15340534
21	0x3e32f01b	0.17474405
22	0x3e477752	0.19479111
23	0xbe9b9f0c	-0.3039478
24	0xbe1cb08e	-0.15301725
25	0xbe407a64	-0.18796688
26	0xbd97fb8a	-0.07421024
27	0xbe1c9761	-0.15292121
28	0x3d602221	0.054720048
29	0x3ddafb33	0.10692444
30	0xbdee7113	-0.11642661
31	0x3daf82c7	0.08569866
32	0x3e858a20	0.26081944
33	0xbd2826b2	-0.041052528
34	0xbe623748	-0.220914
35	0xbe5d22ee	-0.21595356
36	0x3ebdf4e8	0.3710091
37	0xbda2d7b7	-0.079513006
38	0xbbea4788	-0.0071496405
39	0xbe5c9802	-0.21542361
40	0xbdf2b6af	-0.118512504
41	0xbe703103	-0.23456196
42	0x3df648eb	0.12025627
43	0x3e867c89	0.26266888
44	0x3e1331c9	0.1437446
45	0x3e285898	0.16440046
46	0x3e80a86e	0.25128502
47	0x3e90ad48	0.28257203
48	0xbdcb28c5	-0.099198855
49	0x3d870f03	0.0659466
50	0xbe815975	-0.25263563
51	0xbe27654c	-0.16347235
52	0x3e47f2f1	0.19526269
53	0xbd89e737	-0.06733554
54	0x3ea676b3	0.32512435
55	0x3c6d0034	0.01446538
56	0x3e765cda	0.24058858
57	0xbe233c8d	-0.15941067
58	0xbd9fab5e	-0.077963576
59	0xbe5b84a6	-0.2143732
60	0xbdb51101	-0.08841134
61	0x3d848fa9	0.064727135
62	0xbd9e5547	-0.07731109
63	0xbc849e6e	-0.016188826
64	0x3ea137cb	0.3148788
65	0xbe89f328	-0.26943326
66	0xbcdefc5d	-0.027219946
67	0x3ddda243	0.108219646
68	0xbe7af739	-0.2450837
69	0xbe02dfd7	-0.127807
70	0xbe14b06e	-0.14520428
71	0xbe4bb3df	-0.19892834
72	0xbe9aa858	-0.3020656
73	0x3e336488	0.17518818
74	0x3e3aede6	0.18254814
75	0x3e0a1d3e	0.13487718
76	0xbdf4a66a	-0.119458035
77	0x3e97f4a9	0.29678848
78	0x3e3c7109	0.18402494
79	0xbda50797	-0.08058088
80	0x3ea16826	0.3152477
81	0x3e3b75fb	0.18306725
82	0x3d55d78f	0.052207526
83	0xbd508586	-0.050908588
84	0xbd44ba7d	-0.04802941
85	0x3d20aa50	0.039224923
86	0xbe3d8b65	-0.18510206
87	0x3e5c70fa	0.21527472
88	0xbcca8f91	-0.02472666
89	0x3e517165	0.20453413
90	0xbd7e4912	-0.062081404
91	0x3e8044c1	0.25052455
92	0xbe961e04	-0.29319775
93	0x3e529e14	0.20568115
94	0x3eb7da50	0.35908747
95	0xbea20472	-0.31644017
96	0xbdaf0679	-0.085461564
97	0x3ea1c09a	0.31592256
98	0x3e78a94e	0.24283335
99	0xbd80534b	-0.06265887
100	0xbd9fda4e	-0.0780531
101	0x3b88e2c2	0.0041774223
102	0xbe18f859	-0.14938487
103	0x3e2c0661	0.16799308
104	0xbe2ab12d	-0.1666915
105	0xbd730215	-0.059328157
106	0xbd006b6a	-0.031352438
107	0xbde45c3c	-0.11150405
108	0xbd7ced80	-0.061749935
109	0x3e0ae693	0.1356452
110	0x3e51669a	0.20449296
111	0x3daf9357	0.08573025
112	0x3da039cd	0.078235246
113	0x3ea444f6	0.32083863
114	0x3e483c2d	0.19554205
115	0xbd15c71a	-0.03656683
116	0x3e88d712	0.26726586
117	0xbe867406	-0.26260394
118	0x3e3fa4b3	0.18715172
119	0x3a950d5a	0.0011371777
120	0xbe99266a	-0.2991212
121	0xbe6d82b8	-0.23194396
122	0xbe58f442	-0.21186927
123	0xbe13ddd9	-0.14440097
124	0x3d31763b	0.043325644
125	0x3e6e39e7	0.23264275
126	0xbe623d49	-0.22093691
127	0x3d89cbc0	0.06728315
128	0xbd038f9c	-0.03211938
129	0xbe600db8	-0.21880233
130	0x3dbd6143	0.09247067
131	0xbe2d121a	-0.16901436
132	0xbe5e92b1	-0.21735646
133	0x3e03c2e1	0.12867309
134	0x3e22cd25	0.15898569
135	0xbea095fc	-0.3136443
136	0xbd055b87	-0.03255799
137	0x3e696e68	0.22796023
138	0xbe462755	-0.19350941
139	0xbe8dd876	-0.2770421
140	0x3d92852d	0.071543075
141	0x3764196c	1.3595778e-05
142	0x3c948812	0.01813129
143	0xbdf4fa78	-0.119618356
144	0x3de52504	0.11188701
145	0xbcbb8c0c	-0.022893928
146	0x3e7240b9	0.23657502
147	0x3e6adcd6	0.22935805
148	0x3daf12f0	0.08548534
149	0x3ea71bc5	0.32638374
150	0xbd080654	-0.03320916
151	0x3e18a24e	0.14905664
152	0xbe93cf83	-0.28869256
153	0xbd64b476	-0.055836163
154	0xbea8b2ae	-0.32948822
155	0x3e33fe8b	0.17577569
156	0x3e32769d	0.1742806
157	0xbeba14f8	-0.36344123
158	0xbdce64eb	-0.10077842
159	0xbd9447ce	-0.07240258
160	0x3e804f23	0.25060377
161	0x3ea1d26b	0.3160585
162	0xbd9cbfb3	-0.07653751
163	0xbeb05300	-0.34438324
164	0x3e8a7312	0.27040917
165	0x3eac35cd	0.33634797
166	0xbe86c23d	-0.26320067
167	0xbe4ff02a	-0.20306459
168	0xbc1f5056	-0.009723743
169	0xbe4a7749	-0.19772066
170	0xbe26815e	-0.16260287
171	0x3d0e6d0a	0.034771957
172	0x3d6ad16e	0.057328634
173	0x3dd5d32e	0.1044067
174	0x3da6bd87	0.08141618
175	0xbdf8398c	-0.12120351
176	0x3c80c782	0.015720133
177	0x3e2942de	0.16529414
178	0x3a323307	0.0006797765
179	0x3e882e0a	0.26597625
180	0x3dc84582	0.097788826
181	0xbe1757c6	-0.14779577
182	0xbe80783e	-0.25091738
183	0x3e9936e2	0.29924685
184	0x3e8e0b1e	0.27742857
185	0xbe91623c	-0.2839526
186	0x3e4af553	0.19820146
187	0x3e0c0944	0.1367541
188	0x3e75e68c	0.24013728
189	0x3eabde69	0.33568123
190	0xbdedbf8e	-0.11608802
191	0x3ea57acf	0.32320258
192	0xbe7560a3	-0.23962645
193	0xbe9deb5c	-0.30843627
194	0xbd8e510f	-0.069490544
195	0xbde201bb	-0.11035486
196	0xbe72f807	-0.23727427
197	0x3e32ff54	0.17480212
198	0x3d82fc63	0.06395795
199	0x3eab8195	0.334973
200	0xbe8e5caa	-0.27805072
201	0xbe3dd8b1	-0.18539692
202	0xbd4aacff	-0.04948139
203	0x3e97e3fd	0.2966613
204	0x3e49b4ab	0.19697826
205	0x3e37589e	0.17904899
206	0x3e0a6a8d	0.13517208
207	0x3dddfcdd	0.108392455
208	0x3e55c2e6	0.20875129
209	0x3e3ffc33	0.1874855
210	0xbca236d6	-0.019801538
211	0xbe532f96	-0.20623621
212	0xbe28b3de	-0.16474864
213	0xbe2749a6	-0.16336688
214	0xbe2ce902	-0.1688576
215	0x3d8177e8	0.063216984
216	0x3e43683d	0.19082732
217	0xbd544896	-0.051827036
218	0x3dce8db6	0.10085623
219	0x3e304585	0.1721402
220	0xbeac752f	-0.33683154
221	0x3e909bfd	0.2824401
222	0xbe0a06b3	-0.13479118
223	0x3e3b99ed	0.18320437
224	0x3e67f94a	0.2265369
225	0x3d00c685	0.031439323
226	0xbbe43181	-0.006963909
227	0xbe6e2d45	-0.23259456
228	0xbe89466a	-0.26811534
229	0xbcf62c0d	-0.030050302
230	0xbd49315e	-0.049119346
231	0x3de8ae67	0.113613896
232	0x3e996541	0.29960063
233	0xbe9cee17	-0.30650398
234	0x3e5b58ba	0.21420565
235	0xbe643a6c	-0.22287911
236	0xbe9d9975	-0.3078114
237	0xbeabefc2	-0.33581358
238	0x3e33dce0	0.17564726
239	0x3d877647	0.066143565
240	0x3e70281e	0.23452803
241	0xbdcb1a56	-0.099171326
242	0xbead57b4	-0.33855975
243	0x3e8f84e3	0.28031072
244	0xbe8e188a	-0.27753097
245	0x3d65dae2	0.056116946
246	0x3e669b4e	0.22520182
247	0xbd9c29ce	-0.07625161
248	0xbcd8f20b	-0.026482603
249	0xbe9aebce	-0.3025803
250	0xbc9b1ede	-0.018935617
251	0xbe81b905	-0.2533647
252	0xbe1ede29	-0.15514435
253	0xbe7cbb87	-0.24680911
254	0x3e12c343	0.14332299
255	0xbde5012f	-0.111818664

linearK2.weight f4 [8, 256]
0	0x3ce20aef	0.027593104
1	0xbc4045a2	-0.011735352
2	0xbd8f46e0	-0.0699594
3	0x3c9d5e1d	0.019209916
4	0xbdc8f8ee	-0.098131046
5	0xbdc23d0e	-0.094843015
6	0xbcb6da06	-0.022320759
7	0xbd89124b	-0.06692942
8	0x3cb6b2b9	0.022302018
9	0x3d0c2c2d	0.034221817
10	0xbb82751f	-0.003981247
11	0xba3eb17c	-0.0007274372
12	0xbd831b29	-0.06401665
13	0x3bb95eaf	0.005657039
14	0x3be01769	0.006838728
15	0x3d23409d	0.039856542
16	0xbc53995f	-0.0129149845
17	0xbcb95c41	-0.022626998
18	0xbd93f07b	-0.072236024
19	0xbc8f2931	-0.017475696
20	0xbd89437a	-0.06702323
21	0xbcefe2ef	-0.029283015
22	0x3d9a41b6	0.075320646
23	0x3d99a592	0.07502283
24	0xbddcf11a	-0.10788174
25	0x3c72e3d3	0.014824825
26	0x3ca03f69	0.019561486
27	0x3d30927e	0.043108456
28	0x3cf92dbd	0.030417318
29	0x3d2fd234	0.042925075
30	0x3d5dcc00	0.054149628
31	0x3cf1cf0b	0.029517671
32	0xbd34e6cf	-0.04416543
33	0x3d8a6a82	0.06758596
34	0x3d99e2e1	0.07513977
35	0x3dc977b1	0.098372824
36	0x3b98388f	0.004645414
37	0x3e0cdae1	0.1375537
38	0xbd71e416	-0.05905541
39	0xbc85a732	-0.016315077
40	0x3da72569	0.08161432
41	0x3dbf7a41	0.0934949
42	0x3d81507f	0.063141815
43	0x3d13322f	0.03593653
44	0xbd2f7313	-0.042834353
45	0x3d12215f	0.035676356
46	0xbdb51161	-0.088412054
47	0x3b8f15a1	0.004366592
48	0x3d266e6b	0.040632647
49	0xbc45868c	-0.012056004
50	0x3d5919b4	0.053003028
51	0xbccccefe	-0.025001045
52	0x3da3ae52	0.07992233
53	0x3cdfca25	0.02731807
54	0x3c87acf8	0.01656197
55	0xbdbc1d67	-0.091852956
56	0x3db7ced3	0.089749955
57	0xbc61152b	-0.013737957
58	0x3d0d72a7	0.03453317
59	0xb866f4fc	-5.5064433e-05
60	0xbdec573c	-0.11540076
61	0xbdeda056	-0.11602847
62	0x3bffbe94	0.007804701
63	0xbd6133ac	-0.05498092
64	0xbd92bb31	-0.0716461
65	0xbd6a9d06	-0.057278655
66	0xbdef8453	-0.11695161
67	0xbe0b1c35	-0.13584979
68	0xbd9da074	-0.0769662
69	0xbbb96f2c	-0.0056590047
70	0xbd546487	-0.051853683
71	0x3c7cd3a6	0.01543132
72	0x3d613692	0.054983683
73	0x3d0ae795	0.03391226
74	0x3d7bd127	0.06147876
75	0x3db65b70	0.08904159
76	0xbd513045	-0.051071424
77	0xbd8c11cb	-0.06839331
78	0x3a4d9712	0.00078426406
79	0x3ae4157c	0.0017401422
80	0x3d99efeb	0.07516464
81	0x3ca0add5	0.01961414
82	0xbdccf20b	-0.100071035
83	0xbd804160	-0.06262469
84	0xbba4229a	-0.0050090076
85	0x3d6d67fb	0.05796049
86	0xbcf7828a	-0.030213613
87	0xba7da2ac	-0.0009675424
88	0xbd547c86	-0.051876567
89	0x3d0d7918	0.034539312
90	0x3d4cb1e8	0.049974352
91	0xbdbbbd41	-0.09166957
92	0xb91b2766	-0.00014796629
93	0xbd67c5b9	-0.056585047
94	0xbc0b3dd7	-0.0084986305
95	0xbd59d564	-0.05318202
96	0x3d7d7efa	0.061888672
97	0x3b914f81	0.0044345264
98	0x3dc9f2a6	0.09860735
99	0x3dd4858f	0.10377037
100	0xb94b8b07	-0.0001941138
101	0xbb9bdfcf	-0.0047569047
102	0xbdb7c813	-0.08973708
103	0xbca377ee	-0.019954648
104	0x3d8e854c	0.06959018
105	0x3d574e24	0.052564755
106	0xbcb3b2a0	-0.021935761
107	0xbcea4566	-0.028597545
108	0xbd9223aa	-0.07135709
109	0xbcf365e0	-0.029711664
110	0x3d109b71	0.03530449
111	0xbc88e258	-0.016709492
112	0x3da48eaf	0.08035027
113	0x3d032bb1	0.03202409
114	0xbd4986fc	-0.049200997
115	0xbd8d4a62	-0.06898953
116	0xbbc4f443	-0.0060105636
117	0x3d8ca4e8	0.06867391
118	0xbb1b907e	-0.0023737247
119	0xbdd9e953	-0.10640206
120	0x3c80b5c0	0.015711665
121	0x3d608020	0.05480969
122	0xbd8205d0	-0.06348765
123	0xbdcc61bb	-0.09979578
124	0xbdbe0d43	-0.09279873
125	0x3dbc694d	0.09199772
126	0x3da41a1d	0.08012793
127	0xbde04380	-0.109503746
128	0xbd398abf	-0.045298334
129	0x3da46066	0.08026199
130	0x3ce3459c	0.027743153
131	0x3dd10e98	0.10207862
132	0xbd3ee45b	-0.046604495
133	0xbd43d2d4	-0.047808483
134	0x3d27b974	0.040948346
135	0xbd2ee9b1	-0.042703334
136	0xbc9ecb45	-0.019384036
137	0x3d720633	0.059087943
138	0x3ce51fa0	0.027969182
139	0xbc1671a5	-0.009182368
140	0x3db3c49f	0.08777737
141	0xbd29e527	-0.041478302
142	0x3dc97e3b	0.0983853
143	0xb6c19171	-5.76878e-06
144	0x3cf6b4f9	0.030115591
145	0xbd404629	-0.04694191
146	0xbb97f815	-0.004637728
147	0x3c6140ac	0.013748329
148	0x3d2b1dd5	0.041776497
149	0x3c08a51d	0.008340147
150	0xbca8cf8e	-0.020606782
151	0x3cae59b5	0.02128301
152	0xbd1a403a	-0.037658907
153	0xbdf2f035	-0.11862222
154	0x3cb7293b	0.022358527
155	0xbd47edda	-0.048810817
156	0xbda6ec6e	-0.08150564
157	0x3c55f15a	0.013058031
158	0xbd958540	-0.07300806
159	0xbd074253	-0.033022236
160	0x3d03374d	0.03203516
161	0x3c26ada2	0.010173233
162	0xbcc6f817	-0.02428822
163	0x3dac908b	0.08426007
164	0x3d6bcb64	0.057567015
165	0x3d5f1fef	0.054473814
166	0x3ce1faf9	0.027585493
167	0xbd8185f1	-0.063243754
168	0x3b71bd7e	0.0036886628
169	0xbc5b0800	-0.013368607
170	0xbb148e3f	-0.0022667793
171	0x3e2db1b9	0.16962327
172	0x3d7f5717	0.062338915
173	0x3db8026e	0.089848384
174	0xbdd4cbfa	-0.10390468
175	0xbdc949c6	-0.09828524
176	0x3c7ba967	0.015360213
177	0x3d7c3218	0.06157121
178	0x3d5f8179	0.054566834
179	0xbd3e26bb	-0.046423655
180	0x3c8d1e6b	0.017226418
181	0xbd99efcd	-0.075164415
182	0xbd62d020	-0.055374265
183	0xbd97657b	-0.07392403
184	0xbda4a28e	-0.08038817
185	0xbda6ac50	-0.08138335
186	0xbc9299b9	-0.017895566
187	0x3c0a4dfc	0.0084414445
188	0xbe03fd18	-0.12889516
189	0x3dbb8941	0.091570385
190	0x3d2a31eb	0.04155151
191	0xbd145312	-0.036212035
192	0xbc7f5b83	-0.015585783
193	0x3cf6a1b9	0.030106412
194	0x3b1d7c40	0.0024030358
195	0xbd715b24	-0.05892481
196	0x3e0254c5	0.1272765
197	0x3d610673	0.05493779
198	0xbd8b9d49	-0.06817109
199	0xbd453aea	-0.048151888
200	0x3c20f1fb	0.009823318
201	0x3da007ca	0.07813986
202	0x3d8eaa8d	0.06966124
203	0xbcb98dd4	-0.022650637
204	0x3a1f76ac	0.0006083052
205	0x3d8ff06a	0.07028277
206	0xbdb3d401	-0.08780671
207	0x3d4e4de2	0.050367244
208	0x3d89ff00	0.067380905
209	0xbc82e94c	-0.015980385
210	0x3c983392	0.018579278
211	0x3c30ae8b	0.010783802
212	0x3da8c9a8	0.08241588
213	0x3def192a	0.116747215
214	0x3a5d7aa9	0.0008448759
215	0x3c8492ce	0.016183283
216	0x3d0a52ec	0.033770487
217	0x3dffd57a	0.12491889
218	0x3dcee5a0	0.10102391
219	0x3db71ae4	0.08940676
220	0xbca8cbda	-0.020605016
221	0xbd320eba	-0.043471076
222	0xbc1f708f	-0.009731426
223	0xbd6379de	-0.055536143
224	0xbd01b3a7	-0.03166547
225	0x3d9b3f1d	0.07580397
226	0xbe03e4cd	-0.1288025
227	0xbdcb810a	-0.099367216
228	0x3dc63d27	0.09679633
229	0xbd4fb04e	-0.050705247
230	0xbc1e0d58	-0.009646736
231	0x3cce32e1	0.025170745
232	0xbdc2b63f	-0.09507417
233	0xbd0d819f	-0.034547444
234	0xbd56e9cf	-0.05246907
235	0x3e0c376e	0.1369302
236	0xbc0238bb	-0.007948096
237	0xbd8848d3	-0.06654515
238	0x3c57f598	0.013181113
239	0xbcd67142	-0.026177052
240	0xbd0026e1	-0.031287078
241	0xbcee476f	-0.029086797
242	0x3ce7b26c	0.02828332
243	0xbc93b295	-0.01802949
244	0x3c134e36	0.008990815
245	0xbc1d9e78	-0.009620301
246	0xbd06595e	-0.03280007
247	0x3d916755	0.07099787
248	0xbdf6cbb4	-0.12050572
249	0x3c38f0b6	0.011287859
250	0xbb14c9d8	-0.0022703316
251	0xbd48e91a	-0.049050428
252	0x3d2e372f	0.042533096
253	0xbcc300d4	-0.023804106
254	0x3d13e3b6	0.036105834
255	0xbc1bf6db	-0.009519304

linearD2.weight f4 [256, 8]
0	0xbe8d1c73	-0.27560768
1	0x3e12f086	0.14349565
2	0x3e38b754	0.18038684
3	0x3d9e83f3	0.07740011
4	0xbe8eefc7	-0.2791731
5	0xbe8a2620	-0.26982212
6	0xbc2a0252	-0.01037653
7	0x3e83e29a	0.2575882
8	0x3d43014d	0.047608662
9	0xbcafbe34	-0.021453
10	0x3ce8db68	0.028424934
11	0xbc880d1a	-0.01660781
12	0x3e9f762c	0.31144845
13	0x3d76c797	0.060248937
14	0x3c57c9eb	0.0131707
15	0xbe8d99ab	-0.27656302
16	0x3ddf3939	0.10899586
17	0x3dd4f415	0.103981175
18	0xbb833069	-0.0040035737
19	0xbe2af888	-0.1669637
20	0xbd7854be	-0.06062769
21	0xbe74eea6	-0.23919162
22	0xbe92c4cf	-0.28665778
23	0xbd1e96a4	-0.03871788
24	0x3eac7374	0.33681834
25	0xbe837f0b	-0.25682864
26	0xbe6cf4be	-0.23140237
27	0x3e31c48f	0.17360137
28	0x3e94ccd8	0.29062533
29	0x3e443820	0.19162035
30	0xbe9b59d3	-0.30341968
31	0xbccc5a62	-0.024945442
32	0xbe63be78	-0.22240627
33	0x3e66df24	0.22546059
34	0x3e4f819b	0.20264284
35	0x3ac00d53	0.0014652408
36	0xbbc37c28	-0.0059657283
37	0x3e96fddc	0.29490554
38	0x3d769bc5	0.060207147
39	0xbe6068a3	-0.21914916
40	0xbe50229a	-0.203257
41	0x3e5ca9c0	0.2154913
42	0x3ec0df5c	0.3767041
43	0x3d8a5fa9	0.06756527
44	0x3df40db7	0.119166784
45	0xba733dad	-0.0009278905
46	0x3e22a922	0.15884832
47	0x3e9ca7a8	0.30596662
48	0x3e0b38a9	0.13595833
49	0x3e4493ba	0.19196978
50	0xbe82be60	-0.2553587
51	0x3e51598e	0.20444319
52	0x3dcb7bd1	0.099357255
53	0xbeab23cb	-0.33425745
54	0xbe0b68d5	-0.13614209
55	0xbe8ef48d	-0.27920952
56	0x3b797c03	0.0038068302
57	0x3e7ebc1c	0.24876446
58	0x3e52e55f	0.2059531
59	0x3b19d555	0.0023473103
60	0xbe0945f0	-0.13405585
61	0xbc881e0d	-0.016615892
62	0xbddecede	-0.108793005
63	0xbdf9f785	-0.12205414
64	0xbeb7c34c	-0.35891187
65	0x3e157961	0.14597084
66	0xbdf0917a	-0.117464975
67	0xbed2bdf2	-0.41160542
68	0x3db296ea	0.08720191
69	0xbef98de9	-0.4874108
70	0x3f12905e	0.57251537
71	0xbebe0806	-0.37115496
72	0xbe16bf16	-0.14721331
73	0x3e9afd63	0.30271444
74	0xbcda55f2	-0.02665231
75	0x3cee7db4	0.029112674
76	0xbe9cb29d	-0.3060502
77	0xbd92aabb	-0.071614705
78	0xbeb15635	-0.34636083
79	0xbdbb0724	-0.09132221
80	0xbbae5804	-0.005320551
81	0x3e9aa96c	0.30207384
82	0xbe7b060c	-0.24514025
83	0xbe8bfcd6	-0.27341336
84	0xbe6ae82e	-0.22940132
85	0xbdc953f2	-0.098304644
86	0x3ebc6121	0.36792853
87	0x3d5fc29f	0.054628965
88	0xbe57f14a	-0.21088138
89	0xbdef7258	-0.11691731
90	0xbe7feec5	-0.24993427
91	0xbe7175b4	-0.23580056
92	0x3eaded37	0.33970043
93	0x3e3e6b26	0.18595561
94	0xbd77cdc5	-0.06049897
95	0xbe076e97	-0.1322578
96	0x3cdc28c4	0.026874907
97	0xbe5c6aa4	-0.21525055
98	0x3e78ea5c	0.24308151
99	0xbdb5a472	-0.08869256
100	0x3e84d806	0.25946063
101	0x3e9523ed	0.29128972
102	0xbe13c2e2	-0.1442981
103	0x3d0764c0	0.033055067
104	0xbe49897f	-0.19681357
105	0x3e8092a2	0.25111872
106	0xbe9bad32	-0.30405575
107	0x3cada1bb	0.021195283
108	0xbeaafd0d	-0.33396187
109	0x3ad46e75	0.0016207235
110	0xbddf1ef9	-0.108945794
111	0xbe2c7f3c	-0.16845411
112	0xbe74562d	-0.23860998
113	0x3eb2a30c	0.3489002
114	0x3ec2b2f0	0.38027143
115	0xbe529e3b	-0.20568173
116	0xbe88d28f	-0.26723143
117	0x3d82f7ad	0.06394897
118	0x3d8f26a4	0.06989792
119	0x3e5d8f2a	0.21636644
120	0x3e388ca5	0.18022402
121	0xbaf6363d	-0.0018784475
122	0xbe940789	-0.28912
123	0x3e9e9a3d	0.3097705
124	0x3e3a7b1e	0.18211028
125	0xbe797318	-0.24360311
126	0xbe68f65a	-0.22750226
127	0x3e2a0549	0.16603579
128	0xbaf48d5d	-0.0018657852
129	0xbd3eda86	-0.04659512
130	0xbe76213b	-0.24036114
131	0x3e2884e0	0.16456938
132	0xbd79b046	-0.060959123
133	0x3d31a86d	0.043373514
134	0x3eb4e05f	0.35327432
135	0x3ea38e07	0.31944296
136	0xbd5a6a6e	-0.053324156
137	0x3eeba79a	0.46026307
138	0xbe88e48e	-0.26736873
139	0xbec46190	-0.38355684
140	0x3e165f37	0.14684759
141	0xbf0c55f6	-0.54818666
142	0x3eeb198a	0.45917922
143	0xbe11a0ea	-0.1422154
144	0xbe176214	-0.14783508
145	0x3ebcf2e3	0.36904058
146	0x3ecbc0ea	0.3979562
147	0xbea48afe	-0.32137293
148	0x3e0bcd95	0.13652642
149	0xbe00e4b4	-0.12587243
150	0x3ef4e3b9	0.4782999
151	0x3e1f5b20	0.15562105
152	0xbe1c96b3	-0.15291862
153	0x3e9a9ad0	0.30196238
154	0x3cca7c85	0.024717579
155	0xbdd5001c	-0.104004115
156	0xbeb10908	-0.34577203
157	0x3ea72ae3	0.32649907
158	0x3e3db521	0.18526126
159	0x3db72cca	0.0894409
160	0x3d468ab9	0.04847214
161	0xbece00ab	-0.40234885
162	0x3f098b51	0.53728205
163	0x3ed5e324	0.41774857
164	0x3e6ac26c	0.22925729
165	0xbd63fe4b	-0.055662435
166	0xbeda73b7	-0.42666408
167	0xbb64c20e	-0.0034905705
168	0x3e91fc01	0.28512576
169	0x3eda2757	0.4260814
170	0x3c02d3ac	0.007985037
171	0x3d578ade	0.05262267
172	0xbe99d94b	-0.30048594
173	0xbea2dd8e	-0.31809658
174	0xbe4ade8f	-0.19811462
175	0xbe0cfda5	-0.13768633
176	0xbd9d47c8	-0.07679707
177	0x3e766732	0.24062803
178	0x3e96f0b3	0.29480514
179	0xbe264517	-0.16237293
180	0x3dd0804d	0.101807214
181	0x3e8e7b77	0.2782857
182	0x3d53606f	0.051605638
183	0x3e3d6f40	0.1849947
184	0x3d70d1ba	0.05879376
185	0xbe919ce7	-0.2844002
186	0x3d224b00	0.039622307
187	0xbdb9bc59	-0.090691276
188	0x3e9f1ab0	0.31075048
189	0x3e3dcade	0.18534419
190	0xbdac0136	-0.083986685
191	0xbe0b91ee	-0.13629887
192	0xbe45329e	-0.1925759
193	0xbe0d62b5	-0.13807185
194	0xbeb0d7c9	-0.3453963
195	0xbe722c00	-0.23649597
196	0xb9fe1a91	-0.0004846645
197	0x3e9c26ff	0.30498502
198	0xbd51c84d	-0.051216412
199	0x3e86d715	0.2633597
200	0x3e25b909	0.16183867
201	0xbea354d6	-0.31900662
202	0x3c3bfe77	0.011474243
203	0xbe598e6b	-0.21245734
204	0x3ea7c8d8	0.3277042
205	0xbda46236	-0.08026545
206	0x3ead7d1b	0.3388451
207	0xbdd4ccf1	-0.10390652
208	0x3e3c18e5	0.18368872
209	0x3d4624cd	0.04837494
210	0x3e237f5d	0.15966554
211	0x3e3a037a	0.18165389
212	0x3d38adb1	0.04508752
213	0x3ef8c8e2	0.4859076
214	0xbc7c8b3e	-0.015414057
215	0xbdb9a931	-0.09065474
216	0x3e8e2d00	0.27768707
217	0x3e8e6592	0.27811867
218	0xbec5269e	-0.38506025
219	0x3d5d4764	0.05402316
220	0x3e464373	0.19361667
221	0xbde0280e	-0.1094514
222	0x3e8db0ff	0.276741
223	0x3ea4f712	0.3221975
224	0xbe566ccd	-0.20939942
225	0xbea91116	-0.33020848
226	0xbe3b07a9	-0.18264641
227	0xbd76b51c	-0.060231313
228	0xbdebed4f	-0.115198724
229	0xbc9a284d	-0.018818045
230	0xbdde4e1d	-0.10854743
231	0xbe64d1a4	-0.22345597
232	0xbc3231f4	-0.010876168
233	0x3db25db6	0.0870928
234	0xbec24d03	-0.3794938
235	0xbe92a40a	-0.28640777
236	0xbdad99e0	-0.08476615
237	0x3d997150	0.07492316
238	0xbc6ba509	-0.014382609
239	0xbd2ac9aa	-0.041696228
240	0xbe957c78	-0.29196525
241	0xbe5f3d48	-0.2180072
242	0xbe642451	-0.22279479
243	0xbc73aeb5	-0.014873196
244	0xbe4a0f08	-0.19732296
245	0xbd8dabdc	-0.06917545
246	0xbc56abae	-0.013102455
247	0x3e057be7	0.13035546
248	0x3e8cb5c9	0.2748244
249	0x3cc61af2	0.02418277
250	0x3d30fbbf	0.043208834
251	0x3d396c34	0.045269206
252	0xbdcf8815	-0.101333775
253	0xbe31c1d8	-0.17359102
254	0x3de1f27e	0.1103258
255	0x3eab59a1	0.3346682

linearD2.bias f4 [256]
0	0x3ea2f2ed	0.31825963
1	0x3e85aae5	0.26106945
2	0xbbd8ff7e	-0.006622254
3	0xbe90cb9a	-0.28280336
4	0x3e13384c	0.14376944
5	0x3e82484b	0.2544578
6	0x3a0888b3	0.0005208358
7	0x3d809996	0.06279294
8	0x3e0212dc	0.12702507
9	0xbd2f03a9	-0.0427281
10	0xbe8885e1	-0.26664641
11	0xbe864e4b	-0.26231608
12	0xbe92b7ef	-0.28655955
13	0xbe1d2f21	-0.1535001
14	0x3ea9a09d	0.3313035
15	0x3e843b5c	0.25826538
16	0x3ea5c7e4	0.32379067
17	0xbe793c0d	-0.24339314
18	0x3d86d3ce	0.06583367
19	0xbdf4b94c	-0.11949405
20	0xbe61787a	-0.22018614
21	0xbe4bba30	-0.19895244
22	0xbe1e72f0	-0.15473533
23	0xbd5d4c8f	-0.05402809
24	0x3e6680f9	0.22510137
25	0x3e4add98	0.19811094
26	0xbd605cae	-0.054775886
27	0xbe8d13cf	-0.27554175
28	0x3e4b6bcb	0.19865339
29	0x3e9e96a3	0.30974302
30	0xbd9f9d42	-0.077936664
31	0x3e303160	0.17206335
32	0xbdddaeea	-0.10824378
33	0xbe9ba038	-0.30395675
34	0xbe5f78a3	-0.21823363
35	0x3eb22005	0.34790054
36	0x3dd715aa	0.10502179
37	0xbe55fec2	-0.20897964
38	0x3c118504	0.008881811
39	0xbeb78c32	-0.35849148
40	0x3d8f7b13	0.070058964
41	0x3ddb25df	0.10700583
42	0xbe9f3b9c	-0.31100166
43	0xbd9a245a	-0.07526465
44	0xbe188346	-0.14893827
45	0x3e44408d	0.19165249
46	0x3d8238bc	0.063584775
47	0xbe5557fc	-0.20834345
48	0xbd66a151	-0.056306187
49	0xbd6c2a82	-0.057657726
50	0xbc8332aa	-0.01601537
51	0x3eb25311	0.34829
52	0x3e46c0e0	0.19409513
53	0x3d8a9c8b	0.067681395
54	0x3dc43150	0.09579718
55	0xbe9e8bad	-0.3096594
56	0x3dc3d0af	0.095612876
57	0xbea03e36	-0.31297463
58	0xbe86ff50	-0.26366663
59	0x3e8c329b	0.2738236
60	0xbc81aae3	-0.015828555
61	0xbe87a6f6	-0.2649457
62	0xbd72450a	-0.059147872
63	0x3eb0b647	0.34514067
64	0xbd5e7ce1	-0.054318313
65	0xbd868f04	-0.06570247
66	0x3d026eb3	0.031843852
67	0x3e0da524	0.13832527
68	0x3e286d10	0.16447854
69	0x3de8dd78	0.11370367
70	0x3d1635e0	0.036672473
71	0x3e971d9e	0.29514784
72	0x3d9fbb7e	0.07799433
73	0x3e2a474e	0.16628763
74	0x3eb7b6e4	0.35881722
75	0x3ea1299c	0.31477058
76	0xbdd0aba6	-0.10188989
77	0x3d36e10c	0.044648215
78	0xbe3514ef	-0.17683767
79	0xbe596528	-0.21229994
80	0x3e92024a	0.2851737
81	0x3a9ad4e2	0.0011812712
82	0xbe025067	-0.12725984
83	0xbdcc0761	-0.09962345
84	0xbcf5c571	-0.030001374
85	0xbe95b547	-0.29239866
86	0x3e2d2320	0.1690793
87	0xbe858dc9	-0.26084736
88	0xbd178494	-0.03699167
89	0x3e29209b	0.16516344
90	0xbdc524f2	-0.096261874
91	0x3e8602c1	0.26173976
92	0xbea5cf10	-0.3238454
93	0x3e0aea01	0.13565828
94	0x3ea69cc2	0.32541472
95	0x3e196978	0.1498164
96	0xbe910811	-0.28326467
97	0x3dc427ea	0.095779255
98	0xbd2910c5	-0.04127576
99	0x3e1ad605	0.15120704
100	0xbe0cc961	-0.13748695
101	0xbe56abb7	-0.20963942
102	0x3e233273	0.15937214
103	0x3e2eeb03	0.17081837
104	0x3d4d982f	0.05019396
105	0x3ea8bdf8	0.32957435
106	0x3e4d919f	0.20075081
107	0x3e318db7	0.17339216
108	0x3ea0c626	0.31401175
109	0xbe3bd50b	-0.18342988
110	0x3e66dc42	0.22544959
111	0x3d4549bd	0.048166025
112	0xbebe87b4	-0.37212908
113	0xbc172013	-0.009223956
114	0x3d764ce2	0.060131915
115	0x3dca233f	0.09870004
116	0xbe4030e0	-0.18768644
117	0xbd9b3003	-0.07577517
118	0xbd35b9ee	-0.04436677
119	0x3ebc6f4d	0.36803666
120	0xbe85654b	-0.26053843
121	0xbebe7eef	-0.37206218
122	0xbe24030d	-0.16016789
123	0x3e83062e	0.25590652
124	0xbdf9a001	-0.121887214
125	0x3e90a645	0.28251854
126	0x3e9a4e6c	0.30137956
127	0x3d8689fd	0.06569288
128	0x3ed6d93d	0.41962615
129	0x3ed95880	0.42450333
130	0xbd7917fc	-0.06081389
131	0x3e9f4bb7	0.31112453
132	0x3e4c0713	0.19924574
133	0xbd3d70ea	-0.04625026
134	0xbe6854fd	-0.2268867
135	0x3cdcbc82	0.026945356
136	0x3e9d68fc	0.3074416
137	0x3c9b0d0d	0.018927122
138	0x3e89ef78	0.26940513
139	0x3a9d5a49	0.0012005056
140	0x3e537187	0.20648776
141	0x3c8ea2b0	0.01741156
142	0xbead81e3	-0.33888158
143	0x3d802a0c	0.0625802
144	0xbe85ad87	-0.26108953
145	0xbe7ba9b0	-0.2457645
146	0x3e075e1f	0.13219498
147	0xbdb3be67	-0.08776551
148	0x3e371ee9	0.17882885
149	0xbeb57505	-0.3544084
150	0xbe837db7	-0.2568185
151	0xbce7a1f6	-0.028275471
152	0xbc382e27	-0.011241472
153	0x3e440638	0.19142997
154	0x3e89a865	0.26886287
155	0xbe9f2656	-0.31083935
156	0x3c09a0a6	0.008400118
157	0xbd0f7531	-0.03502387
158	0xbe9a0d06	-0.3008806
159	0x3d713089	0.058884177
160	0xbda03df5	-0.07824317
161	0xbe828621	-0.25492957
162	0x3e0b548c	0.13606471
163	0x3e8d20f2	0.27564198
164	0xbd0cad12	-0.03434474
165	0xbe796512	-0.24354962
166	0xbc93b318	-0.018029734
167	0xbe0f1412	-0.139725
168	0x3ede8f0b	0.43468508
169	0xbe9d4423	-0.30716047
170	0xbea12acb	-0.3147796
171	0xbde030e8	-0.10946828
172	0xbe63703d	-0.22210784
173	0x3e091d5f	0.1339011
174	0x3e4ae202	0.19812778
175	0xbe72a0af	-0.23694108
176	0x3ea53bba	0.3227213
177	0xbdd33d5c	-0.10314438
178	0x3e0dd144	0.1384936
179	0xbc15e918	-0.009149812
180	0x3e926107	0.2858965
181	0xbe733aed	-0.23752947
182	0x3e956b16	0.29183263
183	0xbea63962	-0.32465655
184	0xbdb76e9a	-0.089566424
185	0x3d7b6a75	0.061380822
186	0x3ded611c	0.11590788
187	0x3c9d02cd	0.019166375
188	0x3eb58734	0.35454714
189	0xbdb84f9f	-0.089995615
190	0xbe9c518a	-0.3053096
191	0x3e055949	0.13022341
192	0xbe9b9f1a	-0.30394822
193	0x3d3d083e	0.04615044
194	0xbdfd37ea	-0.123641804
195	0x3daec20f	0.085331075
196	0xbe80652e	-0.25077194
197	0xbe4841e9	-0.19556393
198	0x3e87dd1e	0.26535887
199	0x3ea89452	0.3292566
200	0x3e9bd7af	0.3043799
201	0xbe2c5e61	-0.16832878
202	0x3e6211cc	0.22077101
203	0x3e907b92	0.28219277
204	0x3e277e10	0.16356683
205	0x3de5e37e	0.11225031
206	0x3e7b4007	0.24536143
207	0xbd1c841d	-0.03821193
208	0xbd72f565	-0.059316058
209	0x3dab70a7	0.08371096
210	0x3d8a1b26	0.067434594
211	0xbe888a07	-0.26667807
212	0x3e0e6795	0.13906701
213	0x3da3e1e7	0.08002072
214	0x3e382af7	0.1798514
215	0x3e895ad9	0.26827124
216	0xbe17a22d	-0.14807959
217	0xbdf9e579	-0.122019716
218	0x3d901bd7	0.0703656
219	0xbe3d9e49	-0.18517412
220	0x3dfb80ae	0.12280403
221	0xbe711d27	-0.23546277
222	0xbec1334d	-0.37734452
223	0x3e261587	0.1621915
224	0xbe4eeed8	-0.20208299
225	0xbe9748e5	-0.29547802
226	0xbe678b0f	-0.2261164
227	0x3e9c2246	0.304949
228	0x3ddca31d	0.10773299
229	0x3e853e94	0.26024306
230	0x3dbb0bc4	0.091331035
231	0x3da6b290	0.08139527
232	0xbe2313dd	-0.15925546
233	0xbe5a824a	-0.21338764
234	0x3d3f14cd	0.046650697
235	0xbb9afb31	-0.0047296514
236	0xbd4c9e7d	-0.049955834
237	0x3e575586	0.21028718
238	0x3dc840a4	0.09777954
239	0xbdd5db4d	-0.10442219
240	0x3d1656c5	0.036703844
241	0xbdd29bde	-0.102836356
242	0x3eadb1d0	0.33924723
243	0xbea93956	-0.33051556
244	0x3e9b65ad	0.3035101
245	0x3e11349e	0.14180228
246	0xbe47ecab	-0.19523875
247	0xbd64b208	-0.055833846
248	0x3dd454fe	0.103677735
249	0xbbd2c213	-0.006431827
250	0xbcc1da05	-0.02366353
251	0xbda4036b	-0.080084644
252	0x3ea4f953	0.3222147
253	0xbde2a455	-0.110665
254	0xbed4a152	-0.41529328
255	0x3dffbdfd	0.12487409

linearK3.weight f4 [8, 256]
0	0xbcc37a1a	-0.023861933
1	0x3d3cda2e	0.04610651
2	0xbd5dbc6c	-0.05413477
3	0x3d6dd4cd	0.05806427
4	0x3da0b93c	0.07847831
5	0x3d4b4884	0.049629703
6	0xbbdd335c	-0.0067505073
7	0xbd54668d	-0.051855613
8	0x3d687ea4	0.0567614
9	0xbdca29c1	-0.09871245
10	0xbd422c21	-0.047405366
11	0x3b5284af	0.0032122543
12	0x3c86e973	0.01646874
13	0xbc2a0848	-0.010377951
14	0x3c9c8d45	0.019110331
15	0xbd98c2b2	-0.0745901
16	0x3c2bc206	0.0104832705
17	0xbcf98df7	-0.030463202
18	0x3ba06009	0.004894261
19	0x3d8ef80c	0.06980905
20	0x3d6a83ff	0.057254788
21	0x3c19b4f1	0.009381519
22	0xbb3bd9d6	-0.0028663776
23	0xbcba8d95	-0.02277259
24	0xbcfa030e	-0.030519035
25	0x3d53a354	0.051669434
26	0x3cf2cf57	0.029639883
27	0xbdb60eda	-0.088895515
28	0x3d902cfe	0.070398316
29	0x3c821ec8	0.015883818
30	0xbd81023e	-0.06299256
31	0xbd6a5b52	-0.057215996
32	0x3bb986a4	0.0056618024
33	0xbd53ffff	-0.05175781
34	0xbcaa0c69	-0.02075787
35	0xbbde22ee	-0.0067790663
36	0xbdc3a403	-0.09552767
37	0xbd98a111	-0.07452596
38	0xbce48bb9	-0.027898656
39	0x3ca873f7	0.020563109
40	0x3d88f47d	0.066872574
41	0x3c03cc6b	0.0080443425
42	0xbd8388be	-0.06422566
43	0x3c441f65	0.011970376
44	0x3d3263db	0.04355226
45	0xbc9fb98a	-0.019497652
46	0x3d8c942b	0.06864198
47	0xbc4be973	-0.012445795
48	0x3d932735	0.071852125
49	0xbd6fad38	-0.058514804
50	0x3cc67bd3	0.024228966
51	0xbcdae2c4	-0.026719458
52	0xbc54dd0c	-0.012992155
53	0xbd23f1a7	-0.04002538
54	0x3d68dbe8	0.056850344
55	0x3c9112d2	0.01770917
56	0x3c1307d3	0.008974033
57	0x3c97e4dc	0.018541746
58	0x3d1919a0	0.037377954
59	0x3d480357	0.04883131
60	0xbd281bd0	-0.04104215
61	0x3d423357	0.047412243
62	0xbd3447e7	-0.044013884
63	0x3d1dfabc	0.038569197
64	0x3ce0dc1b	0.027448704
65	0x3d8c5dfb	0.06853863
66	0xbd1fae5a	-0.038984634
67	0x3ccab584	0.024744757
68	0x3dbff483	0.09372809
69	0x3c0a8bf9	0.008456224
70	0xbc2d510a	-0.010578403
71	0xbce2063e	-0.027590867
72	0x3db812a3	0.0898793
73	0xbd7da00e	-0.06192022
74	0x3bd79ce1	0.0065799807
75	0x3d24695f	0.040139552
76	0xbc740db5	-0.014895846
77	0x3cb6bd8e	0.022307184
78	0xbc5f6ad3	-0.013636309
79	0x3b881166	0.0041524647
80	0xbcb6fd69	-0.022337632
81	0xbd008e6b	-0.03138582
82	0x3d3893ab	0.045062702
83	0xbce3f55e	-0.027826961
84	0xbcb251fe	-0.021767613
85	0x3bb4789f	0.005507543
86	0x3cbcff48	0.023070946
87	0x3cd19619	0.025584267
88	0xbcdd8e97	-0.027045531
89	0x3d66a238	0.056307048
90	0xbb8d3763	-0.004309581
91	0xbda39df4	-0.079891115
92	0xba3be34c	-0.0007167354
93	0x3c98907a	0.01862358
94	0x3dc64fc9	0.096831866
95	0xbcbd1b57	-0.023084326
96	0xbdb351e5	-0.087558545
97	0x3ca6e2a2	0.020371739
98	0xbd4583fa	-0.048221566
99	0x3d4250d5	0.04744037
100	0x3c977d8e	0.018492486
101	0xbd599010	-0.053115904
102	0xbb70f39a	-0.0036766292
103	0xbd2e37bd	-0.042533625
104	0xbd5a5ce9	-0.053311262
105	0x3cdce77e	0.026965853
106	0xbc420b35	-0.011843492
107	0x3d3454fd	0.044026364
108	0x3c297ae0	0.010344237
109	0x3ca84be2	0.020543996
110	0xbda1ae82	-0.07894613
111	0xbd565d4b	-0.052335065
112	0xbcc9ecd6	-0.024649065
113	0x3cc24550	0.023714691
114	0xbbb63c18	-0.005561363
115	0x3ca1144d	0.019663
116	0x3b38edf7	0.002821801
117	0xbd046245	-0.03232028
118	0x3d8afac2	0.067861095
119	0x3d3753df	0.04475772
120	0x3bcff051	0.0063457866
121	0xbcad0a0c	-0.021122955
122	0xbc49343c	-0.01228052
123	0x3d0d6a5b	0.034525257
124	0xbcaf97a5	-0.021434614
125	0x3d897cfc	0.06713292
126	0xbae13e6b	-0.001718474
127	0x3d096ac0	0.03354907
128	0xbd444db4	-0.047925666
129	0x3b80654b	0.003918325
130	0x3dace89a	0.08442803
131	0x3c2e1320	0.010624677
132	0x3d00a63a	0.031408526
133	0x3d581992	0.05275876
134	0x3c808c81	0.015691997
135	0xbd728bb0	-0.059215248
136	0x3c90938b	0.017648479
137	0x3d56b685	0.052420158
138	0x3b7667bf	0.0037598459
139	0x3d69d60d	0.0570889
140	0x3a9b60cd	0.001185441
141	0x3cf81373	0.030282712
142	0x3ccb5bf9	0.02482413
143	0xbd3a12a0	-0.04542792
144	0x391403ac	0.00014115748
145	0x3d94e588	0.07270342
146	0x3b8041d6	0.0039140983
147	0xbd093b31	-0.033503715
148	0x3c02ac4d	0.00797565
149	0xbd2a6b97	-0.041606512
150	0xbd43368f	-0.047659453
151	0x3a7d36ec	0.0009659368
152	0xbc5c8289	-0.013458856
153	0xba81cff7	-0.0009903897
154	0x3d3e9866	0.046532057
155	0x3d23042e	0.039798908
156	0x3d8a44df	0.06751417
157	0x3d75e0d3	0.060028862
158	0x3b04963e	0.0020231153
159	0x3a9ba695	0.0011875207
160	0x3d14749a	0.036244012
161	0x3d984bf8	0.07436365
162	0x3d932a09	0.07185752
163	0xbd396bd3	-0.045268845
164	0x3d817bb8	0.063224256
165	0xbb21ee34	-0.002470863
166	0xbd7531dc	-0.059862003
167	0xbd475dba	-0.04867337
168	0xbd8d8cae	-0.06911598
169	0x3b2520ac	0.0025196476
170	0x3b17c6ca	0.002315926
171	0xbbac5a8b	-0.005259817
172	0x3d12ca74	0.035837606
173	0xbd22fc81	-0.039791588
174	0xbd2c67c2	-0.04209114
175	0x3d3666d4	0.04453166
176	0xbd31e789	-0.0434337
177	0xbcfa98ca	-0.030590434
178	0x3d636e75	0.055525262
179	0x3c982326	0.018571448
180	0x3be36214	0.006939182
181	0x3b0891fe	0.0020838971
182	0x3d1a2732	0.037635036
183	0xbbb90559	-0.0056463894
184	0x3c67ada4	0.01414052
185	0x3d259403	0.040424358
186	0x3d852a75	0.06502239
187	0x3d50366f	0.050833162
188	0xbc2df2d9	-0.010616981
189	0x3d3848ac	0.04499118
190	0xbd82bfa5	-0.063842095
191	0x3bc4d2e0	0.0060065836
192	0xbdee157f	-0.11625194
193	0x3dedb90d	0.11607561
194	0x3d45352e	0.04814642
195	0xbcfc7d96	-0.030821603
196	0xbdba0aff	-0.090841286
197	0xbd5641b7	-0.052308764
198	0x3ca4add0	0.020102412
199	0x3e1bddf9	0.15221395
200	0x3cfec88e	0.031101491
201	0xbc8e98c4	-0.017406829
202	0x3c86e4d8	0.016466543
203	0xbc5ac020	-0.01335147
204	0x3dcf7121	0.101289995
205	0xbc5a2e1a	-0.0133166555
206	0xbdac1493	-0.08402362
207	0xbe0725a5	-0.13197954
208	0xbd159f07	-0.036528613
209	0x3d7a4f74	0.06111093
210	0x3d0e23c2	0.03470207
211	0x3d0a9755	0.033835728
212	0xbb3d4ce9	-0.0028884953
213	0x3ca498ad	0.020092333
214	0xbce7f8ac	-0.028316818
215	0xbd2476dc	-0.040152416
216	0xbbb1e8d3	-0.005429366
217	0x3d4f84db	0.05066381
218	0x3c9e1409	0.019296663
219	0xbc5b24c8	-0.013375469
220	0x3cb82d4c	0.022482537
221	0x3cd0b1bc	0.025475375
222	0xbd8f259e	-0.06989597
223	0xbc17a406	-0.009255415
224	0xbd35d4d9	-0.04439244
225	0xbcea2238	-0.02858077
226	0x3cbe9b46	0.0232674
227	0x3d8ed7a8	0.06974727
228	0x3cd4b756	0.025966328
229	0xbd14f0d8	-0.0363625
230	0x3d33a9c5	0.043863077
231	0x3cbfc2e5	0.023408363
232	0x3dd1670f	0.10224735
233	0x3dd43773	0.103621386
234	0x3c23fd63	0.010009143
235	0xbd17efda	-0.037093975
236	0x3dc0e28b	0.0941821
237	0x3cdd3959	0.027004885
238	0xbd05c226	-0.032655858
239	0x3db499a7	0.08818369
240	0xbd9054e5	-0.07047442
241	0x3d780f41	0.060561422
242	0x3ba611ec	0.0050680544
243	0xbd346dcb	-0.04405002
244	0xbb5c2059	-0.0033588617
245	0x3d75fa28	0.06005302
246	0x3d695abd	0.0569713
247	0xbb8b1de2	-0.0042455057
248	0xbc0a177e	-0.008428453
249	0xbcce9e57	-0.025221987
250	0xbcbee281	-0.023301365
251	0xbc59ce70	-0.013293847
252	0x3ac979c5	0.0015371373
253	0x3d57f127	0.052720215
254	0xbc8224b0	-0.015886635
255	0xb9a8de22	-0.0003220896

linearD3.weight f4 [6, 8]
0	0x3e283bf2	0.16429117
1	0xbea14214	-0.31495726
2	0x3e3b012b	0.18262164
3	0xbe8de6ab	-0.27715048
4	0xbdfdd500	-0.12394142
5	0x3e03ddc8	0.12877572
6	0x3e5c5750	0.21517682
7	0x3dcaca73	0.099018954
8	0xbe2adbbd	-0.16685386
9	0xbdaf92b9	-0.08572907
10	0xbd91cf78	-0.0711965
11	0x3dc6ed29	0.097132035
12	0xbe5473a9	-0.20747246
13	0x3e7d88dd	0.2475924
14	0x3e390647	0.18068801
15	0xbe52ad35	-0.20573886
16	0x3c6836c2	0.0141732115
17	0x3eb3a9b2	0.35090405
18	0x3de2ad90	0.11068261
19	0x3d99f4a1	0.075173624
20	0xbcfacd5a	-0.030615497
21	0x3d2cd4cb	0.042195123
22	0x3df8b2e6	0.12143497
23	0x3e8c5363	0.2740737
24	0x3d9af646	0.07566504
25	0x3d76bd24	0.060238972
26	0x3de48891	0.111588605
27	0x3e92e0bd	0.28687087
28	0xbd423a73	-0.047419023
29	0xbdc649e2	-0.09682061
30	0x3e050704	0.12990957
31	0x3da1ef44	0.079069644
32	0xbd0df06f	-0.034653123
33	0xbdc6b6a8	-0.09702808
34	0xbe835d8f	-0.25657317
35	0x3d96ad37	0.07357257
36	0x3e3269ab	0.17423122
37	0x3cca50e3	0.024696773
38	0x3dcca5da	0.09992571
39	0x3e311c35	0.17295916
40	0x3dc3ccc8	0.09560543
41	0xbe68f368	-0.22749102
42	0xbe532147	-0.20618163
43	0x3e3241c3	0.17407899
44	0xbdfc8fd0	-0.123321176
45	0x3df181eb	0.11792358
46	0xbe438bd3	-0.19096307
47	0x3e3e9843	0.1861277

linearD3.bias f4 [6]
0	0x3cb058f7	0.021526797
1	0xbdcc488a	-0.09974773
2	0x3e5843b9	0.21119584
3	0xbe8b3978	-0.27192283
4	0x3e2d7b33	0.16941528
5	0xbe23aaac	-0.15983075
