continous_state/pretrained/MLE/MLE10_64.pt (torch, 46912 bytes, 9 tensors)

linearK1.weight f4 [10, 8]
0	0xbdd610ef	-0.104524486
1	0xbea01299	-0.3126419
2	0xbe475d23	-0.19469123
3	0xbccaa5d4	-0.024737276
4	0xbe93748c	-0.28799856
5	0xbda1ec4a	-0.07906397
6	0x3e1a9cc5	0.15098865
7	0xbe37c6c0	-0.17946911
8	0xbd2e2d66	-0.042523764
9	0x3e40156e	0.18758175
10	0xbf2e4fea	-0.6809069
11	0xbea88823	-0.32916364
12	0x3e91bd1a	0.28464586
13	0x3e50700d	0.20355244
14	0xbd719e9a	-0.058989145
15	0xbdb9abc6	-0.09065966
16	0x3e186eaa	0.14885965
17	0xbe237708	-0.15963376
18	0x3e5f1209	0.21784224
19	0x3e037b67	0.12840043
20	0xbe3c5cd9	-0.18394794
21	0xbe917c68	-0.28415227
22	0x3d01e8c4	0.031716123
23	0xbeb4d538	-0.35318923
24	0x3e622828	0.22085631
25	0x3eac4fc7	0.33654615
26	0x3ed2f2da	0.41200906
27	0x3ecad1cf	0.39613196
28	0x3e1220f8	0.14270389
29	0xbdef83cf	-0.11695062
30	0xbe3ce837	-0.18447958
31	0xbe8a40fb	-0.270027
32	0xbe92b020	-0.28649998
33	0xbbd3578e	-0.0064496463
34	0xbd682bcd	-0.056682397
35	0x3ea21e5b	0.31663784
36	0xbeae65bb	-0.3406199
37	0xbe8adc59	-0.27121237
38	0x3e23e448	0.16005051
39	0xbe7b0efa	-0.24517432
40	0x3e10f893	0.14157324
41	0xbe517a32	-0.2045677
42	0x3dd44642	0.10364963
43	0xbead7570	-0.3387866
44	0xbe987ecf	-0.29784247
45	0xbe9e833a	-0.30959493
46	0x3cb305ca	0.021853346
47	0xbe6b1968	-0.2295891
48	0xbe80d73e	-0.25164217
49	0xbec27b38	-0.37984633
50	0x3dac9119	0.08426113
51	0x3e542c78	0.20720088
52	0x3e89d006	0.26916522
53	0xbd8aa039	-0.06768841
54	0xbb844257	-0.0040362286
55	0xbc291968	-0.010320999
56	0x3e93ace2	0.28842837
57	0x3e46ed55	0.19426472
58	0xbe7694c4	-0.24080187
59	0xbd54c2d1	-0.051943604
60	0x3c88d5fe	0.016703602
61	0x3ed61f26	0.4182064
62	0xbe947158	-0.28992724
63	0xbe2f0235	-0.17090686
64	0xbe1be15f	-0.15222691
65	0xbcad3572	-0.021143649
66	0xbef78be8	-0.48348927
67	0x3ebc2475	0.36746565
68	0x3da2f7ba	0.07957406
69	0x3d869c10	0.06572735
70	0xbe9ffca9	-0.31247452
71	0xbbd9e06f	-0.006649069
72	0xbea1cbf9	-0.3160093
73	0x3e3f18d4	0.18661815
74	0x3ee78ac6	0.45223063
75	0xbe1bd786	-0.15218934
76	0xbdb1e7d5	-0.086867966
77	0x3de69724	0.112592965
78	0xbe570c64	-0.2100082
79	0xbe280b16	-0.16410479

linearD1.weight f4 [256, 10]
0	0x3e30813a	0.17236796
1	0x3e2bd403	0.16780095
2	0xbd7a20bf	-0.061066385
3	0xbe20fb95	-0.15720971
4	0xbe5d42c9	-0.21607508
5	0x3d8069fb	0.06270214
6	0x3ea71f35	0.32640997
7	0x3e11006d	0.14160319
8	0xbe8c2db2	-0.27378613
9	0x3eca646d	0.39529744
10	0x3da50d3f	0.08059167
11	0x3e294b86	0.16532716
12	0xbe970b0c	-0.29500616
13	0xbed01eaa	-0.40648395
14	0xbe796d23	-0.24358039
15	0xbe02c5c2	-0.12770751
16	0x3dccebd0	0.10005915
17	0x3e54cf94	0.2078231
18	0xbbc193f6	-0.005907531
19	0xbe8653cf	-0.26235816
20	0x3e386620	0.18007708
21	0x3dd52ff5	0.10409538
22	0xbe071344	-0.13190943
23	0xbcb80ef2	-0.022468064
24	0xbde8230f	-0.11334812
25	0xbd8c9682	-0.068646446
26	0x3d9884f2	0.07447232
27	0xbe4c9bf3	-0.19981365
28	0x3bad604a	0.0052910196
29	0x3e818fb1	0.2530494
30	0xbd751223	-0.05983175
31	0x3e851006	0.25988787
32	0xbe49eefe	-0.19720075
33	0xbdca0a3c	-0.09865233
34	0xbe93f15c	-0.2889508
35	0x3ea7c735	0.3276917
36	0xbe60f6fc	-0.21969217
37	0xbe5630d4	-0.20917064
38	0x3d94d66b	0.072674595
39	0xbdb8de46	-0.0902677
40	0xbe1cda49	-0.15317644
41	0xbe93741a	-0.28799516
42	0x3e6ec009	0.23315443
43	0x3cf0a0d8	0.029373571
44	0xbe89ee1b	-0.26939473
45	0x3e2b6b94	0.16740257
46	0x3e38d564	0.18050152
47	0x3e7e63ab	0.24842708
48	0xbc17252b	-0.00922517
49	0xbdc9b79c	-0.09849474
50	0x3ea84648	0.3286612
51	0x3e35bce6	0.1774784
52	0xbe3e4beb	-0.18583648
53	0x3e19df74	0.15026647
54	0x3d94978a	0.07255466
55	0x3e6a02bb	0.22852604
56	0x3ea093fa	0.31362897
57	0x3e261864	0.16220242
58	0xbd9847c0	-0.0743556
59	0x3ea14e77	0.31505176
60	0xbe5f1d7e	-0.21788594
61	0x3e43d5b7	0.19124494
62	0xbca31017	-0.019905133
63	0xbe56832b	-0.20948474
64	0x3e50fa9b	0.20408098
65	0xbe8afe14	-0.2714697
66	0x3e79bfbe	0.2438955
67	0xbe23bb39	-0.15989389
68	0x3d853eca	0.06506117
69	0xbe1ad009	-0.15118422
70	0xbe072128	-0.13196242
71	0x3eb8e682	0.36113364
72	0x3e54ba46	0.20774183
73	0x3e0afc27	0.13572751
74	0x3e51040a	0.20411697
75	0x3e855885	0.26044098
76	0x3e69825f	0.22803639
77	0xbe87d2a6	-0.265279
78	0x3e4f5f2f	0.20251153
79	0xbeb4b7c4	-0.35296452
80	0xbd83d838	-0.06437725
81	0xbe5c9ecc	-0.21544951
82	0xbde7886b	-0.113053165
83	0x3e25672b	0.16152637
84	0x3d206b47	0.039164808
85	0xbe514294	-0.20435554
86	0x3e68333d	0.22675796
87	0xbdeb56d6	-0.11491172
88	0xbc2452d7	-0.010029516
89	0xbd616d56	-0.05503591
90	0x3e2bb7f6	0.16769394
91	0x3e00a0fc	0.1256141
92	0xbdbfe9d8	-0.09370774
93	0xbe9e5c60	-0.30929852
94	0xbe3f2c81	-0.1866932
95	0xbcf8f70b	-0.030391237
96	0xbe4f1b2b	-0.20225208
97	0x3d9bcc4e	0.076073274
98	0xbcd884b7	-0.02643047
99	0x3d844c53	0.0645987
100	0xbe00c693	-0.1257575
101	0x3e02c76a	0.12771383
102	0xbd9b303b	-0.075775586
103	0xbe02cbe0	-0.12773085
104	0xbe92cfa9	-0.28674057
105	0x3db7435f	0.08948397
106	0xbe6f143e	-0.23347566
107	0x3d542962	0.05179728
108	0x3eb41a3b	0.35176262
109	0xbd99378d	-0.074812986
110	0xbe9973f8	-0.2997129
111	0xbd315b22	-0.0432998
112	0x3e443dde	0.19164225
113	0x3e4bdcb3	0.19908409
114	0xbe1ca8bb	-0.1529874
115	0xbe8feaf0	-0.2810893
116	0xbd0cf830	-0.034416378
117	0xbe3f6f86	-0.18694887
118	0xbe52c089	-0.20581259
119	0x3ead56af	0.33855197
120	0x3e5b0261	0.21387626
121	0x3e570558	0.20998132
122	0x3dfee4b0	0.124459624
123	0xbdb236ed	-0.087018825
124	0x3e6e13f3	0.23249798
125	0x3e7e1d66	0.24815902
126	0xbd1f36bd	-0.038870562
127	0x3da86189	0.08221728
128	0x3e7da5c1	0.24770261
129	0xbe04cb34	-0.12968141
130	0x3e3e50ba	0.18585482
131	0xbd005fd6	-0.031341396
132	0xbe3211ae	-0.17389557
133	0x3db3fe11	0.08788694
134	0x3e212dce	0.1574013
135	0x3d32612c	0.0435497
136	0x3e64b26e	0.2233369
137	0xbccc0be8	-0.024908021
138	0xbe43b7ac	-0.19113034
139	0x3e594f38	0.21221626
140	0x3db0cdce	0.08633004
141	0xbe9e8e0e	-0.30967754
142	0xbe76443c	-0.24049467
143	0xbeca3de9	-0.3950036
144	0xbe88ef6e	-0.2674517
145	0xbe203ccf	-0.15648197
146	0xbe2f7c8c	-0.17137355
147	0x3dd5136a	0.104040936
148	0xbe588959	-0.21146144
149	0x3e4f535d	0.20246644
150	0x3e794ace	0.24344942
151	0x3d7a1ef3	0.06106467
152	0x3e518c6f	0.20463727
153	0x3e0db288	0.13837636
154	0xbe14034e	-0.14454386
155	0x3e5513ef	0.20808385
156	0xbc612052	-0.013740616
157	0x3e28d27f	0.16486548
158	0xbe90e520	-0.28299809
159	0xbddf6bf5	-0.10909263
160	0xbd6f7453	-0.058460545
161	0xbdbfbdd2	-0.09362377
162	0x3e057df5	0.1303633
163	0xbe40d563	-0.188314
164	0xbe85ae82	-0.261097
165	0x3e774e79	0.24151029
166	0x3dac6d58	0.08419293
167	0x3d197a3e	0.037470095
168	0xbe2db130	-0.16962123
169	0x3e8abffb	0.27099594
170	0x3dacdc0b	0.08440407
171	0xbe2a6751	-0.16640975
172	0xbe946417	-0.28982612
173	0xbd83933a	-0.064245656
174	0xbd89937e	-0.06717585
175	0x3ea42998	0.32062984
176	0xbeabdcdc	-0.3356694
177	0x3da26caf	0.07930886
178	0x3e4c42af	0.19947313
179	0x3dbb6cb3	0.09151592
180	0x3e5c3e3b	0.21508114
181	0xbe51762c	-0.20455235
182	0x3cbc52b5	0.022988657
183	0xbe088bc0	-0.1333456
184	0x3cc80d24	0.024420328
185	0x3e39b85c	0.18136734
186	0x3dc96965	0.098345555
187	0x3e5e0485	0.21681412
188	0xbdd32744	-0.10310224
189	0x3e37650d	0.17909642
190	0x3e197c8e	0.1498892
191	0xbdc18077	-0.09448331
192	0xbe7cb040	-0.24676609
193	0x3e81d288	0.25355935
194	0x3e8d5b3a	0.27608663
195	0x3e2d6716	0.16933855
196	0xbe9e4acf	-0.3091645
197	0xbe020d85	-0.1270047
198	0xbdb36195	-0.08758847
199	0xbe5b64d3	-0.2142518
200	0xbde91c4c	-0.1138235
201	0xbd9476d7	-0.072492294
202	0xbd650000	-0.055908203
203	0x3e84541f	0.2584543
204	0xbcf0b5b5	-0.02938352
205	0xbe2e1fb6	-0.17004284
206	0x3e3cfb2f	0.18455194
207	0xbe25f576	-0.16206917
208	0xbe2f60a7	-0.17126714
209	0xbd83b5cc	-0.064311594
210	0xbe804b23	-0.25057325
211	0xbe35dc78	-0.17759883
212	0x3e83fe50	0.25779963
213	0xbeb9e2cf	-0.36305854
214	0x3e5d200b	0.21594255
215	0x3d7a787c	0.06115006
216	0x3dc481ce	0.09595071
217	0x3ea001ea	0.3125146
218	0x3c78b2c2	0.015179338
219	0x3c45a6ea	0.012063721
220	0x3d9abb83	0.07555296
221	0xbe5662b9	-0.20936097
222	0x3e22e208	0.15906537
223	0x3cfa4c3e	0.030553933
224	0xbe354ea4	-0.1770578
225	0xbda1a16b	-0.07892116
226	0x3e707ce7	0.23485146
227	0x3e3d1971	0.18466736
228	0xbe91bd3f	-0.28464696
229	0xbe90c4bd	-0.282751
230	0x3e9ce42f	0.3064284
231	0x3dcf3528	0.101175606
232	0x3e9513d8	0.29116702
233	0x3e4667c2	0.19375518
234	0xbe646b82	-0.22306636
235	0xbe81c3cf	-0.25344703
236	0xbd4a1170	-0.049333036
237	0xbdca6537	-0.098825864
238	0x3dcd70cc	0.1003128
239	0xbe8990d6	-0.26868314
240	0xbe14c921	-0.1452985
241	0x3de67d17	0.11254328
242	0xbd15d311	-0.03657824
243	0x3e1aad0a	0.15105072
244	0x3e9c89fd	0.30574027
245	0x3dd75f92	0.105162755
246	0xbe974e98	-0.2955215
247	0xbd9238e0	-0.07139754
248	0x3eaaeadb	0.33382306
249	0xbd6b96c6	-0.057516836
250	0x3dd25d9d	0.102717616
251	0x3db26611	0.08710874
252	0x3e36adde	0.17839763
253	0xbe8965c5	-0.26835456
254	0xbd47946d	-0.048725534
255	0x3dc97c80	0.098381996

linearD1.bias f4 [256]
0	0x3ea3938f	0.31948516
1	0x3eaa8c1a	0.33310014
2	0xbe4fd054	-0.20294315
3	0x3db9d47d	0.09073732
4	0xbd0e0e25	-0.034681458
5	0xbe83153a	-0.25602132
6	0x3e9eedd5	0.31040826
7	0xbea3f472	-0.32022434
8	0xbe4ed7bf	-0.20199488
9	0xbe575414	-0.21028167
10	0x3bd476a4	0.0064838696
11	0x3e889091	0.26672795
12	0x3e557f47	0.20849334
13	0xbe38e6eb	-0.18056838
14	0x3d95dff9	0.0731811
15	0x3d43345f	0.047657367
16	0x3e11cced	0.14238329
17	0x3d5d09aa	0.053964294
18	0x3e5b2171	0.21399476
19	0xbdcec7a2	-0.10096671
20	0xbc439ab1	-0.011938737
21	0xbbde8b5f	-0.0067915167
22	0x3e3c0128	0.18359816
23	0xbd309b5f	-0.043116923
24	0x3e3be555	0.18349202
25	0x3e7d87ec	0.24758881
26	0xbe98dd1f	-0.29856202
27	0x3e802a9c	0.25032508
28	0xbd7a315f	-0.06108224
29	0xbd393693	-0.04521806
30	0x3e959652	0.29216248
31	0xbeb1fd8a	-0.34763747
32	0xbe471917	-0.19443165
33	0x3e86308a	0.26208907
34	0x3da0a358	0.07843655
35	0x3dd7a1ac	0.10528883
36	0x3e2403fa	0.16017142
37	0x3cbb5bf0	0.022870988
38	0xbde60342	-0.1123109
39	0xbe951aec	-0.29122102
40	0x3e92962e	0.28630203
41	0x3e9c976e	0.30584282
42	0x3dd3765c	0.1032531
43	0x3e63eeb4	0.22259027
44	0xbe456b28	-0.19279158
45	0x3e9ae214	0.3025061
46	0xbe189033	-0.14898758
47	0xbe29ef4b	-0.1659519
48	0xbe723f13	-0.23656873
49	0x3e77bc76	0.24192986
50	0xbe48e1aa	-0.19617334
51	0x3d78b031	0.060714904
52	0xbdd815e0	-0.10551047
53	0x3e7dd220	0.24787188
54	0xbea61a5a	-0.3244198
55	0xbd1e19d7	-0.03859886
56	0x3ea65adf	0.32491204
57	0xbdf60b3e	-0.12013863
58	0x3d7ae342	0.061251886
59	0x3e68fb94	0.2275222
60	0x3e511019	0.20416297
61	0xbe558d1d	-0.20854612
62	0xbd6a5b1c	-0.057215795
63	0x3b480bb6	0.0030524558
64	0x3e110df2	0.14165476
65	0xbdfc9426	-0.123329446
66	0xbe1f21a4	-0.15540177
67	0xbe2442ca	-0.16041103
68	0x3e3cd364	0.18440014
69	0xbe3cedc0	-0.1845007
70	0x3e6a85a8	0.22902548
71	0x3e3b737e	0.18305776
72	0x3de8053f	0.113291256
73	0x3e9264db	0.28592572
74	0x3e077afb	0.13230507
75	0xbe4a464c	-0.19753379
76	0xbe01e560	-0.12685156
77	0xbe6c5ca0	-0.23082209
78	0xbe890884	-0.2676431
79	0x3de8e285	0.1137133
80	0xbbaceb28	-0.0052770562
81	0xbe2d0953	-0.16898088
82	0xbe51774e	-0.20455667
83	0x3e734cc7	0.23759757
84	0xbeb0dc89	-0.34543255
85	0x3d7f4766	0.06232395
86	0x3dc50e21	0.096218355
87	0xbdebb3a5	-0.11508874
88	0x3d84c4a7	0.06482821
89	0xbe12f2c0	-0.14350414
90	0xbe93ceb3	-0.28868636
91	0xbe851247	-0.25990507
92	0x3e97f220	0.29676914
93	0xbe59d29c	-0.21271747
94	0x3e30b40f	0.17256187
95	0x3eb3dbea	0.3512872
96	0xbe8e2509	-0.2776263
97	0x3e6abed0	0.22924352
98	0x3e809cdc	0.25119674
99	0xbda23448	-0.07920128
100	0xbd968c18	-0.073509395
101	0x3e6e983c	0.2330026
102	0x3eacb7fb	0.33734116
103	0x3e51b58d	0.20479412
104	0xbe43086b	-0.1904618
105	0xbeb4ce1a	-0.35313493
106	0x3ce0980c	0.027416252
107	0x3e84eb1e	0.2596063
108	0xbe17a61e	-0.14809462
109	0xbe3768b9	-0.17911042
110	0xbe648d6e	-0.22319576
111	0x3e91b1dd	0.2845601
112	0x3e210d93	0.15727834
113	0xbddf88be	-0.109147534
114	0x3e16266c	0.14663094
115	0x3e825031	0.25451806
116	0x3e9cc1bf	0.30616567
117	0x3e621b42	0.2208071
118	0x3e9bab9a	0.3040436
119	0xbdf9ef72	-0.12203874
120	0xb83df5fa	-4.5290195e-05
121	0x3e866dd7	0.26255676
122	0xbddaaeea	-0.106778935
123	0xbe05f37f	-0.13081168
124	0xbe8d4fca	-0.27599937
125	0xbe185cec	-0.14879197
126	0x3e3a8972	0.18216494
127	0xbe15bab5	-0.14622004
128	0xbe73772d	-0.2377593
129	0x3d80acfc	0.06282994
130	0x3e562d0e	0.20915624
131	0xbe05d17f	-0.13068198
132	0xbe6498f3	-0.2232397
133	0x3e9df864	0.3085357
134	0x3e3d5277	0.18488489
135	0x3b66f665	0.0035242077
136	0xbe152923	-0.14566474
137	0x3e208531	0.15675808
138	0xbc7e5498	-0.015523098
139	0x3ea8893c	0.32917202
140	0x3e019a3c	0.12656492
141	0x3c8a3d29	0.016874867
142	0xbe79ddcb	-0.24401014
143	0xbd85aff7	-0.06527703
144	0x3de6b8a8	0.11265689
145	0xbe1bd79f	-0.15218972
146	0xbd8490a2	-0.06472899
147	0x3dfdba59	0.123890586
148	0xbe828e9a	-0.2549942
149	0xbe7b584d	-0.24545403
150	0xbe5086f9	-0.20363988
151	0xbe33bb9e	-0.17552039
152	0x3e2ed93f	0.1707506
153	0x3c9af648	0.018916264
154	0xbd0b1ddd	-0.033964027
155	0xbebd3031	-0.3695083
156	0xbd8990f9	-0.067171045
157	0x3cd6211f	0.02613884
158	0xbe54b749	-0.20773043
159	0x3cc175ff	0.023615835
160	0xbe72cc19	-0.2371067
161	0x3e3a5394	0.18195945
162	0x3e93f6b5	0.2889916
163	0xbde11394	-0.10990062
164	0x3cb91201	0.022591593
165	0xbe1d3e51	-0.15355803
166	0x3ea82813	0.32843074
167	0xbe8b8cd6	-0.27255887
168	0xbe878fe0	-0.26476955
169	0xbdbd9e3d	-0.09258697
170	0xbe2e886e	-0.17044231
171	0x3e949f69	0.2902787
172	0x3e672666	0.22573242
173	0x3dc08cb5	0.09401838
174	0x3dc932c1	0.09824134
175	0x3d19ef55	0.03758176
176	0xbd86bcb5	-0.06578962
177	0xbd7005f1	-0.058599416
178	0x3eb26df1	0.34849504
179	0xbe8f2f2c	-0.27965677
180	0x3b4acff6	0.0030946708
181	0xbe84636f	-0.25857112
182	0xbb798f61	-0.0038079845
183	0x3e04d679	0.1297244
184	0xbdc63117	-0.09677332
185	0xbe85b50a	-0.26114684
186	0x3ea61dbf	0.3244457
187	0x3e0f6643	0.14003853
188	0xbd108034	-0.035278514
189	0x3e9d7351	0.30752042
190	0xbe8e2da6	-0.27769202
191	0xbcaa841f	-0.020814953
192	0xbe610f8d	-0.21978588
193	0xbdd1458f	-0.102183454
194	0x3ea0482d	0.31305066
195	0xbde39434	-0.11112252
196	0xbe664a8e	-0.22489378
197	0x3e474079	0.19458188
198	0xbe729657	-0.23690163
199	0xbeae36d3	-0.34026203
200	0xbd9c5c3e	-0.07634781
201	0x3e81767f	0.25285718
202	0xbca07bd0	-0.019590288
203	0x3e873622	0.26408488
204	0x3ea0866a	0.3135255
205	0xbe37ef5c	-0.17962402
206	0xbe39c005	-0.18139656
207	0x3df3fd89	0.11913592
208	0x3e456d1a	0.192799
209	0xbd85457f	-0.06507396
210	0xbd9ad340	-0.07559824
211	0xbe5d2d6c	-0.21599358
212	0xbe6c52ce	-0.23078462
213	0x3d42fc1b	0.047603708
214	0x3e904845	0.28180137
215	0x3e478606	0.1948472
216	0xbd8f75af	-0.07004868
217	0xbea74d3d	-0.32676116
218	0x3e94bf85	0.29052368
219	0xbe83d792	-0.25750405
220	0x3ea250dd	0.3170232
221	0xbe89bb49	-0.269007
222	0x3dd00a63	0.10158231
223	0x3db94b05	0.09047512
224	0xbe2d4e5f	-0.16924427
225	0x3e96ff23	0.2949153
226	0x3d8f13bd	0.06986187
227	0x3e9929df	0.29914758
228	0xbe76b59c	-0.24092716
229	0x3c244875	0.010027041
230	0xbd67fd94	-0.056638315
231	0x3c1cc540	0.009568512
232	0xbe7e78ff	-0.24850844
233	0xbe11e6e3	-0.14248233
234	0xbe84c8a9	-0.25934342
235	0xbd822b20	-0.06355882
236	0x3c121736	0.008916667
237	0xbe803977	-0.25043842
238	0xbe8b6c76	-0.27231187
239	0x3e4906cd	0.196315
240	0x3e99dd34	0.30051577
241	0xbcd24f57	-0.025672598
242	0x3d377112	0.044785567
243	0x3e89b827	0.2689831
244	0xbe854279	-0.26027277
245	0x3e5d7325	0.21625955
246	0x3eaa4a5f	0.33259866
247	0x3e15ef0e	0.14641973
248	0x3e9b6a7e	0.30354685
249	0x3e7afe7d	0.24511142
250	0x3e991d7f	0.29905316
251	0xbe1aa4ab	-0.15101878
252	0x3e1f564e	0.15560266
253	0x3e7fdb09	0.24985899
254	0xbe835473	-0.25650367
255	0xbe843474	-0.2582127

linearK2.weight f4 [10, 256]
0	0xbb1fd010	-0.002438549
1	0x39849946	0.000252912
2	0xbcd22d5b	-0.025656393
3	0x3d744040	0.059631586
4	0x3dc78e74	0.09743968
5	0xbc9d9bc4	-0.019239314
6	0xbd0a165c	-0.03371273
7	0xbdba3dd5	-0.09093825
8	0xbd8c2c14	-0.06844345
9	0x3d40a447	0.047031667
10	0x3d7f2c7c	0.062298283
11	0x3d471f5a	0.048613884
12	0xbda65b15	-0.08122841
13	0x3cec113e	0.028816815
14	0x3d758146	0.059937738
15	0x3c94188a	0.018078107
16	0x3dbc36b0	0.09190118
17	0x3d823855	0.06358401
18	0x3da008b7	0.07814162
19	0xbd79f6ae	-0.061026268
20	0xbdd6cd69	-0.10488398
21	0x3d15832d	0.036502052
22	0x3c9e3852	0.019313965
23	0xbe043d61	-0.12914039
24	0xbd8e61b2	-0.06952228
25	0xbccc14cc	-0.02491226
26	0x3dd53f12	0.1041242
27	0x3d39b38f	0.045337256
28	0xbd88142f	-0.06644475
29	0x3d25001a	0.0402833
30	0xbd786797	-0.060645666
31	0x3d4bf384	0.04979278
32	0xbdc35076	-0.09536831
33	0x3d09cedf	0.033644553
34	0x3d878cc5	0.066186465
35	0xbdee9efd	-0.11651418
36	0xbd8ee27e	-0.06976794
37	0xbd0b6cf9	-0.03403947
38	0x3d522ca4	0.051312104
39	0x3cb4f33b	0.022088638
40	0x3d3771b5	0.044786174
41	0xbd61572b	-0.05501477
42	0xbcafca59	-0.021458792
43	0xbb1380ad	-0.0022507117
44	0xbc8be41e	-0.017076548
45	0xbdc0fdf1	-0.094234355
46	0x3d88ca51	0.06679214
47	0xbc9a23d2	-0.018815909
48	0x3d3edd78	0.046597928
49	0x3d95318b	0.0728484
50	0xb8a1bd76	-7.712368e-05
51	0x3d07fe39	0.03320143
52	0x3d98e5c2	0.07465698
53	0xbd8ae057	-0.06781071
54	0x3cdcf282	0.026971105
55	0xbbf1ce6d	-0.007379344
56	0x3d35a06c	0.044342443
57	0xbd5ee72f	-0.054419693
58	0xbde33f81	-0.11096097
59	0xbc42728d	-0.011868131
60	0xbd3e46e4	-0.046454325
61	0xbce92a2c	-0.028462492
62	0xbcd27311	-0.025689634
63	0xbb397c01	-0.0028302672
64	0xbd01c02d	-0.031677414
65	0xbdd120a7	-0.10211306
66	0x3d0023a4	0.03128399
67	0xbddb22d8	-0.10700005
68	0x3cfa4868	0.030552104
69	0x3daae254	0.0834395
70	0x3c6318df	0.01386091
71	0x3d83f62a	0.064434364
72	0xbccbf7e2	-0.024898473
73	0xbd6da239	-0.058016036
74	0x3dfcef6e	0.12350355
75	0xbd94ece5	-0.072717465
76	0xbd4f2062	-0.050567992
77	0xbd057093	-0.032578062
78	0x3ca5b255	0.020226637
79	0x3c9366fd	0.017993445
80	0x3d95a11f	0.07306122
81	0x3c8b94f5	0.017038802
82	0xbd8b0175	-0.06787387
83	0x3d4732b5	0.048632342
84	0x3d2e4f7b	0.042556267
85	0xba14539e	-0.0005658212
86	0xbd95197c	-0.072802514
87	0x3d3c9ff7	0.046050992
88	0xbdaca2e5	-0.08429507
89	0xbda59f7e	-0.08087061
90	0xbd2a94a2	-0.041645654
91	0x3d694892	0.056953974
92	0x3d16ec81	0.03684664
93	0x3dc14561	0.09437061
94	0xbdbbb1e8	-0.09164792
95	0x3d45403f	0.048156973
96	0x3ce1090f	0.02747014
97	0x3d17b63a	0.03703902
98	0xbc46dfb2	-0.012138294
99	0x3d8a9f77	0.06768697
100	0x3d507363	0.05089129
101	0x3d5192f7	0.051165547
102	0xbd09909b	-0.033585172
103	0xbcc781c7	-0.024353875
104	0xbd8d8675	-0.06910411
105	0x3db3111d	0.087434985
106	0x3d3f9679	0.04677436
107	0xbd5e858a	-0.05432657
108	0xbe0f650b	-0.14003389
109	0x3b8e464f	0.0043418775
110	0xbd00880c	-0.031379744
111	0xbd8bda6f	-0.06828772
112	0x3d46fcd1	0.04858095
113	0x3d888d0c	0.066675276
114	0xbcf833e8	-0.030298188
115	0x3d33d28c	0.043901965
116	0x3da7f7d9	0.0820157
117	0xbd4f7a03	-0.05065347
118	0xbd574cd9	-0.052563522
119	0x3e0caf57	0.13738762
120	0x3d91894c	0.071062654
121	0x3c621439	0.013798767
122	0x3d336839	0.043800566
123	0xbd815cd2	-0.06316532
124	0x3b92ffe9	0.0044860733
125	0xbd05910d	-0.032609034
126	0x3d38a34c	0.045077607
127	0x3dac98b3	0.084275626
128	0x3d65dbee	0.056117944
129	0x3c27b82d	0.010236782
130	0xbcc017b1	-0.023448797
131	0xbccdb6ed	-0.02511164
132	0xbcdcaeba	-0.026938785
133	0xbd27a1cf	-0.040925797
134	0xbcfcc3fc	-0.030855171
135	0xbcb04890	-0.021518975
136	0xbd8bda4b	-0.068287455
137	0xb88a4e04	-6.594884e-05
138	0xbcb32e68	-0.021872714
139	0xba11733c	-0.00055484823
140	0xbbfb34cd	-0.0076662065
141	0xbe00e164	-0.1258598
142	0xbcb95ecd	-0.022628212
143	0xbd9469e0	-0.072467566
144	0x3d5b9069	0.053604517
145	0xba9a35f3	-0.0011765346
146	0x3c23d89d	0.010000375
147	0x3cc5d997	0.024151606
148	0x3d038481	0.032108787
149	0xbd2ceb56	-0.04221662
150	0xbde40fda	-0.11135836
151	0xbd8deb1f	-0.069296114
152	0xbd165531	-0.03670234
153	0x3e0c43b0	0.13697696
154	0x3de6caf6	0.112691805
155	0xbd89f0ac	-0.06735358
156	0xbd40b46a	-0.047047056
157	0xbcd118d0	-0.025524527
158	0xbdf01121	-0.11722017
159	0xbe1356c0	-0.14388561
160	0xbbf77e9c	-0.007552935
161	0xbdb4f504	-0.088357955
162	0x3dd43736	0.10362093
163	0xbd87048c	-0.06592664
164	0x3e2eeb78	0.17082012
165	0xbd2203fa	-0.039554574
166	0xbd4d7f50	-0.050170243
167	0x3d99096b	0.074724995
168	0xbd7ee255	-0.062227566
169	0xbcc06b11	-0.023488553
170	0xbc8fa6d4	-0.017535605
171	0x3da909c6	0.08253817
172	0x3d027411	0.03184897
173	0x3cc9287f	0.024555443
174	0xbd894f76	-0.06704609
175	0xbd74196e	-0.059594564
176	0xbdc7d818	-0.097580135
177	0x3d041014	0.032241896
178	0xbd0e7099	-0.03477535
179	0x3c5ecba9	0.013598361
180	0xbc3217f2	-0.010869967
181	0x3b76dfbd	0.003766998
182	0xbbca1c91	-0.006167956
183	0xbc4f85e6	-0.012666201
184	0xbc61b4c0	-0.013776004
185	0xbc4461be	-0.011986194
186	0x3b2557a1	0.0025229233
187	0x3db20d25	0.08693913
188	0xbc970952	-0.018437061
189	0xbc8c0b5e	-0.017095264
190	0x3cdb3552	0.026758824
191	0xbd2ac20e	-0.04168897
192	0xbd320416	-0.043460928
193	0xbdf74ba7	-0.120749764
194	0xbd48f1c0	-0.049058676
195	0x3bd5c170	0.0065233037
196	0x3d7e77ff	0.062126156
197	0x3de51c5f	0.11187052
198	0xbe135804	-0.14389044
199	0xbb52d024	-0.0032167519
200	0x3d5f3a67	0.054499056
201	0xbca89b0c	-0.020581745
202	0x3b77366b	0.0037721645
203	0xbd164b25	-0.036692757
204	0xbce61abf	-0.028088925
205	0x3dadb1f8	0.084812105
206	0xbd130d6d	-0.035901476
207	0xbd8a2052	-0.06744446
208	0x3ce1761f	0.027522145
209	0xbcd528c9	-0.026020424
210	0xbd6073c1	-0.05479789
211	0x3c012fb8	0.007884912
212	0xbdd102e1	-0.10205627
213	0xbe0419bd	-0.12900443
214	0xbbe82c75	-0.007085378
215	0x3cb85313	0.02250055
216	0xbd1988b3	-0.037483882
217	0x3d213a0d	0.039362002
218	0x3cddc4a9	0.027071314
219	0x3e005de7	0.12535821
220	0xbdae6f12	-0.08517279
221	0xbd0616d0	-0.0327366
222	0xbb1fd91c	-0.0024390882
223	0xbd01e118	-0.031708807
224	0xbd812955	-0.063067116
225	0xbd14fc9c	-0.03637372
226	0xbdeed7fa	-0.11662288
227	0xbd8b6fa6	-0.068084046
228	0xbd8e7a5c	-0.06956932
229	0x3decca70	0.115620494
230	0x3d95c275	0.0731248
231	0x3d2471b9	0.040147517
232	0xbd0fe1e4	-0.035127535
233	0xbd6138f2	-0.054985948
234	0x3d714e7c	0.05891274
235	0x3da741f8	0.081668794
236	0xbb952e45	-0.004552635
237	0x3cddbb63	0.027066892
238	0xbb210093	-0.0024566993
239	0x3d603add	0.054743636
240	0x3da3a142	0.07989742
241	0x3c469a0d	0.0121216895
242	0x3de37683	0.11106589
243	0xbd06fa94	-0.032953814
244	0x3bff2539	0.0077864197
245	0x3d4db546	0.050221704
246	0x3d4031de	0.046922557
247	0x3d2437f2	0.040092416
248	0xbccbc22e	-0.024872866
249	0x3d2457f1	0.04012293
250	0x3d78457e	0.060613148
251	0xbd243f8e	-0.040099673
252	0x3d98a3fa	0.07453151
253	0xbc1051fb	-0.008808608
254	0xbd8d86e0	-0.06910491
255	0x3d76e7b8	0.060279578

linearD2.weight f4 [256, 10]
0	0x3d672a06	0.05643656
1	0xbe18c3f6	-0.14918503
2	0x3e8e6ce9	0.27817467
3	0xbe0aa27f	-0.1353855
4	0xbd1fce5e	-0.039015166
5	0xbe5736ff	-0.21017073
6	0xbd923bfc	-0.07140347
7	0xbdea1580	-0.11429882
8	0x3e69bb3c	0.2282533
9	0xbd36c70e	-0.044623427
10	0x3d45c82b	0.0482866
11	0x3dd1d289	0.102452345
12	0x3e68f497	0.22749554
13	0xbcd341c8	-0.025788203
14	0xbdf06491	-0.117379315
15	0xbe272156	-0.1632131
16	0x3aab38ea	0.0013063226
17	0xbde6613c	-0.11249015
18	0xbe8b7218	-0.27235484
19	0x3ace3c40	0.0015734509
20	0x3e8d5a1b	0.27607808
21	0x3c97f178	0.018547758
22	0x3e076f95	0.13226159
23	0xbe590054	-0.21191531
24	0xbdcd8f33	-0.10037079
25	0xbe615f49	-0.22009005
26	0xbdb2bff7	-0.08728021
27	0xbe4b7445	-0.19868572
28	0xbe08de20	-0.13365984
29	0x3e64d0e7	0.22345315
30	0x3e36ec3a	0.17863551
31	0xbeae4f5a	-0.34044915
32	0x3dd9d633	0.106365584
33	0xbcafdba8	-0.021467045
34	0xbe6e2de7	-0.23259698
35	0xbd218606	-0.039434455
36	0xbd6e0fbe	-0.05812048
37	0xbd179a7e	-0.03701257
38	0xbd6bca4f	-0.057565983
39	0x3dcffc20	0.10155511
40	0x3eae0dc7	0.33994886
41	0x3dda0495	0.10645405
42	0x3de2273a	0.11042638
43	0xbe35bf46	-0.17748746
44	0xbe80241c	-0.2502755
45	0x3e76a080	0.24084663
46	0x3e80a29a	0.25124055
47	0xbe3eaccf	-0.18620609
48	0xbe85e0ee	-0.2614817
49	0x3dd8df61	0.10589481
50	0xbd63425e	-0.055483215
51	0x3e130d0c	0.14360446
52	0xbdbd4868	-0.09242326
53	0x3e94a23b	0.29030022
54	0x3dd218d4	0.10258642
55	0xbe0cf04d	-0.13763542
56	0xbdf055bf	-0.11735105
57	0x3e1a9913	0.15097456
58	0x3ea35fa5	0.31908908
59	0x3ea27f8f	0.31737944
60	0xbe7768f7	-0.24161135
61	0x3d7c705c	0.06163059
62	0x3d111173	0.03541703
63	0xbe0084c0	-0.1255064
64	0xbdec9fdb	-0.115539275
65	0x3e51cf42	0.20489219
66	0x3dd572ef	0.104223125
67	0x3e084888	0.13308918
68	0xbd32dcef	-0.04366773
69	0x3e9c701f	0.30554292
70	0x3e6a314e	0.22870371
71	0xbe1255b2	-0.14290503
72	0x3ea0a83a	0.31378347
73	0xbdedd263	-0.11612394
74	0xbda40f36	-0.08010714
75	0x3e7d4fcb	0.2473747
76	0xbd25f9ff	-0.040521618
77	0x3c24d01b	0.010059382
78	0x3e53aee0	0.20672178
79	0x3e73924f	0.23786281
80	0xbe74e7f6	-0.23916611
81	0x3ee46bb7	0.4461343
82	0xbe919cfb	-0.2844008
83	0xbdb9eec6	-0.090787455
84	0xbd9b70d2	-0.07589878
85	0x3c8a1131	0.0168539
86	0xbe068a1c	-0.13138622
87	0x3e7d934b	0.24763219
88	0x3e4533e6	0.19258079
89	0xbecc18b8	-0.3986261
90	0x3d33c0bf	0.04388499
91	0x3e5e634e	0.21717569
92	0xbc4a8d81	-0.012362839
93	0xbd2c2e1c	-0.04203616
94	0xbe0720c1	-0.13196088
95	0xbe37dc50	-0.17955136
96	0x3d023778	0.03179118
97	0xbe61553c	-0.2200517
98	0x3e4cf273	0.20014362
99	0x3e8820a1	0.26587394
100	0x3eb3a9e8	0.35090566
101	0x3e009e44	0.12560374
102	0x3e4084d9	0.18800677
103	0x3e14ebde	0.14543101
104	0xbeafeb46	-0.34359187
105	0xbcd5a1bc	-0.026078098
106	0xbe849009	-0.2589114
107	0xbdf02118	-0.11725062
108	0x3d8cf167	0.06881981
109	0x3e40bee1	0.18822815
110	0x3d21a143	0.03946043
111	0xbdf3668e	-0.11884795
112	0xbe05502a	-0.13018861
113	0xbe0e2c22	-0.13884023
114	0xbb1134e0	-0.002215676
115	0xbe3b472b	-0.18288867
116	0x3dc131ea	0.094333485
117	0xbdd88a98	-0.1057331
118	0x3e97ba61	0.29634383
119	0xbe50044e	-0.20314142
120	0xbe9f0a6e	-0.31062645
121	0xbe857d6c	-0.26072252
122	0xbe460b30	-0.19340205
123	0x3e660e07	0.22466289
124	0xbde04530	-0.109506965
125	0x3dc5b258	0.09653157
126	0x3e2cdd4b	0.16881292
127	0xbe86c411	-0.26321462
128	0x3e7566cd	0.23964997
129	0x3e2397a7	0.1597582
130	0xbe2c4166	-0.16821823
131	0xbe96a666	-0.29423827
132	0xbd4a1b73	-0.049342584
133	0x3e133dc0	0.14379025
134	0xbd4558ca	-0.04818038
135	0xbe2ea5cc	-0.17055434
136	0xbe6c4bed	-0.23075838
137	0xbdff894a	-0.12477358
138	0x3e45bf2f	0.19311212
139	0xbe228a63	-0.15873103
140	0xbd88cc87	-0.066796355
141	0x3da4f4d6	0.08054511
142	0xbe5f4f0c	-0.21807498
143	0xbe8600fa	-0.2617262
144	0xbe34db68	-0.17661822
145	0xbdbf3ad8	-0.093373954
146	0xbe086d65	-0.1332298
147	0x3de48f4e	0.11160146
148	0xbe53c4ab	-0.20680492
149	0x3c421be8	0.011847474
150	0x3eb2cc71	0.349216
151	0x3e5899be	0.21152398
152	0x3e91f617	0.28508064
153	0x3eba7576	0.3641774
154	0x3df240f7	0.11828797
155	0xbe27c3b2	-0.16383246
156	0x3e9f3836	0.31097573
157	0x3e311ffb	0.17297356
158	0xbd57abcd	-0.052654076
159	0xbe8789b5	-0.2647225
160	0x3d1f9fb4	0.038970664
161	0x3e48040c	0.19532794
162	0x3e3b46db	0.18288748
163	0xbe8a884d	-0.27057114
164	0xbe3d0e87	-0.18462573
165	0x3d8d9c9c	0.069146365
166	0x3e70aa21	0.23502399
167	0x3e857570	0.2606616
168	0x3d9f2ea7	0.0777257
169	0x3e894d9a	0.26817018
170	0x3e536f06	0.20647821
171	0x3dd4fa04	0.10399249
172	0xbea13640	-0.31486702
173	0xbd1cff55	-0.03832944
174	0x3e6222e0	0.22083616
175	0x3e7c4665	0.24636228
176	0xbe00485f	-0.12527607
177	0xbe906234	-0.28199923
178	0x3e864ea5	0.26231876
179	0x3e6673d4	0.22505122
180	0x3c10dfa5	0.0088423835
181	0x3ddc7e94	0.1076633
182	0x3dd8368f	0.10557281
183	0xbe1b87ba	-0.15188494
184	0xbe32d8b1	-0.17465474
185	0xbd8f367c	-0.06992814
186	0xbe894a73	-0.26814613
187	0x3e07f1c0	0.13275814
188	0x3e611857	0.21981941
189	0x3e317b58	0.17332208
190	0x3dc3984a	0.09550531
191	0x3d72b0aa	0.05925051
192	0x3de6ec97	0.11275595
193	0x3d833352	0.06406273
194	0xbe3bd9dd	-0.18344827
195	0x3ec07cfc	0.37595356
196	0x3e3563ed	0.177139
197	0x3e303f17	0.17211567
198	0xbe3049ab	-0.17215602
199	0x3e8218ef	0.25409648
200	0xbd527140	-0.051377535
201	0x3e3d7f39	0.18505563
202	0xbe9bda33	-0.3043991
203	0xbe3f2994	-0.18668205
204	0x3dce75b9	0.100810476
205	0xbe4ef0d5	-0.20209058
206	0x3e48e8ef	0.19620107
207	0xbe14cb1c	-0.14530605
208	0xbd54381f	-0.051811334
209	0xbea451df	-0.32093713
210	0xbb88a700	-0.0041702986
211	0xbda41091	-0.08010972
212	0xbe88e594	-0.26737654
213	0x3d1449b9	0.03620312
214	0xbd9e219c	-0.07721254
215	0x3e140bcf	0.1445763
216	0x3d9414fb	0.07230564
217	0x3e0b10fc	0.13580698
218	0x3e930142	0.28711897
219	0x3ddafb7a	0.106924966
220	0x3da78369	0.081793614
221	0xbe12941e	-0.14314315
222	0xbebde4cf	-0.3708863
223	0xbe9d6697	-0.30742332
224	0x3de91f6d	0.11382947
225	0xbde5eb3f	-0.1122651
226	0xbda86b3e	-0.0822358
227	0xbeb25888	-0.3483317
228	0x3e5949ab	0.21219508
229	0xbd749fbf	-0.05972266
230	0x3e109c85	0.14122207
231	0x3d9e8e1a	0.077419475
232	0x3cc1ca8e	0.023656156
233	0xbe364407	-0.17799388
234	0xbddfdb5c	-0.10930511
235	0x3d98f896	0.07469289
236	0xbea720b3	-0.32642135
237	0xbd11a5d6	-0.035558544
238	0x3d2cd710	0.042197287
239	0x3ad9b659	0.001661013
240	0xbdd6600e	-0.1046754
241	0xbe18d11c	-0.14923519
242	0xbe81054c	-0.25199354
243	0x3e353ef1	0.17699791
244	0x3c9f5976	0.019451838
245	0xbe3161f0	-0.17322516
246	0x3e47570d	0.19466801
247	0x3dbe1e5c	0.09283134
248	0x3c106af3	0.008814561
249	0xbdeff9a4	-0.11717537
250	0xbe5fe334	-0.21864015
251	0x3d2c8956	0.04212316
252	0x3d32d35d	0.043658603
253	0x3d9ccfeb	0.07656845
254	0xbe8f9a75	-0.2804753
255	0x3e422e3b	0.18962948

linearD2.bias f4 [256]
0	0x3e8493a4	0.2589389
1	0x3e9a45a3	0.30131254
2	0xbe919f89	-0.28442028
3	0x3ea87a14	0.32905638
4	0x3e913375	0.2835957
5	0x3d18b9c9	0.037286554
6	0xbe058c46	-0.13041791
7	0xbc943fb1	-0.018096777
8	0x3e0fcbd3	0.14042597
9	0xbe94f16e	-0.29090446
10	0x3cc249b3	0.023716783
11	0x3e7b2686	0.24526414
12	0x3e1c4180	0.15259361
13	0xbe20e2ca	-0.15711513
14	0x3e852f48	0.26012635
15	0x3eb0c6ba	0.34526616
16	0xbdb4930d	-0.0881711
17	0xbdcb4e22	-0.09927012
18	0xbea0c57f	-0.31400678
19	0xbce17e4a	-0.02752604
20	0xbcf7e34b	-0.030259749
21	0x3d6fa6f2	0.05850882
22	0xbde43eed	-0.11144815
23	0x3e241bcd	0.1602623
24	0xbb8eb270	-0.0043547675
25	0x3e873c99	0.2641342
26	0xbea3c579	-0.31986597
27	0x3df23367	0.118262105
28	0x3e90db54	0.28292334
29	0x3e977c64	0.2958709
30	0xbd018e08	-0.031629592
31	0x3ea0990a	0.3136676
32	0x3e35d5ec	0.17757386
33	0xbe0613f1	-0.13093545
34	0xbd769cb8	-0.060208052
35	0x3e64529b	0.22297136
36	0x3da5b0fc	0.08090398
37	0x3d8cbf41	0.06872416
38	0x3e3c44dc	0.18385643
39	0xbe40c717	-0.18825947
40	0x3de2550b	0.11051377
41	0x3cf76d86	0.030203592
42	0x3d55a8df	0.052163
43	0x3ca2498e	0.019810464
44	0x3e5d410a	0.21606842
45	0xbdb8c93e	-0.09022759
46	0xbdbaedd2	-0.09127392
47	0x3dabe504	0.08393291
48	0x3da3e59e	0.080027804
49	0xbe2d67c9	-0.16934122
50	0x3e1db70a	0.15401855
51	0xbe3c7dcf	-0.18407367
52	0xbe26ada7	-0.1627718
53	0x3e5227b8	0.20522964
54	0xbc9dad8b	-0.01924779
55	0xbdf1774e	-0.11790334
56	0x3e1a87b0	0.15090823
57	0xbe992a09	-0.29914883
58	0xbcac997a	-0.021069277
59	0x3e6201a1	0.22070934
60	0x3e346f38	0.17620552
61	0x3d985cad	0.074395515
62	0xbe3932dd	-0.18085809
63	0x3eb7df5d	0.359126
64	0x3e78efaf	0.24310182
65	0x3e8fa1e1	0.2805319
66	0xbe99fbcc	-0.30074918
67	0xbe742494	-0.23842078
68	0xbcd406fc	-0.025882237
69	0x3e3623aa	0.17787042
70	0x3da2cef7	0.07949632
71	0xbd66f850	-0.056389153
72	0x3e3701f0	0.17871833
73	0xbe4ae798	-0.19814909
74	0xbe93ad45	-0.28843132
75	0xbd569127	-0.05238452
76	0x3d9f6e5c	0.07784721
77	0xbde7ecd3	-0.113244675
78	0xbd948ec9	-0.072537966
79	0x3e5c2b9e	0.21501014
80	0xbdbec523	-0.093149446
81	0x3dfc2202	0.12311174
82	0xbe6b61b6	-0.22986493
83	0x3c7feb5b	0.015620078
84	0x3e8b46e5	0.27202526
85	0x3e7a46b2	0.2444103
86	0x3e2bedc5	0.1678992
87	0x3def6bc5	0.11690477
88	0xbd98dd4b	-0.07464083
89	0xbebaf29b	-0.36513218
90	0xbddf806b	-0.10913166
91	0xbe1dfce7	-0.15428506
92	0xbe2bdc3a	-0.16783229
93	0x3deb0d23	0.11477115
94	0xbe848c62	-0.25888354
95	0x3e2b70d3	0.16742258
96	0xbe87144f	-0.26382682
97	0xbe89ad68	-0.2689011
98	0xbd1ee739	-0.03879473
99	0x3b14adc4	0.002268658
100	0x3e5184a3	0.20460753
101	0x3e8387be	0.256895
102	0xbe04d11a	-0.12970391
103	0xbda1f0db	-0.07907268
104	0xbe16aacf	-0.14713596
105	0x3e3dfae0	0.18552732
106	0xbe47ec15	-0.19523652
107	0x3e920c8f	0.28525206
108	0x3dbaaa14	0.09114471
109	0xbe1fdb2a	-0.15610948
110	0x3dc7e505	0.09760479
111	0xbe98db7e	-0.2985496
112	0x3c71b683	0.014752987
113	0xbe5866dc	-0.21132988
114	0x3dd67932	0.10472335
115	0x3e8ab1e2	0.2708884
116	0x3d865fec	0.065612644
117	0xbe3eae66	-0.18621215
118	0x3e4fdea2	0.20299771
119	0x3ea85546	0.32877558
120	0x3bec4c6c	0.0072112586
121	0xbe52941b	-0.2056431
122	0x3dc2b802	0.09507753
123	0xbe1a0188	-0.15039647
124	0xbcc71eaf	-0.024306623
125	0x3e24ffd0	0.1611321
126	0xbe30084e	-0.17190668
127	0xbc4b1747	-0.0123956865
128	0x3e6e00a6	0.23242435
129	0xbd8b07c6	-0.06788592
130	0x3da2773a	0.07932897
131	0xbd4660a2	-0.048432
132	0x3cb4491a	0.022007514
133	0xbe1e77c8	-0.1547538
134	0x3e1e7b68	0.15476763
135	0xba7b623a	-0.0009589527
136	0x3e06d2f9	0.13166417
137	0x3d6c4c4e	0.057689957
138	0xbe57f695	-0.21090157
139	0x3e108583	0.1411343
140	0x3e88d158	0.26722217
141	0xbe1472c9	-0.14496912
142	0xbd98efb4	-0.07467595
143	0xbd8c64b1	-0.06855143
144	0x3dab0363	0.08350255
145	0x3dc8651d	0.09784911
146	0xbe920bb0	-0.28524542
147	0xbe8ee472	-0.27908665
148	0x3e4b82cd	0.19874115
149	0x3e853fad	0.26025143
150	0xbe29fa8e	-0.16599485
151	0x3e808d77	0.2510793
152	0x3d6b5c7b	0.057461243
153	0xbe1180d7	-0.14209305
154	0x3e2caaf1	0.16862084
155	0xbe62d97a	-0.22153273
156	0xbe75f4fb	-0.24019234
157	0xbe278a3d	-0.16361327
158	0xbd8f05de	-0.06983541
159	0xbe8dafc4	-0.2767316
160	0xbdcc0ead	-0.09963737
161	0xbe43e1e4	-0.19129139
162	0xbdec8ea6	-0.115506455
163	0x3e48c2f9	0.19605626
164	0xbe82fa60	-0.25581646
165	0x3e7082ad	0.23487349
166	0xbe64c694	-0.22341377
167	0x3e1f224a	0.15540424
168	0xbe92e4c0	-0.28690147
169	0xbe9d9982	-0.3078118
170	0xbe54e4eb	-0.2079045
171	0xbea31999	-0.31855467
172	0xbd96c739	-0.073622175
173	0x3e62244c	0.22084159
174	0x3d03d96e	0.03218978
175	0xbe234408	-0.1594392
176	0xbdfdc305	-0.12390713
177	0xbe48974b	-0.19588964
178	0x3e378c4f	0.17924617
179	0xbd1463c4	-0.036227956
180	0x3e553815	0.20822175
181	0xbea57bc6	-0.32320994
182	0x3e0d9c7b	0.13829224
183	0xbcef6538	-0.02922307
184	0xbea6e7f6	-0.32598847
185	0xba8aeb96	-0.0010598775
186	0xbe8b2f52	-0.2718454
187	0x3e749e05	0.23888405
188	0xbe7b9c46	-0.24571332
189	0x3e83984a	0.25702125
190	0xbe9948b2	-0.29938275
191	0x3d2704a8	0.040775925
192	0x3e4eb3bf	0.20185755
193	0x3e079aa8	0.1324259
194	0xbe94e32e	-0.29079574
195	0xbe5bbe89	-0.21459402
196	0x3e8760bb	0.26440987
197	0xbe90e758	-0.283015
198	0xbe935c9e	-0.287816
199	0xbe83700c	-0.25671422
200	0x3e207f59	0.1567358
201	0xbe05aa81	-0.13053323
202	0x3bf278dc	0.0073996615
203	0xbe69c19d	-0.22827764
204	0x3e0c3561	0.13692237
205	0xbe03be92	-0.12865666
206	0x3ea0b526	0.31388205
207	0xbddd3569	-0.10801203
208	0x3ce51458	0.027963802
209	0xbe805e09	-0.25071743
210	0xbd269730	-0.040671527
211	0x3e80bd8f	0.25144622
212	0xbdf5160b	-0.11967095
213	0xbeaec7d8	-0.34136844
214	0xbe8ad231	-0.27113488
215	0x3da35efe	0.07977103
216	0xbe7960f3	-0.2435339
217	0xbea14b13	-0.3150259
218	0xbe0d4006	-0.13793954
219	0x3cc32654	0.023821987
220	0xbdf11dfa	-0.11773296
221	0xbe5a6b80	-0.2133007
222	0xbe89ee5f	-0.26939675
223	0x3cc7faff	0.024411676
224	0xbea65f8a	-0.32494766
225	0x3e4986c5	0.19680317
226	0x3e9ccb12	0.3062368
227	0xbe98ca80	-0.29841995
228	0x3e3ee181	0.1864071
229	0x3df3a221	0.11896158
230	0x3e8bb6a6	0.27287787
231	0x3dc87612	0.09788145
232	0x3d4e6068	0.05038491
233	0x3e40ede6	0.18840751
234	0x3ea0da69	0.31416634
235	0x3d5057f7	0.05086514
236	0xbe87e595	-0.26542345
237	0xbe84d8b9	-0.25946596
238	0x3df102a1	0.117680795
239	0x3e54a5f4	0.20766431
240	0xbe7f8306	-0.24952325
241	0x3d00b6c7	0.03142431
242	0x3e4d99d6	0.20078215
243	0x3e0ca625	0.13735254
244	0x3e56e98a	0.20987526
245	0x3de8b991	0.11363519
246	0x3e0c1134	0.13678437
247	0x3e5a0082	0.21289256
248	0xbe52c348	-0.20582306
249	0xbe75cb38	-0.24003303
250	0xbe1deea8	-0.15423071
251	0xbdd37844	-0.10325673
252	0x3c425dfb	0.011863227
253	0x3e96cc7f	0.29452893
254	0xbe244fcb	-0.16046064
255	0xbdee4946	-0.116350695

linearK3.weight f4 [10, 256]
0	0x3d9ea804	0.0774689
1	0xbcced758	-0.025249168
2	0xbd61538e	-0.055011325
3	0x3d4f7ab7	0.05065414
4	0xbc9c3100	-0.019066334
5	0xbc8acc4d	-0.016943121
6	0xbd8ebf67	-0.06970101
7	0x3d1972db	0.03746305
8	0xbcb3d43a	-0.021951783
9	0xbd84583b	-0.06462141
10	0x3bd3b311	0.0064605554
11	0x3cc9a3a3	0.02461416
12	0xbb9da5cc	-0.0048110243
13	0xbd6e3496	-0.05815562
14	0xbce9acad	-0.028524721
15	0x3dd152b1	0.1022085
16	0xbdcc6add	-0.0998132
17	0xbd996682	-0.07490255
18	0xbbafe8bf	-0.0053683217
19	0xbd728f3e	-0.059218638
20	0xbcb9fda8	-0.02270396
21	0x38e8da14	0.00011103242
22	0x3c3c7283	0.011501911
23	0xbd77908f	-0.060440596
24	0x3dcbdb3c	0.09953925
25	0xbcdf71cb	-0.02727594
26	0xbd234552	-0.03986103
27	0x3c0a65ad	0.008447093
28	0xbd0e745e	-0.034778945
29	0x3d2c5723	0.042075288
30	0x3cc5335d	0.024072343
31	0x3af79a38	0.0018890565
32	0xbd5085e7	-0.05090895
33	0xbdf125f1	-0.11774815
34	0x3d621f0c	0.05520539
35	0x3cbab04b	0.022789141
36	0x3c0be1d0	0.008537725
37	0x3caeb244	0.021325238
38	0x3c013cd2	0.007888036
39	0xbdf351f9	-0.118808694
40	0x3d810fc5	0.06301836
41	0xbd610e8a	-0.054945506
42	0x3c86ee6e	0.016471114
43	0x3d0392db	0.032122474
44	0x3dda15ef	0.10648715
45	0xbd09a2e7	-0.03360262
46	0x3d9a61f8	0.07538217
47	0x3b1e1b97	0.0024125332
48	0xbd85bb22	-0.065298334
49	0x3d15b466	0.036548994
50	0x3d6e97df	0.058250304
51	0xbd86d6f3	-0.06583967
52	0xbd8137fe	-0.06309508
53	0xbda93aae	-0.082631454
54	0x3d70d0d0	0.05879289
55	0xbbcbd2f5	-0.0062202164
56	0x3d8857c6	0.066573665
57	0xbd1cb9d2	-0.03826315
58	0xbc8278f3	-0.015926814
59	0xbc0b15e5	-0.008489107
60	0x3c39d233	0.011341619
61	0xbc6e19ba	-0.014532501
62	0x3d76cbea	0.06025306
63	0x3d786047	0.060638692
64	0x3ca1e502	0.01976252
65	0xbd1fe8ee	-0.0390405
66	0x3d3623ef	0.044467863
67	0xbcfdabb5	-0.030965665
68	0x3de29527	0.11063605
69	0x3d9876f4	0.074445635
70	0xbd1f17f0	-0.038841188
71	0x3d89de8d	0.06731901
72	0xbcbc7558	-0.023005173
73	0x3b5cfce3	0.0033720068
74	0xbc8a5309	-0.016885297
75	0xbbed967e	-0.007250606
76	0x3dd3baa5	0.10338334
77	0xbd5e4434	-0.054264262
78	0x3de1352e	0.10996471
79	0xbb639929	-0.0034728742
80	0x3d21dcb9	0.03951714
81	0x3c0bc23a	0.008530194
82	0x3c8fa6cc	0.01753559
83	0xbbcb6856	-0.006207506
84	0x3b35d185	0.0027743292
85	0xbdbeb4d7	-0.09311836
86	0x3cae39c3	0.021267777
87	0x3d2e7e15	0.04260071
88	0x3d593e38	0.053037852
89	0x3d242fce	0.040084653
90	0xbd368809	-0.044563327
91	0xbc24fc65	-0.010069941
92	0xbd0523af	-0.032504734
93	0xbd384002	-0.044982918
94	0xbd028c88	-0.031872302
95	0x3d5a1db6	0.05325099
96	0x3ccd8cc6	0.02509154
97	0xbd8f9699	-0.07011146
98	0x3cc83f9d	0.024444396
99	0xbcebeec4	-0.028800376
100	0x3d0da918	0.03458509
101	0xbc0f35ad	-0.008740825
102	0xbd6587d6	-0.056037746
103	0x3d4a5b16	0.049403273
104	0xbd6355d8	-0.05550179
105	0x3d37e5ac	0.044896767
106	0x3d36b8ec	0.04460995
107	0x3ad05cf0	0.0015896838
108	0xbccb0b86	-0.024785768
109	0xbd346ff5	-0.044052083
110	0xbc35cb69	-0.01109586
111	0xbd0454d8	-0.032307476
112	0xbc356536	-0.011071494
113	0x3d08f24d	0.0334342
114	0x3d06dfee	0.0329284
115	0x3da2ddc9	0.079524584
116	0xbd7e1de2	-0.062040217
117	0x3cdb09ec	0.02673813
118	0xbd98d0f8	-0.074617326
119	0xbd1dd464	-0.03853263
120	0x3d6e4415	0.058170397
121	0x3ca77b18	0.020444438
122	0xbc9d8c69	-0.019231992
123	0xbc293549	-0.010327646
124	0x3c5411f3	0.012943733
125	0x3dad04a6	0.08448152
126	0xbbfecf2c	-0.0077761617
127	0x3d9570b7	0.07296889
128	0xbc8c3ba3	-0.01711828
129	0xbd4eb22a	-0.05046288
130	0x3d3a21e2	0.04544247
131	0x3cc594e0	0.02411884
132	0x3d22b466	0.039722823
133	0x3b584cc7	0.0033004747
134	0xbc92ae49	-0.017905371
135	0xbd6f1d09	-0.0583773
136	0xbd940b6b	-0.0722874
137	0x3d08a057	0.033356037
138	0xbd9b117e	-0.07571696
139	0x3cd9020b	0.026490232
140	0x3c2b6c8b	0.01046289
141	0xbd91b7ff	-0.071151726
142	0xbb629f03	-0.0034579642
143	0xbd0e434d	-0.03473215
144	0x3dc48b7e	0.095969185
145	0xbd3e2c7b	-0.04642914
146	0xbd4fa420	-0.05069363
147	0x3d4e88b4	0.05042334
148	0x3d2b7f71	0.041869584
149	0xbb078ae2	-0.0020682146
150	0x3d46dbb7	0.04854938
151	0x3d1a88e1	0.037728194
152	0x3d34e8d0	0.04416734
153	0xbd67ac04	-0.05656053
154	0xbd6bcd9f	-0.057569142
155	0xbd0b131d	-0.033953775
156	0xbdc4f622	-0.096172586
157	0xbdc75f8d	-0.09735022
158	0xbdcf12c3	-0.101110004
159	0x3ac89727	0.0015303836
160	0x3b7c84c8	0.0038531292
161	0x3cc1084b	0.023563525
162	0xbcbd9b33	-0.023145294
163	0xbd4bc583	-0.04974891
164	0xbd3a9577	-0.045552697
165	0xbd4b7e92	-0.049681254
166	0xbde9c2e8	-0.114141285
167	0x3c4e5bf3	0.012595165
168	0x3cf23adb	0.02956908
169	0xbd445561	-0.047932986
170	0x3c886987	0.016651882
171	0xbd11f73c	-0.03563617
172	0xbda88d73	-0.08230104
173	0xbc8140f9	-0.015778052
174	0x3d8033e4	0.06259897
175	0xbcfe3b04	-0.031034
176	0xbbf09802	-0.0073423395
177	0xbd2a1be1	-0.041530494
178	0x3c378ca9	0.01120297
179	0xbbb40706	-0.0054940013
180	0x3d47e382	0.048800953
181	0x3ce9dac2	0.028546695
182	0x3b565431	0.003270399
183	0xbdcf6f76	-0.10128681
184	0x3c32a3ca	0.010903308
185	0xbde2e770	-0.110792994
186	0x3c7a0f52	0.015262442
187	0xbd943231	-0.07236136
188	0x3d3b1485	0.045673866
189	0x3d329ed8	0.043608516
190	0xbc2e35fb	-0.010632987
191	0x3c8b8795	0.017032424
192	0x3d374b9e	0.04474985
193	0x3d827768	0.06370431
194	0xbadfdfc4	-0.0017080237
195	0xbd44afb2	-0.04801912
196	0x3dd95326	0.106115624
197	0xbcf4180c	-0.029796623
198	0xbd4be3c7	-0.049777772
199	0x3d7d9d9b	0.061917882
200	0x3d8145b2	0.063121215
201	0x3ce8c88a	0.028415937
202	0x3d860120	0.06543183
203	0x3c4458c0	0.01198405
204	0x3d83d8fd	0.064378716
205	0xbd4eee72	-0.050520368
206	0xbcd813eb	-0.026376685
207	0xbd7c4aa3	-0.061594617
208	0xbd574f56	-0.052565895
209	0xbd28c82f	-0.041206535
210	0xbe00371e	-0.12521026
211	0xbacbdf63	-0.0015554245
212	0xbd48023b	-0.048830252
213	0xbd61bb9e	-0.055110566
214	0x3d42412e	0.04742544
215	0xbc3f517a	-0.01167714
216	0x3ba1766a	0.004927446
217	0x3d3a8edb	0.045546394
218	0xbbfde02c	-0.0077476706
219	0xbd2f6ae7	-0.04282656
220	0x3d29a528	0.04141727
221	0xbb80cb93	-0.003930518
222	0xbce8a92b	-0.028400978
223	0x3d9c4ded	0.07632051
224	0xbd9cb7d6	-0.076522514
225	0xbd02b60a	-0.031911887
226	0x3d41efb0	0.047347724
227	0xbd97247e	-0.07380007
228	0xbd096055	-0.033539135
229	0xbd65b351	-0.056079213
230	0xbd1f28a6	-0.038857125
231	0x3d4e8bcd	0.050426293
232	0xbd4cb132	-0.049973674
233	0x3c1eae3b	0.0096850945
234	0x3d6b91a7	0.05751195
235	0xbd674571	-0.05646271
236	0x3c2790bc	0.010227378
237	0xbda93c10	-0.08263409
238	0x3ca2f32f	0.01989135
239	0xbc9ce807	-0.019153608
240	0x3d041b38	0.03225252
241	0x3d700422	0.05859769
242	0x3d7e30ab	0.062058132
243	0xbca4a70a	-0.020099182
244	0xbcefca4f	-0.029271273
245	0xbc8c9ec6	-0.017165553
246	0x3c3c77e0	0.01150319
247	0x3d051e9c	0.032499894
248	0xbd9ba25b	-0.07599326
249	0xbcb00b0b	-0.02148964
250	0xbd6ae0e7	-0.05734339
251	0x3cabee4a	0.020987649
252	0x3d9baa5a	0.07600851
253	0xbdc2e48f	-0.0951625
254	0x3d4bd706	0.04976561
255	0x3c3369d7	0.010950527

linearD3.weight f4 [6, 10]
0	0x3e781609	0.24227156
1	0x3d545806	0.05184176
2	0x3db08a51	0.08620132
3	0xbdc5dce9	-0.09661276
4	0x3d396f69	0.045272265
5	0xbdc60f64	-0.09670904
6	0x3eb7b7ad	0.3588232
7	0xbe401e1a	-0.18761483
8	0xbcf4833b	-0.029847732
9	0xbad84bee	-0.0016502121
10	0x3e1ca7f0	0.15298438
11	0x3e86f5d1	0.26359418
12	0x3e552b21	0.20817234
13	0x3e8c7013	0.27429256
14	0xbe9f551f	-0.3111963
15	0x3e877320	0.2645502
16	0xbe49418f	-0.19653915
17	0xbe8f827c	-0.2802924
18	0xbe772e2e	-0.2413871
19	0xbdab3113	-0.083589695
20	0x3e6b0bdd	0.22953744
21	0x3cf6adc9	0.030112164
22	0x3e755daa	0.23961511
23	0xbe5b6dbd	-0.2142858
24	0xbe8b1124	-0.27161515
25	0xbe6eed9a	-0.23332825
26	0xbe73a121	-0.23791935
27	0xbe508b08	-0.20365536
28	0x3e367850	0.17819333
29	0xbe689c7b	-0.22715943
30	0xbc6049b2	-0.013689445
31	0x3e527bba	0.2055501
32	0xbd9c4b86	-0.076315925
33	0x3e32860e	0.1743395
34	0x3e399671	0.18123795
35	0xbe23038a	-0.15919319
36	0xbde793a0	-0.11307454
37	0x3c961ee9	0.018325286
38	0xbe9f51ec	-0.3111719
39	0xbea0eee7	-0.31432268
40	0x3eb3abf1	0.35092118
41	0xbe982366	-0.29714507
42	0xbe716ed0	-0.23577428
43	0xbe3a874a	-0.18215671
44	0xbea2f1eb	-0.31825194
45	0x3e75cb97	0.24003445
46	0x3cd3d9d9	0.025860714
47	0x3de3ba33	0.11119499
48	0xbcbea86a	-0.023273665
49	0xbcbbba0d	-0.022915864
50	0x3dfff1eb	0.12497314
51	0xbc8b2318	-0.016984507
52	0x3e3b2934	0.18277436
53	0x3e87241f	0.26394746
54	0xbea37005	-0.31921402
55	0xbdf3d202	-0.1190529
56	0x3e1224d5	0.14271863
57	0x3e9c76ee	0.30559486
58	0x3d62f135	0.055405814
59	0xbe8897ba	-0.26678258

linearD3.bias f4 [6]
0	0x3e7f9016	0.24957308
1	0x3e2a2e29	0.16619171
2	0x3e84835a	0.25881463
3	0xbe72e706	-0.23720941
4	0xbe6ae66e	-0.22939464
5	0xbd5357bb	-0.05159734
