continous_state/pretrained/MLE/MLE16_128.pt (torch, 71872 bytes, 9 tensors)

linearK1.weight f4 [16, 8]
00000000: 6ebf 1f3d d122 163e 60a4 a73e 0a70 b1be
00000010: 7b82 123e 4e11 55bd ff0d 083e 73b9 33be
00000020: 03a5 17bd 194b e8bc a9e0 153f baad d5bb
00000030: 1a1f 2c3e a977 8f3e 377f 9cbe 93d5 0bbe
00000040: 2a60 95be 8f74 fb3d 11b4 2cbe c884 9cbe
00000050: 8301 6abe e3b5 8d3d 5d46 b2bd ae21 e1bd
00000060: 2504 2f3e 49f5 59bd fc35 183e 72cb 66be
00000070: edf0 b63e d9fb 8cbd e6e7 713e bb07 e53d
00000080: 7c90 ea3d b99b 58be e8db c93e 0e10 673d
00000090: 8d74 c6bd c655 cabd 9bf4 883e c295 a0be
000000a0: c74f ca3b bcb4 4c3e 5219 6f3e 0c6f 55be
000000b0: 5b18 98be 7c7d e2bd 283a 54be 25a0 0ebd
000000c0: 9517 9d3e 50a6 9d3e 198c 16bd a1d6 683e
000000d0: 8e17 c73d ef2f c03e 7b16 72be c419 303e
000000e0: 5764 fabd 7301 4fbe ba35 c2be 0a41 b5be
000000f0: 0a10 913e 1e9c b53c ff8f 6abc 2601 033e
00000100: 0a60 b2be a4df aa3d 0be5 c7be 71a6 2e3e
00000110: 2fa2 2e3e ea45 9b3d 4c69 d4bc d579 85be
00000120: 48de 27bd 67fa 483e 0dbc 7f3d 599a 5ebe
00000130: cb9c 29be e652 54be 6d18 a23e 1178 8f3e
00000140: a013 dbbd f78f 3dbe 6ada 793d b491 d4be
00000150: da9e 8ebc d58c 8a3e 661a 66bd 036f b9bb
00000160: e7c3 1c3d d6a0 853e a98b ac3d 6166 26be
00000170: 3414 94be 6ee3 593e 78ae 9f3d 954b 2dbd
00000180: ac93 b23e 553b 57be 660c cfbe b6c0 96be
00000190: ed75 63bc 00ee 3b3e 6f78 763d 977c 2b3e
000001a0: 9e48 013e c813 a63e 8d95 3bbe d662 7b3d
000001b0: cfb3 f23d c931 3fbd 4844 903e 9269 2e3e
000001c0: 7a91 88bd 9163 5b3e 5830 05bf dcd2 ee3d
000001d0: c5af 04be 47ec 393d 6c96 6f3d 8f50 073e
000001e0: 78cb 4bbe e157 413e 96ae c73e 5401 9d3e
000001f0: 49cd 773c cad1 cfbd b4af 29be 851a 173e
0.03900092 0.14661719 0.32742596 -0.34655792 0.14307587 -0.052018456 0.13286589 -0.17551212
-0.0370226 -0.028356122 0.5854593 -0.006520954 0.1680874 0.2802098 -0.30565807 -0.13655691
-0.2917493 0.12278091 -0.16865565 -0.30570054 -0.22852139 0.06919458 -0.08704827 -0.10992752
0.17091425 -0.053212438 0.14864343 -0.22538546 0.35730687 -0.06883974 0.23623618 0.11183115
0.114533395 -0.21153153 0.39425588 0.056411795 -0.09690199 -0.09879641 0.2674912 -0.31364256
0.006174061 0.1999082 0.23349503 -0.20843142 -0.29706082 -0.110590905 -0.2072531 -0.034820694
0.30682054 0.3079095 -0.0367547 0.22738124 0.097212896 0.3753657 -0.23641388 0.17197329
-0.122261696 -0.20215397 -0.37931615 -0.35401183 0.2833255 0.022169169 -0.014316558 0.12793407
-0.34838897 0.08343437 -0.39041933 0.1705568 0.17054056 0.075816944 -0.025929116 -0.26069513
-0.04098347 0.19626771 0.0624352 -0.21738566 -0.16563718 -0.20734748 0.3165926 0.2802129
-0.106971025 -0.1851195 0.06099931 -0.41517413 -0.01740973 0.2706057 -0.05617752 -0.0056589856
0.038272765 0.2609927 0.084250756 -0.16249992 -0.28921664 0.21278164 0.07796949 -0.04230841
0.3487829 -0.21018727 -0.40439147 -0.29443902 -0.013883096 0.18352509 0.06017345 0.16746746
0.12625358 0.32436967 -0.18318768 0.061373554 0.11850702 -0.04667834 0.28177094 0.1703246
-0.066683725 0.214247 -0.5202689 0.11661312 -0.12957676 0.045391347 0.058493063 0.13214324
-0.19901836 0.1888118 0.39000386 0.30665076 0.015124627 -0.10147436 -0.16570932 0.1475621

linearD1.weight f4 [256, 16]
00000000: dcb4 1bbb 5c8d 92bd c6cb d23d 2447 663e
00000010: a3f3 273d c32e 33be 7856 8dbd 6621 103e
00000020: c513 0e3d 3453 a3bd e94d a5bc a811 3d3e
00000030: 518c 633d 939f 34be b4c0 ffbc 9547 bc3d
00000040: 9717 593e f35b 3dbe 8134 0b3e b1e1 5d3e
00000050: 7cd9 143e a2ac 8d3d 4a97 66be b46a 123e
00000060: 8b33 b2bd 8360 853e af6c 483e 52af 8a3d
00000070: 257e 1bbe f034 283e 64cc 1cbe 585f a53d
00000080: aac4 713e fbed a63d f5b7 653e 147d ef3d
00000090: 410c 303e 6017 c4bd b8d5 1f3e 7808 3f3e
000000a0: 1893 63be b9cc 54bd 7215 6e3d 7463 25bd
000000b0: e8aa bcbc 431c 2dbe a5dc 873e 0109 e9bd
000000c0: 3d02 053e ff22 74be edee e3bd 2bdc a7bd
000000d0: 2bf4 203e 347b 24be fbac 423c 5b24 243e
000000e0: bdd8 62bd be56 5fbe 6c1b 973d b368 ccbb
000000f0: 5a70 213e 4459 eebb 65a8 07bd 7ad0 e83d
00000100: c659 943c 3075 df3d a8cd 223e 46ce c0bd
00000110: d5e9 c4bd 9869 013e 2ada 863d 9928 943e
00000120: 9524 1ebe 5bce 123d 7181 04bd 2428 0e3e
00000130: a813 88bd e631 a0bc c4d5 a8bb 271f c0bd
00000140: ec19 003e b2c8 6bbe 42c1 c6bd 7073 3e3e
00000150: 1fbd 5ebe 4c0f 163e 58e3 b2bd 4eef bf3d
00000160: 0bdb 453c 7546 09bd c988 1dbe bcf9 fcbd
00000170: c61a 15be ba3b 2bbe 25fb 47be bc0f f4bd
00000180: 084d 413d 4be6 7d3e 770e 14bd e4d7 c23d
00000190: b99a 54be 80ab 3c3e a19b a4bd 0fb9 703e
000001a0: 6ec4 013e fc66 403e 32dc eabd 43ea 0abe
000001b0: cddd 653e 30f4 04bd 794c 66bd 94ce 81bc
000001c0: 630e d83b 497d a1bd 93b0 d83d dcad 013d
000001d0: 223a e8bd 4b36 44be b330 dfbc c7c6 74be
000001e0: ac53 c13c b728 5cbd 8452 54be 1469 cb3d
000001f0: 3fff 82be e546 8a3d aed8 0d3e 3af5 643e
00000200: 3351 15be 6ce1 fe3d 9c1e 2d3e e668 d2bd
00000210: cdea d93d 1eab 88be 9036 5abe 845b 3f3e
00000220: 6cb1 87bd f6db 9f3d 6d00 723e 1cde 3cbd
00000230: 93c1 cd3c 5478 893e 6695 b73d 5c5e 783e
00000240: c174 17be 65ff 0a3e 124b 833e e4d5 5f3d
00000250: 5791 ebbc 46ec 543e 291b 733e d8ef c5bb
00000260: 99fb 313d 0187 163e baac 4e3e 5473 143d
00000270: 9589 333e f8fa 3dbe 6ca6 653d 28ef 65bd
00000280: 0543 ec3d 37d9 f33d 4c4c 20be d95b 22be
00000290: 0402 47be 7175 9ebb b57c 773e 5621 0abe
000002a0: 402b e2bc eb02 81be c960 0abe 6960 933d
000002b0: 58db 19be 4f05 30be 56ae 203e d25b 0e3e
000002c0: cfbc 003e 64ee b03d 18f1 5ebe 7477 5f3e
000002d0: a489 79bd 9037 503e d1a5 043e 9457 dfbd
000002e0: 2d61 2b3d 91c7 05be b153 eabd 6610 54be
000002f0: 99c9 58be 72f0 733d 0525 3bbe b18f 463c
00000300: c531 c53d f3a4 9fbd 931d e5bc e0ef abbd
00000310: c7dd 0a3e 52aa 17bd ffe1 593e c302 83be
00000320: 2f30 053e 2b71 4cbe dcf2 8dbd 9759 3d3d
00000330: ab91 97bd 2705 d3bc c71e 72be 3913 81be
00000340: a7af 5abe 99e8 1fbe 1b49 803e e454 543e
00000350: f9d5 78be 7512 853b bb41 48be 8847 1dbe
00000360: 219d 4d3e ed99 9fbd c544 3f3b 3452 2a3e
00000370: f00c 7b3d 805f 8cbd b1ec 0ebd 4eff 233d
00000380: fd17 d5bd e747 29be e5b2 61be 8c09 163e
00000390: efca 0c3e 77b7 3ebe d5d5 acbd 6d1f 4b3c
000003a0: 4d07 b23d 0910 b53c 91a0 813d 9f76 513e
000003b0: 3a5a 1cbe c365 b5bd dd60 81bd a750 c6bd
000003c0: 4b61 4abe ddab eebc 8fe9 103e 4127 3f3d
000003d0: f034 eb3d cc79 ae3d d78e 03be 13d8 08bc
000003e0: 1948 6b3e 8376 6a3e 788c 76bd fa3a b53d
000003f0: 25e3 863e b45a 3fbe 060c 0d3d 3363 94be
-0.0023758924 -0.071558684 0.10292773 0.22488075 0.041003834 -0.17498307 -0.06901258 0.1407524
0.034686822 -0.07974854 -0.020178752 0.18463767 0.055553738 -0.17638998 -0.031219818 0.09193341
0.21200405 -0.18492107 0.13594247 0.21668126 0.14536089 0.06917693 -0.2251865 0.14298517
-0.08701237 0.26050195 0.1957271 0.06771721 -0.15184839 0.16426444 -0.15312344 0.08074826
0.23610178 0.0815086 0.22433455 0.11693779 0.17192174 -0.09574771 0.15608871 0.18655574
-0.2222408 -0.05195305 0.05812592 -0.04037805 -0.023030713 -0.16905312 0.26535526 -0.113786705
0.12989135 -0.23841475 -0.11129556 -0.081962906 0.15718143 -0.16062623 0.011882062 0.16029494
-0.05538248 -0.21810433 0.07378277 -0.006238067 0.15765515 -0.007273825 -0.033119578 0.11367889
0.018109214 0.109110236 0.15898764 -0.094143435 -0.096149124 0.12637937 0.0658458 0.28937224
-0.15443642 0.035841327 -0.032350007 0.138825 -0.06644374 -0.019555043 -0.005152436 -0.09380942
0.12509888 -0.23025778 -0.0970483 0.18598723 -0.21751831 0.14654273 -0.08734769 0.093718156
0.01207615 -0.03351446 -0.1538421 -0.123523206 -0.14560995 -0.16722003 -0.19529398 -0.119170636
0.047192603 0.24794881 -0.036146607 0.09513834 -0.20762147 0.18424797 -0.08037496 0.23508094
0.12672588 0.18789285 -0.1146778 -0.13565926 0.22447892 -0.032459438 -0.056225274 -0.015845574
0.006593512 -0.07885224 0.10580554 0.031659946 -0.11339213 -0.19161336 -0.027244901 -0.23903953
0.023599468 -0.053749766 -0.20734602 0.099321514 -0.25585362 0.06751803 0.13852188 0.22359172
-0.14581756 0.124453396 0.16906208 -0.10273914 0.10640488 -0.26693052 -0.21309876 0.18687254
-0.066256374 0.07805626 0.23632975 -0.046110258 0.025116717 0.26849616 0.08964042 0.24254745
-0.14790632 0.13573988 0.25643212 0.05464734 -0.028755827 0.20793256 0.2374083 -0.0060405545
0.043452833 0.14699937 0.20183077 0.036242798 0.17532952 -0.18552768 0.056066915 -0.05613628
0.115362205 0.11906665 -0.15654105 -0.1585535 -0.19434363 -0.0048357775 0.24168666 -0.13489279
-0.027608514 -0.2519754 -0.13513483 0.07196123 -0.15025079 -0.17189525 0.15691504 0.13902214
0.12572025 0.086392194 -0.21771657 0.21822912 -0.06092228 0.20333695 0.12953879 -0.10905376
0.04184072 -0.1306441 -0.11441744 -0.2070938 -0.21170653 0.05955548 -0.1827584 0.01211922
0.096286334 -0.077951334 -0.027968204 -0.08395362 0.13561164 -0.037027664 0.21277617 -0.25588045
0.13006662 -0.19965045 -0.069310874 0.046228018 -0.07400831 -0.025759293 -0.23644553 -0.25209978
-0.21356069 -0.15616073 0.25055775 0.20735508 -0.24300374 0.004061038 -0.19556324 -0.15359318
0.20079471 -0.07793031 0.0029185277 0.1663292 0.061291635 -0.06854153 -0.034893695 0.0400384
-0.10404966 -0.16531335 -0.22040899 0.1465208 0.13749288 -0.18624674 -0.08439223 0.012397629
0.08692799 0.022102373 0.06329454 0.20455407 -0.15268794 -0.088573 -0.06317303 -0.09683352
-0.19763677 -0.029134685 0.14151596 0.046668295 0.114847064 0.08519325 -0.12847458 -0.008352297
0.22976722 0.22896771 -0.060192555 0.088491395 0.26345173 -0.18686944 0.034435295 -0.28981933

linearD1.bias f4 [256]
00000000: b4de 603e 468a edbd 6f3e 063d f1e1 6bbe
00000010: a1c6 e73d 6332 6d3c b036 f4bd ea1a 8c3e
00000020: d746 393e 9247 4a3d a8ef fd3d eb2c 943d
00000030: ccc2 69be 2945 42bd 3772 ab3d ac91 b7bd
00000040: 3b67 28be 7233 0f3e 46b9 263e e5fc 8ebe
00000050: 12dc 10be de1e 593e 94ce 553e f58f 79be
00000060: 1f26 f4bd ddb7 70be fef1 2bbe 88fc 8a3e
00000070: b224 1cbe 79bc 8b3e aa0b 703c 8fd1 403d
00000080: 892f 0d3e abb0 a9bd 28a6 813e 30fe 8a3d
00000090: 22f8 603e c918 40be 8f07 50bd e41c 38be
000000a0: 03d7 a23e 7be5 9cbc 9bbf 853e c866 1c3d
000000b0: 115f 2ebd 7742 58bc 2e8c d53d 1216 1a3e
000000c0: 0689 413e 814f 723e 89bd c8bc 87d5 d2bd
000000d0: 1d48 d4bd df1f dcbc ac12 fcbd ad35 483e
000000e0: ed30 d0bd 7deb d3bd 3e4b 2cbb 7317 efbd
000000f0: 219a 813e fac8 543e de72 1e3e 2fbf a63d
00000100: 99c7 7bbe 0adf 583e b3e3 993d 6663 2fbe
00000110: 3946 4a3e e5fc 183e 7da7 0f3e 13d0 213e
00000120: ba87 263d cfa3 973d 2e97 edbc 3f1f 33bd
00000130: ef43 25be 7e10 cfbd 1e13 2d3e 37fc 033e
00000140: 8f92 2d3e 67ab 4ebe d75a 43bd 78f1 6bbe
00000150: 4844 123e 920e c8bd b3c1 64be e037 d93b
00000160: a2e9 0dbe fe86 b03c d3c0 8fbe 14f6 0abe
00000170: 5db2 6a3e f26d c4bd 7ee9 933d 9c62 263e
00000180: 15bf 84be 5caa 203e e3f8 8dbe 098d 79be
00000190: a630 f63d a8ac 363e ee42 043e 20ba 0d3e
000001a0: ecd0 273e c58d 6bbe dce3 253e 2caf f03d
000001b0: 7ca4 07be 7f48 fcbd 840c 9c3d cfa3 123b
000001c0: eb1b 26be c06b 5f3e 9060 f7bd 4fb0 1a3e
000001d0: d536 2f3e 6144 6a3e c019 14be 2c6a 6f3c
000001e0: bead 1f3e c633 ad3d 8473 b4bd 0387 dd3a
000001f0: c78c 763d 7701 c9bd 8dc0 813e cb6a 243e
00000200: cff3 08bd cd3a 12be 1af2 8b3c 2f04 00be
00000210: a083 1ebd 80fe 833e c0cf 5d3e 1385 993c
00000220: a629 40be b668 c13d dd5f b9bd b48d 693e
00000230: 2ce8 1e3e 81fb 733c b698 173e c217 13be
00000240: 3d40 02be fb4e 073e 61cb 36be 3022 2dbe
00000250: 6062 dcbc cd3e a7bd 880c 34be 4bdb b1bd
00000260: ccf5 1a3e 1149 393e 5e79 793e b204 30be
00000270: 843b 043e 0271 e33d b02a 5a3e f4ff 5bbe
00000280: 3ab3 823e 70ee 313e 5f35 923e 404e cebd
00000290: 4458 58be f142 b2bd 6724 173d d7eb f0bd
000002a0: b714 e6bd e87d 7b3e 44fc d73c be64 0dbd
000002b0: e2d1 6abe 1cd9 483e acc9 203c 1101 993e
000002c0: 6b8e ba3d c4e9 81be fb4c 39bd 5374 c1bd
000002d0: ebf6 35be 154a 28be 7ad1 0d3e a0ff 033e
000002e0: 5ebb 363e 1d1b 9ebd 1b69 633e ffea debd
000002f0: 01c0 8cbe d269 433c 197a c53c 5254 71be
00000300: 985b 693e e2e2 2ebd 5c9d 72be 46ff c93d
00000310: e144 313d 7bf8 013c 4fa1 70bd f4d3 17bc
00000320: 0296 9e3a 5d70 a03c 9ab3 1abc 5c1c dcbd
00000330: eb71 333e 4811 aebd 975b 61be 3e18 1cbe
00000340: 71ff 50bd 6782 813d 42e4 24bd 7632 a63d
00000350: 98e1 503e 7f96 d23d ac10 bdbd 3338 f93d
00000360: c92b 113e a7b7 833e 3b7d 8ebc 5e1f 40bb
00000370: f27e 303d e732 b4bd 170c f2bd 849f 1f3e
00000380: f247 dc3b a618 26be 7054 8a3d ea63 8abd
00000390: 0aac a5bd 2c60 6cbd 4232 4dbb ccaa 6d3e
000003a0: cb35 4e3c 7742 b2bd 47b8 1c3e 3607 01be
000003b0: 0e61 aabd 85c5 8e3d 46dd fc3c b05b dd3d
000003c0: a346 a73d d8d5 763e cc62 89bd 55e7 d8bd
000003d0: 4208 cbbc c54a 2ebe 43a6 f93d 2c06 9d3e
000003e0: d675 a6bd 7990 ac3d 3a91 99bc 6a73 763e
000003f0: 8c35 9ebd 67bc 51bd e146 82be d9be 793e
0.21959955 -0.11598639 0.032774385 -0.23035409 0.11317182 0.014477345 -0.11924493 0.27364284
0.1809343 0.04938466 0.123992264 0.0723513 -0.22828215 -0.047429238 0.08371394 -0.089633316
-0.1644563 0.13984469 0.16281614 -0.27927318 -0.1414645 0.21203181 0.20879585 -0.24371321
-0.119213335 -0.23507638 -0.16791531 0.2714579 -0.15248373 0.2729223 0.014651218 0.04707485
0.13787664 -0.0828565 0.2532208 0.06786764 0.21969655 -0.18759455 -0.05078846 -0.17979771
0.31804666 -0.019152394 0.26122746 0.038183957 -0.04257113 -0.01319944 0.10427128 0.15047482
0.18899927 0.23663141 -0.02450444 -0.10294633 -0.10365317 -0.026870666 -0.12308249 0.19551726
-0.10165582 -0.1034765 -0.0026289965 -0.116743945 0.25312904 0.20779791 0.15473506 0.08141934
-0.24587859 0.21178833 0.07514133 -0.17127761 0.1975335 0.14940222 0.14028735 0.1580203
0.040656783 0.07404291 -0.029002752 -0.04373097 -0.16139196 -0.101105675 0.16901824 0.12889181
0.16950439 -0.20182572 -0.047694054 -0.23041332 0.1428386 -0.09768404 -0.22339515 0.0066289753
-0.13858655 0.021548744 -0.280768 -0.13570434 0.22919603 -0.09591283 0.072222695 0.16248554
-0.25927034 0.15689987 -0.27728948 -0.24370207 0.12020998 0.178393 0.12916157 0.13840532
0.16388291 -0.230033 0.16200203 0.117521614 -0.1324634 -0.12318515 0.07619575 0.002237547
-0.16221587 0.21818447 -0.12078965 0.15106319 0.1711076 0.22877647 -0.14462948 0.014612716
0.15593621 0.084571406 -0.08811095 0.0016901199 0.06019285 -0.098147325 0.25342217 0.16056363
-0.03343564 -0.14280243 0.017083216 -0.12501596 -0.038699746 0.25780106 0.21661282 0.018740213
-0.18765888 0.094438 -0.090514876 0.22807962 0.15518254 0.014891506 0.14804348 -0.14364532
-0.12719817 0.13213722 -0.1785102 -0.16907573 -0.026902378 -0.08166275 -0.17582905 -0.08684405
0.15132827 0.18094279 0.24362704 -0.17189291 0.12913328 0.11105539 0.21305346 -0.21484357
0.25527364 0.17376113 0.28556344 -0.10073519 -0.2112742 -0.08704174 0.03689995 -0.11763733
-0.1123442 0.24559748 0.026365407 -0.034519903 -0.22931626 0.1961407 0.009813707 0.29883626
0.09109195 -0.25373662 -0.04523943 -0.09446015 -0.17769973 -0.1643451 0.1384944 0.12890482
0.17844912 -0.07720015 0.22208063 -0.10884666 -0.27490237 0.011927085 0.024106072 -0.23567322
0.22788846 -0.04269684 -0.2369284 0.09863143 0.04327858 0.0079327775 -0.058747586 -0.009266842
0.0012099149 0.019584829 -0.009442234 -0.107475966 0.17523925 -0.0849939 -0.22007595 -0.15243623
-0.051024858 0.063237004 -0.040256746 0.081150934 0.20398557 0.10282611 -0.092316955 0.12168922
0.14176859 0.25726053 -0.017393699 -0.0029315571 0.043089814 -0.08798771 -0.11818712 0.15588194
0.0067224437 -0.1622034 0.067543864 -0.06757338 -0.080894545 -0.057708904 -0.0031310474 0.23209685
0.012586067 -0.087040834 0.15304671 -0.12600407 -0.08319293 0.069712676 0.03086723 0.10808504
0.0816777 0.24105012 -0.06708297 -0.10590998 -0.024784211 -0.1702071 0.12189915 0.3066877
-0.08127944 0.084259935 -0.018746007 0.24067464 -0.07725057 -0.051205065 -0.254447 0.24389209

linearK2.weight f4 [16, 256]
00000000: 6c54 903d 6a0d 963c 0d31 893d c705 893b
00000010: fabf bb3d 73c3 9b3b a7bc 633d bbc7 86bd
00000020: 9c10 88bc 483f 9f3d a07f 9cbd e7f4 8c3b
00000030: 5b4b 553b a1f5 8fbd 62d8 d73c 51f2 4d3d
00000040: 3afb e03c 1734 67bd 921a 423c 8f92 adbd
00000050: 559e 43bb 6a45 4c3d ce9e a03d c130 d6bd
00000060: ca36 513d 16f4 c6bc d0e2 bbbd 79f6 f13c
00000070: 9f16 0ebd 67bf a23c 2bc7 cc3d 3b6d 03be
00000080: 119c 8e3d 70f8 2bbd 5c11 00bd 6332 e2bd
00000090: 267f 9abc 2a1e 98bd 5905 97bc faef 1d3d
000000a0: c0ae 6c3d 5526 e3bc 7af1 fa3c eea2 40bd
000000b0: 8b3b 94bc 609b 893d 0610 a3bc 4630 4bbd
000000c0: b159 07bd e10f 093d f530 b0bd 0add c6bc
000000d0: 1dfe 3a3d 7483 abbd 61e1 eabd 3f5c 3cbd
000000e0: 8e1a da3c d1a6 5abd b958 a5bd f254 d6bd
000000f0: 9310 003d 262f d03d 588f 513d c128 113d
00000100: 6c76 253c aa93 063e 5142 853d ecaa e53b
00000110: 32b4 873d bc9b bc3d d1e2 323d 1760 74bc
00000120: afd8 723d 18ff 623d e486 73bc 37dd 62bb
00000130: 0989 ebbc e698 7c3b 1405 413d fbc2 a9bd
00000140: f6de 853c 76ec 163d 13c6 0cbc 8682 7cbc
00000150: 96f4 f93a be6d e53c 6f2f 69bd dad9 00be
00000160: f108 eb3c 84c7 e0b9 78bf fabc 9823 bcbd
00000170: f91e 833c 21dc 0bbe aaeb 543d 77b2 623d
00000180: 8687 9d3c 1ec5 863c 9dd8 aabc d26c 6ebb
00000190: 5b95 2c3b 8c77 b53d 0a89 6c3d e742 033d
000001a0: b1d4 303d 64c3 82bb d972 5fbd 43b4 1abd
000001b0: e8e1 26bd d5c1 cdbd 98dd 5cbd a6c1 acbc
000001c0: 3235 81bd a5f3 0f3d 3924 e73d a1ef ba3d
000001d0: 1338 2a3e 326b e1bc 4524 b4bd 86c5 eb3d
000001e0: 1ac6 8f3b 120a 7cbd c93d 24bd 191b e03b
000001f0: af32 2abd e3e4 4e3d 3f0d 613c b939 2c3d
00000200: 7ced be3d 6ba3 eabc ac33 a7bc b172 48bc
00000210: 84ca 2cbc f4ab e2bc d7ef 9a3c c9ab 863c
00000220: 2ea0 72bd f4e8 d73c eb72 163d a21e 273c
00000230: 9b7e dc3c 7a14 493d e4c0 eb3b 71da 55bd
00000240: d41d 373d 4710 973d 05d4 f5bd 5512 10be
00000250: b5ba a4bc 65d5 823d c94f 10bd 3be7 7cbc
00000260: 9e82 af3d 640f 3a3d 63ea bc3d 9b70 4f3a
00000270: ef13 883d b820 88bc 8adc 533d 764d aabc
00000280: 5e9d 9e3c c276 25bd 07fe 29bc f7eb 02bd
00000290: a7d8 a6bd 7872 97bd b240 7fbd a851 1cbd
000002a0: b417 5b3d d0c2 d1bc 3ea8 7bbd 54cb c5bd
000002b0: 871b 1eba f363 2a3d 32a8 643d 6acd 04bd
000002c0: 5522 01bd 3a33 5cbd 1e0d cbbc 9470 21bc
000002d0: 55a4 98bd 1dff 233d 0584 fc3c cefc 463d
000002e0: ea54 1abc aa18 9c3d 9e0d 823d 430f 94bd
000002f0: 3711 cfbc 489d 833d fd3d a43d 0243 11bd
00000300: 41e6 22bd 9933 b1bd 3eb1 a7bd 17a1 853d
00000310: 4f11 193c ab29 0a3d b489 233d a506 0b3e
00000320: 9f35 27bd 71c7 43bc 02ac 073d 78b7 003c
00000330: 7589 3a3d e953 88bd 0aa8 0cbd 6455 d3bc
00000340: 07db 0abd 956d bdbd 3854 5d3d 5def 773d
00000350: bd12 4e3d a916 463c b6d4 c4bc 1783 16bd
00000360: 2d7d b1bc ecd4 ad3d 8025 cd3c 2644 fb3a
00000370: 4f2f d63d 8944 23be dbf5 8c3d 5613 1c3d
00000380: 7d8a 543d edb6 29bd d37e 923d 4047 bdbd
00000390: df70 adbd 1bec 403d 40cd 8e3d d80f 2e3d
000003a0: ce4b 633d dcad eb3c d386 8a3d 52f2 2cbd
000003b0: c3ca 863d d99e 69bd 640a ccbd 23a1 7c3d
000003c0: dec8 443d 5e15 9c3d ffe7 dcbd c736 95bd
000003d0: 52d2 ffbd 7816 b83d d402 1f3d 3f88 563d
000003e0: 66b2 e03c af3f 033e 95df a43d e5fe 73bb
000003f0: 557b 463d aa83 183d a244 b0bc 1f2e 953d
0.07047352 0.018316943 0.06698809 0.004181597 0.09167476 0.004753524 0.055599835 -0.06581064
-0.016609482 0.07775742 -0.0764153 0.0043016556 0.0032546136 -0.07029272 0.026348297 0.05027992
0.027463544 -0.05644616 0.011847155 -0.084752195 -0.0029849012 0.049870886 0.078427896 -0.10458518
0.05107764 -0.024286311 -0.091741204 0.029536473 -0.034689542 0.019866658 0.09998926 -0.12834637
0.06963361 -0.041984975 -0.031266555 -0.11044767 -0.018859457 -0.07427628 -0.018435167 0.038558938
0.057783842 -0.02772824 0.030632723 -0.04703038 -0.018094799 0.067190886 -0.019905102 -0.049606584
-0.03304452 0.03346241 -0.08603088 -0.024275322 0.045652498 -0.08374682 -0.11468769 -0.04598641
0.02662399 -0.053381745 -0.08073563 -0.10465421 0.031265806 0.10165243 0.051162094 0.035439257
0.010099035 0.13142267 0.065067895 0.007008901 0.066261664 0.092093915 0.04367334 -0.014915488
0.059288677 0.055419058 -0.014863703 -0.0034616718 -0.028751867 0.0038543283 0.047123984 -0.08289143
0.016341668 0.0368466 -0.008592146 -0.015411979 0.0019070085 0.02800643 -0.05693 -0.12583104
0.028690787 -0.0004287326 -0.030608878 -0.091864765 0.01600598 -0.13658191 0.05198256 0.05534598
0.019229662 0.016451415 -0.020855242 -0.003638078 0.002633414 0.088606924 0.057747878 0.032046225
0.04317159 -0.0039905775 -0.054552887 -0.037769567 -0.040742785 -0.10046736 -0.053922266 -0.021088433
-0.06308974 0.035144467 0.11286206 0.09127737 0.16622953 -0.027516935 -0.0879598 0.11512284
0.004387629 -0.06153304 -0.040097985 0.006839168 -0.041552242 0.050511252 0.013736068 0.042047236
0.0932264 -0.028642377 -0.020410381 -0.012234376 -0.01054633 -0.027669884 0.018913193 0.016439335
-0.05923479 0.026356198 0.036730688 0.0102001745 0.026915839 0.049091794 0.007194625 -0.052210275
0.04470618 0.073761515 -0.1200333 -0.14069493 -0.02010856 0.06388358 -0.03523234 -0.015435989
0.08569835 0.045424834 0.09224393 0.0007913203 0.06644427 -0.016617164 0.051723994 -0.02078889
0.019362148 -0.04039646 -0.010375506 -0.031963315 -0.08146792 -0.0739488 -0.062317558 -0.03816381
0.053489402 -0.02560559 -0.061439745 -0.096579224 -0.00060313236 0.041599225 0.055824466 -0.03242246
-0.031526882 -0.05375979 -0.024786528 -0.009853501 -0.07453219 0.040038217 0.03082467 0.048580937
-0.009419659 0.07621892 0.063502535 -0.072294734 -0.025276763 0.064264834 0.08019636 -0.035464294
-0.03977037 -0.086524196 -0.08188103 0.06524866 0.009342506 0.033731144 0.039926246 0.13576753
-0.04082262 -0.011949406 0.033123024 0.007856242 0.045541245 -0.066566296 -0.034339942 -0.025797553
-0.033900287 -0.09249417 0.054035395 0.06053101 0.05031084 0.012090364 -0.02402721 -0.03674611
-0.021666134 0.08487877 0.025042295 0.001917009 0.10458242 -0.15944113 0.06882831 0.038104378
0.051889885 -0.041434217 0.07153096 -0.092421055 -0.08468794 0.047100168 0.06972742 0.04249558
0.055492215 0.028769426 0.06763997 -0.042223282 0.065816425 -0.057036255 -0.09962919 0.06167711
0.048043124 0.07621263 -0.10786437 -0.072858386 -0.12491287 0.089886606 0.038821056 0.05237603
0.027428817 0.12817262 0.080504574 -0.0037230786 0.048457462 0.03723494 -0.021517102 0.072841875

linearD2.weight f4 [256, 16]
00000000: 62e3 c03d fd9b 423e 3449 2bbd 3095 89bd
00000010: 16a7 133e 6429 59be 176b d03c 1b51 75bd
00000020: 4ac5 04be a322 35be d7f8 0e3e c746 2abe
00000030: f692 47bd c0ee 6e3e a2e8 c13d 21af c43d
00000040: 3ec0 96be dbcd 823c ad62 b73d c456 8f3d
00000050: b028 ed3d 0c7b ddbd c1d0 04be 6d38 44be
00000060: d2b2 4cbe 04dc f1bd 3b91 e13d aecf 9cbd
00000070: 9a68 61be 723b a2bd b56d 86be 5893 0abc
00000080: 1e9e 093e 3f18 06bd 476e 523e 7932 bb3d
00000090: 74b2 25be 2ac2 f83d db56 613e 0e4f 08bc
000000a0: 763f 42be f53b d13c aa71 1cbe 6216 86bd
000000b0: d156 b0bd 8c98 33be 4f9b fb3d 75d4 11be
000000c0: 2894 b2bd 9622 dd3d 9ba3 213d a44a b8bb
000000d0: bf11 73bd 5113 c4be 4e84 123e 723c 90bd
000000e0: 2ca3 59bd fda9 ee3c bb1e b6be a9ee 043d
000000f0: 0f2d 9f3e 81af 673d e09c 9c3e eac4 1c3e
00000100: a190 9ebc c6e2 54be 1812 9c3d b8a5 1ebd
00000110: 001c 1f3e e142 973e a352 823e da68 b2bd
00000120: 9877 15be d7e6 003e cabe b1bd c034 82be
00000130: bdcb 5bbd b65b 403e 9dc0 f23d 3202 103e
00000140: a6df 57be 3451 05bc b40f 86bd ee9c 263e
00000150: e724 623e 31ec 2b3d 3831 5dbd 633b 473e
00000160: 9f92 7ebd 7dad 633e 72b9 633e 7d6b ba3c
00000170: eef3 d8bd f328 353e 6dcf 5f3c abea 1d3e
00000180: 7722 79be 6f0a afbd 350e 7bbe 25b8 353e
00000190: baa1 60be 518b 1c3e 799e 403e 0c61 333e
000001a0: 3a7c 4f3e 63b8 42be f361 463e e419 36bd
000001b0: cf2a 30be 996c 2e3e 2635 913d 3eaf 8fbd
000001c0: 1fa3 4bbe b43e 82be 644d 0b3e e88a 1c3e
000001d0: db87 50be 45d9 a5bd 893a 073e 2883 553e
000001e0: 2ebe c43d d287 aabd 63ba bcbd 3865 7b3e
000001f0: 7dee 47be 158d 1dbb f072 80bd 983f 8c3e
00000200: 7665 873e 17d1 60be d4e9 713e 716a b63d
00000210: 862d 0abd c760 d33d bd78 263e 07b8 5abe
00000220: 5403 06be cc4b 97bc bb14 ffbd 0164 b3bb
00000230: edc9 293e 2b0e 8dbc 8741 48be e7a1 8d3e
00000240: 2403 d5bc 6a32 353d 3f8d 40be 6561 4dbd
00000250: 39ee c83d 52db 003c 6c45 ffbd cb91 07be
00000260: 499c 803e a8a0 8c3d 385c 0a3e 28f8 573d
00000270: e78e 513d a325 ffbd 206c 20be a8b3 5c3e
00000280: 55a5 c63d 376b d139 e082 18be 0d49 43be
00000290: 7ce4 903e b7b6 ec3e 249a 863e b687 abbd
000002a0: 527f 9fbd 0b9e 30bd 2f80 f13e dcf6 25be
000002b0: 1526 97be a870 9fbe b806 17be 66f3 663e
000002c0: 07b3 83be 4f07 6fbe 1bd0 58be 9f15 de3d
000002d0: 711d 2abd 11ab 19bc 276d c2bc 7409 743e
000002e0: fb95 db3d 734f 603d d8f1 4e3d 66a0 59be
000002f0: 31c4 f13d e6da 9ebd cef2 333e 399c 66be
00000300: 3548 30be 3aff 05be efd2 7cbe 4ce3 f43d
00000310: 726b b2bd d060 463e 0191 8e3e 7c7c 12be
00000320: 21ce 4d3e b4a2 f2bd b4d3 953e d2e6 79be
00000330: ae53 cb3d 967e 0ebe 2a4a 3ebe 9bac 503e
00000340: 0b26 62be 7934 4c3d 1963 793d e0bf ef3b
00000350: e1d1 38bd d99e 13bd b75a df3d fe63 06be
00000360: b64f 27be c74d 383d bf6d d0bd b911 313d
00000370: 796b 6bbe dfcc 28bb f5ce 59be 86d5 063e
00000380: 2a82 ef3d d39a 38be 606d b9bd 14ca 95be
00000390: 819d 55be 7884 3b3e 171d 08be 3144 293e
000003a0: 7ba2 0d3e f0c5 6cbc 154d fb3d 194e 483d
000003b0: 3aa8 0a3d 59b0 23be d3ed 743e 3ea3 963d
000003c0: fa4d 2a3e 8042 953d 6343 4b3e 6c53 303e
000003d0: 31f6 f23d 9754 35be 2e12 043c cc20 cf3d
000003e0: 8c99 573e 3e20 323e f898 443d 9d5d 77be
000003f0: 960e 19be 7307 24bd c9e3 bbbc bf91 fabd
0.0941837 0.19004817 -0.04181786 -0.067179084 0.14419207 -0.21207196 0.02544169 -0.0598918
-0.12965885 -0.17688994 0.13962112 -0.16628562 -0.048724137 0.23333263 0.09468199 0.09603716
-0.29443544 0.0159673 0.08954368 0.06998971 0.11580026 -0.10814485 -0.12970258 -0.1916215
-0.1999009 -0.11809543 0.11014029 -0.07656799 -0.22012559 -0.079214945 -0.26255575 -0.008457981
0.13439223 -0.032737967 0.2054988 0.09140486 -0.16181356 0.12146409 0.22005789 -0.008319629
-0.18969521 0.025541285 -0.15277734 -0.06547238 -0.08610309 -0.17538661 0.12285482 -0.14241202
-0.08719665 0.10797612 0.039462667 -0.005624132 -0.059343096 -0.38295987 0.14308283 -0.07042779
-0.05313413 0.029133791 -0.3557032 0.032454167 0.31089064 0.056563858 0.30588436 0.15309492
-0.019356074 -0.20789632 0.076206386 -0.03873226 0.15538025 0.29543212 0.25453672 -0.08711405
-0.14596403 0.12588058 -0.08678968 -0.2543087 -0.053661097 0.18784985 0.11853144 0.14063337
-0.21081409 -0.008137036 -0.06545964 0.16270801 0.2208439 0.041973297 -0.054002017 0.19456248
-0.062151548 0.2223415 0.2223871 0.022756333 -0.10593401 0.17691402 0.013660294 0.1542155
-0.24329554 -0.08546912 -0.24517138 0.17746027 -0.21936694 0.1528752 0.18810453 0.17517489
0.20262232 -0.1901565 0.19373302 -0.044458285 -0.1720383 0.17033614 0.070902154 -0.07015847
-0.19886445 -0.25438464 0.13603741 0.15287364 -0.20364325 -0.080980815 0.13205923 0.20850813
0.096065864 -0.08326687 -0.09215238 0.2455033 -0.1952457 -0.002404039 -0.062719226 0.27392268
0.26444596 -0.21954761 0.23624355 0.08907021 -0.03373482 0.10321193 0.16256995 -0.21359263
-0.13087207 -0.01846876 -0.12455126 -0.005474568 0.16580935 -0.01721867 -0.19556247 0.27662584
-0.026002474 0.04423753 -0.18803881 -0.05014171 0.09811062 0.00786479 -0.12464413 -0.1323921
0.25119236 0.0686658 0.13511741 0.052726895 0.051161673 -0.124583505 -0.15666246 0.21552908
0.09699503 0.00039943468 -0.14893675 -0.19070835 0.2829932 0.4623315 0.26289475 -0.08375494
-0.07787956 -0.04311947 0.4716811 -0.1620745 -0.29521242 -0.31140637 -0.14748657 0.22553787
-0.25722525 -0.23342632 -0.21173136 0.10843968 -0.041531984 -0.009379164 -0.023733689 0.23831731
0.10721966 0.05476327 0.05052361 -0.21252593 0.11804999 -0.07756595 0.17573091 -0.22520532
-0.17215045 -0.13085642 -0.2468984 0.11957416 -0.087119 0.19372869 0.27845004 -0.143053
0.20098163 -0.118474394 0.2926308 -0.24404457 0.0992807 -0.13915476 -0.18582979 0.20378344
-0.22084825 0.04985473 0.060885523 0.0073165745 -0.04512203 -0.03604016 0.10905974 -0.13124081
-0.16339001 0.04499605 -0.101771824 0.043229792 -0.22990216 -0.0025756878 -0.21270354 0.1316739
0.11694749 -0.18027811 -0.09054065 -0.29255736 -0.20860864 0.18312252 -0.13292347 0.16529919
0.13831513 -0.014451489 0.122705616 0.048902605 0.03385184 -0.1598524 0.23918848 0.07355355
0.16631308 0.072880745 0.19849925 0.17219323 0.118633635 -0.1770805 0.008060975 0.101136774
0.21054667 0.17395112 0.047997445 -0.24156804 -0.1494697 -0.040046167 -0.022935765 -0.1223483

linearD2.bias f4 [256]
00000000: 6939 843d 479d 573d 28b0 633d 6625 37be
00000010: b7cf 5e3e 06ce fdbd 048c 59be 2ecf b53d
00000020: 9d42 7cbe 1b8a c33d 7997 8c3e 9031 553e
00000030: 9abe 27bd 8098 5bbe 0362 6abd 39ab 263e
00000040: 5c5d 70be b1c7 4e3e 1efe 933c dc09 a33d
00000050: caa7 003e 2437 7f3e dae0 813d b5d1 6a3e
00000060: e139 12be bc22 423e 54ae fbbd 80d0 76be
00000070: 45d9 6cbe cdd2 09be 0d15 633e e47e 6f3e
00000080: 78c7 7c3e 8ccf 5bbe 633b e13d cc2e 033d
00000090: 71d5 35be 9b19 81bd b755 073d 675c 4fbb
000000a0: 0ec8 4fbe 349c 0d3e 4c03 75be 4085 62bd
000000b0: 647b d2ba fc50 6cbe 3c2b 683e 08f2 9dbc
000000c0: 5b27 64be 10f4 3fbe 8713 23be 5da3 12bd
000000d0: acc7 503d f219 54be b0eb 43be e058 dd3d
000000e0: 3b64 343e 7728 33bd 130e 3f3d 8f5c 063d
000000f0: fd27 53be 5a53 003e 9876 0b3e c9cc 37be
00000100: 1c92 143e 9c77 d93d 1f4c 88be 4662 0cbe
00000110: 8491 b83d e888 df3d 2b59 8f3d 905b dabd
00000120: faed 8d3d 8895 8a3e 6034 75be b502 acbd
00000130: 6b99 80bd 0c3d 77bd 7d17 35be a172 343e
00000140: 045b 2c3e fad3 36be 6bb8 1dbe e83c b53d
00000150: 33e9 61be 7e3f 423e 0529 883e c25b 273d
00000160: dbd9 873d 40e2 26be a542 ad3d 099b 37bd
00000170: e4a8 debc 21d2 7cbe 887a e4bd 1030 8f3d
00000180: d3f5 c93b f994 b4bd 1392 45be 455a 92bd
00000190: 20a9 1abe 801d 193e 0afc e9bd 6506 40be
000001a0: 219f 583d 53e0 44bd 539a 33bc ba6d 6ebe
000001b0: 27f3 4f3e c1d5 4fbe ba4a 96bc bbcc 43be
000001c0: 8cd8 b4bd eb25 f73d 6e32 26be b580 393e
000001d0: d0da 563d 868b 7d3d d34a 0e3e cf18 cebd
000001e0: 2924 0d3e 9642 d93c 0d29 553a 687d 81bc
000001f0: 0863 55be 340d 4fbd 20ca 01bd e10a e13c
00000200: 2b27 373e 53f7 80be 0004 c93d 74b5 e53d
00000210: 94d9 79bd 712b 8a3d afac 073d e85c 27be
00000220: 5eaf 68be b10f 1e3e fc5e 7cbe c385 263e
00000230: 899b f13d e14e 1abe 9e3c 2b3c 0ed4 bfbc
00000240: 53de 583e b9b0 4ebe 142a 083e dd86 bfbd
00000250: 0556 fc3d 5cfa 833e 12ea 67bd da9d 013e
00000260: 5a00 70be 2678 843e 4638 44be 600f 22bd
00000270: fc81 4a3e d44e c4bd 5758 9cbd d5fb 59be
00000280: 160f 803e 7c0c 67ba 0181 64be 4cbc 583e
00000290: 2f24 773d bc30 38be e9ed e83b 20c5 35be
000002a0: 860e 17be 3ad6 3f3e e417 823e b718 48be
000002b0: 017a 39be ea36 e1bc 8b39 79bd 87af 73be
000002c0: 17af 54be b397 e0bd c708 193e 59e8 84bd
000002d0: 29d3 8fbd 72b2 23bd 0813 44bd c2a6 593d
000002e0: 5566 44be 0fad fa3d 2a0f db3c 5032 273e
000002f0: ee4a 2d3e 92f8 adbc 511d 113e df2a f73d
00000300: dffc b0bc 96e7 45be d26d 283d 857e 703e
00000310: f26a a23d 63a1 e0bd ca5f ab3d 07a1 ea3d
00000320: 7c13 683e d719 0d3e b678 f73c 562d 5c3e
00000330: ef4a 723e 1103 91be eacb 5f3d c646 6c3d
00000340: 313e c0bc 2a05 57be 314c 90be 2ef7 3ebe
00000350: 0d9b 80bd 3e88 fb3d 6a6d 0cbd 74c2 8ebd
00000360: c100 5bbe 1727 80be 208d 913e 5243 adbd
00000370: 002d 613e e844 763e facb 0abe 24ca 40bd
00000380: 40d2 3f3c a6d0 2a3e 2f30 d1bb 522f 0b3e
00000390: a317 e23d 48e4 9f3d 7f1c 073e 1d29 a3bc
000003a0: dbc0 c9bc 268c 6e3e aa3c dd3d cc80 6dbe
000003b0: 0ad6 a93d beb4 943d c602 eabd 959f 3d3e
000003c0: cc81 653d 9669 b43b fa27 903d 9881 18ba
000003d0: 8a6d 723e 96b6 6abe 9b2c 17be a793 063e
000003e0: 505e 003b 3e22 a63c bd56 373e d8e7 793d
000003f0: 94c7 233e a88b d63c 367a 1a3d 5324 56be
0.064562626 0.052640226 0.055587918 -0.1788536 0.21758924 -0.123928115 -0.21244818 0.08877407
-0.24634786 0.09547826 0.27459314 0.20819688 -0.040953256 -0.21444893 -0.057222378 0.16276254
-0.23473114 0.20193364 0.018065508 0.07960865 0.12564006 0.24923378 0.06341715 0.2293156
-0.14279892 0.18958563 -0.1228911 -0.24102974 -0.23129757 -0.1345932 0.22175999 0.23388249
0.24685466 -0.21465892 0.10997655 0.03202705 -0.17757203 -0.06303712 0.03304073 -0.003164077
-0.20291159 0.13829118 -0.23927039 -0.05530286 -0.0016058502 -0.23077768 0.22672743 -0.019280449
-0.22280638 -0.18745446 -0.15925418 -0.035800327 0.050971672 -0.20713022 -0.19132876 0.10807967
0.1761636 -0.043739762 0.04664428 0.032803115 -0.20620723 0.12531796 0.13619459 -0.17949213
0.14508861 0.10618517 -0.26620576 -0.13709363 0.0901213 0.10914785 0.06999429 -0.106619954
0.06930156 0.27067208 -0.2394576 -0.08398954 -0.06279262 -0.060360953 -0.17684741 0.17621852
0.16831595 -0.178543 -0.15402381 0.088495076 -0.22061615 0.18969533 0.26593795 0.04085899
0.066333495 -0.16297245 0.08459977 -0.044825587 -0.027180143 -0.24689533 -0.111561835 0.06991589
0.0061633377 -0.08817477 -0.19294004 -0.07146124 -0.15103579 0.1495266 -0.11425026 -0.1875244
0.052886132 -0.048065495 -0.010962087 -0.23284045 0.20307599 -0.20296384 -0.01834618 -0.19121067
-0.088303655 0.12067779 -0.16230175 0.18115504 0.05245477 0.061900638 0.1389573 -0.100633256
0.13783325 0.026521008 0.0008131422 -0.015806869 -0.20838559 -0.0505497 -0.031686902 0.027471008
0.17886035 -0.25188693 0.09815216 0.1121625 -0.060998514 0.06746567 0.03312367 -0.16344035
-0.22723147 0.15435673 -0.24645609 0.16261964 0.11797244 -0.15069152 0.010451464 -0.023416545
0.2117856 -0.20184602 0.13297302 -0.09351895 0.123210944 0.25776947 -0.05661971 0.12657872
-0.23437634 0.25872916 -0.19162092 -0.039565444 0.19776148 -0.09585348 -0.07634037 -0.21287473
0.2501151 -0.0008813811 -0.22314836 0.2116558 0.06033724 -0.1798734 0.007108439 -0.17750978
-0.14751634 0.18734065 0.25408852 -0.19540678 -0.18112947 -0.027492005 -0.060845893 -0.23797427
-0.20769916 -0.10966434 0.14944755 -0.06489629 -0.070226975 -0.0399651 -0.047869712 0.05313755
-0.19179662 0.122400396 0.02674063 0.16327786 0.16923115 -0.021236692 0.1417134 0.12068724
-0.021604953 -0.19326624 0.041120358 0.23485763 0.079305544 -0.10968282 0.0836788 0.11456495
0.22663683 0.13779388 0.030208927 0.2150167 0.23661397 -0.28322652 0.054637827 0.057684682
-0.023467155 -0.20998064 -0.2818313 -0.18648979 -0.062795736 0.122818455 -0.034284033 -0.06970683
-0.21387006 -0.25029823 0.28427982 -0.08460106 0.21989822 0.24049723 -0.13554373 -0.047067776
0.011707842 0.16681156 -0.0063839178 0.1359227 0.110396646 0.07807213 0.13194464 -0.019917065
-0.024628093 0.2329565 0.108025864 -0.23193663 0.08292778 0.07261036 -0.1142631 0.18517907
0.056031987 0.005505751 0.07038875 -0.0005817651 0.23674598 -0.22921214 -0.1476311 0.13142262
0.0019587465 0.02028 0.17904182 0.06101212 0.15994102 0.02618964 0.037714206 -0.20912294

linearK3.weight f4 [16, 256]
00000000: cba3 2bbd 902b 67bc c679 f53d 7a7a 673d
00000010: 8566 763c e5d1 3ebb a1f5 a2bc 2990 593d
00000020: b060 a6bd 45d7 59bd 4b6c 45bc aa9f 903d
00000030: 7f48 883d 3187 e83c 2ca5 c4bc fc7e 933b
00000040: b9dd c03d f002 623d 61ce bebd 2918 473d
00000050: 14e6 743b a2a5 6d3d a9f3 9bbc bb7d 06bd
00000060: 7fb1 3f3d 7644 fcbb a569 913d 2fa5 e9bc
00000070: 09bc 2abd 7050 1cbd 1fb8 ff3c 1ab3 8bbc
00000080: 21da 71bc 6a87 243d 4f3e c03c 78f8 d6bc
00000090: 9b2a 803d 0736 5ebd b8ea 1fbd b461 7a3d
000000a0: a745 95bd f5d9 4d3d e370 9c3d 8b79 133d
000000b0: e370 3dbd 53b5 3abd daa8 8ebd b063 833c
000000c0: 5c4a 9e3c 5d15 02bd d077 e13c 7c89 afba
000000d0: c514 043d 6e1e 75bc 1d2b e53c 2a69 643d
000000e0: 81d1 9bbd 3b0c f0bc 4a3d e93c 3509 eebc
000000f0: f5ba 503d a9dc 963c bc65 713d 41de 9f3a
00000100: da23 883d 3338 a13d 522b 33bd b782 933d
00000110: 5e9d 75bd 23c2 f63c 170c 90bc 4bcd 313d
00000120: bed5 9f3c ab3e 28bd 5f1e 22bc 55d3 9cbd
00000130: 4772 5a3c b845 47bd 9d8f a93c 222d 2b3c
00000140: 425c 04bc ac41 46bd 9802 ad3c 3d5a 173c
00000150: 1cf2 65bc 862b 71bd 8b9b a63c 805f 95bc
00000160: 174a 823d 26fc 12bc 4369 babc 354f 733c
00000170: 5e6b 993d 610a 61bd d8af 14bd a77a 873c
00000180: e3d9 a93d 5002 5e3d 5f0a 5abd 5cff 0ebd
00000190: ab00 9ebb 6e62 b9bc 326e 0fbd 9c02 bebc
000001a0: 99a9 253d 069b 89bd 9782 973b 98d4 84bd
000001b0: ad76 cbbc 3ef3 1b3d bf3f 9c3c 6c88 e8bc
000001c0: df3e 463c 3b40 0dbd 1835 a53c 16af 9a3a
000001d0: 7411 47bd 9438 90bd 740e 09bd 8a75 08bd
000001e0: 8e13 4bbc e979 78bd cc21 1d3c 199b 3dbd
000001f0: 2576 98bc 32f1 7b3d 4745 83bd 317d 16bd
00000200: aff3 623c e892 e23c adb3 5f3d 269b 25bd
00000210: 685a ff39 9c5b 5c3c 17f4 9a3d 40f7 213d
00000220: 70c9 01bc 3a5f 7fbd dde6 d53c 204b 65bd
00000230: 5f14 81bc 901d 9fbd 8254 52bd 49bf 58bc
00000240: b42b 273d dfca ab3d f272 6abc 76a0 66ba
00000250: fca2 81bd cee1 3ebd b4ae 0b3d 4866 c73c
00000260: 1933 3cbd f2e9 52bd 8971 31bd 7288 3a3d
00000270: df05 c23c 3e1b 26bc 6729 a33c f0be f6bc
00000280: ce45 b0bd 744e b43c 8b79 3d3d 8cec 90bd
00000290: b7c8 21bd af4c 903d a427 2e3c 0f68 2c3d
000002a0: 9bd7 813d a923 d23c 88a3 80bd 8ddc 143b
000002b0: d84c 9cbc d790 58bc f67b 5a3c 6bd7 32bd
000002c0: db1e 303d 87fc b5bc 62f2 823b fbe1 ba3c
000002d0: 69dc 7ebd 4b73 9fbd 7207 b6bd 5962 8dbd
000002e0: 24f9 d43b cb24 cd3c 9a6b 9e3a 96bb d5bb
000002f0: 5c1d 033d a473 3ebd 2d03 f1bb cfba 05be
00000300: 6c0a 42bd 969d 8c3c a652 143d 183a 03bc
00000310: 2d00 a93c 5966 19bd b4db a83d d2be eebc
00000320: b456 743d 5204 18bd 82c0 3c3d dddf 08bd
00000330: 1864 8cbd b37c 9c3d c7d8 083d 95ce 223d
00000340: 8964 b83c 57c5 463d 24b5 7c3d c0ce 26bc
00000350: c0a5 a0bb 7279 75bd bd55 6ebc 0369 7abd
00000360: 87da 0b3d ab16 7f3d d12f 0ebd 9752 9d3c
00000370: 7589 3f3d ba46 cc3c 7ffc c1bc 1020 bbbd
00000380: fbdc 543d f864 f53c b258 a23d 86b8 10bd
00000390: bdfe c33c 2f6c db3b 2d8e 5ebd 35e7 383d
000003a0: d9d8 663b f2aa 82bd d2fe dabc dcd8 ea3c
000003b0: f98e 57bd 2f1f 913d 69b6 883d 64e3 32bd
000003c0: 547e 6ebd aafb 89bd 849b 1dbd b601 873d
000003d0: fd8e 81bd 4781 573b 4ae7 083d 7149 733c
000003e0: 1bb0 49bc d023 0bbc da30 2b3d 0314 52bd
000003f0: 3147 dcbc fc8a 4d3d 5a6d c3bc 99b7 47bc
-0.041904252 -0.014109507 0.11986117 0.056513287 0.015039091 -0.0029116806 -0.019892516 0.053115997
-0.081239104 -0.053183813 -0.012049745 0.070617035 0.066544525 0.028384777 -0.024004541 0.0045012217
0.0941729 0.055178583 -0.093167074 0.048607025 0.0037368583 0.058019288 -0.019037085 -0.03283475
0.046800133 -0.007698591 0.07100228 -0.028521148 -0.04168323 -0.03816265 0.031215725 -0.017053176
-0.014761479 0.040168203 0.023467211 -0.026241526 0.06258126 -0.054250743 -0.039042205 0.061128333
-0.07288676 0.05025669 0.07638719 0.036004584 -0.046250235 -0.04558308 -0.069658 0.016038746
0.019322567 -0.031758655 0.027522951 -0.0013392414 0.03224637 -0.014960868 0.02797466 0.055764355
-0.07608319 -0.029302707 0.028471608 -0.029057125 0.050959546 0.018415766 0.058934912 0.0012196974
0.06647463 0.07872047 -0.043742485 0.07202666 -0.05996453 0.030121868 -0.01758389 0.043408673
0.0195111 -0.04107539 -0.009894936 -0.07657496 0.01333291 -0.048650473 0.020698363 0.010447772
-0.008078637 -0.048402473 0.0211194 0.009237823 -0.014034774 -0.058879398 0.02033784 -0.018234015
0.06361788 -0.00897125 -0.02275527 0.014850427 0.07491182 -0.05494154 -0.03630051 0.016537977
0.08293512 0.054201424 -0.053232547 -0.0349115 -0.004821857 -0.022629943 -0.0350172 -0.023194604
0.040444944 -0.067190215 0.004623722 -0.064858615 -0.024836862 0.03807377 0.019073365 -0.028385364
0.012099951 -0.034485083 0.020166919 0.0011801447 -0.04860063 -0.070420414 -0.03346105 -0.03331522
-0.012394799 -0.060663138 0.009590577 -0.04629049 -0.018611023 0.06150932 -0.06409698 -0.036740486
0.013852044 0.027657941 0.05461471 -0.040431164 0.00048704748 0.013449576 0.07566088 0.039542437
-0.007921562 -0.062346675 0.02611106 -0.055979848 -0.015756784 -0.077693105 -0.051350124 -0.0132292
0.040813163 0.08388304 -0.014309632 -0.0008797714 -0.06329915 -0.046602063 0.034102157 0.024340764
-0.045947168 -0.05149264 -0.043321166 0.04554028 0.02368444 -0.010138331 0.019917203 -0.030120343
-0.08607064 0.022010066 0.04625849 -0.07076368 -0.039498057 0.07045876 0.010629568 0.042091426
0.063399516 0.02565177 -0.06281191 0.0022714466 -0.01907961 -0.013218126 0.013335219 -0.04366247
0.042998176 -0.022215141 0.0039961794 0.022812834 -0.06222192 -0.07785662 -0.08888139 -0.06903524
0.0064994264 0.025041958 0.0012086511 -0.006522606 0.03201042 -0.046497002 -0.007355115 -0.13059543
-0.04737322 0.017164987 0.036211632 -0.008009456 0.020629967 -0.037451122 0.0824503 -0.029143725
0.059653 -0.037113495 0.046082027 -0.033416618 -0.06855029 0.07640972 0.03340986 0.039747793
0.022508876 0.04852804 0.061696187 -0.010181129 -0.0049025714 -0.059930272 -0.014546809 -0.061135303
0.03414395 0.062277477 -0.03471357 0.019204421 0.04676195 0.024936069 -0.02367997 -0.09136975
0.051968556 0.029955372 0.079270735 -0.035332225 0.02392518 0.006696246 -0.05433481 0.04514237
0.0035224466 -0.063802615 -0.026732836 0.02866786 -0.052626584 0.07086026 0.06675417 -0.043673888
-0.058225945 -0.06737454 -0.03847839 0.06592123 -0.06326101 0.0032883452 0.0334237 0.014849053
-0.012310053 -0.008492425 0.041794635 -0.051288616 -0.026889415 0.050181374 -0.023855854 -0.012189769

linearD3.weight f4 [6, 16]
00000000: a033 44be 9c68 f83d 4396 7cbe 59eb 1d3e
00000010: 9464 943d ed87 ae3d 3a81 9e3d e60c 16be
00000020: 418e 0a3c 1091 44be b081 a83d 4067 e7bd
00000030: 3a79 d53d ec01 87be b150 363e f028 17be
00000040: 2855 01bd 81c9 a13d d63d dbbd beae 8f3e
00000050: 10e0 253d 3f06 99bd 01fa 5cba 0dbb 8dbd
00000060: 864a 893e 152e 9e3d a84f dfbd e373 673e
00000070: b8f2 a03d eb7a 88be 8cf3 8ebe 52fa 52bc
00000080: 2236 643e e7f8 92bd e658 a53d 6423 65be
00000090: 20df 573e 7421 bebd 2657 1a3c 125b a6bd
000000a0: 7ed2 653e 5f32 4ebd 715e 263d 4df3 aabd
000000b0: 5129 6c3e 3441 2b3e 15e9 07bd 4fde 0dbd
000000c0: b40b fd3d 5f23 403d 53dc 423e 004e fe3d
000000d0: 12de 1a3e 6a57 33be ddad 1f3e 861f 8abe
000000e0: aa32 3bbe 7de1 17be 687f 08bd a116 09be
000000f0: fa5e 2dbd 67f7 45be 2169 4bbd 2343 b83c
00000100: eead 69be 1d56 5fbe 6e19 d4bc b676 293e
00000110: 794b 863e e59d 473c 2c8c 583e 64c5 c83d
00000120: fb48 a2bd 44cf 183e 8331 233e 0abd b4bd
00000130: 4818 8e3c 9793 23be ffd7 47bd a7ee 503e
00000140: 263d 46bd 5332 92bc cecb 2a3e 4bf9 25be
00000150: 2d66 5e3e 5450 653c 4c6f 073e 40a3 373e
00000160: e06f 063e 2237 56be 2a33 bbbd d36b 91be
00000170: 5676 943c ea21 7c3d f02f 2cbe fe0e 943d
-0.19160318 0.12129328 -0.24666695 0.1542181 0.07245746 0.085220195 0.07739492 -0.14653358
0.008456768 -0.19195962 0.08227861 -0.1129899 0.10423513 -0.26368654 0.17804219 -0.1476171
-0.031575352 0.07899762 -0.10705154 0.28063005 0.040496886 -0.074718945 -0.00084295875 -0.06920443
0.2681467 0.07723633 -0.10903865 0.22602801 0.07858795 -0.2665628 -0.27920187 -0.012877064
0.22286275 -0.071763806 0.08073597 -0.22376782 0.21081209 -0.092837244 0.009420192 -0.08122839
0.22443578 -0.050341006 0.04061741 -0.08347187 0.23062636 0.16724092 -0.03318127 -0.034635838
0.12355748 0.046908733 0.1902936 0.12417221 0.15123776 -0.17513815 0.15593667 -0.26977175
-0.18281046 -0.1483211 -0.03332463 -0.13387538 -0.042326905 -0.19332658 -0.049660806 0.02249295
-0.22820255 -0.21810193 -0.025891032 0.16549191 0.26229456 0.012183641 0.21147221 0.09803274
-0.07924076 0.14922816 0.15936856 -0.08825119 0.017345563 -0.1597427 -0.048789974 0.20403539
-0.04839816 -0.017846262 0.16679308 -0.16208379 0.21718664 0.0139962025 0.1322605 0.17933369
0.13128614 -0.20919469 -0.09140618 -0.28402576 0.018122833 0.06155578 -0.16815162 0.07229422

linearD3.bias f4 [6]
00000000: 5426 5a3e a136 c5bd ca70 3ebe 57ed 963d
00000010: 2e50 0cbe 6d20 07be
0.21303684 -0.0962956 -0.18597713 0.07369488 -0.13702461 -0.13195963
