continous_state/pretrained/MLE/MLE20_128.pt (torch, 88448 bytes, 9 tensors)

linearK1.weight f4 [20, 8]
0	0x3e465968	0.19370043
1	0x3d594e9c	0.053053483
2	0x3e85cd5b	0.26133236
3	0x3d284127	0.04107776
4	0x3e5344b3	0.20631675
5	0x3da087f0	0.07838428
6	0x3cf24d04	0.02957774
7	0xbe33f62c	-0.17574376
8	0xbe3c7e7b	-0.18407623
9	0x3d1679e6	0.036737345
10	0x3ec17e8c	0.3779186
11	0x3eaec782	0.34136587
12	0xbe34e2df	-0.1766467
13	0x3d8093c5	0.06278185
14	0xbe9771ed	-0.29579106
15	0xbeb0bc7e	-0.34518808
16	0xbe9da584	-0.3079034
17	0x3d2388eb	0.039925497
18	0xbf1e86f3	-0.61924666
19	0xbe9add1a	-0.30246812
20	0x3e2fb544	0.17158991
21	0x3c5fd14c	0.01366074
22	0xbe24aca5	-0.16081484
23	0xbe6560ea	-0.22400251
24	0x3e9145b5	0.28373495
25	0x3e66d938	0.225438
26	0xbecc28bc	-0.39874828
27	0xbea54cdf	-0.3228521
28	0x3d3c2c5a	0.045940734
29	0x3e93dc78	0.28879142
30	0xbe32e54d	-0.17470284
31	0xbe6daf85	-0.23211487
32	0xbe470b96	-0.19438013
33	0x3c41361e	0.011792688
34	0x3e72fdf9	0.23729695
35	0x3e092dd2	0.13396385
36	0xbe7bac69	-0.24577488
37	0xbe87f425	-0.26553455
38	0x3e1bf413	0.15229826
39	0x3e0f9672	0.14022234
40	0xbd59dc7a	-0.05318878
41	0xbc3b27d3	-0.011423069
42	0x3e562f30	0.20916438
43	0xbe8184c3	-0.25296602
44	0xbe22f1b7	-0.1591252
45	0x3e915807	0.28387472
46	0x3c846272	0.016160224
47	0xbd786f97	-0.060653295
48	0xbe4cf859	-0.20016612
49	0xbe4f3e39	-0.2023858
50	0xbea97f23	-0.3310481
51	0x3d03e01d	0.032196153
52	0x3e95d0f5	0.29260984
53	0x3d1043a2	0.03522075
54	0x3d57ff86	0.05273392
55	0xbd7d5ec5	-0.061857957
56	0xbd1c38e6	-0.0381402
57	0xbbf3ec2f	-0.0074439268
58	0xbf3166da	-0.69297564
59	0x3ec4ee53	0.38463077
60	0x3b1bec5a	0.0023792
61	0xbc454fd0	-0.012042955
62	0xbe07b94f	-0.13254283
63	0xbe7cff4d	-0.24706765
64	0xbe9b4d5b	-0.30332455
65	0xbdf76a83	-0.120808624
66	0xbeb03f53	-0.34423313
67	0x3e81a434	0.2532059
68	0xbea246e5	-0.31694713
69	0x3d00e205	0.03146555
70	0xbe9b7b70	-0.30367613
71	0x3e43a6cb	0.19106595
72	0x3ea447ac	0.3208593
73	0xbe021f62	-0.12707284
74	0xbec151cd	-0.37757722
75	0xbc84ab28	-0.016194895
76	0x3dc02fc2	0.09384109
77	0x3d5483b1	0.051883403
78	0xbdd68ed3	-0.1047646
79	0x3c64af96	0.013957879
80	0xbebb52bb	-0.36586556
81	0x3e96b82a	0.2943738
82	0xbda436dc	-0.08018276
83	0xbd17abb9	-0.037029
84	0x3e20a048	0.15686142
85	0xbe6c2e05	-0.2306443
86	0x3dafd4bb	0.08585497
87	0xbdf0d5a9	-0.117595024
88	0xbc30fb5d	-0.010802117
89	0xbea6b571	-0.32560304
90	0x3e58c8f3	0.21170406
91	0x3d4aec91	0.049542014
92	0xbea76955	-0.3269755
93	0xbbc936e6	-0.0061405776
94	0x3e7c6f60	0.24651861
95	0xbe8cea80	-0.2752266
96	0xbe4a0047	-0.19726668
97	0xbe9e6f63	-0.30944356
98	0x3e8118d7	0.25214264
99	0x3cbaa81a	0.022785235
100	0x3e54b814	0.20773345
101	0xbdec8664	-0.115490705
102	0x3eb58eec	0.35460603
103	0x3e7ce237	0.24695669
104	0x3c193f01	0.0093534
105	0xbe6d0120	-0.2314496
106	0x3e12f573	0.14351444
107	0x3eb5afd3	0.35485706
108	0xbdc84bf1	-0.0978011
109	0x3e147604	0.14498144
110	0x3e984506	0.2974016
111	0xbdc58dd3	-0.096461914
112	0x3e944efc	0.2896651
113	0x3def4063	0.11682203
114	0xbd39ec79	-0.045391534
115	0xbe1d94ec	-0.1538884
116	0xbdcedf1d	-0.10101149
117	0x3e3377ce	0.1752617
118	0x3dbf6718	0.093458354
119	0xbe89cb4a	-0.2691291
120	0xbe49297e	-0.19644734
121	0xbe4ee02c	-0.20202702
122	0x3e9209b2	0.28523022
123	0xbde46fd9	-0.11154146
124	0x3e8ed5c2	0.2789746
125	0x3dbf908b	0.09353741
126	0xbe910cf3	-0.28330192
127	0x3d9670e9	0.07345755
128	0x3ea541dd	0.32276812
129	0x3e833a8a	0.256306
130	0xbcf47d7e	-0.029844996
131	0x3ed61e19	0.41819838
132	0x3dda757b	0.10666939
133	0xbbe6eab5	-0.007047022
134	0x3e54c4da	0.20778218
135	0x3e81a76d	0.25323048
136	0x3cc5c129	0.024139958
137	0xbe5fa7aa	-0.21841303
138	0x3da78fa7	0.081816964
139	0x3e9be5d2	0.30448776
140	0x3d11d4fd	0.035603512
141	0xbe8f63d0	-0.28005838
142	0xbe5f5793	-0.2181075
143	0x3d951f7f	0.07281398
144	0x3d4b43a8	0.04962507
145	0x3e55bc8d	0.20872708
146	0xbdd66793	-0.10468974
147	0xbe5236b5	-0.20528682
148	0xbe319fc6	-0.17346105
149	0xbdca191a	-0.09868069
150	0x3e4b07ca	0.1982719
151	0x3db7c7df	0.08973669
152	0xbe93477c	-0.28765476
153	0x3e473501	0.19453813
154	0x3e825116	0.2545249
155	0x3ea50317	0.3222892
156	0xbe93b054	-0.28845465
157	0x3ec98f1c	0.39366996
158	0x3e8b16c7	0.27165815
159	0x3e8bc3d3	0.2729784

linearD1.weight f4 [256, 20]
0	0xbd497d55	-0.04919179
1	0x3e342815	0.17593415
2	0xbe657d3d	-0.22411056
3	0xbc1399b4	-0.009008814
4	0xbc83027d	-0.015992397
5	0xbe7dc0d7	-0.24780594
6	0xbe147e73	-0.14501362
7	0x3e13d633	0.1443718
8	0xbcc45a1b	-0.023968747
9	0xbd686b83	-0.056743156
10	0x3cffd0b7	0.031227453
11	0xbc72f1ae	-0.014828129
12	0x3d8e563c	0.06950042
13	0xbdf4bd48	-0.11950165
14	0xbe45efe1	-0.19329788
15	0xbd29698e	-0.04136043
16	0x3e1b6eb3	0.15178947
17	0x3e4fb61f	0.20284317
18	0xbdcae027	-0.09906035
19	0x3d556a4d	0.05210333
20	0x3e5be747	0.21474944
21	0x3e00584b	0.12533681
22	0xbd4b5165	-0.04963817
23	0x3ce2c72a	0.02768286
24	0xbcb7b7e7	-0.022426559
25	0xbe0156ee	-0.12630817
26	0x3e1c0fe5	0.15240438
27	0x3e7bd201	0.24591829
28	0x3d609f7a	0.05483959
29	0x3e02142c	0.12703007
30	0xbd079aba	-0.033106543
31	0x3cdd0345	0.026979098
32	0x3c8bbeed	0.017058814
33	0xbe3c3808	-0.18380749
34	0xbe4baeff	-0.19890974
35	0xbe59d331	-0.2127197
36	0x3e392e65	0.18084104
37	0x3e45a4f0	0.193012
38	0x3dadb882	0.08482458
39	0x3e3dc6e5	0.18532903
40	0xbd66a6c7	-0.056311395
41	0xbddb94f6	-0.107217714
42	0x3e0c165c	0.13680404
43	0x3e49ca7b	0.19706146
44	0x3e7290d7	0.23688065
45	0xbe42dd71	-0.19029786
46	0x3ccf54b8	0.025308952
47	0x3da9486f	0.08265769
48	0xbe1a50e9	-0.15069927
49	0x3e6c0885	0.23050125
50	0xbe3a9910	-0.18222451
51	0x3df50f1d	0.11965773
52	0x3e0b36dd	0.13595147
53	0xbe516231	-0.20447613
54	0x3da4be56	0.08044116
55	0x3e38e549	0.18056215
56	0xbd36fdba	-0.044675566
57	0xbdf463d1	-0.11933101
58	0x3e7022da	0.23450795
59	0xbd847ed5	-0.06469504
60	0x3e1a05fb	0.15041344
61	0xbe3d09ca	-0.18460765
62	0x3dd15f0b	0.10223206
63	0xbcfb6153	-0.030686056
64	0x3e620b3c	0.22074598
65	0x3d218572	0.039433904
66	0x3e55f7ba	0.20895281
67	0x3e2fb394	0.17158347
68	0xbc6c9eee	-0.014442189
69	0x3bf694b6	0.007525052
70	0x3e011397	0.12605129
71	0x3e7e4c16	0.24833712
72	0xbe4af537	-0.19820105
73	0xbd7c3c6b	-0.061581057
74	0x3e47a6a7	0.19497167
75	0x3e32f50e	0.17476293
76	0xbe04c0a0	-0.12964106
77	0xbd81a6b1	-0.06330622
78	0xbe2be698	-0.16787183
79	0xbead8822	-0.33892924
80	0xbbe05c87	-0.0068469676
81	0xbdbe24d0	-0.09284365
82	0xbe80041f	-0.25003144
83	0xbe094ec4	-0.13408953
84	0xbe42ba5b	-0.19016401
85	0x3e768b89	0.24076666
86	0xbded5392	-0.115882054
87	0xbe9d58a0	-0.30731678
88	0xbdf7ff08	-0.1210919
89	0x3ddfd668	0.109295666
90	0xbc650c9e	-0.013980059
91	0x3d0b63ff	0.03403091
92	0x3dc19c8b	0.09453686
93	0x3e4cdd36	0.2000626
94	0x3dd5b8fe	0.10435675
95	0x3e412e28	0.18865263
96	0xbc2bb2ac	-0.01047961
97	0xbddd55c6	-0.108073756
98	0x3da8c235	0.08240167
99	0x3e7047ce	0.23464891
100	0xbdd37263	-0.10324552
101	0xbe76afb9	-0.2409047
102	0x3e800b47	0.25008604
103	0x3c201b03	0.009772065
104	0x3d38440f	0.04498678
105	0x3deae023	0.11468532
106	0x3e296754	0.16543323
107	0xbc0dcad8	-0.008654319
108	0x3e2bdf7c	0.16784471
109	0x3e8553dd	0.26040545
110	0x3cc9e63e	0.02464592
111	0x3e47ec91	0.19523837
112	0x3d8a9f7b	0.067687
113	0xbe27741e	-0.16352889
114	0x3e341aff	0.17588423
115	0xbe32a26f	-0.17444776
116	0x3df1cd30	0.118067145
117	0x3c98c9aa	0.018650848
118	0x3d5fe18e	0.054658465
119	0xbe7010fc	-0.23443979
120	0xbd6f3140	-0.058396578
121	0x3daab073	0.08334436
122	0x3e3c3851	0.18380858
123	0xbd450323	-0.048098695
124	0x3e50a9e9	0.20377316
125	0xbd9023a5	-0.07038049
126	0xbc897f86	-0.01678444
127	0x3ddeae27	0.10873061
128	0xbda0d020	-0.07852197
129	0x3e46928a	0.19391838
130	0xbe5dd33d	-0.21662612
131	0xbd25e88d	-0.04050498
132	0xbdf2c054	-0.1185309
133	0xbe16ee7b	-0.1473941
134	0xbe1847f3	-0.14871196
135	0x3dc00e3b	0.09377714
136	0xbe4f9013	-0.20269804
137	0x3db1d2a6	0.08682756
138	0x3bb95ed5	0.005657057
139	0x3e17d089	0.14825644
140	0xbe1e7040	-0.15472507
141	0x3e334568	0.17506945
142	0xbe82e349	-0.2556403
143	0x3da8b90d	0.08238421
144	0x3e3f15ea	0.18660703
145	0xbddde9e7	-0.10835629
146	0x3dae732c	0.08518061
147	0x3e3e3a54	0.18576938
148	0x3e499daf	0.19689058
149	0x3e5e4740	0.21706867
150	0xbe0eee72	-0.13958147
151	0xbd89ad99	-0.06722564
152	0xbde93278	-0.11386579
153	0x3e331f9d	0.17492528
154	0xbcdaeaba	-0.026723254
155	0xbdd9d8bd	-0.10637043
156	0x3cbdd7ac	0.02317413
157	0xbe152654	-0.14565402
158	0xbe1ccc07	-0.15312205
159	0x3e6d6b5e	0.23185489
160	0xbe0541d5	-0.13013394
161	0xbd82ad2d	-0.06380687
162	0x3e02c00a	0.1276857
163	0x3dbe1f7b	0.09283348
164	0xbd58d567	-0.05293789
165	0x3e691276	0.22760949
166	0x3dfdd74e	0.12394582
167	0x3dd30749	0.10304124
168	0x3e1170cf	0.1420319
169	0x3e675266	0.22590026
170	0xbcae98ac	-0.021313034
171	0xbe4135e5	-0.18868215
172	0xbe62b9c4	-0.22141176
173	0xbe5cd85c	-0.2156691
174	0x3da6654e	0.08124791
175	0x3de18301	0.11011315
176	0xbe6e698f	-0.23282455
177	0xbe2d0d47	-0.16899596
178	0x3c454270	0.012039766
179	0xbeb13737	-0.34612438
180	0x3d8228ad	0.063554145
181	0xbe3a7305	-0.18207939
182	0xbd7097ef	-0.058738645
183	0x3e61721b	0.22016184
184	0xbc63d195	-0.013904949
185	0xbd4b278f	-0.049598273
186	0xbe52a84c	-0.20572013
187	0xbe859ee6	-0.26097792
188	0x3e18bc07	0.14915477
189	0xbe019944	-0.12656122
190	0xbe5b11e9	-0.21393551
191	0xbe72bc2a	-0.23704591
192	0xbd2c457f	-0.042058464
193	0x3e206104	0.15662009
194	0xbd9d8215	-0.07690827
195	0x3e36defa	0.17858496
196	0xbda8ad4a	-0.08236177
197	0x3e13be16	0.14427981
198	0x3e8f5c81	0.28000262
199	0x3bc253bd	0.0059303925
200	0x3d9e1727	0.0771926
201	0xbe355167	-0.17706834
202	0x3dc2df8e	0.09515296
203	0x3e2c3350	0.16816449
204	0x3d23453c	0.03986095
205	0x3cc5feef	0.024169413
206	0xbd93df83	-0.07220366
207	0x3e6b5da9	0.22984947
208	0x3d43a440	0.047764063
209	0xbc8140ad	-0.01577791
210	0xbd4acac3	-0.049509775
211	0xbe38b17f	-0.1803646
212	0xbdd11899	-0.1020977
213	0x3dc8a7fb	0.09797665
214	0xbd33d104	-0.043900505
215	0xbd16ed47	-0.03684738
216	0x3c8acb34	0.016942598
217	0x3e5326cf	0.20620273
218	0x3dd12fae	0.10214172
219	0xbca9153d	-0.02064001
220	0x3e7c4f8d	0.24639721
221	0x3e084178	0.13306224
222	0xbe87e6d4	-0.26543295
223	0xbddf1c45	-0.10894064
224	0x3e7a1ddc	0.24425453
225	0x3d5a02e9	0.05322543
226	0xbe363a35	-0.17795642
227	0xbe25d34d	-0.16193886
228	0xbe18d41a	-0.1492466
229	0xbe7efcaa	-0.24901071
230	0x3da94d64	0.08266714
231	0xbdb2c53e	-0.08729027
232	0x3e111d5d	0.14171357
233	0x3e6fefd6	0.23431334
234	0x3dc95987	0.09831529
235	0xbe286c6d	-0.16447611
236	0xbcd4d27e	-0.025979277
237	0x3e559375	0.20857032
238	0xbd1993a4	-0.037494317
239	0x3e8acb8d	0.27108422
240	0x3d449b55	0.0479997
241	0x3d12c60b	0.0358334
242	0x3e5104a4	0.20411927
243	0xbd226a48	-0.03965214
244	0xbe032e1e	-0.12810561
245	0xbd52f143	-0.051499616
246	0x3e16315e	0.1466727
247	0x3e6a58fd	0.22885509
248	0xbe39761f	-0.18111466
249	0x3e15c77b	0.14626877
250	0x3d85ba06	0.06529622
251	0x3dabee88	0.083951056
252	0x3e11b456	0.14228949
253	0x3e3bb7c3	0.18331818
254	0x3dc3c329	0.09558708
255	0xbbacbdf3	-0.005271667

linearD1.bias f4 [256]
0	0xbb22ab7b	-0.0024821449
1	0x3e5955f0	0.21224189
2	0x3e0cc8e2	0.13748506
3	0xbd04ed60	-0.03245294
4	0xbe0e4a47	-0.13895522
5	0xbd91e62f	-0.07123982
6	0x3e12c3c1	0.14332487
7	0x3d58e6ae	0.05295437
8	0xbe451655	-0.192468
9	0x3e5b3734	0.21407777
10	0xbdb6906e	-0.089142665
11	0x3e65901f	0.22418259
12	0x3e06ee8c	0.13176936
13	0x3d669383	0.056293022
14	0xbc9895c2	-0.018626098
15	0x3dd1a8a5	0.102372445
16	0xbe5ec984	-0.2175656
17	0xbc8abef4	-0.016936757
18	0xbcb0b3f5	-0.021570185
19	0x3e3dba48	0.18528092
20	0xbd1831b2	-0.03715677
21	0xbe387ff2	-0.18017557
22	0x3d2a04f1	0.04150862
23	0xbd99a71b	-0.07502576
24	0xbe2c5a07	-0.16831218
25	0xbe4ea601	-0.20180513
26	0x3e268859	0.1626295
27	0xbe20ecba	-0.15715304
28	0x3d89ea29	0.06734116
29	0x3b6889db	0.003548256
30	0xbd51e7c3	-0.051246416
31	0x3d340586	0.04395058
32	0x3e6701df	0.22559308
33	0x3e8c1307	0.27358267
34	0x3d95bfd4	0.07311979
35	0xbdadd4d6	-0.08487861
36	0x3c4a8de5	0.012362932
37	0xbda2f637	-0.07957118
38	0x3e0fa05e	0.14026019
39	0x3e0e8d0d	0.13920994
40	0xbdafa590	-0.085765004
41	0xbda53712	-0.080671445
42	0x3e0d5fce	0.13806078
43	0x3dd047f9	0.10169978
44	0x3e03771e	0.12838408
45	0xbd59337c	-0.053027615
46	0xbdd36923	-0.103227876
47	0xbd95c104	-0.073122054
48	0xbd1c0d1c	-0.03809844
49	0x3e226e59	0.15862407
50	0x3e6caad0	0.23112035
51	0x3e30a830	0.17251658
52	0xbdc08ab0	-0.094014525
53	0xbc44c72b	-0.012010376
54	0x3e2e2dc9	0.17009653
55	0x3e8671b8	0.26258636
56	0x3e55635d	0.20838685
57	0x3c80339e	0.015649613
58	0xbdb0de48	-0.08636147
59	0xbe31271f	-0.1730008
60	0xbe2079c7	-0.15671454
61	0x3e1fcf2a	0.1560637
62	0xbdceb38b	-0.10092839
63	0xbdf9ef47	-0.12203842
64	0x3e16a489	0.14711203
65	0x3e31a1c8	0.17346871
66	0xbd5e55b2	-0.054280944
67	0x3da2274b	0.07917651
68	0xbd92e074	-0.07171717
69	0xbd05e924	-0.032693043
70	0xbe4748d5	-0.19461377
71	0x3b070deb	0.002060766
72	0x3cc455a4	0.023966618
73	0xbe6760c2	-0.22595504
74	0x3e543f0a	0.20727172
75	0xbe5dd27e	-0.21662328
76	0xbe2f084b	-0.17093007
77	0x3bcd7624	0.006270187
78	0x3db4c090	0.08825791
79	0x3e3d483f	0.18484591
80	0xbc964467	-0.018343164
81	0xbe5cc922	-0.21561101
82	0xbd7bd6c3	-0.06148411
83	0xbe31ab13	-0.17350416
84	0xbe539f2e	-0.20666191
85	0x3d8dafa9	0.0691827
86	0xbd5573cd	-0.05211239
87	0x3e7a995a	0.24472561
88	0xb96b436c	-0.00022436463
89	0xbdf90687	-0.12159448
90	0x3e34f4f9	0.17671575
91	0x3e15db58	0.14634454
92	0xbe50149c	-0.20320362
93	0xbd306f13	-0.04307468
94	0x3e4d4b68	0.20048296
95	0xbe49b2a4	-0.19697052
96	0x3e3c05d8	0.18361604
97	0xbe95edc4	-0.29282963
98	0xbd138b43	-0.036021482
99	0xbe44582c	-0.1917426
100	0x3b62ed7b	0.0034626413
101	0xbe4cebb0	-0.20011783
102	0x3e0a96f2	0.13534144
103	0x3df5ea08	0.120075285
104	0x3d26f2a0	0.04075873
105	0xbe0f9992	-0.14023426
106	0xbdccccf5	-0.1000003
107	0xbdcfe886	-0.10151772
108	0x3cfdc197	0.0309761
109	0xbdf62ecf	-0.12020647
110	0x3e552c16	0.20817599
111	0xbe80198b	-0.25019488
112	0xbe5e4f71	-0.21709992
113	0xbc244fea	-0.010028819
114	0xbe5e8eef	-0.21734212
115	0x3dff4ca1	0.12465788
116	0xbe153fd3	-0.14575128
117	0x3d7fbef7	0.062437978
118	0x3a43e0e0	0.00074721687
119	0x3c8a3f41	0.016875865
120	0x3e257ddd	0.16161294
121	0xbe526d65	-0.20549543
122	0x3e314002	0.17309573
123	0xbac2ac9a	-0.0014852465
124	0xbdd039a1	-0.10167242
125	0x3d5404b1	0.051762287
126	0xbe17c89d	-0.14822622
127	0x3dcc81ad	0.09985671
128	0xbe57cc5f	-0.21074055
129	0x3e6ee067	0.2332779
130	0xbca74856	-0.020420235
131	0xbda12061	-0.07867504
132	0x3d8b3c13	0.067985676
133	0x3dd1aaad	0.10237632
134	0xbe4f8a2a	-0.20267549
135	0xbd2f6354	-0.042819336
136	0x3e36384a	0.1779491
137	0x3d531994	0.051538065
138	0xbda39cbb	-0.07988878
139	0xbd397d97	-0.045285787
140	0x3d699569	0.057027254
141	0xbd3a546a	-0.04549066
142	0xbd75f157	-0.060044613
143	0xbdf28448	-0.11841637
144	0xbdd272cd	-0.10275803
145	0x3e2371c2	0.15961364
146	0x3e3a1203	0.18170933
147	0x3e592682	0.21206096
148	0x3ca34277	0.019929154
149	0x3d8d75fa	0.06907268
150	0xbb76f5cf	-0.0037683134
151	0x3dd2e341	0.102972515
152	0xbdbe749b	-0.092995845
153	0x3daa1f32	0.08306731
154	0x3cc308a1	0.023807826
155	0xbd69d462	-0.05708731
156	0x3e88ce52	0.2671991
157	0xbe81a243	-0.25319108
158	0xbe34fc35	-0.17674334
159	0x3d5ccf89	0.05390886
160	0xbd96416c	-0.07336697
161	0x3b799cf9	0.0038087948
162	0xbe658ae1	-0.2241626
163	0x3e85bfc2	0.26122862
164	0x3d878183	0.06616499
165	0x3c835eb4	0.016036369
166	0x3e009843	0.12558083
167	0x3e70bb2d	0.23508902
168	0xbd74cffb	-0.059768658
169	0xbc8a949d	-0.016916567
170	0xbd6b9899	-0.057518575
171	0x3e6b5b2e	0.22984001
172	0x3ce93612	0.028468166
173	0x3e3eafe2	0.18621781
174	0xbd8d6ef7	-0.069059305
175	0x3e4d12ad	0.20026655
176	0x3e1fc31d	0.15601774
177	0x3db92766	0.09040718
178	0xbe185e9c	-0.1487984
179	0xbe2bd5d1	-0.16780783
180	0xbd89e3d0	-0.06732905
181	0x3d72a390	0.059238017
182	0x3d26a4a1	0.040684346
183	0x3e04299d	0.12906499
184	0x3e0ab981	0.13547327
185	0x3de88624	0.1135371
186	0xbe0de1bf	-0.13855647
187	0xbe195628	-0.14974272
188	0xbd5f0a6b	-0.054453295
189	0xbde4b0a9	-0.11166508
190	0x3e61e819	0.22061194
191	0xbe323637	-0.17403494
192	0x3e119f49	0.14220919
193	0x3e240252	0.1601651
194	0x3cfdb446	0.03096975
195	0x3d878cea	0.06618674
196	0xbe17d094	-0.1482566
197	0xbd954a8e	-0.07289611
198	0x3e25cc7a	0.16191283
199	0xbe13b6ac	-0.14425153
200	0x3d931f48	0.07183701
201	0xbdf89631	-0.12138022
202	0xbe227106	-0.15863428
203	0x3e5a8e3c	0.2134332
204	0xbe6c5625	-0.23079737
205	0x3d1378ae	0.03600376
206	0x3dc3cad8	0.09560174
207	0x3e14529d	0.1448464
208	0xbe4e3a58	-0.20139444
209	0x3b127a23	0.0022350631
210	0x3d48122a	0.048845448
211	0x3e1ac825	0.15115412
212	0xbd86d7fa	-0.06584163
213	0xbe707bbd	-0.23484702
214	0xbe5d0462	-0.21583703
215	0xbe11e2fe	-0.14246747
216	0x3cf943a9	0.03042777
217	0x3d0bca12	0.034128256
218	0xbd6901e2	-0.05688656
219	0xbd223363	-0.039599787
220	0x3dcfa086	0.10138039
221	0xbe16bf92	-0.14721516
222	0x3dab5d78	0.08367437
223	0x3b5fcc83	0.0034148998
224	0xbdb86b9a	-0.09004898
225	0xbdd46e5f	-0.10372614
226	0x3e127efe	0.14306256
227	0x3dc38621	0.095470674
228	0x3e33ce7b	0.17559235
229	0x3e3120e6	0.17297706
230	0xbe0f5a88	-0.13999379
231	0xbe4ec7ed	-0.20193453
232	0xbe7b941c	-0.24568218
233	0xbe318732	-0.17336729
234	0x3dc496b9	0.095990606
235	0xbe059637	-0.13045584
236	0x3e458c0e	0.19291708
237	0xbe27659f	-0.16347359
238	0x3e029799	0.12753142
239	0xbe2e0c1c	-0.16996807
240	0xbe665d6f	-0.2249658
241	0xbdfe8e6b	-0.12429508
242	0x3e3dd9fb	0.18540184
243	0xbd67171c	-0.056418523
244	0x3e4d2348	0.2003299
245	0x3e72d67c	0.23714632
246	0x3e782721	0.24233676
247	0xbe19f54b	-0.15034978
248	0x3e507d0e	0.20360205
249	0x3e3b7d91	0.18309619
250	0x3d357492	0.044300623
251	0x3dd0a9f0	0.10188663
252	0xbe092394	-0.13392478
253	0xbe080c32	-0.13285902
254	0x3e671d9c	0.22569889
255	0x3d0879d8	0.033319324

linearK2.weight f4 [20, 256]
0	0xbd90561a	-0.070476726
1	0x3d91f812	0.07127394
2	0x3d3234e2	0.043507464
3	0xbd92d022	-0.071686044
4	0x3c89e3f5	0.016832331
5	0xbdd31915	-0.103075184
6	0x3d1de4cb	0.038548272
7	0xbdca540b	-0.09879311
8	0xbd7cf1c5	-0.061754007
9	0x3e0906a0	0.13381433
10	0xbc95b3e5	-0.018274257
11	0x3d89b0e4	0.06723192
12	0xbc406324	-0.011742387
13	0x3d868f25	0.065702714
14	0x3ba05333	0.0048927306
15	0x3c7b674e	0.015344454
16	0x3ad21793	0.0016028754
17	0xbb7d41e4	-0.003864401
18	0x3b30edb8	0.002699716
19	0x3d9f4fae	0.077788696
20	0xbde388cf	-0.111100785
21	0xbd4b5edd	-0.049651016
22	0xbc183584	-0.009290103
23	0xbc20b490	-0.009808674
24	0xbda6b979	-0.08140845
25	0xbda90a54	-0.08253923
26	0x3d53501d	0.051590074
27	0xbd0ecf4e	-0.03486567
28	0x3cfd4b0c	0.030919574
29	0xbd84f142	-0.06491329
30	0xbd274e68	-0.04084626
31	0xbca05a1f	-0.019574223
32	0xbba2d24d	-0.0049689175
33	0x3dabea19	0.0839426
34	0xbc74785a	-0.014921272
35	0x3ce684f6	0.028139573
36	0xbc737038	-0.014858298
37	0xbc08e14d	-0.008354497
38	0x3c13e761	0.009027333
39	0x3da7bb45	0.08190016
40	0xbd8bfeb3	-0.068356894
41	0xbd22d979	-0.03975818
42	0x3e0a6d2e	0.13518211
43	0x3d48247c	0.04886292
44	0x3ad42435	0.0016185107
45	0x39328c51	0.00017027675
46	0xbd97af95	-0.074065365
47	0xbd8b61fd	-0.06805799
48	0xba9e0457	-0.0012055737
49	0x3d692cf7	0.056927647
50	0x3db3f591	0.087870724
51	0x3d7968b7	0.06089088
52	0xbda6d399	-0.08145828
53	0xbd2e4e68	-0.042555243
54	0x3c1db048	0.009624548
55	0x3df85e10	0.12127316
56	0x3cc59fec	0.024124108
57	0xbc96db19	-0.01841502
58	0x3c7fa661	0.015603633
59	0xbdc1c0c1	-0.09460593
60	0xbdcb1e5a	-0.099178985
61	0x3d93e5b3	0.07221546
62	0xbd42d8aa	-0.04756991
63	0xbd3e8c48	-0.0465205
64	0x3c60b556	0.013715109
65	0x3d120325	0.03564753
66	0xbbcf8527	-0.0063330117
67	0x3ced93d0	0.029001147
68	0x3d7d5b6d	0.06185477
69	0xbb9a9b76	-0.0047182394
70	0xbdcf7262	-0.10129239
71	0xbd6579f9	-0.056024525
72	0x3cc420ec	0.02394148
73	0xbda17327	-0.07883292
74	0x3cc34e1f	0.023840962
75	0xbdd60735	-0.104505934
76	0xbdb4374d	-0.0879961
77	0xbca779f0	-0.020443887
78	0xbc128d3c	-0.008944806
79	0x3dd082a5	0.101811685
80	0xbde64548	-0.11243683
81	0xbbdab696	-0.006674598
82	0x3d9f1904	0.07768443
83	0xbdae602e	-0.085144386
84	0xbc82139d	-0.015878493
85	0x3d127603	0.035757076
86	0x3cbf51ce	0.023354437
87	0xbbc70a02	-0.006074191
88	0xbc57813c	-0.0131533705
89	0xbd984133	-0.07434311
90	0x3d633c89	0.055477653
91	0x3d837e5c	0.064205855
92	0xbd89c6fc	-0.067274064
93	0xbd85c190	-0.0653106
94	0x3cea12bb	0.028573385
95	0xbdb532f4	-0.08847609
96	0x3c7e2553	0.0155118285
97	0xbdd52574	-0.10407534
98	0xbb5d0e6a	-0.0033730515
99	0xbd9a75f7	-0.07542031
100	0x3ac532e1	0.001504507
101	0xbdc6e96f	-0.09712493
102	0x3d98618c	0.074404806
103	0x3d75837c	0.059939846
104	0xbc2c870f	-0.010530247
105	0xbc3e6584	-0.011620883
106	0xbd24a678	-0.04019782
107	0xbcd141a6	-0.025543999
108	0xbcc13b92	-0.023587976
109	0xbdcb6674	-0.09931651
110	0x3d83c8c8	0.0643478
111	0xbd9faafa	-0.07796283
112	0xbde846d8	-0.113416374
113	0x3da69194	0.081332356
114	0xbd85596c	-0.065111965
115	0x3dbb6853	0.09150758
116	0x3c62b708	0.013837583
117	0x3d48677b	0.04892681
118	0xbccaff80	-0.024780035
119	0xbdb39b47	-0.08769851
120	0x3c4102d7	0.011780462
121	0xbdad3b10	-0.08458531
122	0x3ddce363	0.10785558
123	0xbd41e8ed	-0.047341276
124	0x3c914fe1	0.017738285
125	0x3d9eb050	0.07748473
126	0xbcc6e722	-0.024280135
127	0x3db8cf26	0.090238854
128	0xbd87b03a	-0.066254094
129	0x3d336c6b	0.043804567
130	0x3d6ef35a	0.058337547
131	0xbd804265	-0.06262664
132	0x3cfc927c	0.030831568
133	0x3cf94296	0.030427258
134	0xbdb0a1fd	-0.08624647
135	0x3d215988	0.039392024
136	0x3cbca78d	0.023029113
137	0x3ce05b4e	0.027387287
138	0xbd88559d	-0.066569544
139	0xbda63417	-0.08115404
140	0x3dbaec0b	0.09127053
141	0xbbfe76ae	-0.0077656126
142	0xbc877f0a	-0.01654007
143	0xbddd573b	-0.108076535
144	0x3c6bbea4	0.014388714
145	0x3db6b8d0	0.08921969
146	0x3d958aad	0.07301841
147	0x3d167840	0.036735773
148	0xbd23ec64	-0.04002036
149	0xbc2e6f69	-0.010646679
150	0x3d44d491	0.04805428
151	0x3d8ed715	0.069746174
152	0xbd8a4fea	-0.06753524
153	0x3d8415e7	0.0644949
154	0x3d8542ab	0.065068565
155	0xbd46ca11	-0.04853255
156	0x3ddbae67	0.10726624
157	0xbd5b2458	-0.053501457
158	0xbd84c3c3	-0.06482651
159	0xbd6e290f	-0.058144625
160	0xbdb4df29	-0.08831627
161	0xbdaac8ac	-0.083390564
162	0xbd95f6fa	-0.07322498
163	0x3d092dd5	0.033490974
164	0x3d6c423b	0.05768035
165	0x3c5d573a	0.013509566
166	0x3d5edbd4	0.054408863
167	0x3c03e245	0.008049552
168	0xbd2daa5f	-0.042398807
169	0x3c84967c	0.016185038
170	0xbd238aa6	-0.039927147
171	0x3dc37c3e	0.09545182
172	0xbd93da10	-0.072193265
173	0x3cb49db5	0.022047857
174	0x3d33e023	0.043914925
175	0x3c7edb76	0.015555253
176	0x3df421da	0.11920519
177	0x3daaa21c	0.08331701
178	0x3ca89244	0.020577557
179	0xbde00993	-0.10939326
180	0xbd95e01a	-0.073181346
181	0xbd17f887	-0.03710225
182	0x3d4ee5c9	0.05051211
183	0x3c19ddf4	0.009391297
184	0x3d3ee1ee	0.046602182
185	0xbb3efd65	-0.0029142734
186	0xbcf29a5e	-0.029614624
187	0x3c1f25b2	0.009713577
188	0xbcdc078d	-0.02685907
189	0xbd3e7f7e	-0.046508305
190	0xbb090150	-0.0020905323
191	0xbdbf121e	-0.093296275
192	0xbc1b7cf6	-0.009490242
193	0x3d64c158	0.05584845
194	0x3b278cb0	0.0025566034
195	0xbd8c0722	-0.06837298
196	0xbd883ca4	-0.06652191
197	0xbcbaf43c	-0.022821538
198	0x3da83662	0.08213498
199	0xbd11a6f5	-0.035559613
200	0x3d8d7fd9	0.06909151
201	0x3bb8cf3e	0.0056399396
202	0xbd7da6a6	-0.061926506
203	0x3d826e6e	0.06368719
204	0xbd5c7167	-0.053819086
205	0x3c8b5583	0.017008549
206	0x3db6b76d	0.089217044
207	0xbcbae17d	-0.0228126
208	0xbd488098	-0.04895076
209	0xbb345209	-0.0027514717
210	0x3cb535f4	0.022120453
211	0x3d70c6f3	0.058783483
212	0x3d89ffff	0.067382805
213	0xbb75d5ab	-0.003751139
214	0xbd8565c6	-0.06513552
215	0xbdc2e7b7	-0.09516852
216	0xbb668d54	-0.0035179453
217	0x3d2e73c6	0.04259088
218	0xbc6e8559	-0.01455816
219	0xbcae91ea	-0.021309812
220	0xbcd78f0b	-0.026313325
221	0x3ca9ad7b	0.020712605
222	0x3c7b4227	0.015335596
223	0x3d88c8c8	0.06678921
224	0xbde1bc77	-0.11022275
225	0xbd0b3f84	-0.03399612
226	0xbcfb1c19	-0.030653046
227	0x3db34d1e	0.08754943
228	0x3d810210	0.062992215
229	0x3de88f46	0.11355452
230	0xbd8fc6d3	-0.070203446
231	0xbd5ff4b2	-0.05467672
232	0xbd0b6598	-0.034032434
233	0xbcb21cff	-0.021742342
234	0x3da84eb1	0.08218134
235	0xbd088a6a	-0.033335127
236	0x3d479d55	0.048734028
237	0xbd4eca2c	-0.050485775
238	0x3db3a461	0.08771587
239	0x3c054f37	0.008136562
240	0xbdd54606	-0.104137465
241	0x3da225a0	0.07917333
242	0x3d246d04	0.040143028
243	0xbd0a1ac7	-0.033716943
244	0x3d4e90de	0.050431125
245	0x3e3b65c3	0.18300538
246	0x3c3c2bd0	0.011485055
247	0x3d86fc1b	0.06591054
248	0x3d8faba5	0.070151605
249	0x3dd0d819	0.10197467
250	0xbbfe6d55	-0.0077644982
251	0x3dc4f99a	0.0961792
252	0xbd2c8d26	-0.042126797
253	0x3d22fc17	0.039791193
254	0x3db3d68a	0.087811545
255	0x3e0dbe26	0.13842067

linearD2.weight f4 [256, 20]
0	0x3dc85dd6	0.09783523
1	0xbddabce8	-0.10680562
2	0x3dafa9df	0.08577322
3	0xbd844c97	-0.06459921
4	0xbe366d43	-0.17815118
5	0xbe380759	-0.17971553
6	0x3e171c0d	0.14756794
7	0x3d43216e	0.047639303
8	0xbe13d4af	-0.14436601
9	0xbe266b4d	-0.1625187
10	0xbb858c0f	-0.004075534
11	0x3e1d5d44	0.1536761
12	0x3ba75a3c	0.0051071923
13	0x3e2e9946	0.17050657
14	0xbdf20cfd	-0.118188836
15	0xbd972027	-0.073791794
16	0xbe356cdb	-0.17717306
17	0x3e2d996a	0.16953054
18	0x3d870d81	0.065943725
19	0x3e25f0cd	0.1620514
20	0x3e5a08f0	0.21292472
21	0x3e1d674c	0.15371436
22	0x3e0a7821	0.13522388
23	0xbe4cdeb7	-0.20006834
24	0x3e3f0461	0.18654014
25	0x3e34c159	0.17651881
26	0xbe7e620f	-0.24842094
27	0xbe928e4b	-0.28624186
28	0xbe4baaba	-0.19889346
29	0xbcdfe3db	-0.02733033
30	0x3dbf33f8	0.09336084
31	0x3cb8c4b8	0.02255474
32	0x3e060f1b	0.130917
33	0x3beb0eb5	0.007173384
34	0xbd07f5ea	-0.033193506
35	0xbe4929c9	-0.19644846
36	0x3dabdc79	0.08391661
37	0xbd805b84	-0.06267455
38	0xbe366a6a	-0.17814031
39	0xbdf1e00e	-0.11810313
40	0x3d1039f1	0.035211507
41	0xbd018860	-0.031624198
42	0x3dfe2c46	0.12410788
43	0x3e3e2754	0.1856969
44	0x3d574315	0.05255421
45	0xbd86c38d	-0.06580267
46	0xbd0fcd6c	-0.035108015
47	0xbd9eef15	-0.07760445
48	0xbd0c1137	-0.034196105
49	0xbe24612c	-0.16052693
50	0x3e1ce6ce	0.1532242
51	0x3e0aa875	0.13540824
52	0xbc54e16b	-0.012993197
53	0xbd08c24a	-0.033388413
54	0x3dab685f	0.083695166
55	0x3e19c15d	0.15015168
56	0x3ce2219f	0.027603922
57	0xbde1dacb	-0.110280596
58	0xbe09b198	-0.13446653
59	0xba29a890	-0.0006471956
60	0x3bf730dd	0.0075436668
61	0x3e12819c	0.14307255
62	0xbde15703	-0.11002924
63	0xbb658288	-0.003502043
64	0x3afae9dc	0.0019143182
65	0xbc25f4c9	-0.010129162
66	0xbe38a8ea	-0.18033186
67	0xbe07f005	-0.13275154
68	0xbc409058	-0.011753164
69	0xbe52827c	-0.20557588
70	0xbe1059a3	-0.14096694
71	0x3cadb944	0.021206506
72	0x3deb87f3	0.1150054
73	0x3d0c18f3	0.03420348
74	0xbd217ee5	-0.039427657
75	0xbe08858b	-0.13332193
76	0xbca5a64d	-0.0202209
77	0xbd5066f9	-0.050879452
78	0x3d0d4b1a	0.03449545
79	0x3e39ce45	0.18145092
80	0x3dd0520f	0.101719014
81	0xbe6be6fa	-0.2303733
82	0xbd8597f7	-0.065231256
83	0x3dc5d41b	0.096595965
84	0xbe78aa9a	-0.2428383
85	0x3e56f42a	0.20991579
86	0xbd71ddcf	-0.059049424
87	0x3e7bbf7e	0.24584767
88	0x3ce1a6ee	0.027545419
89	0xbe2fc5a5	-0.17165239
90	0x3e117bf7	0.14207445
91	0xbe71d61a	-0.2361683
92	0x3c7367ed	0.014856321
93	0xbde97fa4	-0.11401299
94	0x397b9f1e	0.00023996501
95	0xbdd87f32	-0.105711356
96	0x3dca2b7b	0.098715745
97	0x3e10e1c2	0.1414862
98	0x3e4b5b5e	0.19859073
99	0x3d576836	0.052589618
100	0xbda9fb43	-0.082998775
101	0x3e424d85	0.18974884
102	0x3dabb342	0.083838
103	0xbd8843a0	-0.066535234
104	0x3e288fdd	0.1646113
105	0x3d54dde6	0.05196943
106	0xbe26af50	-0.16277814
107	0x3dc1cb01	0.09462548
108	0xbbf7885d	-0.0075540976
109	0xbddce70c	-0.10786256
110	0xbd9d8d68	-0.07692987
111	0x3d1a687f	0.03769731
112	0xbd5a6ce9	-0.05332652
113	0x3c285457	0.010274014
114	0x3d1a6655	0.037695248
115	0xbca8f11d	-0.020622784
116	0xbd6880d7	-0.056763496
117	0x3e5102f6	0.20411286
118	0xbd93f6e8	-0.07224828
119	0xbd6683b8	-0.05627796
120	0xbe34b681	-0.17647745
121	0x3e1e1046	0.15435895
122	0x3e44c26e	0.19214794
123	0x3c18ffd4	0.009338338
124	0xbda39c28	-0.07988769
125	0xbe367b7e	-0.17820546
126	0x3dbf57c5	0.093429126
127	0xbd8e6d83	-0.069544815
128	0xbe0f19bb	-0.13974659
129	0xbe33d5dc	-0.1756205
130	0xbe230f07	-0.15923701
131	0xbce06b32	-0.027394865
132	0x3c8acc22	0.016943041
133	0x3e2950fd	0.16534801
134	0xbdacc101	-0.0843525
135	0x3d143934	0.036187366
136	0xbd2da346	-0.042392038
137	0xbe61deda	-0.22057667
138	0x3d517dab	0.051145237
139	0x3e418e6f	0.1890199
140	0xbdfe8151	-0.12427009
141	0xbe1ae283	-0.1512547
142	0xbc947631	-0.018122764
143	0xbe27f15f	-0.1640067
144	0xbd00668c	-0.031347796
145	0xbe3af126	-0.18256053
146	0x3e06b18f	0.1315367
147	0xbdfe68b7	-0.124223165
148	0x3e1ad90f	0.15121864
149	0xbe264376	-0.16236672
150	0xbe1a830a	-0.1508905
151	0x3d9e0ea0	0.07717633
152	0xbe3d8912	-0.1850932
153	0xbd6d480f	-0.05793005
154	0x3e16e08c	0.14734095
155	0x3d63d285	0.05562069
156	0xbe48bb5d	-0.19602723
157	0x3d6feb69	0.058574114
158	0xbda13c80	-0.078728676
159	0xbe4765e9	-0.1947247
160	0x3e38ee4e	0.18059656
161	0x3e593957	0.2121328
162	0x3e5d8c65	0.21635588
163	0x3e498fb4	0.19683725
164	0x3e005090	0.12530732
165	0x3dd0ba45	0.10191778
166	0xbd20b57d	-0.03923558
167	0x3db86670	0.090039134
168	0xbe55f023	-0.20892386
169	0xbb37cf6a	-0.0028047212
170	0x3b90a67e	0.0044143787
171	0xbe561d8a	-0.20909706
172	0x3dcab091	0.098969586
173	0x3dcf71f4	0.10129157
174	0xbd17dbfc	-0.037075028
175	0x3db86c3b	0.09005018
176	0x3d9f57eb	0.07780441
177	0x3cc9adf7	0.024619086
178	0x3d383284	0.04497005
179	0x3e2a6115	0.16638596
180	0xbda0b804	-0.07847598
181	0xbd9adda6	-0.07561807
182	0x3e204168	0.1564995
183	0xbd101fbe	-0.03518652
184	0x3dde2924	0.10847691
185	0xbe187552	-0.14888504
186	0xbe3f758a	-0.18697181
187	0xbe1eeae1	-0.15519287
188	0xbe0fbf07	-0.14037715
189	0xbd1174a2	-0.03551162
190	0xbdfda0a9	-0.12384159
191	0x3d1d94f3	0.038472127
192	0xbe4501f3	-0.19239025
193	0x3e22d814	0.1590274
194	0xbe1ab1da	-0.15106907
195	0xbda73a60	-0.08165431
196	0x3de62e59	0.11239309
197	0xbe195e29	-0.14977325
198	0x3b756fa0	0.0037450567
199	0xbdd96f47	-0.106169276
200	0xbb908ee7	-0.0044115665
201	0xbe04f552	-0.12984207
202	0x3d8cd485	0.068764724
203	0xbdc05da7	-0.09392863
204	0x3da7834d	0.081793405
205	0x3e38f9bc	0.18064016
206	0x3d8e692a	0.06953652
207	0xbda927f3	-0.08259573
208	0xbe0a2e59	-0.13494243
209	0x3c25460b	0.0100875
210	0xbe04ee5b	-0.1298155
211	0x3e0a26d1	0.1349137
212	0xbe384e0f	-0.17998527
213	0x3e14bbcd	0.14524765
214	0x3e1c6e99	0.15276565
215	0xbd80075f	-0.06251406
216	0xbe30f0e3	-0.17279391
217	0xbc30c4b2	-0.010789083
218	0x3c81d89a	0.015850354
219	0x3dfb356a	0.12266047
220	0xbde07be3	-0.109611295
221	0xbc8308e3	-0.015995448
222	0xbc0a9063	-0.008457276
223	0x3d4beb05	0.04978468
224	0xbd84563d	-0.06461761
225	0xbe647cfe	-0.22313306
226	0x3e3f4821	0.18679859
227	0x3dd6ae06	0.10482411
228	0x3e0b27e0	0.1358943
229	0x3e10eb67	0.14152299
230	0xbe0be7d2	-0.13662651
231	0x3bfddb71	0.0077471067
232	0x3d86bcb8	0.06578964
233	0xbe3d44f0	-0.18483329
234	0x3c3c15de	0.011479823
235	0x3dfd2410	0.12360394
236	0x3db5e21a	0.08881016
237	0x3dcf239e	0.10114215
238	0xbd844956	-0.064593
239	0xbcfd2879	-0.030903088
240	0x3e4cbe98	0.19994581
241	0xbdab9bd4	-0.08379331
242	0x3ddc9814	0.10771194
243	0x3d6236e7	0.05522814
244	0xbca3a5ec	-0.019976579
245	0x3dcaa767	0.09895211
246	0x3a431da5	0.0007443077
247	0xbd9e7164	-0.07736471
248	0x3e4c38b1	0.19943501
249	0x3d2b8b0c	0.041880652
250	0x3db33b22	0.08751513
251	0xbb86bc11	-0.0041117747
252	0xbc2879a0	-0.010282904
253	0xbd6af187	-0.057359245
254	0x3dec3ad4	0.11534658
255	0x3da96ce4	0.08272722

linearD2.bias f4 [256]
0	0xbe4900ef	-0.19629262
1	0x3d8d9de9	0.069148846
2	0x3e1a4f2a	0.15069261
3	0xbddecad4	-0.1087853
4	0x3e4b1d33	0.19835357
5	0xbe25c262	-0.16187432
6	0xbda89a2f	-0.08232533
7	0x3e1293d2	0.14314201
8	0xbe27f1ce	-0.16400835
9	0xbe1b27e2	-0.15151933
10	0x3e6f8f92	0.23394611
11	0xbe4bf58f	-0.19917892
12	0x3e463340	0.19355488
13	0x3e4c5800	0.19955444
14	0x3dbf85fd	0.09351728
15	0x3e637dd4	0.22215968
16	0xbe026006	-0.12731943
17	0xbdfdb9c7	-0.1238895
18	0x3dbdfa93	0.09276309
19	0xbdb2d67e	-0.087323174
20	0x3d96cf24	0.07363728
21	0x3cb30af1	0.021855803
22	0x3c69e7c7	0.014276451
23	0x3dd46459	0.10370702
24	0x3e2ad559	0.16682948
25	0xbdfa7169	-0.122286625
26	0xbdace046	-0.08441214
27	0x3e39f410	0.18159509
28	0xbe0d1ad0	-0.1377976
29	0xbe1577f0	-0.14596534
30	0x3dc1f793	0.09471049
31	0x3d82f129	0.06393654
32	0xbe32abbc	-0.17448324
33	0x3d44f945	0.048089284
34	0x3e0f52da	0.13996449
35	0x3c5e0e06	0.013553148
36	0x3e140744	0.14455897
37	0x3e132a8b	0.14371698
38	0xbe18e505	-0.14931114
39	0x3db71330	0.089392066
40	0xbe34b253	-0.1764615
41	0xbe57678a	-0.21035591
42	0x3d45869e	0.048224084
43	0x3e2da49d	0.16957326
44	0x3ca250de	0.019813951
45	0x3e00f0b2	0.12591818
46	0xbe2723f7	-0.16322313
47	0x3e1ad19d	0.15119024
48	0xbd20b603	-0.03923608
49	0x3e241e92	0.16027287
50	0x3e1df636	0.15425953
51	0x3e0deb61	0.13859321
52	0xbce36a6e	-0.02776071
53	0xbd71cea6	-0.059034966
54	0x3e15ede9	0.14641537
55	0x3e7d1de9	0.24718441
56	0x3ddca39c	0.107733935
57	0x3d8cdc74	0.068779856
58	0xbe7250f6	-0.23663697
59	0xbe60b5f7	-0.21944414
60	0x3d3fd6cb	0.046835702
61	0xbd4d1ff5	-0.050079305
62	0xbd7984aa	-0.060917534
63	0x3e25aa47	0.16178237
64	0xbd1163de	-0.03549563
65	0xbd8f7751	-0.0700518
66	0xbe4de28d	-0.20105954
67	0xbdc00a7c	-0.09377
68	0x3ddd38ee	0.10801874
69	0x3e13c5fc	0.14430994
70	0xbe0c1cc5	-0.1368285
71	0xbe76d286	-0.24103746
72	0x3e5c9d64	0.21544415
73	0xbe5fad58	-0.21843469
74	0xbd44cfa4	-0.048049584
75	0x3e41c973	0.18924503
76	0x3d2203a0	0.03955424
77	0x3d1720ac	0.036896393
78	0xbdebbbda	-0.11510439
79	0xbe212026	-0.1573492
80	0xbe2e32c4	-0.17011553
81	0xbdc7ba3e	-0.0975232
82	0x3e3d37f8	0.18478382
83	0x3e0ef3d6	0.13960204
84	0xbbc6ff95	-0.006072948
85	0x3e31190b	0.1729471
86	0xbe3e0b2f	-0.18558954
87	0x3db7023c	0.08935973
88	0xbe561285	-0.20905502
89	0xbd085ccc	-0.033291623
90	0x3c9db779	0.019252526
91	0xbdbdd9b4	-0.09270039
92	0xbdbf32f7	-0.09335893
93	0x3e0d569c	0.1380257
94	0x3dc025f8	0.09382242
95	0x3db92f53	0.090422295
96	0xbdfdc876	-0.123917505
97	0xbc72770a	-0.014798889
98	0xbe578fd3	-0.21050958
99	0xbc2e80ec	-0.010650855
100	0x3e7ec687	0.2488042
101	0xbe3ceb86	-0.1844922
102	0x3d59cb79	0.053172562
103	0xbd23d692	-0.039999552
104	0xbe1a1050	-0.15045285
105	0xbe2be863	-0.16787867
106	0x3cbaa128	0.022781923
107	0x3db80b23	0.08986499
108	0xbe30bb8c	-0.17259043
109	0xbe5244ae	-0.20534012
110	0xbe27c702	-0.16384509
111	0x3e12c20c	0.14331836
112	0xbc3e5b97	-0.011618516
113	0x3a632566	0.00086649356
114	0xbd70c4d5	-0.058781464
115	0x3e07dbdd	0.13267465
116	0xbd2cc5db	-0.042180877
117	0xbd1d9069	-0.0384678
118	0x3d96f623	0.073711656
119	0x3decb770	0.115584254
120	0x3d96ab6f	0.07356917
121	0xbe322955	-0.1739858
122	0xbe3ca36a	-0.18421713
123	0xbe0ff9d9	-0.14060153
124	0x3de6a445	0.11261801
125	0x3d3679f4	0.044549897
126	0x3d8ab9a2	0.06773688
127	0xbe23186e	-0.15927288
128	0x3e540511	0.20705058
129	0xbdd0fe80	-0.10204792
130	0x3e6709dc	0.22562355
131	0x3e35336b	0.17695396
132	0x3e4d766c	0.20064706
133	0x3e0d6cbf	0.13811015
134	0x3de04b80	0.109519005
135	0x3e1e1063	0.15435939
136	0x3c2e85f8	0.010652058
137	0xbd78facf	-0.060786065
138	0x3e0c1820	0.13681078
139	0xbd4ecc0e	-0.05048757
140	0x3e625e3f	0.22106265
141	0xbe6a9f9f	-0.22912453
142	0x3e53a236	0.20667347
143	0xbd993a51	-0.07481826
144	0xbde2f0e1	-0.110811
145	0xbe720ea4	-0.23638397
146	0xbde67cd4	-0.11254278
147	0xbdb068ce	-0.0861374
148	0xbdee5f43	-0.116392635
149	0xbe2b7a45	-0.16745861
150	0xbdc6f809	-0.09715278
151	0x3e17f0fe	0.14838025
152	0x3b9c41cd	0.0047685863
153	0xbe56aa6f	-0.20963453
154	0x3e656665	0.22402342
155	0x3d5c372f	0.053763565
156	0x3e2d8b31	0.16947629
157	0x3ddccf18	0.107816875
158	0xbe333780	-0.1750164
159	0xbda7cb71	-0.081931
160	0xba883ecf	-0.0010394695
161	0x3c696afb	0.014246698
162	0x3db93399	0.090430446
163	0x3d2e9b03	0.0426283
164	0x3e162b11	0.14664866
165	0xbe5ca882	-0.21548656
166	0x3e057b53	0.13035326
167	0x3e2e58ae	0.17026016
168	0x3e0126b1	0.12612416
169	0xbe65fcaa	-0.22459665
170	0xbc34a321	-0.011025221
171	0x3e835c94	0.2565657
172	0xbe4b32d7	-0.19843613
173	0x3d432352	0.047641106
174	0x3e63e0a8	0.22253668
175	0x3d9e9e0a	0.07744987
176	0xbda5c948	-0.08095032
177	0x3e46b403	0.19404607
178	0x3e07c7fc	0.13259882
179	0x3e1aaf71	0.15105988
180	0xbd9cd008	-0.07656866
181	0xbd9665e6	-0.07343654
182	0xbe15fa67	-0.14646302
183	0x3ca102fc	0.019654743
184	0xbe508a8e	-0.20365354
185	0xbde14d42	-0.11001064
186	0x3ceadaf7	0.028668864
187	0x3d9808eb	0.07423576
188	0xbdbfd092	-0.093659535
189	0x3e6a8ef1	0.2290609
190	0xbe410014	-0.18847686
191	0x3d55a8f3	0.052163076
192	0x3cf924ae	0.030412998
193	0x3e099952	0.13437393
194	0xbdf1ecb4	-0.11812726
195	0x3dab07c3	0.0835109
196	0xbc207eaf	-0.009795829
197	0x3d19a575	0.037511308
198	0xbe5bc64a	-0.2146236
199	0x3d08d833	0.03340931
200	0x3e6a74d1	0.22896124
201	0xbdc38597	-0.095469646
202	0xbe4a9c65	-0.19786222
203	0x3dc8709e	0.09787105
204	0xbde92392	-0.113837376
205	0xbce9848b	-0.028505584
206	0x3dd50bba	0.10402627
207	0xbdbc152c	-0.09183726
208	0x3c7977b6	0.015226295
209	0xbd8b69eb	-0.068073116
210	0x3e2816b3	0.16414909
211	0xbe3c4e6f	-0.18389295
212	0x3e4e8f44	0.20171839
213	0x3de7a7d2	0.11311306
214	0x3d971d15	0.07378594
215	0xbd170bf3	-0.03687663
216	0xbc9e4558	-0.019320175
217	0x3e3942a0	0.18091822
218	0xbda5befa	-0.080930665
219	0xbdab0935	-0.083513655
220	0x3b5c7674	0.003363994
221	0x3d9e0787	0.077162795
222	0x3d58af70	0.052901685
223	0x3e406991	0.1879027
224	0xbe298ccd	-0.16557617
225	0xbe49e9e9	-0.19718136
226	0xbaed1526	-0.0018087968
227	0x3c7055b1	0.014668868
228	0xbe0ee1d9	-0.13953342
229	0xbd654ec8	-0.055983335
230	0x3e4f6857	0.20254646
231	0xbd9c9d5d	-0.07647202
232	0xbe2939b9	-0.16525926
233	0x3e164a16	0.14676699
234	0xbafbe851	-0.0019219016
235	0xbe0b49bf	-0.1360235
236	0x3e289ebf	0.16466807
237	0x3e1ec544	0.15504938
238	0x3e035fe6	0.12829551
239	0x3e560c80	0.20903206
240	0x3dc4bea0	0.09606671
241	0x3e3440b7	0.17602812
242	0x3e16f33e	0.14741227
243	0x3cb77dc3	0.022398835
244	0xbba43540	-0.0050112307
245	0xbddf1e9b	-0.108945094
246	0xbe284265	-0.16431578
247	0x3e6bc4ef	0.23024343
248	0xbdc414d0	-0.09574282
249	0x3e3758d8	0.17904985
250	0x3d38df41	0.045134787
251	0x3e0a231a	0.13489953
252	0xbd86e150	-0.06585944
253	0x3de36bba	0.111045316
254	0x3df0d664	0.11759642
255	0x3db4f779	0.08836264

linearK3.weight f4 [20, 256]
0	0xbca190b3	-0.019722318
1	0x3d5e4a7d	0.054270256
2	0xbc5f5652	-0.01363142
3	0x3d36dc64	0.044643775
4	0x3c4e7fc2	0.012603702
5	0xbc9f0bf4	-0.01941488
6	0x3bd15593	0.006388375
7	0x3d526bd1	0.051372353
8	0xbca451b6	-0.020058494
9	0xbc50ff86	-0.012756234
10	0xbd33a455	-0.04385789
11	0x3c804ea6	0.015662502
12	0xbd36b25b	-0.044603687
13	0xbca112b0	-0.019662231
14	0x3d781e65	0.06057586
15	0x3d45745d	0.048206676
16	0xbd3de7a8	-0.046363503
17	0xbcb86e66	-0.02251358
18	0x3d5f70ef	0.05455106
19	0x3d807296	0.062718555
20	0xbd11824e	-0.03552466
21	0x3d804525	0.06263188
22	0x3b3d7fb5	0.002891523
23	0x3c3467d1	0.01101108
24	0xbd6a9c97	-0.057278242
25	0x3d29908f	0.041397627
26	0x3d0ef808	0.03490451
27	0x3bf3e152	0.0074426318
28	0xbda25538	-0.079264104
29	0xbd4e8b48	-0.050425798
30	0xbd2c3982	-0.04204703
31	0x3d23c9bf	0.039987322
32	0xbd6006cd	-0.054693986
33	0x3d5c8c16	0.053844534
34	0xbd59816d	-0.053101946
35	0x3d464970	0.04840988
36	0xbb86ce48	-0.004113946
37	0xbd01e60d	-0.031713534
38	0x3c7679aa	0.015043655
39	0x3d33e553	0.043919872
40	0xbbc6989f	-0.0060606743
41	0x3d107cfc	0.035275444
42	0x3d4eff61	0.050536517
43	0x3cfdb94c	0.030972145
44	0xbcb4541a	-0.022012759
45	0x3d4d577b	0.050132256
46	0x3ccbc00c	0.024871849
47	0x3d4b1fec	0.04959099
48	0x3d83c1ec	0.06433472
49	0x3c94e1c3	0.018174058
50	0x3ccd9c5b	0.02509897
51	0xbd2658ed	-0.04061215
52	0xbc3a68ca	-0.011377523
53	0xbca48111	-0.020081075
54	0xbcb15846	-0.021648537
55	0xbc8cd30a	-0.017190475
56	0x3c0d7ad0	0.008635238
57	0x3d1ccd8b	0.03828196
58	0xbd6d465a	-0.05792842
59	0xbd567736	-0.052359782
60	0x3d9ae890	0.07563889
61	0xbd10f2f9	-0.035387967
62	0x3d09c3b7	0.033633914
63	0xbcd0ee37	-0.025504215
64	0xbd756953	-0.059914898
65	0x3d3f428b	0.04669432
66	0xbd1b1bee	-0.037868433
67	0x3ca18d58	0.019720718
68	0xbd3e0436	-0.046390735
69	0x3cab812f	0.020935623
70	0xbc4bdeac	-0.012443226
71	0xbca15131	-0.019692035
72	0x3c8f8d48	0.017523423
73	0xbd38cb35	-0.04511567
74	0xbca7f8b2	-0.02050433
75	0xbc2c0444	-0.010499064
76	0xbbb31139	-0.0054646996
77	0x3cbb54aa	0.02286752
78	0xbd8ffbf2	-0.07030477
79	0xbd539919	-0.051659677
80	0xbb952e7a	-0.0045526596
81	0xbd02f331	-0.031970207
82	0x3d17ef78	0.03709361
83	0x3ccbff37	0.02490197
84	0xbd245c08	-0.04012683
85	0xbb68b650	-0.0035509057
86	0xbd4f597a	-0.05062244
87	0xbce62a4a	-0.028096337
88	0x3cb515d9	0.022105144
89	0xbd6bf955	-0.05761083
90	0x3ca06c7b	0.019582978
91	0xbd22917e	-0.039689533
92	0xbc6f5268	-0.0146070495
93	0xbb681c0c	-0.0035417108
94	0xbd460d99	-0.04835281
95	0x3bfc1d34	0.007693911
96	0x3d802851	0.0625769
97	0xbade804b	-0.001697549
98	0xbd7f9bad	-0.062404323
99	0x3bb30456	0.0054631634
100	0x3ce1aad9	0.027547287
101	0xbc658369	-0.014008381
102	0xbd7957c3	-0.06087471
103	0x3d142056	0.03616365
104	0xbcea0eb2	-0.02857146
105	0xbb3b9fd2	-0.0028629196
106	0x3da76f8b	0.08175572
107	0x3cf96740	0.030444741
108	0xbbb3e77a	-0.0054902406
109	0xbdca8c36	-0.09890024
110	0x3d5e87c6	0.054328702
111	0xbd5802b2	-0.052736945
112	0x3d24c6c9	0.04022864
113	0xbd5c15ac	-0.053731605
114	0x3da48e06	0.08034901
115	0xbd1375e0	-0.036001086
116	0xbd106255	-0.035250027
117	0xbd0aa435	-0.033848006
118	0xbc9564e5	-0.018236587
119	0xbd7fbaac	-0.062433884
120	0x3d8566a8	0.06513721
121	0xbcbd3c1d	-0.023099953
122	0xbd4e8843	-0.050422918
123	0x3d8b6414	0.06806198
124	0xbd44d9b0	-0.048059165
125	0x3d7094df	0.058735725
126	0x3b98deca	0.0046652304
127	0x3c81917a	0.015816439
128	0xbd256094	-0.040375307
129	0xbc9614b5	-0.01832042
130	0xbd726daa	-0.059186615
131	0x3cd66126	0.02616937
132	0x3d0bf5e6	0.034170054
133	0xbc8fa87e	-0.017536398
134	0x39ebc7f3	0.00044971667
135	0x3c110fba	0.008853847
136	0xbd55402f	-0.052063163
137	0xbd2bd1ee	-0.04194825
138	0x3d4d34cb	0.050099175
139	0xbc2d77fb	-0.010587688
140	0xbd831845	-0.064011134
141	0xbb218971	-0.0024648572
142	0x3d53617e	0.051606648
143	0x3d00dfc1	0.03146339
144	0xbdc4c2cb	-0.09607466
145	0x3d0d950f	0.03456598
146	0x3be17599	0.006880474
147	0x3d25bb8b	0.040462058
148	0xbd745d1c	-0.05965911
149	0xbd45d34f	-0.048297223
150	0xbc73861e	-0.014863519
151	0xbd48541b	-0.048908334
152	0xbcf38457	-0.02972619
153	0x3c95442c	0.018220983
154	0x3d6c8118	0.0577403
155	0x3db510c8	0.088410914
156	0x3cfc43d1	0.030794056
157	0x3cc31d93	0.023817813
158	0x3c8b5150	0.017006546
159	0x3d0034f0	0.031300485
160	0xbc495f90	-0.01229085
161	0x3990cd58	0.00027618813
162	0x3d30d9d6	0.043176495
163	0x3c892a4a	0.016743798
164	0x3d3f3c64	0.046688452
165	0x3d715508	0.058918983
166	0xbd021fe7	-0.031768706
167	0xbd4d2aec	-0.05008976
168	0xbc3af8db	-0.011411871
169	0x3d6cb4ca	0.0577896
170	0x3d01b282	0.03166438
171	0xbb9dede4	-0.0048196185
172	0xbd4f6b2b	-0.050639313
173	0xbd217fee	-0.039428644
174	0xbd8cc699	-0.06873817
175	0x3cc6cef3	0.024268603
176	0x3a9134b6	0.0011078331
177	0xbd6efdcb	-0.058347505
178	0xbc82eea1	-0.015982928
179	0xbd58a962	-0.05289591
180	0x3cad0b85	0.021123657
181	0xbcc272fb	-0.023736468
182	0x3d602559	0.054723118
183	0x3d256f10	0.04038912
184	0xbc6c6867	-0.014429188
185	0x3d46e67b	0.048559647
186	0x3d6995af	0.057027515
187	0x3d085d06	0.03329184
188	0x3bbcdc92	0.0057635987
189	0xbd35de82	-0.044401653
190	0xbd0fd3c7	-0.035114076
191	0xbba265d2	-0.0049559856
192	0xbcc25781	-0.023723366
193	0xbcc66497	-0.024217887
194	0xbd0a2128	-0.033723027
195	0x3ba52d78	0.0050408207
196	0xbd00044a	-0.03125409
197	0x3d21508b	0.039383452
198	0x3d436946	0.04770782
199	0xbd0e9a64	-0.034815207
200	0xbcc81bad	-0.02442726
201	0xbd510a09	-0.05103496
202	0x3ca136ba	0.019679416
203	0x3b40a831	0.0029397125
204	0x3c9dd6f1	0.019267531
205	0x3d5ff622	0.05467809
206	0xbd000724	-0.03125681
207	0xb9c9127e	-0.00038351485
208	0xbcf52fac	-0.029929958
209	0x3d450382	0.04809905
210	0x3c3adf1b	0.011405732
211	0xbc9ca88f	-0.019123344
212	0xbd67130c	-0.05641465
213	0xbca21344	-0.019784577
214	0x3d3521ff	0.044221874
215	0x3a09ea4b	0.00052610476
216	0xbd2020fb	-0.039093953
217	0x3c948730	0.018130869
218	0x3d0b68ed	0.034035612
219	0xbbe195b1	-0.0068842997
220	0xbd2a5726	-0.041587017
221	0x3ca86f10	0.020560771
222	0x3d62b644	0.055349603
223	0xbd99d684	-0.07511619
224	0xbd072aa0	-0.032999635
225	0x3cc3f46e	0.023920264
226	0x3c2f4d21	0.010699541
227	0x3c5fbf42	0.013656439
228	0x3d948f57	0.072539024
229	0xbd1896dc	-0.037253246
230	0xbd857f12	-0.06518377
231	0xbc98a820	-0.018634856
232	0xbd045e0f	-0.032316264
233	0xbc0047f4	-0.007829655
234	0xbd733d1f	-0.05938446
235	0xbd73a682	-0.059484966
236	0x3d7e5d7c	0.062100872
237	0x3d464123	0.048401963
238	0x3d181149	0.03712586
239	0x3d99bcd4	0.07506719
240	0x3c375a29	0.011190929
241	0xbd185c6d	-0.03719752
242	0xbbbcca6f	-0.0057614367
243	0xbdcc93b7	-0.09989112
244	0xbd9e4491	-0.07727922
245	0x3d4dfcd6	0.05028995
246	0x3c86c9f4	0.01645372
247	0xbb97af21	-0.0046290313
248	0xbb1c98b8	-0.0023894738
249	0xbbdae386	-0.006679955
250	0x3d2656cd	0.040610123
251	0x3c8918ad	0.0167354
252	0x3ca63e06	0.020293247
253	0xbd453bda	-0.048152782
254	0xbda4939e	-0.08035968
255	0x3cd8226b	0.0263836

linearD3.weight f4 [6, 20]
0	0xbc95fbf4	-0.018308617
1	0x3d5b1200	0.053483963
2	0x3e243c2e	0.16038582
3	0xbc9f2705	-0.019427786
4	0x3da2aca0	0.07943082
5	0x3dfa771d	0.1222975
6	0xbce55bd4	-0.027997889
7	0x3e0c5a73	0.13706379
8	0x3ca76ca6	0.02043755
9	0x3d0e3594	0.034719065
10	0xbd74aed4	-0.05973704
11	0x3dd19116	0.10232751
12	0x3e2fea40	0.17179203
13	0x3e740310	0.23829293
14	0x3e5111d7	0.20416962
15	0x3ba4fc8f	0.00503499
16	0x3dcdd812	0.10050978
17	0xbdae9e6c	-0.0852631
18	0x3e6506d1	0.22365882
19	0xbe4d4944	-0.2004748
20	0xbdb910cf	-0.09036409
21	0xbe1c6c81	-0.15275766
22	0x3e5451d0	0.20734334
23	0xbd952a30	-0.07283437
24	0xbe448980	-0.19193077
25	0xbdd4d7ef	-0.103927486
26	0xbe5ee005	-0.21765144
27	0x3e4ae931	0.19815518
28	0xbe455cce	-0.19273683
29	0x3e2581d1	0.16162802
30	0xbcd06f85	-0.025443802
31	0x3cd7a92a	0.02632578
32	0xbe11be9f	-0.14232872
33	0x3d05ac6f	0.03263515
34	0xbbb115ec	-0.0054042246
35	0x3c01bda5	0.00791875
36	0x3c7d8140	0.01547271
37	0xbd72688a	-0.059181727
38	0x3d1ee33e	0.038790934
39	0x3e2e2efe	0.17010114
40	0xbd6cdfc3	-0.057830583
41	0xbe688528	-0.22707045
42	0x3e06df3b	0.13171093
43	0x3d45df2a	0.04830853
44	0xbe5144a5	-0.20436342
45	0xbce2a9c7	-0.027668847
46	0x3e219a0f	0.15781425
47	0xbce75d4f	-0.028242735
48	0x3db0fd06	0.086420104
49	0xbe0bf1ee	-0.13666508
50	0xbdb81f75	-0.08990375
51	0x3dc213ac	0.09476408
52	0x3d8a91d2	0.06766094
53	0x3c865d52	0.01640192
54	0xbe49816c	-0.19678277
55	0xbd934f88	-0.07192904
56	0xbdf151dc	-0.117831916
57	0x3db84907	0.08998304
58	0x3e2307f7	0.15921007
59	0x3d609faf	0.054839786
60	0xbde1d36c	-0.11026654
61	0xbd8c37cf	-0.06846582
62	0x3e371cc6	0.1788207
63	0x3c852d98	0.016257092
64	0xbe342cb0	-0.17595172
65	0x3df2faaa	0.118642166
66	0x3e4b8b38	0.19877326
67	0xbe673184	-0.22577482
68	0xbc512c15	-0.012766858
69	0x3da43c27	0.08019286
70	0x3e3f5f09	0.18688597
71	0xbe3ae162	-0.18250039
72	0x3bc00071	0.0058594276
73	0x3daf6863	0.08564832
74	0xbdbec94b	-0.09315737
75	0x3cbef78f	0.023311405
76	0xbdab5f0d	-0.08367739
77	0xbe39be60	-0.18139029
78	0x3e5ea633	0.21743087
79	0x3e511a08	0.20420086
80	0x3e0e6a8f	0.13907836
81	0x3e4f3c04	0.20237738
82	0xbdf1f410	-0.11814129
83	0x3d807d51	0.06273902
84	0xbe6631bc	-0.2247991
85	0xbd99f98d	-0.07518301
86	0xbe1edfa5	-0.15515001
87	0x3e1ee9c1	0.15518858
88	0x3e3aae0d	0.18230458
89	0xbde789ce	-0.11305581
90	0x3df582de	0.119878516
91	0x3d21c893	0.039497923
92	0x3d2d9c75	0.042385537
93	0xbe063295	-0.13105233
94	0x3e5f8bd3	0.21830682
95	0x3bc5ec66	0.006040144
96	0x3d38f009	0.04515079
97	0x3de96941	0.11397029
98	0x3e4cd6a4	0.20003754
99	0x3de5db04	0.112234145
100	0x3e61e2f2	0.22059229
101	0x3e2b64c4	0.16737658
102	0x3d3e85ea	0.04651443
103	0x3d157a98	0.036493868
104	0xbe1380f3	-0.14404659
105	0x3e318936	0.17337498
106	0xbd02bbb2	-0.03191728
107	0xbd8b1f5f	-0.06793093
108	0x3d76039e	0.060062043
109	0x3e20355b	0.15645353
110	0xbe3f82bc	-0.18702215
111	0xbd8cd13b	-0.06875845
112	0xbd363fa1	-0.044494275
113	0xbe24caef	-0.16093038
114	0xbde230bf	-0.11044454
115	0x3d2b0326	0.04175105
116	0xbdf3e913	-0.1190969
117	0x3e031b29	0.1280333
118	0x3e2d08df	0.16897915
119	0x3e479756	0.19491324

linearD3.bias f4 [6]
0	0x3cd09d9f	0.025465785
1	0xbd91ad64	-0.0711315
2	0x3d571066	0.052505873
3	0xbdf8f780	-0.12156582
4	0x3d62e338	0.055392474
5	0x3e49c345	0.19703396
