continous_state/pretrained/MLE/MLE4_128.pt (torch, 21980 bytes, 9 tensors)

linearK1.weight f4 [4, 8]
00000000: 274a 123f 401e eebd 3b49 9a3e ec79 1b3e
00000010: dcc7 09be 316b e7bc d160 623d a52f 1f3c
00000020: 1307 88be 611e 2cbe cd8c 933f 7936 893e
00000030: 78d6 8bbe 0937 e5ba 6779 cc3d 001f 283d
00000040: 4162 9c3d 1243 e0be f4bc 02bf a490 b1be
00000050: 4135 9a3d 39c7 31be b646 2fbe b195 2ebe
00000060: ac75 b6bd 5126 9dbe 88f9 ecbe c882 c03e
00000070: a988 3c3e f52d b3bd 9abf a83e 4fdc 013e
0.571444 -0.116268635 0.30133995 0.15183228 -0.13455147 -0.028249355 0.055268113 0.009715949
-0.26567897 -0.16808464 1.1527344 0.26799372 -0.27312064 -0.0017487715 0.09984093 0.04104519
0.07635928 -0.4380117 -0.5106957 -0.34680665 0.075296886 -0.17361154 -0.17116818 -0.1704929
-0.08909163 -0.30693296 -0.46284127 0.37599778 0.18411507 -0.08749 0.3295868 0.12681697

linearD1.weight f4 [256, 4]
00000000: 51d6 cf3d 265b 1b3e 7f3d 153f 0cf7 85bd
00000010: 43d6 dd3d 9eed 49be d471 a63e 02a5 b2bd
00000020: dddb a9be 2b3b bf3e a1d4 a13e 8818 dcbe
00000030: cb3f afbe a39f 1d3e 9cd1 e93e 87a0 d1bd
00000040: 93cd ac3b ab64 8a3e 0cfb e8be 60e7 973e
00000050: f072 923e e766 8b3e 259b 26be 11ca c23e
00000060: 9d93 c13e dde8 b8bd 7d2a 58be 6d9a ec3d
00000070: 5f56 153e c6e3 833e c1b8 dd3d 62f2 91bd
00000080: 7b86 1e3e fefb aabe 7dfe 6cbd 8518 073f
00000090: 242d bd3e 6210 3c3d 9662 f0be c697 1e3e
000000a0: 3824 bbbe be17 2d3e 40a4 ed3e cb0c 503d
000000b0: 7d15 c13e 01b2 a53e ebce b33d c5e9 003e
000000c0: 8342 dbbe b8c6 2fbd 478a 263e f15b 3cbd
000000d0: 268b be3e 2b56 c0be 9e3e 7d3e 3be6 09be
000000e0: 3e55 85bd d706 d63e dc6b ddbe 8e56 d8be
000000f0: 149d d53e 24cb 973e 9693 ef3e 29dc 4abe
00000100: 2101 ca3e f512 533d ff57 cb3e c214 943d
00000110: 74d6 ff3d acd5 143f fb62 88be 47f3 cebe
00000120: 84ef 3d3d ed99 a33e 2970 023a 872b e8be
00000130: 1391 863b 6093 a43e 8e9d b23e 9258 1ebf
00000140: 4ab9 aa3d ddae 75be 3ff4 f63e b003 a9be
00000150: 2d71 9ebe f422 c0bd 3f5a 4e3e efc0 f4be
00000160: 1040 88be e61a ebbe ee7f 8c3e 1bdc 0cbd
00000170: 9e01 22bf 9786 13be 5d5e e8bd 9058 b63e
00000180: cf62 0f3e 0292 a6be d9dc aebe f743 a8be
00000190: 9894 83bd 8dd8 95be b633 d93e cddf 59be
000001a0: 4637 93be 67a3 8ebe 509e bc3e 7591 893e
000001b0: 3cb7 0fbd ef83 b9be 4736 5f3c 7fb2 9b3e
000001c0: b489 d3be bcac e03e c371 f0be be70 8e3e
000001d0: d2e3 04be f215 c93e e868 f23d e3d2 083e
000001e0: de47 debd 16b4 133e f426 c03e 3ec3 9f3e
000001f0: a5f2 a63e 1136 003e 6042 9abe 21a9 fbbd
00000200: 4b6f 733e 8547 1c3e 5876 683e de08 f83d
00000210: ad6b 0fbf 7470 fdbd 479a 6dbe d146 d63e
00000220: fd6e b73e 703f a9bc 8eb6 cb3d 532a e23e
00000230: 961b 2bbd 7228 b73d 69b5 3d3e c9ae 803e
00000240: f1c7 4fbe 0594 a2be 8d71 893d 61cf 75be
00000250: 1284 143e dc2e 963e 3507 753e c043 5f3e
00000260: 9adc a73e 8caa b43e d90f 0f3c 1f62 653e
00000270: 8006 e7bd 183c c63e 9750 acbe 1a0c 9a3e
00000280: c2f3 743e 654d 6d3e 7fb7 cfbe 1a4d 013f
00000290: 81b3 aabe 5161 87bd d1cb b3be 64eb d73a
000002a0: 56bd 8f3e 7f73 053e 21f5 483e 21a0 ba3c
000002b0: ffbe 513d d322 b3bd bf11 853d ca4f bf3e
000002c0: 2424 ef3e 14d0 d93d a4c6 843e 0864 063d
000002d0: be05 8abe f545 a3bd 41ad b3be 2ac2 40bd
000002e0: 2744 413c c7bb 65bf 9100 46be 95ea aa3e
000002f0: 64f9 89be 16e9 65be 3fff edbe b971 2f3e
00000300: 47de 11bf 523b 18bd e87a 52bc f808 fabd
00000310: afee 153e d101 09be 8981 ca3e 4678 d5bc
00000320: 71f5 813e 3ca1 00bf 5de0 2c3e 62cf 043f
00000330: 285f 923e 5aea 253d 7b73 3bbc 7999 d8be
00000340: d4fd 1c3f 3b5d f73d 25e9 03be f988 02bf
00000350: d4d1 31be 5846 76be 0f83 87be bc3b 4bbe
00000360: c6eb 0cbe 07df 383e 4dd4 45be 3a3a be3d
00000370: 1f7b 7f3e 15a1 5d3e 867c 1d3e 0ff4 23be
00000380: 6be7 20be b47a ef3d 220f d7be aa01 2bbe
00000390: 1ac4 883c 84c2 94be deb1 1a3d f86e 82be
000003a0: 0165 ed3d 3b4e adbe c1cd 753e 2e00 ef3e
000003b0: 28bc b73e 3d09 2ebf 8d71 0dbe 4faa a63e
000003c0: bc7b 183f 484b c2be 46a2 aabe 3e53 67be
000003d0: 8cec 5dbe cc56 723e 72c4 e83e 2672 98be
000003e0: 5ecb 02be fa38 c2be 4c6d 653e 0c4a a7be
000003f0: 3ae4 e43c 283a b53e 6d06 d13e 608e 6a3e
0.101482995 0.15171489 0.5829696 -0.06541261 0.10831883 -0.1971955 0.3250872 -0.08722879
-0.33175555 0.3734983 0.31607535 -0.42987466 -0.34228358 0.15392928 0.45667732 -0.10235696
0.00527353 0.2702993 -0.45504034 0.29668713 0.28603315 0.27226946 -0.1627012 0.3804479
0.37807932 -0.0902879 -0.21109958 0.11552892 0.14583729 0.25759715 0.10826255 -0.07126309
0.15480988 -0.3339538 -0.057859886 0.5277179 0.36948502 0.04591406 -0.46950215 0.15487584
-0.3655107 0.16903588 0.46414375 0.05079345 0.37711707 0.3236237 0.08779701 0.12589176
-0.42824182 -0.042914122 0.16263686 -0.04598612 0.37215537 -0.3756574 0.24730918 -0.13466732
-0.06510399 0.41802093 -0.43246353 -0.42253536 0.41721404 0.29647171 0.46792287 -0.19810547
0.39453986 0.05153175 0.39715573 0.07230522 0.124920756 0.5813854 -0.26638016 -0.4041998
0.046370998 0.31953374 0.00049758196 -0.4534571 0.0041066497 0.32143688 0.3488583 -0.618539
0.08336122 -0.23992486 0.4823322 -0.33010626 -0.3094572 -0.09381667 0.20151614 -0.47803447
-0.26611376 -0.4591896 0.27441353 -0.034389596 -0.6328372 -0.1440681 -0.11346123 0.35614443
0.14002536 -0.3253327 -0.34152868 -0.32864353 -0.064248264 -0.29266778 0.42422265 -0.2127678
-0.28753108 -0.2785904 0.36839533 0.26868787 -0.035086855 -0.3623347 0.013623781 0.3040962
-0.41315997 0.43881786 -0.46961793 0.2782039 -0.12977532 0.39274555 0.118364155 0.13361697
-0.10853551 0.14424166 0.3752972 0.31203645 0.32606998 0.12520625 -0.30128765 -0.12288118
0.23772924 0.15261658 0.22701395 0.12111066 -0.56023675 -0.12374964 -0.23203383 0.41850904
0.35826865 -0.020660132 0.09946929 0.44172916 -0.041774355 0.08943261 0.18526234 0.2513335
-0.20291115 -0.31753555 0.06711111 -0.2400489 0.14503506 0.29332626 0.2392853 0.21803188
0.32785493 0.35286367 0.008731806 0.22400711 -0.11280537 0.38717723 -0.33655235 0.30087358
0.23921111 0.23174055 -0.40569684 0.5050827 -0.33340076 -0.066103585 -0.35116437 0.001647335
0.2807414 0.1303234 0.1962476 0.022781434 0.05120754 -0.087468766 0.064975254 0.37365562
0.4670726 0.10635391 0.259328 0.03281024 -0.26957506 -0.079723276 -0.3509312 -0.04706017
0.011796034 -0.8973965 -0.19336154 0.33382097 -0.26948082 -0.22452196 -0.464838 0.17133226
-0.56979793 -0.037165947 -0.012846686 -0.12208742 0.14641832 -0.13379599 0.39551952 -0.026058327
0.2538257 -0.50246024 0.16882463 0.5187894 0.28588223 0.0405067 -0.011441107 -0.4230459
0.6132481 0.12078329 -0.12881906 -0.50990254 -0.173652 -0.24050272 -0.26467177 -0.19847006
-0.13761815 0.18053828 -0.19319268 0.092884496 0.2494931 0.21643479 0.15379533 -0.1601107
-0.15713279 0.11693326 -0.42003733 -0.16699854 0.016695071 -0.29054654 0.037767284 -0.25475287
0.115915306 -0.33848748 0.2400427 0.46679825 0.3588574 -0.67982846 -0.13812847 0.3255181
0.59563804 -0.3794806 -0.3332693 -0.22590348 -0.21672267 0.23665923 0.45462376 -0.29774588
-0.12772891 -0.37934095 0.22404975 -0.3267368 0.027940858 0.35395932 0.40825215 0.22905874

linearD1.bias f4 [256]
00000000: 3f97 933d 1c75 d53e bd03 cebd 58d8 b2be
00000010: 7c11 e93d 8fdd bf3e 8d33 37be a30a c23b
00000020: b4ee 29bd 9a0a 9ebd 4f86 2a3e e30d 073f
00000030: 598b 9d3d 48a3 273e aa04 ff3e ee9d acbe
00000040: 3e95 4ebd 8cd8 edbe 55f9 513e b2d1 37be
00000050: 08a8 e1bd d8c5 36be 94a1 e93d cec1 a7be
00000060: fae3 82bd f5ad 56bd 7f6c 98be 4c48 27be
00000070: 4b17 783e 8b2b 2e3e ee4b cabe ec76 a03e
00000080: 60af 9d3e 2c1d 543e 98b1 d83e f2c8 41bc
00000090: 5be5 803d 00e0 5f3e d6b4 a03e 4abd bd3d
000000a0: 6d4f b2bd e73c 26be f9ed 88bd e235 1dbe
000000b0: 9f82 ed3e 46e0 ab3c 9e22 fc3e c2f8 ecbd
000000c0: 9af1 d7bd 56cd 85be ff05 9fbe 5656 dcbe
000000d0: 22bf 4abe 6536 3dbe 0bce c53e b7da bcbd
000000e0: 1bff 1d3e a752 ff3e 903f 943e 17da 99be
000000f0: 0c5b 65bd eaac c43e 17be 853c ea39 243e
00000100: ddca 9cbb 624f efbe 1af9 a83e d994 0dbf
00000110: b57b da3e 17f1 efbe 3128 3ebd 646a d2bc
00000120: bfaa d9be 4321 03bf 7a0d ed3e 828d 803e
00000130: c4c5 573e de06 873e 9efb 4fbd 995d b93d
00000140: ee74 d93e 1cc9 c9be 52a0 bc3e 2d6d 03bf
00000150: fb7d b6be a5a5 98be a2ee d4be 1a2c 62bd
00000160: 8646 343e 7aad 8e3d 13a2 d83d aefe 74be
00000170: 9b90 bdbe 2c2f 043f e222 063d 2538 a9bd
00000180: 2d9f c1be 8a5c 96be 61d9 d6be 9305 5d3d
00000190: 0273 103d cbc0 453e d7c1 953e 6673 78be
000001a0: c721 f9bc 9217 ddbe 0cf4 eb3e 93a8 003f
000001b0: 4f60 fabe 56e0 bcbe 2d2b 10be 192f bebe
000001c0: 9fbb e0be f3d7 7ebe cb67 c43c fca0 4bbe
000001d0: acd7 9dbd 9207 bcbe 61f0 023f b18d 203d
000001e0: 54a2 d13e ea34 903e 945c a9be 13c7 07be
000001f0: db77 b33e 9b9d 38be c32d b5be ecfb a9be
00000200: 94ea 00bf a266 203e 00f4 a33e 31a3 f2be
00000210: 1762 bb3d 890d ec3d 7713 eb3e 7787 d9be
00000220: c890 08bd f119 d53e 07bb a63d 4ac8 b03e
00000230: ca05 7dbe 2ad5 61bd 1b79 5f3d 59b4 a23c
00000240: de89 33be 57d5 b3bd 8479 edbe 64aa 883d
00000250: 9402 c73e 91e3 b3be 6116 a0be f0a7 f2be
00000260: 1e86 b63d 4847 ebbe bc0b d23e 0477 6dbe
00000270: ddd1 8fbe 9b3f 65be 0735 a73e ff55 b53d
00000280: 8f97 78be 2067 c23e 4c09 abbe e6db c03e
00000290: 4f5a e03e 1a89 22be ffb6 df3e 1120 ca3e
000002a0: 53c7 4fbe ac5a 9abe b89a 873e c63e febd
000002b0: 16a0 8d3c 0d4a af3e 2049 3abe a3cb e4be
000002c0: 824e b8bd 1fa5 a93e 473f e3be da05 0cbf
000002d0: aecc d6bd 6cd7 2f3d 3407 953c 663a 85be
000002e0: 9324 6c3d dc5c ab3e 9af7 293e ecae 073e
000002f0: 8aa8 5abe c054 b23b 6280 e5be a590 963d
00000300: dca7 7ebe 8aee 98be 9de0 fbbe 7367 eb3e
00000310: 4797 96be 8f71 113f 9413 7c3e 7c7a c0be
00000320: 440f 883e bf17 103e 856f 4d3e fa29 91be
00000330: 0106 b0bc 45cc a0be 8efa 8cbe 642f 85be
00000340: 8749 5f3e 84f5 26be 8113 ee3e cbe7 c13e
00000350: b5e0 debd 5b7d 3bbd ca8e 9e3e 8c2a b13d
00000360: a621 ac3e f7af d33e 89ab 7fbe 2310 a2be
00000370: 6410 403e c0e9 dfbe 3c96 8b3e fef6 b43d
00000380: 2d92 88be be74 823e fbe7 72be c43b 6a3e
00000390: 3266 d5be 566b b8be bd2a a53e 2669 84be
000003a0: 04df 923e da0b 01bf f5d2 bdbe 0549 0d3e
000003b0: 6c36 3dbe cea3 813e cf4d 2c3e 209a bebe
000003c0: 5427 c83e b7b2 96be e4d5 163e 671e 903e
000003d0: e026 21bd a525 88be 30c2 c13e deaa bebe
000003e0: 456b 82be c54f 8abd c9b0 f1be 04bd fbbe
000003f0: 968a 023e b5c3 453d fe91 debe c88c d43e
0.07206582 0.4169091 -0.10059307 -0.34930682 0.11380288 0.37473723 -0.17890759 0.005921678
-0.04148741 -0.07716866 0.16652797 0.52755564 0.07692594 0.1637088 0.49808246 -0.3371424
-0.050435297 -0.46454275 0.20505269 -0.17951086 -0.110183775 -0.17848909 0.11407772 -0.3276505
-0.06391139 -0.052411992 -0.29770276 -0.16336173 0.24227636 0.17008798 -0.39511055 0.3134073
0.30797863 0.20714253 0.42322993 -0.011827694 0.06293746 0.21862793 0.31387967 0.0926462
-0.087065555 -0.1623417 -0.06686015 -0.15352586 0.46388718 0.020980965 0.4924516 -0.11570884
-0.10544129 -0.2613322 -0.31059262 -0.4303462 -0.19799474 -0.18477781 0.3863376 -0.09221404
0.15429346 0.49867746 0.28954744 -0.30049202 -0.055995032 0.38413173 0.016325993 0.16037717
-0.0047849254 -0.46740252 0.3300255 -0.5530525 0.42672506 -0.46863624 -0.04642505 -0.025685497
-0.4251308 -0.5122263 0.46299344 0.25107962 0.21071535 0.26372427 -0.05077707 0.090510555
0.42472023 -0.39411247 0.36841065 -0.51338464 -0.3564299 -0.29813877 -0.41588312 -0.05521784
0.17605028 0.06966682 0.10577788 -0.23925278 -0.37024388 0.5163448 0.03274811 -0.08262662
-0.37816754 -0.29367477 -0.41962722 0.053960394 0.03526593 0.19311826 0.2924945 -0.24262771
-0.030411614 -0.43182045 0.4608463 0.50257224 -0.48901603 -0.36889905 -0.1407897 -0.37145308
-0.43893144 -0.24887066 0.023975274 -0.1988563 -0.07707152 -0.36724526 0.5114804 0.039197627
0.4094416 0.2816537 -0.33078444 -0.13259535 0.3505238 -0.18028872 -0.35386476 -0.33200014
-0.5035794 0.15664151 0.32022095 -0.4739013 0.091495685 0.11526019 0.45913288 -0.42486164
-0.0333412 0.41621354 0.081411414 0.34527808 -0.2470924 -0.05513493 0.054558855 0.019861387
-0.17533061 -0.08780926 -0.46381772 0.066731244 0.38869154 -0.35134557 -0.31267074 -0.4739375
0.089122996 -0.4595282 0.41024578 -0.23189932 -0.280898 -0.22387545 0.32657644 0.08854293
-0.24276565 0.37969303 -0.3340553 0.3766777 0.438189 -0.15872613 0.43694302 0.3947759
-0.2029088 -0.30147302 0.2648523 -0.12414317 0.017288249 0.34236184 -0.18191957 -0.44686612
-0.08999349 0.3313379 -0.44384214 -0.5469643 -0.10488258 0.04293005 0.018191911 -0.26021117
0.057652067 0.33469284 0.16598359 0.13250321 -0.21353355 0.005442232 -0.4482451 0.073518075
-0.24868721 -0.2986949 -0.49194804 0.45977363 -0.2941229 0.568139 0.24616843 -0.37593448
0.26574147 0.14071558 0.20062073 -0.28352338 -0.021487238 -0.31405845 -0.27534908 -0.2601272
0.21805392 -0.16304594 0.46499255 0.37872157 -0.10882703 -0.045773845 0.30968314 0.08650693
0.33619422 0.41345188 -0.24967779 -0.31652936 0.18756253 -0.43733025 0.27263057 0.088361725
-0.26674023 0.25479692 -0.23721306 0.22874361 -0.4167953 -0.3601939 0.3225917 -0.25861472
0.28685772 -0.5040871 -0.3707501 0.13797386 -0.18477792 0.25320286 0.16826557 -0.37226963
0.39092505 -0.29433224 0.1473003 0.28148195 -0.039343715 -0.2659122 0.37843466 -0.37239736
-0.25472465 -0.06753496 -0.4720519 -0.49167645 0.12748179 0.048282344 -0.43470758 0.41513658

linearK2.weight f4 [4, 256]
00000000: d20d c2bb b644 c23d 7d2c 9a3d e5b6 823d
00000010: cb78 b1bd 7e0b 82bd 7905 abbd ba41 d9bd
00000020: 469f 0ebe 94fb 8cbd 8c95 6e3d 4a17 873d
00000030: 6fb4 a13d 2734 84bd 2f3f 703d bc8b 54bc
00000040: 0d91 fbbd e067 75bd ff2a c23d 8967 ac3d
00000050: edec 773d e936 783d 1e68 193d 13d3 b33c
00000060: 9515 d23c ce09 f8bb c5ca edbb c747 23be
00000070: ba49 263d bac1 c83c 1ee1 4aba ea6c 52ba
00000080: 1112 19bc f6bb 343d bf96 ed3c db9c 82bd
00000090: 293e 423d 3944 6cbc 4241 e6bc 8bbb 07bd
000000a0: 9b52 d5bd 15b5 1f3d 2ae8 e6bd 573d 11bd
000000b0: 867a 06bd fd6f f63d 1d61 7d3d 40a9 ec3c
000000c0: b5f7 163d 42ce 2bbd 0d20 2abe 971b d53b
000000d0: 807d 12bc 56b7 b83c 3b52 073d c969 833c
000000e0: 07c5 903d 50e2 9f3d aa63 20bc 8e17 12be
000000f0: e221 96bd 6ad3 553c 7ba3 303b 7173 b43c
00000100: 9977 9dbd 70c4 34bd 8bfd 0ebb 0dd1 9fbd
00000110: 99fe cc3d e0b7 103d 1366 4d3d f72b 95bd
00000120: f49d d5bd 8574 f7bd 2a87 233d a422 183e
00000130: 2a57 3d3d 06b1 ab3b 85fd 32bd 7d54 febc
00000140: 388c bb3c 4b43 64bd 5ba4 013c f150 74bc
00000150: 8cf0 e3bd 331b a2bb f34b c3bd 3777 4b3c
00000160: 09a3 0e3e 14eb 883b b35e 30bd a8c5 8dbd
00000170: 889f 0bbd 39a4 4f3d 7226 cebd 2193 54bd
00000180: 8791 17bd 41e6 b33c 2d01 973c 1ea6 863d
00000190: 5d48 923d 2878 43bc e33c 1abd 8e11 8ebd
000001a0: e127 693d 7496 efbc fc29 883b e741 023e
000001b0: 8a1b 373d 02eb a3bd df2d 10bc 2b41 d4bc
000001c0: 41ca f6bb f6e5 993d 82ca bcbc d978 0a3d
000001d0: 9f88 dabc b41f 1fbd dcea 843d c40b a1bd
000001e0: e649 cdbb 4197 1cbd db6f 3bbd 6d56 423d
000001f0: 2b53 d23b a784 a239 b2dc 07be 1f81 22bd
00000200: 40a9 c5bd 586d d83d 911a 8bbc 4cf8 0bbe
00000210: f325 583d e4ad a23d ff6f 9d3d e64e 193d
00000220: 1d4f 59bd 4e8b 083d 1287 a83d 7705 983d
00000230: 8de5 32be b511 8f3d d126 b73d eb46 c9bd
00000240: 0b1c 44bd 209c 3d3d 6e63 82bd 5595 9bbd
00000250: 859c 36bd dcfd 02be a0ea ecbc 1176 32bd
00000260: b3a9 c53b d6f9 14bd 92b2 eb3c e52c 17bd
00000270: 291e 99bd e32e 0dbd fce2 963d 3ec7 00bd
00000280: b762 a4ba 7e75 a83c e67d 5bbb 6eb6 9d3d
00000290: 4a39 7dbd 56ef a83d 55e3 803d cc03 473d
000002a0: 09ee b9bc c115 ca3c b5d5 e03d 858b 96bd
000002b0: a2c7 c93d 2b3b 5cbc 3c7e 963d ba26 39bd
000002c0: 8b1b a4bd 2ff6 4d3d 8020 0fbd 98fa 8fbd
000002d0: 537b 363a b4a6 193d 4a25 c3bd 6fc3 cabc
000002e0: 767c da3c 95c1 0fbd 70e9 4abd 7ca0 1cbb
000002f0: e542 04bd 403d b63d d190 343c d0e3 a5bc
00000300: 5784 00bd 5bd0 94bd 5ddb f9bd 44cb e5bc
00000310: 1aa4 f73c 7f67 d63c 8c53 bb3d 8550 bebc
00000320: 5f3b 6d3d ba70 b2bc 208c 6dbc 0d99 2ebd
00000330: 3c11 07bd 85e7 d4bd cd45 8cbb 6c09 66bd
00000340: 54af bc3b 8301 febd 6b59 6cbc 053b 503d
00000350: 4c57 d9bd fbad 503b 32b3 303d 0bca 1d3d
00000360: 3a03 043e d654 88bd e1b4 b0bd d309 39bd
00000370: 38bb 243e 41f1 d7bd adab 1b3e 5bec e23d
00000380: 19d1 a1bd 695e 9b3d 68d5 5dbd ef39 443d
00000390: 5cd0 21bd 8b92 2cbd 6101 583c 0e5d 7fbd
000003a0: 1dfa 753d 0067 23bd a4c8 85bd ab03 7a3c
000003b0: d5ac 88bc fadd 883d d0bc 0fbb b198 6a3d
000003c0: b303 12bd 7cd5 333d cce8 f83c 8a90 95bc
000003d0: 132d 07be 0b53 3d3d cdf5 493d 9644 a5bd
000003e0: 701b 943c cbd1 50bd a29b ccbd 5e6a 513d
000003f0: 6978 773d 73cf 0fbd 4eba 82bc d0bc 85bc
-0.0059220577 0.09485762 0.07528017 0.063825406 -0.086656176 -0.06349848 -0.08350653 -0.106082395
-0.13927945 -0.06883922 0.058248088 0.06596239 0.07895743 -0.0645526 0.058654007 -0.012972768
-0.122835256 -0.059913516 0.09480857 0.08418185 0.060528684 0.06059924 0.03745281 0.021951234
0.025645057 -0.007569528 -0.007256838 -0.1594535 0.040597655 0.024506439 -0.00077392336 -0.0008027094
-0.009342686 0.044124566 0.029002545 -0.06377574 0.04742256 -0.014420562 -0.02810729 -0.03313784
-0.10416146 0.038991053 -0.112747505 -0.03545889 -0.03283169 0.12033079 0.061860193 0.028889298
0.036857326 -0.04194475 -0.16613789 0.006503533 -0.008941054 0.022548359 0.033037405 0.016041653
0.0706883 0.078068376 -0.009789387 -0.14266798 -0.073306814 0.013050893 0.002695291 0.022027703
-0.07688827 -0.04413265 -0.0021818604 -0.07803545 0.10009498 0.035331607 0.050146174 -0.07283776
-0.10430518 -0.12082771 0.039923824 0.14856964 0.046225704 0.0052396087 -0.043698806 -0.031046147
0.02289401 -0.055728238 0.007912721 -0.014911876 -0.11129865 -0.00494709 -0.095359705 0.01241856
0.1392938 0.004178414 -0.043059062 -0.069224656 -0.034087688 0.050693724 -0.100659266 -0.051898126
-0.03700402 0.02196038 0.018433178 0.06574653 0.071427085 -0.011930503 -0.037655722 -0.06936942
0.056922797 -0.029246546 0.0041553956 0.12720452 0.044703998 -0.080038086 -0.008799999 -0.02590998
-0.0075314348 0.07514565 -0.023045782 0.033806656 -0.026676474 -0.038848594 0.06490108 -0.07863572
-0.006264913 -0.038230184 -0.04576097 0.047445703 0.006418606 0.00030997882 -0.13267782 -0.03967392
-0.096514225 0.10567731 -0.016980441 -0.13668936 0.052770566 0.07943323 0.07687377 0.03742876
-0.053053964 0.033335976 0.082288876 0.07422917 -0.17470379 0.06985799 0.089429505 -0.0982798
-0.047878306 0.04629147 -0.06366621 -0.07596842 -0.044582862 -0.12792152 -0.028920472 -0.04356963
0.0060321926 -0.036371075 0.028771672 -0.03690805 -0.07476456 -0.034468543 0.073675126 -0.031440012
-0.0012541626 0.020563837 -0.003349179 0.07700811 -0.061822213 0.08248775 0.0629336 0.048587605
-0.022696512 0.024668576 0.109782614 -0.0735083 0.0985253 -0.013441841 0.07348296 -0.04520295
-0.08013066 0.050283607 -0.034943104 -0.07030219 0.0006961126 0.037512496 -0.09528597 -0.024751393
0.026670676 -0.035096724 -0.04953903 -0.0023899367 -0.032290358 0.08898401 0.011020855 -0.020250231
-0.03137621 -0.07266303 -0.12200043 -0.028051026 0.030229617 0.026172398 0.09146795 -0.023231754
0.05791795 -0.021782268 -0.01449874 -0.04262643 -0.03297542 -0.10395721 -0.004280782 -0.05616133
0.0057582054 -0.12402632 -0.014425616 0.050837535 -0.10612354 0.0031841982 0.043139644 0.03852276
0.12891856 -0.06656806 -0.0862825 -0.045175385 0.16087043 -0.105440624 0.15202208 0.110802375
-0.0790121 0.07586367 -0.0541586 0.047906812 -0.039505348 -0.04213194 0.0131839225 -0.062344603
0.06005298 -0.03989315 -0.0653241 0.015259664 -0.016683975 0.06682964 -0.002193261 0.057274524
-0.03564806 0.043904766 0.030384444 -0.018257398 -0.13200788 0.046221774 0.04930668 -0.08069722
0.01807949 -0.050981324 -0.09990622 0.05112683 0.060417566 -0.03510995 -0.015957978 -0.016325384

linearD2.weight f4 [256, 4]
00000000: 294a 0bbe c82e 003f b0da 6fbe fbd9 02be
00000010: 56ee 453e 3961 0c3e 1a9c b93e cf43 d4be
00000020: 02ca 8a3e 0968 a03e e7c6 73be f92f ae3e
00000030: fae0 3a3e f5a5 323e 23bd 7e3e 22e7 33be
00000040: ef9c 383e e832 c13e 92db d43e 8e8f be3e
00000050: b302 743d e4eb a53e 928c d33e d633 c6bd
00000060: f7f8 a0bd 9baf 4b3e 6496 aa3e b415 523b
00000070: 6875 f83e 9ca5 62bd f4da c8be 07d3 e4be
00000080: 9a29 4d3e 0319 193c f79e 06be 3397 0c3e
00000090: daf5 15be f4df cebd 5549 4e3d 0162 e83e
000000a0: 6bb1 12bd 9cd5 29bd a8ef 033e 4fa7 e63d
000000b0: 75c9 bb3e fe0f 073f 6e86 8d3d a02e 88be
000000c0: 01c3 773e 95c2 d93d 0cbf 14bc 5cb8 e23d
000000d0: abd1 32bf c308 843e 02d1 dd3e f069 4abe
000000e0: 7952 333e 92ce 64be 51c9 ac3e 4dfa 6d3e
000000f0: 37c9 b5bd 205c 5fbd f91e d3bd 653e 023f
00000100: de5d b83e 3d9d 6e3e 768e 6ebd 2f63 353d
00000110: 6bf8 eebd 6532 e9be b5e9 f2bd c6d3 fd3b
00000120: 2470 823e e15d 0e3e 869f 5b3e 3b64 59bd
00000130: 10a1 39be 3a82 7bbd b259 f6be 3954 453e
00000140: 9052 093f 44f1 dd3d bbc1 82be a6b6 bfbe
00000150: 0ab3 04bf 4524 7abe 6480 723c e66a 133b
00000160: 4986 5d3e 36d0 e43c 8011 2bbe 2c29 e9bb
00000170: e918 053e bfbe 68be 17ee 553e 8155 03be
00000180: 8061 df3d 6c74 263e fb56 aabe 6f48 693e
00000190: 0482 6bbe bac0 3abd bcaa b9be 42a9 a2be
000001a0: b106 4e3e 1f6d dfbe c3b6 99bc dbb3 6bbd
000001b0: 636e 55bd a980 5a3e ced2 bb3e 5f9a 7abd
000001c0: 09b1 58be 3fc2 c63e 7391 fe3e 9cff 99bc
000001d0: 7aa9 84be 3a8b 94bd b3ff 903d fdf2 82be
000001e0: 8c16 efbe 101f a0bd fc0d 8bbc 3677 fe3d
000001f0: c490 cabb 3852 a03e e66e d73e 7323 033f
00000200: e7e3 70bd 75db 49be 6c4e 65be 8eee a2be
00000210: 0a91 a93e ede1 823e 0397 de3e e0b5 8fbe
00000220: c50a 3b3e 511f 0bbf ef5b a53e ecb2 94be
00000230: b612 1a3e 5a93 973e 5d92 903d 827a 5fbe
00000240: 93d0 cabe afe1 e83e 42ac de3e ef32 713e
00000250: 7935 213c 7b3b 4c3e d5fa f63d 56d8 0a3e
00000260: 35bc 893e aeac 9dbe 4987 ddbe a192 25be
00000270: 3bb7 4e3e 1eb1 123f 68ed b1be 9e14 b7be
00000280: d1e9 edbd b4ae ab3e 96b6 8f3e 9314 ac3e
00000290: 6df7 d13e 54b6 f7be 81a8 25bf f38a 463e
000002a0: f31c d83e f1cd 0ebf 3ff4 83bd 32a5 c6be
000002b0: 6e04 10bf 62a1 b6bd e616 b63e a287 103f
000002c0: 7771 bbbe aa53 20bd d361 97be ae0d 59be
000002d0: e0c9 c7bd 8339 b93e 32ca a83e 0294 bd3e
000002e0: 259b 963e 9d32 c33e 0e89 283f 72ca 0ebf
000002f0: 53da a9bb 4e84 b4be 69e4 b0be d435 883e
00000300: 275c bcbe d57c bfbe 3b16 51be 52dd 8bbe
00000310: 1e5f d0bd b892 bd3e 6d35 d1bd b598 46be
00000320: 1e2c 9ebd 73d6 903e 08fe 49be e435 123e
00000330: 66fd 223e c123 b7be c413 d1be 3849 b0be
00000340: 4a3f a8bc df4f 33be fa86 90be 09b2 e43e
00000350: d1a3 ac3d f0cc 4f3e 8bac 7e3e f883 18be
00000360: 5482 b33e 3447 aabe b1b3 8cbe c708 5fbe
00000370: b219 aa3e f7c4 b43e e6e1 293f b96c 29be
00000380: f4f3 99be 9fa0 f73e 52d8 64be 5af6 f63d
00000390: d893 743d 8c09 68be e6bd 2d3d f7fa 96be
000003a0: ee63 a43e a5ff 613e 2cff bb3e 500f 473e
000003b0: 0f50 4ebe a7e3 cd3e be8d 21be 8075 c9be
000003c0: 55c3 87bf c436 6cbe db19 063f 6133 283f
000003d0: 41cf 7fbe 67bf a3be ca3c 24bf 0a53 43be
000003e0: bf35 e23e 4c46 f0bd d3f6 4bbd 0f25 b4be
000003f0: e50e eebe caab 263f 3b69 2bbe 7370 41be
-0.13602509 0.5007138 -0.23423266 -0.12778465 0.19329199 0.13708963 0.3625191 -0.41457984
0.27107245 0.31329373 -0.23806344 0.34020975 0.18249884 0.1744612 0.24876837 -0.17568639
0.18028615 0.3773415 0.4157377 0.372189 0.059572887 0.32406533 0.41318184 -0.09677856
-0.07859986 0.19891207 0.33317864 0.0032056393 0.48527074 -0.05533372 -0.39229548 -0.4469225
0.20035401 0.009344342 -0.13146578 0.13729553 -0.14644566 -0.101013094 0.050362904 0.4538727
-0.03581373 -0.04146348 0.1288439 0.1126238 0.36677137 0.5275878 0.06910406 -0.26598072
0.24195482 0.10632817 -0.009078752 0.1107032 -0.6985118 0.25787935 0.43323523 -0.19766974
0.1751193 -0.22344425 0.33747342 0.23240013 -0.08876269 -0.054531217 -0.10308642 0.50876456
0.36009115 0.23302169 -0.05824133 0.044284042 -0.11668476 -0.4554626 -0.11860982 0.0077461926
0.25476182 0.13903 0.21447572 -0.053074103 -0.18127847 -0.06140349 -0.48115307 0.1927041
0.53641605 0.108370334 -0.2553843 -0.37444037 -0.5183569 -0.24427898 0.0148011185 0.0022494136
0.21633257 0.027931314 -0.16705894 -0.007115504 0.12997784 -0.22729014 0.20891605 -0.12825586
0.109072685 0.16255349 -0.33269486 0.22781537 -0.22998816 -0.045593955 -0.36263072 -0.31769758
0.2011974 -0.4363794 -0.018763905 -0.05754457 -0.052107226 0.21338142 0.3668427 -0.061182376
-0.21161284 0.38820073 0.49720344 -0.018798642 -0.2591055 -0.07253118 0.07080021 -0.2557601
-0.4669689 -0.07818425 -0.016974442 0.124250814 -0.006181808 0.31312728 0.42076796 0.51225966
-0.058811095 -0.19712622 -0.22393197 -0.31822628 0.3311847 0.25562993 0.43474588 -0.28068447
0.18265827 -0.5434466 0.32296702 -0.29042757 0.150462 0.29604608 0.070591666 -0.21824077
-0.39612255 0.45484683 0.43490797 0.23554586 0.009839409 0.19944565 0.12059561 0.13559088
0.26901403 -0.30795807 -0.43267277 -0.16169216 0.20187084 0.5730151 -0.3475144 -0.35757917
-0.116168626 0.33531725 0.2806899 0.33609447 0.41009083 -0.48381293 -0.6471024 0.19388942
0.42209587 -0.5578299 -0.064430706 -0.3879791 -0.5625676 -0.089175 0.35564345 0.5645696
-0.36610004 -0.03914229 -0.2956682 -0.21196625 -0.097553015 0.3617669 0.32966763 0.37026983
0.2941524 0.38124552 0.6583413 -0.5577766 -0.005183497 -0.3525719 -0.34549263 0.26603568
-0.36789057 -0.37399927 -0.20418637 -0.27317291 -0.10174392 0.37026 -0.10215268 -0.1939419
-0.077232584 0.28288612 -0.19725811 0.1427837 0.15916976 -0.35769466 -0.40835392 -0.3443086
-0.020537991 -0.17510937 -0.2822798 0.4466708 0.08429683 0.20293021 0.24870507 -0.14894092
0.3506037 -0.3325745 -0.27480844 -0.21780692 0.3322273 0.35306522 0.6636032 -0.1654538
-0.30068934 0.48364732 -0.22348145 0.120587066 0.059711307 -0.22659892 0.04241743 -0.29488346
0.3210749 0.22070177 0.36718118 0.19439435 -0.20147727 0.40212747 -0.15776727 -0.39347458
-1.0606486 -0.23067766 0.523832 0.657034 -0.24981405 -0.31981966 -0.64155257 -0.19074646
0.4418163 -0.11732158 -0.049795937 -0.35184523 -0.4649574 0.6510588 -0.16739361 -0.18890552

linearD2.bias f4 [256]
00000000: 123e 93be 0613 0c3e 70a6 b53e 6cb3 9abb
00000010: 03a8 f4bd 7a59 7bbe a551 4c3d 0dac 923e
00000020: f1b0 de3c 9db2 f53e 38cf 783d 0062 8a3e
00000030: 4bc4 a3bd c85e 55be 6b1f 7cbe d3af f2be
00000040: 4e5c 6b3e 5965 aabd ba00 7b3d 2290 583e
00000050: de28 983e f2f0 d4be dfc1 953e 9a67 8abe
00000060: 70ab 91be a1ed 3b3d d19b 533e fd33 923e
00000070: a0f3 56bd 5eeb e3be 6ce1 27be 8e6a 7c3e
00000080: 385e 863e 2549 18bf 4da7 943e 191f 12bd
00000090: 2be3 b4be d3ee 8d3e ec18 85be 141f e0be
000000a0: 4456 54be afd5 88be 4233 083e 69f7 483e
000000b0: e6a5 3b3e 7a0c 0cbf f4af 0fbf d1b5 c3be
000000c0: 680e 543d 150f bebd e6e0 8c3e bcfd 313e
000000d0: 160f 843e eb6c c6bd 53bf 4d3b c7ca aabe
000000e0: 419f 7cbe 9692 033e bbb3 733e 1545 d3be
000000f0: b719 8c3c e324 cb3d 3a77 013f e896 8fbe
00000100: 35a2 5b3e f8e7 a3be dc34 c33e 8283 ed3e
00000110: 8c85 673e 3583 aebe c197 68be ec7d c63c
00000120: 5824 c63d 7263 d03d ca17 4fbe e59a acbd
00000130: 2629 0bbe a041 14be 3d14 8e3d 51e5 a8be
00000140: 887f a6be cf9e 6d3d 40ad d13e b4b3 093f
00000150: 5420 d7be d427 043b 8cb1 f63d cb4b 1f3e
00000160: c214 4c3d 33a2 e0be f0c0 d53b f51f 3dbe
00000170: d553 8e3e 8699 91bd 5868 2a3e 16e9 9ebe
00000180: ea41 8bbd d408 5fbe da91 653e d0dd d9be
00000190: 0496 273e 56cd 9b3e 22b2 1a3d 6b44 e23e
000001a0: 0327 76be db31 523e 27ec 8bbe 3e4c 15be
000001b0: e2de 07bf 4421 9e3e c311 83be 3426 d8bd
000001c0: c579 743e 49a8 ba3d 1645 a93e 00b2 debe
000001d0: dc10 963e 21ff 943e f3b8 013e 6a61 a03d
000001e0: 705f 983c f646 dbbe 65b5 ce3e 7ed9 bb3e
000001f0: 8634 f53e 59d6 cb3e 67a9 1b3e 4011 c53e
00000200: 4402 443e 01b1 ef3e ec34 e8bd 94ad 103f
00000210: 8b76 e1be 1225 adbe 310e 023d e947 5a3b
00000220: 0ab2 c23e 5ade 31be 5d89 c93e 3664 b43e
00000230: 470b c13d e9a1 09be 4798 8f3c 2c98 803e
00000240: 8580 78be a292 b93e 971c f53c c630 b13e
00000250: ab58 3a3e fc0a 403e 47ff edbe dd17 d73e
00000260: fcd4 093d 3904 923e a1e6 f4bd 2ab4 fb3e
00000270: fdaf 82be b0bb 0dbf 2b34 3f3e c8e1 b33d
00000280: 24b1 e33e 0b3b cabe ad73 253e 1513 4d3c
00000290: 4f89 a23e 034c 033f 59f5 993e b434 1a3d
000002a0: 8d29 15bf c1f1 e03d 62ca 1f3e da58 67bd
000002b0: d22b b53e 5530 893e 8818 22bd b0b2 87be
000002c0: 9ec0 013f 6e60 943d 8a19 723e 799e c53e
000002d0: 8b0a fc3e 43f6 08bc 2bc7 b53e 845f ecbe
000002e0: 8529 8bbd d330 f23e e35b 1cbf e96f 3abc
000002f0: 8337 b5bd 26c2 7fbe 8581 34be 0cfa edbd
00000300: 8273 3dbe 8c59 36bd 5484 853e 0f87 58be
00000310: 106b 083f 9ae3 ddbe dc93 d5bd dcb6 0c3e
00000320: a3ba ecbe 4739 8d3e ea66 933d 87fa 88bd
00000330: f8e3 803e b70b 59be 38c6 80be a8d2 eb3d
00000340: 7225 fa3e 3b1c 71be e0cb 393e 2d23 d83d
00000350: 7644 523e 9c83 173e 38d2 023f c308 0d3e
00000360: c739 a23e 9150 b43e 98bd 143f 3b8d 643e
00000370: d33a bb3e c32c 993d 20b8 abbe 6196 83bd
00000380: e075 4e3e 3ebf 5a3e 3cd7 73be f1a6 753e
00000390: 7622 bbbe f6a2 d03d 2b58 01bf cce8 b7be
000003a0: 5da7 d3be f31f 01bf a60c c4be 9a61 e53e
000003b0: 536f c13e bb21 b2be ce6e 483e fab0 a3be
000003c0: ab77 b6be 1310 80be fd59 d53e 56ea b53e
000003d0: 5b8a 28bd b8db 04bf 15d6 54be 58a2 993d
000003e0: ad60 cf3e a9c0 c3bd 8fdc 313e c1f6 88be
000003f0: d762 fc3e d004 10be 4325 043e a527 a2be
-0.28758293 0.13679132 0.35478544 -0.004721096 -0.11946108 -0.24545851 0.04988255 0.2864689
0.027183982 0.47987834 0.060744494 0.27027893 -0.07996424 -0.20836937 -0.2462136 -0.47399768
0.2298443 -0.08320112 0.06127999 0.21148732 0.2971868 -0.41590077 0.29249474 -0.27032167
-0.2845111 0.045880917 0.20664908 0.2855529 -0.052478433 -0.44515508 -0.16394585 0.24650022
0.26243758 -0.5948661 0.2903389 -0.03567419 -0.35329565 0.2772127 -0.25995576 -0.4377371
-0.20736033 -0.26725528 0.13300803 0.1962563 0.18325004 -0.5470654 -0.5612786 -0.38224652
0.05177155 -0.092802204 0.27515334 0.17381948 0.2579276 -0.09688743 0.0031394556 -0.33357832
-0.24670126 0.12848887 0.2379903 -0.41263643 0.017102106 0.09919145 0.5057255 -0.2804482
0.21448596 -0.32012916 0.38126266 0.46389395 0.22609538 -0.34084478 -0.2271414 0.024229966
0.09674901 0.10175218 -0.20223919 -0.08427981 -0.13589916 -0.14478159 0.06937454 -0.32987455
-0.32519174 0.05801278 0.40952492 0.5378983 -0.42016852 0.002016534 0.12045583 0.15556256
0.049824484 -0.43873748 0.006523244 -0.18469222 0.27798334 -0.071093604 0.16641366 -0.31037205
-0.067996815 -0.21780711 0.22418919 -0.42552042 0.1636582 0.30430096 0.037767537 0.44192824
-0.2403832 0.20526831 -0.27328607 -0.14579865 -0.5307447 0.30884755 -0.2559949 -0.10554162
0.23874576 0.09114129 0.3306052 -0.43495178 0.29309738 0.29100898 0.12668209 0.0783108
0.018600196 -0.42827576 0.40372768 0.3668937 0.47891635 0.39811972 0.1520134 0.38489723
0.1914149 0.4681473 -0.11338219 0.5651486 -0.44035754 -0.33817345 0.031751815 0.0033307022
0.38026458 -0.17369977 0.39362612 0.35232705 0.09425979 -0.1344067 0.017528666 0.25116098
-0.24267776 0.36244684 0.02992086 0.34607524 0.18197887 0.1875419 -0.46483824 0.42010394
0.033650383 0.28518847 -0.119580515 0.49160892 -0.25524893 -0.55364513 0.18672244 0.08783299
0.44471085 -0.3949817 0.16157408 0.012516757 0.31745383 0.5128786 0.30069998 0.037647918
-0.58266526 0.10983611 0.15604547 -0.05648122 0.35384995 0.26794687 -0.039574176 -0.26503515
0.50684536 0.07244955 0.23642555 0.38597468 0.49226794 -0.008359495 0.35503516 -0.46166623
-0.067950286 0.47302875 -0.6107771 -0.0113792205 -0.08848479 -0.24976406 -0.17627533 -0.11619958
-0.18501094 -0.044518992 0.2607752 -0.21145271 0.53288364 -0.4333771 -0.104285926 0.1374163
-0.46236143 0.27582762 0.07197364 -0.06688409 0.25173926 -0.21195875 -0.2515123 0.11514789
0.48856694 -0.23545925 0.18144178 0.10553584 0.20533928 0.14796299 0.5110202 0.13772874
0.31684706 0.35217717 0.581018 0.223195 0.36568317 0.07479241 -0.33538914 -0.06425167
0.20162153 0.21362016 -0.23812574 0.23989464 -0.3654973 0.10187332 -0.5052516 -0.35919797
-0.41338626 -0.50439376 -0.382909 0.44801027 0.37780246 -0.3479136 0.19573519 -0.3197096
-0.35638174 -0.25012264 0.41670218 0.35530347 -0.04114757 -0.51897764 -0.20784791 0.07501668
0.40503445 -0.095582314 0.17369293 -0.26750758 0.4929416 -0.14064336 0.12904839 -0.3167087

linearK3.weight f4 [4, 256]
00000000: f7a5 31bd 1c3b b53c 246c 79bd 263f ad3c
00000010: 8f39 4bbd 52ef 96bd 9e53 06bd e413 893d
00000020: 5d48 ae3c cdde ce3c 8801 b13c c91f 6f3b
00000030: 2b99 163c f9b1 8fbd ab7d c13c 3e8a 20bd
00000040: 41c6 26bd e22e 0a3d 7802 913c 479f 6d3d
00000050: c303 173d 56f3 f33c 6d4d 39bc 0639 933d
00000060: f80e e4bd daf7 96bc c98a 803d 379c b5bb
00000070: c061 92bd ee86 383c 9295 f13b ad26 c8bd
00000080: 51aa ea3c 0402 f2bc 66d6 ae3b c56c 5fbd
00000090: b638 e1bd 80ec b1bd e66a c93d f2b3 f73c
000000a0: 3f55 3dbd aec1 a43c 55c4 b93d 643c 873d
000000b0: 6394 aa3b 5ac2 c8bd 52da 20bc 10b0 8e3d
000000c0: a2c8 133d f786 b0bd 6e63 82bd 86a2 8f3d
000000d0: b488 49bc 1340 9abd 658d f63d b412 11bc
000000e0: 750e 193d d1b3 393d 6975 cabc d5b4 e0bc
000000f0: 7b84 b53d e154 2d3d a156 2a3d ec6f 9fbb
00000100: 409e 5c3c 16bd cabb b0a3 8ebb 0b7a 063e
00000110: c0c4 15be 9de2 9abd f6d7 e23b 20c8 13bd
00000120: 5fa4 debd faff 8cbc 016d c4bc ca57 443d
00000130: 34cc ec3d 6efd c03a 860e 6f3d 3895 31bd
00000140: 4787 b73c 1822 333d 008a c2bc 171c 593d
00000150: f9ff adbd 9674 0b3e 287f 1c3d d2ae 05bd
00000160: f472 01bd 5559 b5bc f67e 593c a8a4 a43d
00000170: c0a4 12bd 170f 993c 931b 143c 6044 473c
00000180: d87c 053d ba39 353c 39bb 143e 280c db3c
00000190: 0e20 cd3a 55a7 753d 53e0 f2bb 91f2 a43d
000001a0: acd7 973d 6e0a 57bb 3089 5e3c 0d68 05be
000001b0: 5ab8 dabc cad6 473d 88f2 83bd 0b2a 783d
000001c0: ef40 d73d dcca ea3c 4729 a5bc d6ba c7bd
000001d0: 268f 21bb 3a78 7d3d 515c 503d 097d eb3d
000001e0: a306 89bd e816 c63d 6a02 f03b 2983 603c
000001f0: e140 33bc e59c 833d 7824 96bc 5693 2b3c
00000200: 918a e2bd 5769 923d a753 473d 7962 9f3d
00000210: 9cba 3f3c a5dc 7fbd 8b21 0d3d c022 4f3c
00000220: 729a 223d 8c51 32bd 2341 a3bc 3812 c4bd
00000230: d90c 9e3c ce62 033d dd5f 4e3d 8f1b 2e3d
00000240: f2af 68bd 6fc7 e73c 0f05 7c3d 9f2f dcba
00000250: b186 c83d 6423 d93c 8778 edbc 1786 82bc
00000260: 8688 c1bc f4ab 773d 6714 663c 7527 cabd
00000270: 39e5 b5bd 0fc7 77bd 05e9 ecbd fff1 973d
00000280: 45ee 903d dae5 4cbc 6dcb 7fbd 9498 99bd
00000290: e734 f63d 6aa2 78bd 3e2e 05be c7fc 163d
000002a0: b3b6 88bc 9d40 833d d184 b0bc 52d6 83bd
000002b0: 3a2a c23d 820d aa3d 0b08 dcbb 65b1 e3bd
000002c0: 082c a9bd 22c1 8bbc 9a0c 22bd 6c26 dbbc
000002d0: 73a0 38bd 0501 a8bd 4e7e 6b3d 3dee 8c3d
000002e0: 5f10 303c 9214 79bd a459 b1bd fa7f d63c
000002f0: a439 033d 6cfd ddbd 399e e83d 8e6b 20bc
00000300: 50b6 40bc b718 013d 1730 8bbd c8bc b0bc
00000310: 44a9 513d 5563 6d3c 7b0a 6cbd 06b2 c0bd
00000320: 6147 ccbd 5f0a e93b e256 3a3c 8f14 423d
00000330: 6f2e a73c d30c 383d 37e6 c6ba 0e06 183d
00000340: 09e4 09bc e9d2 2abd 3e18 da3d 9db8 a03c
00000350: 0cc2 f036 d94e 943d 3d3e 113d 48f0 003e
00000360: 5a78 313d 025c 273d 8201 0fbd b939 e9bd
00000370: af1f ee3d 3a4b 2fbd f3d8 113d 266b 183b
00000380: 820c 9c3d 65d9 323d 1a7a 80bc f907 0fbd
00000390: 5449 beba 7d82 293c cc64 3cbd d037 3fbc
000003a0: f063 2bbd e2b2 eb3c 8c31 83bb eec8 e1bc
000003b0: c24a a6bc e5a6 bebd 743e 263d 73a8 183d
000003c0: 005b caba 7543 6ebd 56c4 a53d 5ed6 d43c
000003d0: 7291 743d ffcf 223e 6d1d a73c 97d5 7e3c
000003e0: e061 c0bd bb7a 503d 4bd8 c13d 53ba 993d
000003f0: 684f 8a3c 5e87 9cbd 1c36 163e 444c 46bd
-0.043371167 0.022122912 -0.060894147 0.021148276 -0.04961544 -0.073698655 -0.032794587 0.06693247
0.02127474 0.025252724 0.021607175 0.0036487451 0.0091917915 -0.070163675 0.023619493 -0.039194338
-0.040716413 0.033736117 0.017701373 0.058013227 0.03686882 0.029779118 -0.011309964 0.07188611
-0.111356676 -0.018428732 0.06276471 -0.005542304 -0.071475506 0.0112626385 0.0073725665 -0.09773002
0.028645666 -0.029541977 0.005335617 -0.05454709 -0.10997145 -0.08687687 0.098348424 0.030237172
-0.046223875 0.020111885 0.090706505 0.066033155 0.0052056774 -0.098026946 -0.009817677 0.06967175
0.03608001 -0.086194925 -0.06366621 0.07013421 -0.012300659 -0.075317524 0.120386876 -0.008854557
0.037367303 0.045337502 -0.024714189 -0.027429977 0.08863159 0.042317275 0.041586522 -0.004865637
0.013465464 -0.0061870916 -0.004353009 0.13132493 -0.14625835 -0.07562754 0.006922717 -0.036079526
-0.10871195 -0.017211903 -0.023977758 0.047935285 0.11562386 0.0014723965 0.05836346 -0.043355197
0.022403372 0.043733686 -0.023747444 0.053005304 -0.084960885 0.13618693 0.038207203 -0.032637425
-0.03160377 -0.022137323 0.013274899 0.08039218 -0.03580165 0.018683953 0.009039777 0.012162298
0.032589763 0.011061126 0.14524545 0.026739195 0.0015649812 0.059974033 -0.0074119954 0.08054078
0.07414183 -0.0032812613 0.013582513 -0.13027973 -0.026699234 0.048788823 -0.064427435 0.06058697
0.10510432 0.028661184 -0.020161284 -0.09752433 -0.0024651974 0.061882235 0.05086929 0.11498458
-0.06690719 0.09672338 0.0073245065 0.013703146 -0.010940761 0.0642641 -0.018327937 0.010472139
-0.11061586 0.07148998 0.04866376 0.07782454 0.011702206 -0.062466282 0.034455817 0.012642562
0.03969807 -0.0435348 -0.01992852 -0.095737875 0.019293236 0.03207665 0.05038439 0.04250675
-0.05680842 0.02829334 0.06152826 -0.001679886 0.09791315 0.026506133 -0.028988136 -0.01593308
-0.02362467 0.06046672 0.01404295 -0.09870807 -0.088816114 -0.06049257 -0.115678824 0.07419204
0.07076696 -0.012505973 -0.06244986 -0.07499805 0.12021809 -0.060701765 -0.13005921 0.03686216
-0.01668868 0.064088084 -0.021547707 -0.06437363 0.0948071 0.08303358 -0.006714826 -0.1111782
-0.082603514 -0.017059866 -0.0395628 -0.02675172 -0.04507489 -0.082033195 0.0574935 0.06881378
0.010746091 -0.060810633 -0.08659676 0.02618407 0.032037392 -0.10839352 0.113583036 -0.009791268
-0.011762217 0.03151771 -0.06796282 -0.021574393 0.051186815 0.014489015 -0.057627182 -0.09408955
-0.09974552 0.007111832 0.011373254 0.047382887 0.020407883 0.044934105 -0.001517481 0.03711515
-0.008416184 -0.041705046 0.10649155 0.01961928 7.1751474e-06 0.072416015 0.035459746 0.1259166
0.043327667 0.04085923 -0.034913547 -0.11387963 0.11627137 -0.04279635 0.03560729 0.0023257225
0.07619573 0.043664355 -0.015683223 -0.034919713 -0.0014517703 0.010346052 -0.045994565 -0.011671022
-0.041843355 0.028771821 -0.004003709 -0.027561631 -0.02029932 -0.09309176 0.040586904 0.03727002
-0.0015438497 -0.0581698 0.08094089 0.025981124 0.05970902 0.15899657 0.020399773 0.0155538535
-0.09393668 0.050898295 0.09465083 0.07506242 0.016883567 -0.07643007 0.14669079 -0.048412576

linearD3.weight f4 [6, 4]
00000000: 7cc4 f8be 0a58 e5bc b75e 69be 22bb 71be
00000010: 3928 8fbe 2c38 79be 48ed ec3e d42c 763e
00000020: a917 ef3d 56d6 063e c5a9 433e 539a 173e
00000030: 7fea 07be aa15 253f a848 0e3e f46e b13d
00000040: 3792 443d e051 04be f68c 84be 4c8f 933e
00000050: 3792 443d e051 04be f68c 84be 4c8f 933e
-0.48587406 -0.027996082 -0.22790037 -0.23606542 -0.27960375 -0.24337834 0.4627478 0.24040538
0.11674435 0.131677 0.1910773 0.14804964 -0.13273047 0.6448618 0.13894904 0.08663741
0.047991004 -0.12921858 -0.25888795 0.28820264 0.047991004 -0.12921858 -0.25888795 0.28820264

linearD3.bias f4 [6]
00000000: a6ff d13e 86fd a63e bcee cdbd da3a 4e3d
00000010: b382 d03d b382 d03d
0.41015357 0.32615298 -0.100553006 0.050349094 0.10181179 0.10181179
