pretrained/MLE/MLE10_1000.pt (torch, 46912 bytes, 9 tensors)

linearK1.weight f4 [10, 8]
000000 9f bd 13 3e 55 82 13 3e 97 61 3d be ec 72 cb 3e
       0.14427803 0.14405186 -0.18494259 0.39736116
000010 47 1b 67 be 74 7e b6 be e8 f0 a1 be a2 45 a6 be
       -0.22568999 -0.3564335 -0.3162911 -0.32475
000020 fe 7c b5 3d 2e ba af be 89 d2 87 be a8 85 42 be
       0.08861731 -0.3432173 -0.26527813 -0.18996298
000030 8f c5 84 3c 39 18 42 be b1 4c 22 be d4 7c f5 3d
       0.016207485 -0.18954553 -0.15849568 0.119867
000040 64 51 b4 be d4 d3 4f 3e 40 2f fb 3e b8 06 f8 3b
       -0.35218346 0.2029565 0.49059486 0.0075691603
000050 b8 75 33 3e 91 a6 c7 3d a0 30 8e 3e 1c 67 7e 3e
       0.17525375 0.09748567 0.27771473 0.2484402
000060 3f f5 80 3e 50 78 fb bd 25 6e 00 3e fc 6b 56 be
       0.25187108 -0.12278807 0.12542017 -0.2093963
000070 6a f3 f5 3d c6 12 7b 3d 95 eb bc be ce fe 64 be
       0.12009318 0.0612972 -0.36898485 -0.22362825
000080 eb e1 0d be 1e 70 99 be c6 d9 fe 3e f9 b6 a4 3e
       -0.13855712 -0.2996835 0.49775523 0.32170847
000090 6d 86 22 3d f2 86 f8 bd 01 55 de 3d 07 fe 49 bc
       0.03967898 -0.12135114 0.10856057 -0.012328631
0000a0 f0 ff d4 bd b3 bc 0c be 74 01 f1 be b6 88 53 be
       -0.10400379 -0.13743858 -0.4707142 -0.2065762
0000b0 86 43 fd bd 7b 3d a3 bd f0 71 21 3e e7 c4 34 3e
       -0.12366395 -0.07970711 0.1576612 0.17653237
0000c0 ab b5 b4 be 24 26 26 3b 0e ac c7 be c5 f9 90 3e
       -0.35294852 0.0025352323 -0.38998455 0.2831556
0000d0 95 8c 3f bd 52 77 a5 3e 92 91 08 be a4 cf 90 be
       -0.04676493 0.32317597 -0.1333678 -0.28283417
0000e0 f1 3b 82 be e7 12 74 3e 6e 6a 5c 3d fc 76 18 bd
       -0.25436357 0.23835336 0.053812437 -0.037222847
0000f0 2c b1 a0 be 63 48 e7 3d b8 82 74 be a8 7e 1d 3e
       -0.3138517 0.112931035 -0.2387799 0.15380347
000100 c6 5a 34 3e 5a b2 93 be 4e d9 43 be 8a f2 9f 3d
       0.17612752 -0.2884701 -0.19125864 0.078099325
000110 d6 52 5d 3e 6e 83 65 be 7f 85 3a 3e 05 f0 88 3e
       0.2161363 -0.22413418 0.18214987 0.2674562
000120 32 06 43 3d 0e f3 10 be 4a cd a9 3e 5e a0 ae be
       0.04761333 -0.14155218 0.33164436 -0.34106725
000130 16 dd 91 be 0a 2a 31 3b c6 ef e4 bd 84 c7 6b be
       -0.28488988 0.0027033114 -0.11178546 -0.23025328

linearD1.weight f4 [256, 10]
000000 f3 81 1f be 9f 34 90 be 17 fd b0 3e b3 f8 13 be
       -0.15576915 -0.28165147 0.34568092 -0.1445034
000010 f1 79 ea bd 23 5d c9 bd 26 42 06 bd be 08 31 3e
       -0.1144904 -0.098322175 -0.032777928 0.17288491
000020 e5 1c 8f bd d5 d0 2c be 14 fa 52 3e ed 8d 00 3d
       -0.06987933 -0.16876538 0.2060321 0.03138535
000030 d9 05 0b 3e c7 b1 68 bd 8a 17 36 3e 6d b4 8f 3d
       0.1357645 -0.056810167 0.17782417 0.07016835
000040 b2 07 8c 3e 95 7e c9 bd a7 30 78 bd 5d ac 56 3e
       0.2734962 -0.09838597 -0.060593273 0.20964189
000050 95 7e 86 3d 56 ab ba 3c 6f a7 0d 3d 14 78 5a 3b
       0.06567112 0.022786777 0.034583505 0.0033335732
000060 25 72 d8 bc 03 5c a7 bd 5d f9 83 be 3a bc 29 bc
       -0.026421616 -0.08171847 -0.25776187 -0.010359818
000070 90 c3 96 be 90 bc 19 3d 71 3c 6f 3e eb 13 8a bc
       -0.29446077 0.037533343 0.233629 -0.0168552
000080 c2 3b b8 bd d0 ea a1 be 8e 01 60 be 30 9b 11 3e
       -0.08995773 -0.3162446 -0.21875593 0.14219356
000090 62 08 45 3c 6d fe 07 be 65 54 86 bd 38 10 b4 bd
       0.012025924 -0.1328065 -0.06559066 -0.08792156
0000a0 79 13 e1 bb 4d ef 81 be 64 52 56 bd d3 42 88 be
       -0.0068687764 -0.25377885 -0.052324668 -0.26613483
0000b0 fa 65 e5 bd 1c 6d ee 3d 63 63 37 3e 98 1a 21 be
       -0.11201091 0.11641905 0.17909007 -0.15732801
0000c0 2d eb 28 be a9 57 31 be 50 45 9f 3e a3 0e 2b bc
       -0.16495962 -0.17318596 0.3110757 -0.010440501
0000d0 3f 22 7f be 3a f8 0a bc 8b 7a 37 3e c8 71 fe 3d
       -0.24915408 -0.008482033 0.1791784 0.12424046
0000e0 74 e9 a9 3d 92 d5 bd 3c f5 50 48 3e bf e1 75 be
       0.08296481 0.023173127 0.19562133 -0.24011897
0000f0 95 ce db 3d 49 0c 2f be 34 4d 3c 3e 0f 4c 6c 3e
       0.10732762 -0.1709453 0.18388826 0.23075889
000100 11 9d 81 be 9b cf 2d be fa fd a1 be 8e dd 24 be
       -0.25315145 -0.16973726 -0.3163908 -0.16100141
000110 f5 eb 8c 3e 60 bf 8b bd cf ba 3c 3e 2a 1b 87 3d
       0.2752377 -0.06823611 0.18430637 0.06596978
000120 9e ab 35 3d 5e 99 3f 3e a0 3e 6f 3e aa a7 db bd
       0.04435312 0.18710849 0.23363733 -0.10725339
000130 7f 72 d3 3e 00 08 55 3e 59 a2 91 bd 7a 05 72 be
       0.4129829 0.20803833 -0.071110435 -0.23634902
000140 d5 56 e5 bd 0f 71 bc bd 2d 94 9e bd 0c c3 8b 3d
       -0.111982025 -0.09201252 -0.07743106 0.068243116
000150 5b dd 10 bd 47 5a 9f be 1e 20 4a bd 88 b9 87 3e
       -0.03536735 -0.31123564 -0.049347036 0.26508737
000160 07 df d1 3d f0 ad e8 bd 9f 06 7f 3d 61 c7 31 be
       0.10247617 -0.11361301 0.062262174 -0.17361213
000170 3b 91 fe bc e8 41 4d 3e 9c 81 b6 bd c9 c5 46 bd
       -0.03107511 0.20044672 -0.0891144 -0.048528466
000180 c3 7c 68 be 6c 56 12 3e 51 fa a9 3e e0 15 0b 3e
       -0.22703843 0.1429078 0.3319879 0.13582563
000190 08 4d d1 3d 5d c4 1a be 61 71 84 be 4f df 3a 3e
       0.10219771 -0.15113969 -0.2586775 0.18249248
0001a0 eb 5c 9b 3d c1 08 46 be 9b b7 4c 3d b0 02 8f be
       0.07586082 -0.19339277 0.049979787 -0.27931738
0001b0 1e a1 cd bd b7 3d 87 be 00 5f 76 bd 0e e5 7f be
       -0.10040496 -0.26414272 -0.060149193 -0.24989721
0001c0 82 2b 9f 3d 9d c1 7e be 71 74 0d be 03 47 03 bd
       0.0777197 -0.24878545 -0.1381395 -0.032050144
0001d0 b5 aa 15 3e 07 6a 14 be 58 00 6b be fc c7 06 3e
       0.14615901 -0.14493571 -0.2294935 0.13162225
0001e0 92 0a 60 be a4 5e 08 3e 5a 91 84 3e 88 dc ac bd
       -0.21879032 0.13317353 0.25892144 -0.084405005
0001f0 19 20 92 3d c2 db ad be c3 b6 2b 3e 99 58 97 3e
       0.071350284 -0.33956724 0.16768937 0.29559782
000200 1c 5a 45 3e 79 a2 d6 3c 93 c2 85 3e 6a df 51 be
       0.19272655 0.02620052 0.2612501 -0.20495382
000210 f4 3c ea 3c 11 36 d3 bd 11 5c 7c be 25 d0 40 3e
       0.028593518 -0.10313047 -0.24644496 0.18829401
000220 04 0c a7 bb b2 df 00 be ae 72 99 3e 62 6f 0f bd
       -0.005097868 -0.12585333 0.29970306 -0.035018332
000230 a2 4e 48 3e 23 bb 6e 3c 8b 89 12 bd 36 c0 ba 3d
       0.19561246 0.014570984 -0.035775702 0.091186926
000240 5a 93 18 3e 64 33 ab bd 2f d7 7a 3e 67 ed c1 3d
       0.1489996 -0.08359411 0.24496149 0.09469109
000250 43 ce 24 3e fa 7a a7 be 0a 81 30 3e 04 6a 08 3e
       0.16094308 -0.3271101 0.17236724 0.13321692
000260 84 2b ec bd a4 24 aa 3e e6 73 97 be 28 88 a7 3e
       -0.115317374 0.3323108 -0.2958061 0.32721066
000270 2e a3 0b 3e f9 53 3f 3e 61 1b b9 bd 73 53 80 3d
       0.13636467 0.18684377 -0.09038425 0.06265917
000280 54 cc 99 3d 39 97 7b 3e f2 b7 7f 3e cb 51 d4 bb
       0.075096756 0.24569406 0.24972513 -0.006479477
000290 e3 a6 4d be 31 27 a8 3d 6a 9b aa bd 24 3f fa 3d
       -0.20083193 0.082106 -0.08330424 0.12219074
0002a0 90 0e 3a be 5e 2c 8c 3e 83 71 8e 3e bc 0d 85 3e
       -0.18169618 0.273776 0.27820978 0.2598704
0002b0 d5 c3 ff 3d ed 51 96 3e 46 dd 53 be da bf 2d 3e
       0.12488524 0.2935938 -0.20689878 0.16967717
0002c0 18 ce 26 be 34 84 98 3e 2e e1 0b 3e fb 42 99 3c
       -0.16289556 0.29788363 0.13660118 0.018708697
0002d0 c9 8f 99 bc c1 b8 c8 bd 1f 48 7f be a1 ac a4 3e
       -0.01874532 -0.09800864 -0.24929856 0.32162955
0002e0 57 31 9e be 63 39 8c 3c dd 66 ba 3c 59 d0 1b be
       -0.30897018 0.017117208 0.022754127 -0.15216197
0002f0 56 13 75 3e fe fc af 3e 81 3e 0c 3e b7 71 70 3e
       0.23933157 0.34372705 0.13695718 0.23480879
000300 74 7f fd 3d 3b 13 4c be 9d 71 6a be 00 a0 62 3e
       0.123778254 -0.19929211 -0.22894903 0.22131348
000310 27 f3 35 bc 98 ba 8c 3d 99 db 17 be 1f d5 18 bd
       -0.011105335 0.068715274 -0.14829864 -0.037312623
000320 12 13 56 be f5 06 9b bd 59 8c 66 3e 2a f1 b7 be
       -0.20905712 -0.07569686 0.22514476 -0.3592618
000330 98 8f 81 3d fd 80 5c 3e 34 c1 c1 3e cb 17 a1 be
       0.063262165 0.2153358 0.37842715 -0.31463465
000340 01 cd 93 3e 86 12 90 be 98 f0 98 3e a2 1c f7 bd
       0.28867343 -0.28139132 0.29871058 -0.12066008
000350 d7 0e cc 3b 87 ef f0 3d 4b a3 aa 3e 4c de 55 be
       0.006227355 0.11764436 0.33327708 -0.20885581
000360 52 c9 62 3b 4d 70 09 be b4 7d 70 3e 78 37 cf bd
       0.003460486 -0.13421746 0.23485452 -0.10118002
000370 ea ba bf 3d 36 be 97 be 0f d0 8b 3c c5 80 9c bd
       0.09361823 -0.29637307 0.017066984 -0.07641748
000380 4d 26 cf 3c 5a f6 93 ba 10 9c 06 bc b8 93 83 3e
       0.025286818 -0.0011288628 -0.008215919 0.25698638
000390 d4 1a a3 3e 60 cf 9d be a7 a7 9a be 3b b6 3d be
       0.31856406 -0.30822277 -0.30206034 -0.18526547
0003a0 09 b2 62 3d 86 6d 34 3e b5 69 a1 3e 76 d5 9a 3e
       0.05534557 0.17619905 0.3152596 0.30240983
0003b0 ed d0 c9 3e ed e1 14 3c 44 d4 b0 bd 45 b9 9f 3d
       0.3941721 0.009087068 -0.086342365 0.07799009
0003c0 42 9a ef 3d e7 a8 72 be df 81 78 3e 49 9a 23 3e
       0.11699344 -0.23697244 0.24268292 0.15976824
0003d0 b4 26 0b 3e 74 26 02 3e dc c6 83 3e 49 22 83 bc
       0.13588983 0.12709981 0.25737655 -0.01600756
0003e0 65 f5 b5 3d b2 ca 9e be 54 fb 92 3e 9e b6 6d be
       0.08884696 -0.3101402 0.28707373 -0.23214194
0003f0 63 45 25 be 32 7d b4 be c1 bb 54 3e 44 34 60 be
       -0.1613975 -0.35251766 0.20774747 -0.21894938

linearD1.bias f4 [256]
000000 e7 03 82 3e 01 bf 8f 3e e0 0f 2f 3b b2 17 db bd
       0.25393602 0.28075412 0.0026712343 -0.10697879
000010 89 a2 1c be ae 9d 1b 3d 1b f2 5c be 33 d2 93 be
       -0.15296377 0.037992172 -0.21576731 -0.28871307
000020 18 a3 a5 bc 8b 69 2d bd bf f7 e3 bd 3e 37 5f 3e
       -0.02021937 -0.04233698 -0.11131238 0.21798417
000030 a8 d0 1a be 49 b5 c2 bd dc cc 45 be 2f 90 14 bc
       -0.15118659 -0.09507234 -0.19316429 -0.009067579
000040 44 66 1f 3e a6 57 ec 3d 5f 2a a9 be a3 fe b1 3d
       0.15566355 0.11540155 -0.3304014 0.08691146
000050 b9 19 96 3d d5 0b a1 3e 92 62 5e be 99 4e d4 3e
       0.07329125 0.3145434 -0.21717289 0.41466215
000060 45 cf 5f 3d 79 ed 2f be 84 30 6d be 10 37 72 3e
       0.054641027 -0.17180432 -0.23163038 0.23653817
000070 30 53 49 be 51 9b 6c be 96 f1 28 be 57 c7 1b 3c
       -0.1966064 -0.23106124 -0.16498408 0.009507976
000080 80 1c 24 be c8 e7 e3 bd c0 6f 6e 3d 03 e0 b6 be
       -0.16026497 -0.11128193 0.05821204 -0.35717782
000090 fb 0e 92 be c4 9e ba be 81 ee 90 bd 46 91 8e be
       -0.28527054 -0.36449254 -0.07076741 -0.2784521
0000a0 be b9 15 3e ff 23 62 be bb 79 22 be ad de 51 3e
       0.14621636 -0.22084044 -0.15866749 0.204951
0000b0 73 5f e6 3e 2d d5 71 be bc 3b 9a 3e 4c 3c b6 3e
       0.44994697 -0.23616476 0.301237 0.35592878
0000c0 2a fb 7e 3e 27 8e 93 be 4c 18 8e 3d b4 81 7d 3e
       0.24900499 -0.2881939 0.06938228 0.24756509
0000d0 58 14 72 bc 24 be ab 3e ed bd aa 3e ec 13 9d be
       -0.014775358 0.33543503 0.33348027 -0.30679262
0000e0 bc 87 4c be ca 6a 71 be 13 3a a4 3e 60 f3 eb 3c
       -0.19973654 -0.23575893 0.32075557 0.028802574
0000f0 80 45 d0 3d dd 7f a2 3c 45 e4 93 be e0 73 1d 3e
       0.10169506 0.01983636 -0.28885093 0.15376234
000100 bd bf 29 3e 87 ee cf 3e fd 52 8c be 34 09 83 be
       0.16577049 0.4061167 -0.27407065 -0.2559296
000110 df be c7 3d 7a 69 68 be d1 c7 a6 be d0 68 5f 3e
       0.09753203 -0.22696486 -0.32574323 0.21817327
000120 74 88 1f 3e cd 4f 68 be c6 3c 84 3e 35 da 24 3e
       0.15579396 -0.22686692 0.25827616 0.16098864
000130 76 13 f0 3b 3a 25 7e bd 12 56 1f be 48 ae 58 3d
       0.0073265387 -0.06204722 -0.15560177 0.052900583
000140 5a e4 f1 3c 22 6c e8 bc 8b 14 33 bd 63 8d ed bd
       0.029527832 -0.028371874 -0.043720763 -0.11599233
000150 4e 6b 9d be f6 ce 26 be f8 d9 a5 be 94 cf e4 bd
       -0.3074593 -0.16289887 -0.3239286 -0.11172405
000160 b8 32 83 be 13 55 4a 3d f4 a5 86 3e 57 5c 8f be
       -0.25624633 0.04939754 0.26298487 -0.28000137
000170 f3 cb 10 3e 7b fa db 3c cf 36 f6 3b 62 8b 51 be
       0.141403 0.026852837 0.007513858 -0.20463327
000180 58 0e 9e 3e b7 ac fb 3d 7f 15 ae 3e 14 93 92 bd
       0.30870318 0.12288802 0.34000775 -0.07156959
000190 9b 39 0b 3e d9 36 58 be 1b 54 75 3e 22 21 3e ba
       0.13596193 -0.21114673 0.23957865 -0.0007252862
0001a0 da 7d 80 3e 5b 45 6f 3e c6 98 9e 3e 42 89 4b be
       0.25096017 0.23366301 0.30975932 -0.19876578
0001b0 52 30 0d 3e 5b 4d 53 be 30 dd df 3d 90 bd 24 be
       0.13787964 -0.20634978 0.1093086 -0.16087937
0001c0 7f 36 a6 bd 87 51 0e bd ca 45 9b 3e 94 3d ca bd
       -0.08115863 -0.03474572 0.30326682 -0.09875026
0001d0 b3 28 87 3e 56 b9 7a 3d 1c c2 86 3e 91 00 48 3e
       0.2639824 0.061211906 0.2631997 0.19531466
0001e0 06 0c 66 be f8 8c 54 be 0d 1b 7e be 39 ae 89 3e
       -0.22465524 -0.207569 -0.24815007 0.26890734
0001f0 f3 39 29 bd 12 86 b4 3e 85 40 46 be 0e 6c 8a be
       -0.04131503 0.35258538 -0.1936055 -0.27035564
000200 0c f0 9a bd 8b 81 a0 bc 83 8f ec bd 70 d1 88 3e
       -0.075653166 -0.01959302 -0.1155081 0.26722288
000210 02 d3 b6 bd ac 31 ab 3e d2 a9 a5 bc 2d 0b bd bd
       -0.08926965 0.33436334 -0.020222578 -0.09230647
000220 a6 2e 55 3e a5 92 ac be 0e d0 cf 3c f3 8d 89 bb
       0.20818576 -0.3370563 0.025367763 -0.00419783
000230 89 38 a1 be b4 e7 ce 3d 49 3a 00 3e a3 63 83 3d
       -0.31488445 0.101027876 0.12522234 0.064154886
000240 bf 4c 91 be a4 ad 7d bc 7c ef 46 be f3 56 69 3e
       -0.28378865 -0.015483294 -0.19427294 0.22787075
000250 68 3a bc bb c3 25 fd 38 d7 15 89 be fa 20 83 3d
       -0.0057442673 0.00012071014 -0.26774475 0.06402774
000260 8d da 47 3e c7 77 0a be f9 fa ab 3e 1f d5 27 be
       0.19516964 -0.13522254 0.33589914 -0.16389893
000270 f5 57 df 3d 18 d5 83 be c2 75 0e 3e d9 17 b2 3d
       0.10905448 -0.25748515 0.13912109 0.08695955
000280 88 47 3e bd 7d 83 87 be 88 d1 88 3e db 3f 94 3e
       -0.046454936 -0.26467505 0.2672236 0.28954968
000290 f6 a4 af bc e6 51 67 bd 4b 47 4f 3e 1b 00 9c bd
       -0.021440964 -0.05647459 0.2024204 -0.076172076
0002a0 6e 31 41 be 76 e0 82 be b4 3b 8a 3e 2d d0 89 be
       -0.18866512 -0.25561875 0.26998675 -0.26916638
0002b0 99 4e 8d bc b3 0b 83 bd 95 20 8a bd 56 90 94 be
       -0.017249392 -0.06398716 -0.06744496 -0.2901637
0002c0 0f bf 92 be ca 5c c8 3c d9 7c 08 be 02 63 a8 3e
       -0.2866139 0.024458308 -0.13328876 0.32888037
0002d0 ad 24 68 3e 62 3f 88 be c3 68 f0 3d e0 c2 21 be
       0.2267024 -0.26610857 0.11738732 -0.15796995
0002e0 81 9b 85 be 2f 3b 25 3a e0 d6 6b 3e f7 c0 66 bd
       -0.26095203 0.00063030695 0.23031187 -0.05633637
0002f0 0e 7c 8c be 04 9e 75 3d dc 69 9b 3d 1b 07 82 3e
       -0.27438396 0.05996515 0.075885504 0.25396046
000300 8d 07 b7 be 12 b4 24 be 54 58 ce bd c1 21 cc bd
       -0.35747948 -0.16084316 -0.10075441 -0.099673755
000310 c3 58 d0 bd 39 34 7c be 38 69 1b bd e4 e3 9b be
       -0.1017318 -0.24629296 -0.03794214 -0.30447304
000320 f4 83 9d 3e 3c 5b 8f be 9d b1 97 3e 72 77 b1 3d
       0.30764735 -0.27999294 0.29627696 0.086653605
000330 b0 e3 2c be 03 ce 2e 3c f5 cc 96 3e 30 19 45 be
       -0.16883731 0.010669234 0.29453245 -0.1924789
000340 20 80 a4 3c 8a 60 47 3d 2d d5 52 3e 19 a7 40 3e
       0.020080626 0.04867605 0.20589133 0.18813743
000350 22 68 cb bd a6 8e 85 3e 0b d8 3c 3e 47 fb ec bd
       -0.09931971 0.26085395 0.18441789 -0.11571365
000360 f2 28 14 3d bf 06 a3 be 22 e0 ce 3e 0e dc f2 3d
       0.03617186 -0.31841084 0.40405375 0.11858378
000370 60 6d f4 3d c1 f6 a7 bd a9 90 de 3d 71 df 3a 3e
       0.11934924 -0.082013614 0.108674355 0.18249299
000380 a7 55 a5 3e 10 7c 9f be f4 30 63 bd ab 15 05 3e
       0.3229191 -0.3114934 -0.055466607 0.12996547
000390 33 8d f3 bd 3b 86 8a be 25 9d 5c 3e b1 67 0a 3e
       -0.11892166 -0.27055535 0.21544321 0.13516118
0003a0 b3 76 9d 3d ef 33 3e b9 95 d3 80 3e 46 57 44 3e
       0.07688656 -0.00018139159 0.25161424 0.19173917
0003b0 18 16 be 3e ae ee 6c 3e 30 93 e4 3d e3 1c 1c bd
       0.3712623 0.23137924 0.11160886 -0.038113486
0003c0 75 76 db bc 05 88 53 bd c8 07 49 be 9d 73 88 3d
       -0.026789883 -0.05164339 -0.19631875 0.066626765
0003d0 d1 25 a4 3d 58 84 92 be e6 81 20 be 35 f6 01 3e
       0.080150254 -0.28616595 -0.15674552 0.12691577
0003e0 9d 90 1c 3e 29 dd 09 3e a1 1c 15 3e 80 09 a2 be
       0.1528954 0.13463272 0.14561702 -0.31647873
0003f0 7a 96 8b 3e 07 c4 2a be 18 26 04 3d 86 29 99 3e
       0.27263242 -0.16676341 0.03226289 0.29914492

linearK2.weight f4 [10, 256]
000000 ba 6e 66 3d 2b 30 14 3d 44 6d ae bd 34 4b 55 bd
       0.05625794 0.03617875 -0.085169345 -0.052073672
000010 34 62 81 bd 80 bc fd 3c 4c 36 62 bb 00 13 46 3d
       -0.06317559 0.030973673 -0.0034517227 0.048357964
000020 4a 6c ef bc d6 85 98 bd ec 3c 5f bd e0 08 1b bd
       -0.029226441 -0.07447402 -0.05450146 -0.03785026
000030 25 89 e1 3d 3a 61 34 bd d6 36 4b ba cc 70 95 bc
       0.11012486 -0.044038035 -0.00077520066 -0.018242262
000040 cc 5f c5 bc 5b 9f 8e bd 9f 3e d2 3c 61 c7 3a bd
       -0.024093531 -0.069639884 0.025664626 -0.0456003
000050 51 af 00 bd 96 6d d5 bc 66 70 44 bd af 24 e8 3c
       -0.031417195 -0.026053231 -0.047958754 0.028337805
000060 d8 40 52 3d 90 e0 82 bd 61 8f 0d bd b1 2d 12 bd
       0.05133137 -0.06390488 -0.034560565 -0.035688106
000070 fa 4a b1 bc 51 60 df 3b 82 2a bd bd 8d 4e b3 3d
       -0.021642197 0.0068169017 -0.09236623 0.08755217
000080 40 3c 86 bd 51 07 76 3a 72 c9 b9 bc 7e de 03 bb
       -0.065544605 0.00093852455 -0.022679064 -0.002012163
000090 2f 2e bd bc a9 57 be bc d5 c2 85 3d 69 d9 71 ba
       -0.023093311 -0.023235159 0.06531302 -0.0009225817
0000a0 3f 26 37 3d fd b3 36 3d cc 82 b1 3c f2 d2 42 3d
       0.04471421 0.044605244 0.021668814 0.047564454
0000b0 ae fc af 3b 0a 0b ae 3d 4b e3 9f bd 45 14 d0 bb
       0.005370698 0.08498199 -0.078070246 -0.0063500726
0000c0 20 72 96 3c 40 84 8e 3d fc b0 89 3c d8 9b 2f 3c
       0.018364966 0.069588184 0.016808026 0.010718308
0000d0 22 12 fa 3c e0 19 84 3d 23 e5 82 bd a4 73 11 bd
       0.030526225 0.06450248 -0.063913606 -0.035510674
0000e0 4a b3 3f 3c 59 f1 0e bd a8 25 3e bd 36 f0 1f 3d
       0.011700461 -0.034898136 -0.04642263 0.039047442
0000f0 9c 4a 0d bd d7 13 a6 bd 45 23 5d bd 1e 40 b2 bd
       -0.03449498 -0.08109253 -0.053988714 -0.08703636
000100 45 83 d9 ba ba 3d c0 3c 4a 16 03 bc af 0b 24 bd
       -0.0016594908 0.023466934 -0.00800092 -0.040050205
000110 cf e1 25 be a9 ea e4 3b 03 75 55 3d 6d 40 e2 bc
       -0.1619942 0.0069859815 0.052113544 -0.027618611
000120 67 e6 87 3d 9f 50 98 3d d4 01 0f bd 85 57 15 3d
       0.06635743 0.07437252 -0.034913853 0.03646042
000130 1b de 8e bc da c0 37 bd c4 b0 72 bd 9e 43 74 bc
       -0.017439893 -0.044861652 -0.059250608 -0.014908699
000140 bf 67 8e 3c 2d 99 13 bd e5 eb 97 bd ef 80 b7 3d
       0.017383454 -0.03603475 -0.0741804 0.08960139
000150 8b 35 93 3d a5 b1 15 3d 0c f5 c0 3c 62 f1 71 bb
       0.07187947 0.03654637 0.023554347 -0.0036917557
000160 05 8e 58 3b 36 89 21 bd de 62 38 bd 67 e2 99 bd
       0.0033043635 -0.039437495 -0.045016162 -0.07513886
000170 b7 6a 3c bc fb 39 df 3c d4 9f 02 bd 3d 42 45 3c
       -0.011500052 0.027249327 -0.031890705 0.012039718
000180 c2 47 ac 3c de c0 85 3d 61 8c d1 3c d7 7c 6e 3d
       0.02103031 0.06530927 0.025579633 0.058224525
000190 2b cd 14 3c 0d 89 1f bd ab 0e f3 bc ae 59 83 bd
       0.009082119 -0.03894906 -0.02967008 -0.064135894
0001a0 3a 8c 7f 3d f3 ac 6f 3d e6 04 e9 bc c9 9f 14 bc
       0.06238959 0.058514547 -0.028444719 -0.009071299
0001b0 8d e9 73 3d e4 73 0d bd 8a 2d 55 3d 0b 5f 5c 3d
       0.059548903 -0.03453435 0.052045383 0.053801578
0001c0 e6 5c a1 3d 37 23 2b bd 30 4f e4 3c 3e 81 3c 3d
       0.07879047 -0.04178163 0.02786979 0.046021692
0001d0 7c d1 a7 3b 73 80 db 3b f2 31 10 3c 68 54 21 bd
       0.005121408 0.006698662 0.00880097 -0.039387137
0001e0 6a 80 c5 3d da bd 57 3d c7 45 3d bd 96 40 8a 3d
       0.09643634 0.05267129 -0.046209123 0.067506
0001f0 77 a1 31 3d 1c d4 0c 3d 0e 6c 0b 39 82 fb be 3d
       0.043366875 0.03438197 0.00013296327 0.09325315
000200 7c f5 c1 bd ca 26 74 3d 71 6f 06 bd bb 2e 5c bc
       -0.094706506 0.059607305 -0.032821123 -0.013438876
000210 a4 60 a4 3c bb 3e 00 3d cc 44 9c bc 62 b3 92 bc
       0.020065613 0.031309824 -0.019075774 -0.017907802
000220 db 2d 94 3d ae 9a 4c bd f4 7e 77 3c ad 7f c3 bd
       0.07235309 -0.0499522 0.015105952 -0.095458366
000230 42 68 2f bd 3d 9d 76 3d 99 37 17 bd 12 19 e9 3a
       -0.042824037 0.060208548 -0.036918256 0.0017783961
000240 d7 50 b5 3d 76 02 cc bd 83 16 94 3c b1 1f bc bb
       0.088533096 -0.09961407 0.01807714 -0.0057410826
000250 2e ac 5c bd 3f bf a8 3d 9c 68 50 3d 28 35 20 bd
       -0.05387514 0.08239602 0.050881013 -0.039113194
000260 6d 63 7e bb 5a 80 2c b9 c8 86 0b 3d 1e 35 43 3d
       -0.0038816587 -0.00016451013 0.034064084 0.04765808
000270 13 8f 00 3d 5d 6c 13 3d 74 79 2d bc ab 09 4f bc
       0.031386446 0.035992015 -0.010588039 -0.012636582
000280 e1 5f 1a bd 2d 08 ad 3d 03 0c 61 bd 11 fc 0a bd
       -0.037689094 0.08448825 -0.054943096 -0.033931796
000290 c1 71 08 bd 55 b8 a5 bd 28 b6 e7 bd 06 ca b0 3c
       -0.03331161 -0.08091799 -0.113140404 0.021580707
0002a0 5e 56 20 3d b7 e8 62 3c 3e 55 9b 3d db 97 75 bd
       0.039144866 0.013849429 0.07584618 -0.059959274
0002b0 43 7c b0 bd ef fe 87 3c 2a cc e0 bc 2f a5 4a 3d
       -0.08617451 0.016601054 -0.027441103 0.049473938
0002c0 08 19 ce 3c b8 9c 39 3d fb 02 1e bd fe 16 68 bb
       0.02515842 0.045315474 -0.03857706 -0.0035414095
0002d0 71 75 e2 3b 8b 89 28 bd c0 3b 42 3c e4 e3 86 bd
       0.0069109728 -0.041146796 0.011855066 -0.065864354
0002e0 25 b2 00 bd 76 cc 75 3d 62 13 3c bc db 28 fa 3c
       -0.031419892 0.060009442 -0.011479231 0.03053706
0002f0 9e 1b ae bc 4d 59 9a 38 19 9a 71 bd 5f 1a 1e bd
       -0.021253403 7.359926e-05 -0.05898485 -0.03859937
000300 94 84 65 bc 4a 59 5d 3d e4 34 68 bd 36 7d 48 bb
       -0.01400866 0.05404023 -0.056691065 -0.003059221
000310 67 24 bf 3b 6a da 5e bd 48 e8 ae bc 08 b1 ac 3c
       0.005833197 -0.054407515 -0.021350995 0.021080509
000320 29 7f 46 bd a6 34 66 3d 48 fd 85 3c 9b 3d 24 bd
       -0.048461113 0.056202553 0.016356125 -0.040097814
000330 46 7d b5 3b de e1 85 bc f7 a3 11 bd 73 63 30 3d
       0.0055386154 -0.016343053 -0.03555676 0.043063592
000340 34 7d bc bd d8 bc 9c 3c e6 8e 29 bd bf 31 8b 3d
       -0.09203568 0.019133016 -0.041396044 0.06796598
000350 51 28 c2 3d f2 9f 9c bc 82 e8 25 3d 67 b4 d1 bd
       0.09480346 -0.019119237 0.04050494 -0.10239487
000360 38 ef 05 bd 50 67 41 3c e9 b7 81 3d 5d 49 92 bd
       -0.03269884 0.011804417 0.06333906 -0.07142899
000370 ad e3 3e bc a5 9c c6 bd 9e 56 b6 3c 15 87 02 3c
       -0.011650962 -0.09697846 0.0222581 0.007966776
000380 f5 81 79 3d 2f 46 9f 3c 0c d4 b8 3c 75 63 d4 bd
       0.060914952 0.019442646 0.02256205 -0.103705324
000390 2f 8e 8d 3d 24 5a 17 bd 19 a2 81 bd f5 62 a7 3c
       0.06911885 -0.0369512 -0.06329746 0.020432929
0003a0 e0 10 d7 3d 1d 3d 20 3b 96 96 ed bc f3 01 f1 bc
       0.105012655 0.002445049 -0.029002469 -0.029419875
0003b0 f8 91 b2 bc 6d d2 6a bd 66 9a c1 3c da c3 c1 3c
       -0.021798119 -0.057329584 0.023633193 0.02365296
0003c0 b4 53 87 bc 82 63 36 bc 85 ce 83 3a 2b d2 85 3c
       -0.016519405 -0.011132123 0.0010056054 0.016335567
0003d0 d3 22 0a 3d fd 68 38 bd ea e8 63 bd 7a 0c 51 bd
       0.033724617 -0.045022 -0.055642046 -0.05103729
0003e0 bc e6 4b bd 75 c3 81 bd 4e 18 b3 bc cb cf be bc
       -0.049780592 -0.063361086 -0.021862175 -0.023292443
0003f0 58 69 71 3b f8 4b eb 3c 56 3c 95 bd da a3 61 bd
       0.0036836471 0.028722748 -0.07286899 -0.0550879

linearD2.weight f4 [256, 10]
000000 c5 0e 08 3e 28 1a eb bd 5e c6 54 3e 29 d1 fd 3c
       0.13286884 -0.11479598 0.20778796 0.030983524
000010 e9 d9 c3 3e 21 f9 3e 3e 5a 26 89 be 3e 63 30 be
       0.3825219 0.18649723 -0.26787072 -0.17225358
000020 68 3c 87 3d 3e 9b 2e 3e a0 5d 52 3e e1 b1 b5 3e
       0.066033185 0.17051408 0.20543528 0.35487273
000030 3b f8 49 bd be 27 02 3d a9 87 71 3e b8 1a 08 3e
       -0.049308997 0.031776182 0.23586906 0.13291442
000040 56 97 5f be 35 e6 82 be 02 79 c4 bd c6 2b 42 3e
       -0.21835074 -0.2556626 -0.09593393 0.1896201
000050 ef 9c 59 be ff 9e 73 3e 59 ff 8a bd 2c 05 2a 3e
       -0.21251272 0.23791121 -0.06786985 0.16603535
000060 e7 64 33 be 7e f1 b3 be 9c 4e 1e 3d 92 c3 4d 3d
       -0.1751896 -0.3514518 0.038649186 0.05023534
000070 c5 7c 96 3e 3f 2e 32 3e 1a 75 69 be f4 8c f4 3c
       0.29392067 0.17400454 -0.22798577 0.029852368
000080 2f 7e b0 bb 57 39 86 be 91 ff 96 bd c7 5a 2d 3e
       -0.005386136 -0.26215622 -0.07372964 0.1692916
000090 fc 62 8a 3e 3c 96 20 3e ca 38 a3 be 2f cc 53 bd
       0.27028644 0.1568231 -0.31879264 -0.051708397
0000a0 bd bb 19 3e b6 17 8c be f9 d5 9a be 94 e1 1d be
       0.15013023 -0.2736184 -0.30241373 -0.15418082
0000b0 cb 1e 77 be 48 c0 59 be 25 70 6d 3e 6a 07 b4 be
       -0.2413284 -0.21264756 0.23187311 -0.35161906
0000c0 5d 7c 38 3e 44 f1 f6 bd 04 a8 bd bd 94 b2 37 be
       0.18016191 -0.120577365 -0.09260562 -0.17939216
0000d0 34 d4 3b bd d8 de ae 3e e7 c9 99 3e 89 dd 89 3e
       -0.04585667 0.3415439 0.30036852 0.2692683
0000e0 b4 a1 d0 bd 82 be 0a be d2 97 d1 bc 1b 7e e0 3d
       -0.101870924 -0.13549235 -0.025585089 0.10961553
0000f0 4e 11 8c be 82 d8 05 be 19 aa 66 be 4b b8 f5 bd
       -0.27356952 -0.13070872 -0.22525825 -0.11998042
000100 cb 13 86 bd ae ad 36 bc 21 cd b1 3d 52 48 51 3e
       -0.06546744 -0.011149807 0.08681703 0.20437744
000110 26 88 89 3e 47 9d 52 be e4 7a 07 bd 95 87 89 3e
       0.26861686 -0.20567809 -0.033076182 0.26861253
000120 3a 89 23 be c8 ed a5 bd d3 79 42 3e 68 29 2a 3e
       -0.15970317 -0.08101994 0.18991785 0.16617358
000130 b7 86 7c 3d 86 6f 75 be 5a f6 a2 bc b5 40 11 bd
       0.06165191 -0.23968324 -0.01989286 -0.0354621
000140 43 0d 2a be 6c 5c 3e be 96 79 63 3e ab a1 4d 3e
       -0.16606621 -0.18589944 0.2221435 0.20081203
000150 98 67 4a be 80 49 c8 bd 4a d9 53 bd eb 50 88 bd
       -0.1976608 -0.09779644 -0.051720895 -0.06656059
000160 1b 75 84 3d 6f 6c 47 3e 83 f9 7c 3e 3a ef 99 3d
       0.064676486 0.19474958 0.24704556 0.07516332
000170 cd df 4b 3e 79 f3 84 bb 88 94 44 3d 01 61 d6 3d
       0.19909592 -0.0040573445 0.047993213 0.10467721
000180 d6 15 d5 bd 2a 71 9f 3d d9 33 76 be ca 93 10 3e
       -0.104045555 0.07785256 -0.24043216 0.14118877
000190 56 aa c0 bc f9 12 a8 be 36 38 4a bd 7c cc 8f be
       -0.023518723 -0.32826975 -0.049370013 -0.28085697
0001a0 d2 e8 92 3e e3 4f 82 be 33 39 ad be bf 42 c2 3b
       0.28693253 -0.25451574 -0.33832702 0.005928367
0001b0 1c 02 b7 3e 5f 25 b2 bd 66 96 49 be 9f 9f 20 3d
       0.35743797 -0.08698534 -0.19686279 0.039214727
0001c0 7b c1 85 3e 46 da cd 3d 6c ee 76 3e 4e a0 0e 3e
       0.26124176 0.10051398 0.24114388 0.13928339
0001d0 de 57 33 3e 1b 96 b7 bd cc cd de 3d eb 4a 4e be
       0.17513987 -0.08964177 0.108790964 -0.20145766
0001e0 b7 bc e8 3d 87 7e 3b 3e 9d 10 f0 bd 59 a8 75 3e
       0.113641195 0.18309985 -0.11721919 0.23990001
0001f0 2e 65 17 3e 0e 78 86 bd b5 74 3c 3d 65 b3 73 3e
       0.1478469 -0.06565867 0.046009738 0.23798902
000200 9f 76 b2 bd b5 66 8d be 5c 8f 4c bd 95 24 79 3d
       -0.087140314 -0.27617422 -0.049941406 0.060825903
000210 53 d1 82 3d aa 44 87 3e cf 11 8a bc 27 c1 5f be
       0.06387582 0.26419574 -0.016854195 -0.21851026
000220 1a 0e 24 be ad 35 84 3e 45 93 36 be de e7 9d 3e
       -0.16021004 0.258222 -0.17829616 0.30840963
000230 56 ea f3 3d f2 98 84 3e 67 0e 8a be 62 d9 d8 bd
       0.119099304 0.25897938 -0.26964113 -0.105883375
000240 a7 50 71 3e 90 a2 b2 bd 2b fe 0c 3d 29 ac 40 be
       0.23565923 -0.087224126 0.03442208 -0.18815674
000250 c4 4e 8d 3e 82 92 9e 3d bc 38 13 3e ca 97 95 3d
       0.27599156 0.07742788 0.14377111 0.07304342
000260 cf 47 3f be e4 2e 74 be a9 66 8e bd 3d 7d 0a 3e
       -0.18679737 -0.23846012 -0.069531746 0.13524337
000270 12 0b a9 3c 33 96 b1 3d c5 ae a0 bd e8 fd 60 be
       0.020635162 0.08671226 -0.07845835 -0.21971858
000280 ed af 7c 3d 55 06 37 be 86 f6 7f be 01 1d 6b 3e
       0.061691213 -0.17873509 -0.24996385 0.22960283
000290 f8 8b da be ae 88 81 be 25 f7 31 3e 38 72 53 3e
       -0.42684913 -0.2529959 0.17379434 0.2064904
0002a0 cf a0 ee bd 7b a1 b7 3b 75 2f d5 bc 5f 30 f5 bb
       -0.116517656 0.005603967 -0.026023606 -0.007482573
0002b0 2d f3 23 be 50 9c 1e 3e 6e fe 94 be f0 52 67 be
       -0.16010733 0.15489316 -0.29100364 -0.22590232
0002c0 cd 5f ff bd 53 b5 85 be ac 29 a6 be 96 38 14 3e
       -0.124694444 -0.26114902 -0.32453668 0.14474711
0002d0 0d 3e 96 3d c1 39 7e 3e c9 fe 30 3d 1d 32 a2 3e
       0.07336054 0.24826719 0.043211732 0.31678858
0002e0 f2 6b 37 be 77 70 8d 3e 2d c8 91 3e 73 23 88 bd
       -0.17912272 0.27624866 0.28473035 -0.066473864
0002f0 f4 b4 b3 be d5 ee 93 3c 82 ff 0f 3e cb 7f 17 3e
       -0.35098994 0.01805822 0.14062312 0.14794843
000300 b2 df 86 be d7 d6 72 3d d7 83 b5 bd d3 5f 2c 3e
       -0.2634254 0.05928692 -0.08863037 0.16833429
000310 fd b2 f1 bd 92 1a 22 3d df 7f 00 3e 03 e0 92 b9
       -0.118017174 0.03957612 0.12548779 -0.00028014192
000320 b0 d4 6e 3e be 8a 4f be 5d ca 98 be d4 99 8a bd
       0.23323321 -0.2026777 -0.2984189 -0.06767622
000330 2a 84 fd bc bb b1 44 3e 84 1c 11 be ed f5 5b be
       -0.03094681 0.19208424 -0.14171034 -0.21480532
000340 f7 87 6b 3e af 39 e5 3d 12 33 ca 3e 07 98 af 3e
       0.23001085 0.11192643 0.3949209 0.34295675
000350 bb c0 4a 3e 02 db ba be bc 63 8c 3e 9e ac a5 3e
       0.19800083 -0.36495215 0.2741984 0.3235826
000360 ac 66 f9 3d 89 3f 42 3e db 5f 33 bd a7 19 af 3d
       0.12177786 0.18969549 -0.043792587 0.08549815
000370 97 75 58 3b f4 bc 02 bd e2 68 37 be 9b 70 7a be
       0.0033029073 -0.03191848 -0.17911103 -0.24457018
000380 48 75 92 be c7 90 3d 3e fa 75 d6 3d 1c 46 b7 3d
       -0.28605103 0.1851226 0.10471721 0.08948919
000390 a3 58 9e 3d dd c9 7a 3e f5 88 12 3e 89 9a 94 3e
       0.0773175 0.24491067 0.14310057 0.2902415
0003a0 00 aa ff 3e 04 c9 b8 be de 74 f7 3d e1 f7 25 3e
       0.49934387 -0.36090863 0.120828375 0.1620784
0003b0 c7 b8 33 3e fc 5b 0a 3c ab 2c 8c 3e f4 92 9e 3e
       0.17550956 0.008444782 0.2737783 0.3097149
0003c0 bf 29 dd bd db 73 ba bd c3 32 0f 3e 97 32 87 be
       -0.10798978 -0.09104129 0.13984208 -0.26405784
0003d0 49 34 51 3e a6 0f 9e bd f8 e4 ef bd ee 4c a3 bd
       0.20430101 -0.077178285 -0.11713594 -0.079736575
0003e0 32 3f 58 be 63 12 58 3e db 69 99 be 46 bd 03 be
       -0.21117857 0.21100764 -0.29963574 -0.12865171
0003f0 6d 00 68 3e 21 35 98 be ad 39 74 3e 99 ff 49 be
       0.22656412 -0.29728034 0.23850127 -0.19726409

linearD2.bias f4 [256]
000000 68 a1 a3 3e c7 86 56 be 57 ff 27 3e 46 fa 9a be
       0.3195908 -0.20949851 0.16405998 -0.30269068
000010 e3 07 ce 3d 37 6c 6c bd ce 22 a0 3d 86 e4 95 bd
       0.10060098 -0.05772039 0.078191385 -0.07318978
000020 ce 3d df 3d 91 a3 ba 3c 33 ec 84 be 6d 78 11 bd
       0.1090046 0.022783073 -0.25961456 -0.035515238
000030 80 cd 9f 3e e9 da 9f 3e 5b 22 30 3e 1f 7a cc bb
       0.31211472 0.31221703 0.17200606 -0.006240144
000040 26 51 fe bd ed 37 64 3d 92 75 9a 3e fe 76 02 3d
       -0.124178216 0.055717397 0.30167824 0.03185176
000050 4c 2f 03 be c0 6e 46 3d e7 40 3b 3e 1a 31 8c 3e
       -0.12811011 0.048445463 0.18286477 0.27381212
000060 90 4e 5c bd ea 8d 80 be 80 98 0b be 71 5d 91 bd
       -0.05378586 -0.25108272 -0.13632393 -0.07097901
000070 29 34 4d bc 65 96 02 3e e3 29 0f 3e 2c 16 ba 3d
       -0.012524643 0.12752683 0.13980822 0.0908626
000080 01 e1 53 3c c8 50 3d 3e c5 61 97 be 4a cf 6d 3e
       0.012932063 0.18487847 -0.2956678 0.23223606
000090 44 76 87 be 03 2e 62 be dd 34 03 3e 58 a5 cd bc
       -0.26457417 -0.22087865 0.12813134 -0.025103256
0000a0 cf 9a 1d 3d 3c f7 2d bb e5 5a 93 3e d4 94 90 bd
       0.038477715 -0.0026545068 0.28780285 -0.07059637
0000b0 6a aa b5 3d 2c 41 35 be b3 0f 57 be 59 e9 00 3e
       0.088703945 -0.17700642 -0.21002083 0.12589015
0000c0 7c 94 92 3e 50 f2 a1 3e 87 d8 18 be 03 1e 09 3e
       0.2862891 0.31630182 -0.14926349 0.13390355
0000d0 e0 04 0d be 9d 0d 58 bd dc c8 6f be 94 08 19 bd
       -0.13771391 -0.052747358 -0.23416466 -0.037361696
0000e0 48 f1 5a 3d ef c9 03 3d e4 82 23 3e b5 b5 4a be
       0.05345276 0.032175 0.159679 -0.19795878
0000f0 78 9b 9a be 94 ee ef 3d 10 10 5b be 86 80 dd bd
       -0.30196738 0.11715427 -0.21392846 -0.108155295
000100 fb 62 84 be e6 dd a1 3e 55 97 47 3d 95 8a 1b bd
       -0.25856766 0.31614608 0.048728306 -0.03797396
000110 31 b3 fc bd 08 0f a5 3e 98 a6 9a 3d db 61 63 be
       -0.123388655 0.3223803 0.075513065 -0.22205298
000120 ba 95 d3 3d 39 c3 b8 3d 53 0b 26 3e 3d 9c 2a bd
       0.103312925 0.09021611 0.16215257 -0.041652907
000130 fa 23 b9 bd 75 26 9f be 6d 90 95 3d a0 20 78 be
       -0.09040065 -0.31084028 0.07302938 -0.24231195
000140 30 24 7e 3e c8 94 2a be ed 87 76 3e 7f 42 96 3d
       0.24818492 -0.16658318 0.24075289 0.07336902
000150 e5 46 60 bd 3e 88 a5 3e cf 7f 64 be fc 35 57 3e
       -0.05475511 0.32330507 -0.2231438 0.21016687
000160 93 09 21 bd e7 40 ad 3d 9a a1 12 3e 56 bb 17 3e
       -0.03931577 0.08459645 0.14319459 0.14817557
000170 40 a1 6e be 9f 13 82 be 66 81 6a 3e 12 d4 6e 3e
       -0.233037 -0.25405595 0.22900924 0.23323086
000180 8f 86 89 3e 36 21 1f 3e 7a cf 9d 3e 21 35 ff bc
       0.26860473 0.15540013 0.30822355 -0.031153264
000190 0e 06 55 bd cc 60 93 3d bc 55 3c 3e 28 cd c6 3d
       -0.052007727 0.07196197 0.1839208 0.09707099
0001a0 31 00 2a 3e 38 18 3d be 8d 46 53 3e fd 5d f8 3d
       0.16601636 -0.1846627 0.20632382 0.12127302
0001b0 59 ec a6 3d 09 06 77 3d 7e 28 20 3e f2 30 5a be
       0.081505485 0.06030849 0.15640447 -0.21307734
0001c0 8f 7f b1 bd 3d 4f 47 3e bc f6 55 3e 8e a3 9c be
       -0.08666908 0.19463821 0.20894903 -0.30593532
0001d0 96 80 44 3e 54 0b 0c 3e 95 89 02 be 4a 5d 86 be
       0.19189677 0.13676196 -0.12747796 -0.2624305
0001e0 dc 98 5d bd 43 d4 6b 3e 9f ae 69 3e 2f c2 bc bc
       -0.054100856 0.2303019 0.22820519 -0.023041813
0001f0 3a 2c cf bd 80 d0 ee bd 47 8c 48 be 2e cb a8 bd
       -0.101158574 -0.11660862 -0.19584762 -0.082418784
000200 5e b4 97 bd cc 22 b3 bc ee 24 46 3e 7c 67 22 3d
       -0.07407449 -0.021867178 0.19350025 0.03964947
000210 b0 1d 85 3e 95 3f 7c 3e ed d4 6f 3d 5b 9a 87 be
       0.25999212 0.2463363 0.05855267 -0.2648495
000220 ce c1 8f 3e a8 24 c6 3c e1 58 a2 3e 4a 33 a9 3d
       0.2807755 0.024187401 0.31708434 0.08261736
000230 12 90 66 bd 33 26 8a be db 3d 9c be 43 7f c3 bc
       -0.05628974 -0.2698227 -0.30515942 -0.023864394
000240 7f 6d 78 3c 58 ef 2d 3d d1 33 36 3d 00 50 1e be
       0.015162825 0.042464584 0.04448301 -0.15460205
000250 7f 93 a4 be 08 b0 bc be 55 7a d8 bd c4 0f 8e 3e
       -0.3214378 -0.3685305 -0.10570208 0.27746403
000260 70 16 d8 bd 70 93 89 bd 20 d0 c1 bd a3 8b 0c be
       -0.105511546 -0.067175746 -0.09463525 -0.13725142
000270 70 b7 32 be 45 62 82 3e d1 bc 1c bd 00 16 fe bd
       -0.17452788 0.254656 -0.038266007 -0.1240654
000280 a7 92 52 3d 72 93 89 be a4 25 84 3e c5 72 63 be
       0.05140939 -0.26870304 0.25809968 -0.2221175
000290 9e 59 06 be b9 29 c8 bd 62 ad e3 3d 6d fb 98 3e
       -0.13120124 -0.09773583 0.111170545 0.29879323
0002a0 e4 dd 6b be 70 85 e2 bd c4 21 91 3e ad be b8 bd
       -0.23033863 -0.110606074 0.28346074 -0.090207435
0002b0 48 15 25 3e 7a 79 78 be d4 a7 87 bd 38 5c d4 bd
       0.161214 -0.2426509 -0.066238075 -0.10369152
0002c0 f8 69 af 3c b8 db 8b 3d cf 4a 87 be d9 45 58 be
       0.021412835 0.068290174 -0.26424262 -0.21120395
0002d0 a9 45 56 be db ef 81 3d 3f 81 10 be 63 46 5f 3e
       -0.2092501 0.06344577 -0.14111803 0.21804194
0002e0 47 e6 77 be 4c e9 c6 3c 0c 2a a0 3d 11 4b 7b be
       -0.24208938 0.024281166 0.0782052 -0.24540354
0002f0 34 6c 66 3e b7 69 bc bd 13 1c 4f be 57 77 8c be
       0.22502214 -0.09199851 -0.20225553 -0.274348
000300 a0 25 8d 3e 90 5a 89 be f9 8a a6 bd 98 3a 5a 3d
       0.27567768 -0.26826906 -0.08131976 0.053278536
000310 1f 47 88 bd 78 e9 46 be 9c 74 86 3e 5f 1a 5d 3e
       -0.0665419 -0.19424999 0.2626084 0.21592091
000320 56 b3 2b be 5c 75 85 be 80 8a 71 3b 4f 0e 28 3e
       -0.1676763 -0.260661 0.0036856234 0.16411708
000330 fb 7b 22 be 18 d6 4f be e2 7f 3d be 3f f9 4d 3e
       -0.15867607 -0.20296514 -0.18505815 0.20114611
000340 3d e1 f1 3d 30 db 69 bc 92 c1 73 bd 5f 82 1a 3e
       0.11810539 -0.01427345 -0.059510775 0.15088795
000350 34 30 55 3d c8 11 c0 3d f9 a3 60 be c8 06 14 be
       0.052047923 0.093783915 -0.2193755 -0.14455712
000360 b1 41 5b 3e ae 1f 0d 3d 55 9e 32 be 4b 6c e4 3d
       0.21411778 0.03445404 -0.17443211 0.11153468
000370 47 b0 bd 3d 29 d5 22 be 8a 22 16 3e ca e4 9b bd
       0.09262138 -0.15901627 0.14661613 -0.076119974
000380 ab ca 89 be f8 3d 6b 3e 6f 74 6d bc 51 9f c8 3d
       -0.26912436 0.22972858 -0.014493092 0.09796012
000390 74 58 04 3c f4 c8 78 be 06 26 04 be 96 1a 06 be
       0.0080777295 -0.24295408 -0.1290513 -0.13096079
0003a0 df e7 74 3e ad 52 8b 3e f6 30 2a be 53 71 c0 bd
       0.23916577 0.27211514 -0.1662024 -0.09396615
0003b0 35 c1 90 be 8d 95 7a bd 7c 81 8b 3e 40 24 97 bd
       -0.28272405 -0.06117778 0.27247226 -0.07379961
0003c0 a9 77 f6 bd 37 b2 fb 3d 3c 90 6a be a4 4c 95 3e
       -0.12034542 0.12289851 -0.22906584 0.29160035
0003d0 2f 01 da 3d ca 42 b0 3e 5d d3 bb 3d 9f 13 93 bd
       0.10644757 0.34425956 0.09171174 -0.07181477
0003e0 95 c4 f2 3d 92 02 56 be d2 2c e5 3d 43 3c a2 be
       0.11853901 -0.20899418 0.111901894 -0.316866
0003f0 bf a8 b5 be 35 c4 94 3e 7a 88 16 bd c0 17 69 3e
       -0.35480306 0.29055944 -0.036751248 0.22762966

linearK3.weight f4 [10, 256]
000000 8f 2a 91 bd 70 2a 54 bb 0d 59 67 bd 9b 56 ba 3d
       -0.070881955 -0.0032373928 -0.05648141 0.0909855
000010 89 29 7c bc 7a 38 ef 3d f8 f6 c7 bc 01 18 c3 bb
       -0.015390762 0.11680694 -0.024409756 -0.005953789
000020 cb f1 6b bc 64 b3 15 3d eb e1 c0 3d 95 b3 8a 3d
       -0.01440091 0.036548033 0.094180904 0.06772534
000030 b3 29 2f 3d 81 4c 7f 3d 81 85 15 bb bf 2e 8a bd
       0.042764377 0.06232882 -0.002281517 -0.06747197
000040 d6 87 c7 3d 0c 17 9c 3d 8b cf 8f bc cc 1c 83 3d
       0.097427055 0.07621583 -0.017555019 0.06401977
000050 3e c8 84 bd e0 95 36 bd 2f 9d 9c 3c 0d fc ef bd
       -0.06483506 -0.044576526 0.01911792 -0.11717997
000060 e8 30 00 3d 5d 96 15 3d 0c 8f b3 3c cf 15 88 3d
       0.03129664 0.03652035 0.021918796 0.06644785
000070 0c bc b7 3a 4f 0f c9 bb 31 40 05 bb 0c d3 bf bc
       0.0014017834 -0.006135858 -0.002033245 -0.023416065
000080 44 d1 8a 3d a6 b9 82 3c 43 39 b0 bc aa fb 85 bc
       0.067781955 0.015957665 -0.02151168 -0.016355354
000090 2d 22 43 3b 29 bf 05 3d a4 a0 24 3d 42 09 5b bb
       0.002977501 0.032653008 0.04019226 -0.0033422266
0000a0 3e 70 1b bc 11 2f 8e bd 1f d1 7e bc b3 33 cf 3d
       -0.00948721 -0.06942571 -0.015552788 0.10117283
0000b0 d1 10 f7 3c a6 3b 13 bc 8d 9c af 3d 50 90 6b 3b
       0.030159386 -0.008986389 0.085747816 0.0035944171
0000c0 5c 4c de bd 98 46 fa bc 61 23 b3 3d e3 8a d9 3b
       -0.10854408 -0.03055124 0.08746982 0.006638871
0000d0 a9 5f 90 3d bf 82 0c 3d 3a 54 06 bc 31 6e 42 3d
       0.07049496 0.034304377 -0.008198792 0.047468368
0000e0 91 8f 5c 3d 8f de 3c 3d 16 9b 42 bc 06 36 95 3d
       0.053847853 0.046110686 -0.011877796 0.07285695
0000f0 39 c5 32 3c 75 ea fb 3c 38 43 80 bd be 8d 62 bc
       0.010911279 0.030751446 -0.06262821 -0.013827739
000100 2d a1 2d bd ef 98 95 bd 23 05 ae bc e3 6d e1 bc
       -0.042390037 -0.073045604 -0.021242684 -0.027518218
000110 af bd 60 bb b8 f0 08 3d ea 3c 3a bb 9e 6c c8 3b
       -0.0034292748 0.033432692 -0.0028417655 0.006116464
000120 8c 30 90 3d e9 e2 c6 3d 5a b6 c6 bd 9b 8a 84 3d
       0.070405096 0.097112484 -0.097027496 0.064717494
000130 ce 3d 86 3d 3d 38 35 bd 9e a5 88 bd 55 8d 82 bd
       0.06554757 -0.044243086 -0.06672214 -0.06374613
000140 f2 84 12 3d 1f 14 d3 ba cd f2 c3 3d c8 de 96 bc
       0.035771318 -0.0016104019 0.09567795 -0.018416777
000150 d6 18 20 3d 55 69 d3 bd d8 c8 8e 3d 36 55 f8 b9
       0.039086185 -0.10322825 0.06971902 -0.00047365733
000160 56 32 65 3c f0 3b 8d 3d d0 6d 34 3d 36 70 41 bd
       0.013989052 0.06896198 0.044050038 -0.047226153
000170 82 fb c6 bc 5c 87 70 bd da 8d 09 3c 3b 81 9b 3c
       -0.02428985 -0.05872284 0.008395636 0.01898252
000180 17 d8 85 3d d3 5c 39 bb a9 f7 96 bd 4c b7 03 bd
       0.065353565 -0.0028284087 -0.07371456 -0.032157227
000190 83 23 14 3c a6 30 a1 3d 2d 19 56 bd 65 48 d0 bd
       0.00904167 0.07870607 -0.052270103 -0.10170058
0001a0 4f 43 dd bc df 88 3c bd 56 fd 6e 3d d7 38 8e bd
       -0.027009634 -0.046028968 0.05834707 -0.06944435
0001b0 9d 8c 28 3b 5d 04 a4 3c 28 05 42 bd 67 de 9b bd
       0.0025718578 0.020021612 -0.0473682 -0.07610779
0001c0 bd 2c 88 bd b1 ce 2f 3d 48 c8 28 3d 58 e9 1d bd
       -0.06649158 0.042921726 0.041206628 -0.038552612
0001d0 72 61 0f 3d 19 17 81 3c 0e f6 9a 3d f9 d0 7f 3d
       0.03500504 0.015758084 0.075664625 0.06245515
0001e0 5c 36 b3 bd 14 9a c7 bb 51 16 3c 3d 85 66 44 bb
       -0.087506026 -0.0060913656 0.04591972 -0.0029968333
0001f0 c3 ba 56 bc c1 ab 0b 3d da e6 92 3a ab 83 3a 3d
       -0.013106051 0.034099344 0.0011207715 0.045535725
000200 6e cf 83 bd ed 37 7d 3d c0 58 4b 3d 98 ce 73 3d
       -0.064360484 0.061820913 0.049645185 0.059523195
000210 9b 91 83 bc 26 ec ee bb 7f 8f 8c 3d 06 a5 ad bd
       -0.016060641 -0.0072913347 0.06863307 -0.08478741
000220 94 f3 75 3d fd be 5f bd 4e 30 9a 3d 8e 53 f1 3b
       0.060046747 -0.0546255 0.07528745 0.007364697
000230 3a 2b 5e bd 91 58 a3 bd d8 88 be bc 22 ce 8a bc
       -0.054240443 -0.07975877 -0.023258612 -0.016943995
000240 75 08 8b 3d 98 bf cc 3d 6f b0 05 3d d7 21 74 3c
       0.067887224 0.09997481 0.032638963 0.014900646
000250 9a 8a 8e 3d 5e 2f cc 3d 01 a7 b5 bd 6e 84 99 bd
       0.0696003 0.09969972 -0.08869744 -0.07495962
000260 82 21 01 bd b1 38 85 bd 41 96 5f bc 2f 8c 76 bd
       -0.031526096 -0.06504954 -0.013646663 -0.060192283
000270 b6 fb ca 3d b6 55 29 3c 4b 73 53 bd ec a9 33 3d
       0.09911291 0.0103353765 -0.051623624 0.043863222
000280 97 5d 94 3d f1 a7 2d bd e3 37 65 bc e1 32 db 3c
       0.07244413 -0.04239649 -0.013990375 0.02675766
000290 a2 b1 cb 3c 3c f1 5c 3d bd fd 2f bc 67 7c 37 bc
       0.024864975 0.053940997 -0.010741648 -0.011199093
0002a0 72 81 82 3d 28 fb b5 ba 6d 69 41 bd d9 f8 47 3d
       0.06372346 -0.0013884054 -0.047219682 0.048821304
0002b0 be 43 59 3c 23 6c 3a bc 54 69 0e 3d 00 c2 ca 3c
       0.01326078 -0.011378321 0.034768417 0.02475071
0002c0 8b 6e c1 3d 94 38 df 3d 0f 2a 13 bd c8 da 92 bd
       0.094449125 0.10899463 -0.035928782 -0.071706355
0002d0 fe 65 76 bd c5 25 af 3c ac 10 94 3d 6b ec 15 3a
       -0.06015586 0.021380315 0.072297424 0.0005719128
0002e0 d7 fa 26 bb 97 27 f1 bd e6 15 8b bd bf e4 26 3d
       -0.0025479102 -0.11775129 -0.06791286 0.040745493
0002f0 d4 3f 87 3d 5e ba 2d 3d 69 ca aa 3c 5a 05 a5 bd
       0.06603971 0.04241406 0.02084847 -0.08057661
000300 61 d5 11 bd 84 e1 40 3d 06 2f 7f 3c 5f f5 d9 bc
       -0.035603885 0.04709007 0.015575176 -0.02660626
000310 e1 7f aa 3d c8 ca 38 3d d5 eb dc bc b3 d3 a3 3b
       0.08325172 0.045115262 -0.026967922 0.0049996017
000320 b1 30 9a 3c e9 88 9b bd 89 13 aa 3d e8 8d 77 bc
       0.018822046 -0.07594473 0.08304507 -0.015109517
000330 02 89 57 bd 87 e9 12 bd 1d 78 58 3c 53 03 e5 bc
       -0.052620895 -0.03586724 0.013212231 -0.027955687
000340 5e 94 84 3d 96 4d cd bd f8 0c 02 3c 9e 60 81 bb
       0.06473611 -0.10024564 0.007937662 -0.0039482852
000350 62 53 0d bd 52 95 8b 3d c6 52 8b bc 34 10 f5 bc
       -0.03450335 0.0681559 -0.017007243 -0.029914953
000360 9f 0f fb 3c f1 04 3e 3d 70 c1 8e 3d 12 97 2a bc
       0.030647097 0.04639143 0.06970489 -0.0104119945
000370 4d e9 9e bd e1 3b f3 bc 1e 54 c5 3b 65 62 50 bd
       -0.07759342 -0.029691638 0.0060219904 -0.050875086
000380 fc 0c b5 3d 33 bf 79 3d fa 08 00 3e 27 33 ed 3c
       0.08840367 0.060973357 0.12503424 0.028955055
000390 e2 d4 9d 3d 9d 4b c8 bc b5 6a fd bc 04 30 ec 3c
       0.0770662 -0.024450118 -0.030934671 0.02883149
0003a0 23 46 b9 3d 9f 52 79 3d 44 9a 5d bd ea 73 81 3d
       0.09046581 0.06086981 -0.054102197 0.06320937
0003b0 93 6f 27 3d ad 4b 9f 3d 64 e5 69 bb 6c 64 cb ba
       0.04087789 0.07778106 -0.0035689706 -0.0015517599
0003c0 8e be 64 3d 00 de 33 3d 8a 13 5e 3d 83 53 10 3d
       0.05584579 0.043912888 0.054217853 0.035235893
0003d0 20 92 50 3d 67 6e 96 3d 0c 84 aa 3c 6b 93 a9 bd
       0.050920606 0.07345276 0.020814918 -0.08280071
0003e0 ed 5f 8a bd 9d 33 14 bd 85 42 31 bc 52 64 40 3d
       -0.06756578 -0.036182035 -0.010819082 0.046970673
0003f0 f2 fe 8f 3d 83 67 9e bd 88 de cd 3b eb be 9d bd
       0.07031049 -0.07734587 0.0062826313 -0.0770243

linearD3.weight f4 [6, 10]
000000 b7 ee 3c 3e fd b7 69 be 23 69 0a 3e 46 ef 8e 3e
       0.18450437 -0.22824092 0.13516669 0.27916926
000010 8c e9 28 be b8 0f 83 3e 9b 2b 00 be 76 67 ab 3d
       -0.16495341 0.2559793 -0.12516634 0.08369343
000020 10 03 a5 3e 3f f4 b8 3e 6a e4 2a 3e 8a 13 9b 3e
       0.322289 0.36123845 0.16688696 0.30288345
000030 a0 48 32 3e 4c 58 83 be 71 2a 1c be da c4 ab be
       0.17410517 -0.25653303 -0.15250565 -0.33548623
000040 49 90 34 3e 13 11 ad 3e 9a 25 19 3e d9 c5 98 3e
       0.17633165 0.3380209 0.1495575 0.29838446
000050 d7 8a e7 3d 2b b4 8f be 23 d0 aa be 03 81 16 be
       0.113057785 -0.28067145 -0.3336192 -0.14697652
000060 12 ee 85 be a4 e8 2f be 19 e8 92 be 83 c5 14 3e
       -0.26158196 -0.17178589 -0.286927 0.1452847
000070 f0 fe 4b 3d e7 09 f8 bd 40 09 ef bc ae b0 45 3c
       0.049803674 -0.12111264 -0.029179215 0.0120660495
000080 21 50 0d bd d8 4f 9b be 50 99 c8 bc 3e 76 d9 bc
       -0.034500245 -0.30334353 -0.024487168 -0.02654564
000090 37 c7 46 3e ab f0 88 be e7 1a 98 3e a6 b4 6f bd
       0.19411932 -0.26746115 0.29708025 -0.05852189
0000a0 38 02 a4 be 96 34 80 be 86 ad 5b be 48 55 85 3e
       -0.32032943 -0.2504012 -0.21452913 0.26041627
0000b0 c2 ca 9e be 60 ae 82 be d1 97 42 3c ae bf 9f 3e
       -0.31014067 -0.25523663 0.011877016 0.31200927
0000c0 18 74 ae 3d dd bc 3c be 6c f7 28 be 0e b2 8f bd
       0.08518237 -0.1843142 -0.16500634 -0.07016383
0000d0 a5 49 9b bc c4 c6 ff 3b 9f 12 79 be fb 90 9f 3e
       -0.018956015 0.007805677 -0.2432351 0.311653
0000e0 cf 49 16 3e 91 95 98 3e e2 94 d0 bd 2b d2 6b 3e
       0.14676593 0.2980161 -0.10184647 0.23029391

linearD3.bias f4 [6]
000000 12 1a 54 3d 48 49 d4 3d 0e 55 58 be 04 ba 8c 3d
       0.051782675 0.1036554 -0.21126196 0.06871417
000010 db 83 00 3e 85 cd 8a 3e
       0.12550299 0.27109924
