pretrained/MLE/MLE12_128.pt (torch, 55232 bytes, 9 tensors)

linearK1.weight f4 [12, 8]
00000000: 7dce a5be fa4e 033e a212 a2bd 3c5b c33e
00000010: 0edc a0be be37 01bd 688c 7f3e 59c1 5c3e
00000020: 9305 c0be 3475 c7bd 8823 b63e 1ea2 42bd
00000030: 2353 54be db23 58be f41a c43e f7f2 7d3e
00000040: c291 98be 4d9c 6d3c 2c83 3c3e e947 60be
00000050: ea0a 7f3e aec8 0f3e 6ac8 80be 3e73 713e
00000060: 571f 2d3e 5cab 693e 0b9c ee3d 79bc b4be
00000070: 0033 a33e cfaf b9be 0430 933e 0b74 65be
00000080: e93e 7fbe e73e fcbc 8fcb b4be 55f2 86be
00000090: f2a2 66bd b5da 90bd 6db2 183e 00b6 2a3d
000000a0: 09d3 2fbd d211 9f3e 7a0d 173f 9ac1 bbbe
000000b0: f999 973c a011 53be 6584 4bbe e63c e93d
000000c0: 41e2 c63d d30e 0cbe 0fca 2bbf b211 e13d
000000d0: ec03 6f3e 28e4 0d3e f4ef 66be 647b 223e
000000e0: 79bf 98bc 0df5 ee3c d652 433e 68d1 323e
000000f0: 375e a53e 488a 82bd 49db 1e3e a395 9f3d
00000100: 3311 8b3e 54f8 95be ac39 043f 5be5 523e
00000110: 286b 4dbd d054 543e d7f3 973e 3c5d 13be
00000120: 4adb 803e 2af1 923d 78b2 9b3e 0d35 b03e
00000130: be3d de3d 2059 14be 1355 153e 100f 853e
00000140: 6e1d 11be a0c3 af3e 4066 26be eb31 553e
00000150: 9190 aabe 14eb 4d3e da0d 4d3e c7cd 9bbd
00000160: 4106 923e 5c16 7bbb c7d9 3ebe a1da 803d
00000170: 5f1f afbe 65c3 e43c 981e f2bd a59f 113e
-0.323841 0.12823096 -0.0791371 0.38155544 -0.31417888 -0.0315473 0.24955904 0.21558131
-0.37504253 -0.097391516 0.35573983 -0.04751789 -0.20734839 -0.21107428 0.38301814 0.24799715
-0.29798704 0.014502597 0.18409413 -0.21902432 0.24906507 0.14041397 -0.25152904 0.23579118
0.16906486 0.22819275 0.116508566 -0.35300043 0.31874847 -0.36266944 0.2874757 -0.22407548
-0.24926342 -0.030791713 -0.35311553 -0.2635676 -0.05630774 -0.07072965 0.14911814 0.041677475
-0.04292587 0.31068283 0.5900494 -0.36671144 0.018506037 -0.20612192 -0.19874723 0.113885686
0.09711123 -0.1367753 -0.6710519 0.10989703 0.2334134 0.13856566 -0.22552472 0.15867382
-0.018645989 0.029169584 0.19074568 0.17462695 0.32298443 -0.06374031 0.15513338 0.07792213
0.2716156 -0.29291022 0.516505 0.20595305 -0.05015102 0.20735478 0.29678223 -0.14391035
0.25167304 0.07174905 0.30409598 0.34415475 0.1085162 -0.14487123 0.14583234 0.25988054
-0.14171383 0.34328938 -0.16249943 0.20819823 -0.3331342 0.20109206 0.20024815 -0.07607608
0.28520396 -0.0038312888 -0.18637763 0.062917 -0.34203622 0.027925203 -0.118222415 0.14221056

linearD1.weight f4 [256, 12]
00000000: 0085 373d 852a 2dbe 82b8 11be 49e4 543e
00000010: f2ce 603e 2c68 11be ce51 18be 63bf 513e
00000020: c7bd b13d d14f 8b3e 20bb 123d 314d af3d
00000030: 27ff 32bd 8c03 25be e482 e03b f343 5bbe
00000040: 816d 173e 13c7 3cbe ad7a 393e 9817 cbbc
00000050: c43a 0c3e f981 dbbd c5db 893e f351 b3bd
00000060: 4d19 a0bd 821e 38be 8b86 cebd 054b c53c
00000070: 04bb 8b3e b25f 76bd 7653 03be af31 ddbd
00000080: 3d9e 8fbe 0ca0 92be e8d3 d7bd 371e 2abe
00000090: 5bf3 6b3e d622 06bd 3067 94be b6a3 983d
000000a0: ae1a 053e fa68 f3bb 1d19 603c fc5c 6bbd
000000b0: eb44 033e 650d 963e 98c9 8e3e 1fbf 4c3c
000000c0: eafd b63c f0d9 9c3e a22f 84be 58dc 2d3e
000000d0: 4f2c 693e 198a 263d 42f3 18bd 670b b0bd
000000e0: fe1a fb3b f14d 3abe cab6 b2be 6f42 6b3e
000000f0: e055 483e b7e4 d0bd 9ef7 573c b663 d83d
00000100: 9afc 82be fae5 2c3d a082 59ba b38b 9a3d
00000110: 65b5 b1bd ebc0 313e 7d0a e33d b5f4 09be
00000120: a53a cabd ed84 96be 4753 8a3e 5a4c 5e3e
00000130: 3e7c 1a3e a225 e8bd 7d12 263e f1be 833c
00000140: 272e fb3d 7e14 3c3e 4c66 253e 0116 23bc
00000150: e3cc 793e f2ca 8d3d 7583 5abe 8e3b d43d
00000160: 44d9 453e b78e 133e 939a 993c b15f 5f3e
00000170: 15b9 84bc c067 2fbe f46a e03d bb8a 87bd
00000180: e94d 6bbe 0994 84be 9666 283e 4fa1 d33c
00000190: 3447 a13e 1623 1fbe 7c61 84be d28a 5fbe
000001a0: 8bbb 7abd 1ff2 83bd 850d a93e 48b4 3dbe
000001b0: 53ad 23be a56f 203d 9b1f 88bc aed0 19be
000001c0: 4d92 37bd 3e09 4d3e 9ad1 d93b b2f4 113e
000001d0: cf0d 83be 9a55 88be c305 203d 1127 66be
000001e0: 4ffa aabd 8709 543e a569 4a3d 130c c53d
000001f0: ca4b f1bc a335 4e3e 2c3b 0dbe 24f2 84be
00000200: 055b 1c3e b41b 9abe 2308 c4bc d002 243e
00000210: 0360 7fbe fa66 693e 84ef 623d 5080 10be
00000220: 4797 3ebe 6181 693e d9d9 5abe 4da2 15bd
00000230: 231c 27be 7588 d7bd ae8b 29be db01 5cbe
00000240: aabc 583d 1973 cabb dcc6 12be 0f12 b13d
00000250: badc 8ebe 0d7e eb3d 902d 0d3e 414f 9f3e
00000260: cde0 e53d bd43 63bd 5e4e 553e 242b 08be
00000270: be47 8f3e ef7b 9a3d 296e 2abe 9e58 c63d
00000280: d65e 1abe 85c2 c0bd bee1 993d a04e 393d
00000290: aa48 a7bc 0f87 90bd b6bd 343e 7d38 56be
000002a0: e2e9 86bc 84ff e3bd 5de5 19be 978a 1bbe
000002b0: cfe9 9bbe 1eff d73d 6359 833e d924 30bd
000002c0: 5fab 143e a1cc 843e 0942 6b3e d8d3 4cbe
000002d0: 2fd3 5bbe 0395 b2bd 5141 6ebe e69e 5dbe
000002e0: 1cc6 823e 53a0 3dbd b66d ba3c 2106 2bbe
000002f0: fd91 923e 6379 d23d 71b3 453e c1b0 cabd
00000300: f852 753e 9761 27be f9ab 1d3e 49b7 533d
00000310: 4ee8 a9bd 9869 6bbe 69ea 2cbd c9a9 8bbe
00000320: fc4c 1b3e 7bc0 55be 896c b9bc 5877 2dbe
00000330: e620 65be 5fd0 1c3e be72 7dbe 7612 9cbd
00000340: 5679 df3d 8c93 a63d b494 413e a721 3f3e
00000350: 990e 54be 3608 753e 36f3 443e 12fc 5a3e
00000360: 3707 8b3e 48c0 4cbe c1c7 853e 3bb7 a93d
00000370: 86a6 d83c 03bd 413e b071 a9bd 8d26 4b3e
00000380: a0cc 183e 6c2c 803e 2dde 91be 1abe a03e
00000390: 2833 95be 1008 a43d a72d 98be 5b07 143d
000003a0: 3940 c0bd 5921 92be d110 65be b019 853e
000003b0: bc3f 41be df19 47be 48cf 7cbe bb8b 513e
000003c0: 2531 313e f5a2 c7bd ba69 bcbd 4df6 023d
000003d0: f47b 6cbe fbfc 043e 2738 a6be 9621 973d
000003e0: 60ea 9c3e d89c 06bd 0420 61bd f105 74be
000003f0: 771d 6a3e 0a5c c23d 097f 0cbd 293c 1cbe
0.044804573 -0.16910751 -0.1423054 0.20790209 0.21953943 -0.14199895 -0.14874956 0.20483164
0.08678775 0.27209333 0.035822988 0.08559645 -0.043700363 -0.16114634 0.006851541 -0.2141264
0.14787866 -0.18435316 0.18113203 -0.024791524 0.13694292 -0.1071815 0.26925483 -0.08755865
-0.07817326 -0.17980388 -0.10084256 0.024083624 0.2729112 -0.060149856 -0.12824807 -0.10800492
-0.28050414 -0.2863773 -0.10538465 -0.16613089 0.23042051 -0.032748066 -0.28984976 0.074531004
0.12998459 -0.0074282857 0.0136778625 -0.057461724 0.12819259 0.29307094 0.2788818 0.012496739
0.022337873 0.30635023 -0.2581759 0.16978586 0.22770809 0.040659044 -0.037341364 -0.08595925
0.00766313 -0.18193795 -0.34905082 0.22974561 0.19564009 -0.10199874 0.013181595 0.10565893
-0.25583345 0.04221151 -0.00082973577 0.07546177 -0.086771764 0.17358749 0.11085985 -0.13472255
-0.09874467 -0.2939829 0.2701666 0.21708813 0.15086457 -0.11335303 0.1621799 0.016082259
0.12264662 0.18367192 0.16152304 -0.009953977 0.24394564 0.06923474 -0.2133921 0.10362922
0.19321162 0.1440991 0.018750465 0.21813847 -0.016201535 -0.17129421 0.109579 -0.066182576
-0.22978939 -0.25894192 0.16445383 0.025833754 0.31499636 -0.15540728 -0.25855625 -0.218303
-0.06121401 -0.06442665 0.33018127 -0.18525803 -0.15984087 0.039168973 -0.016616633 -0.15021011
-0.044817258 0.20023057 0.006647301 0.142535 -0.25596473 -0.2662781 0.039067995 -0.2247584
-0.08348524 0.2070676 0.049417157 0.096214436 -0.029455084 0.20137648 -0.13792104 -0.2596599
0.15269096 -0.3009926 -0.023929661 0.16016698 -0.2493897 0.22793189 0.0554042 -0.14111447
-0.18612395 0.2280326 -0.21372165 -0.036531735 -0.16319327 -0.10524074 -0.1655719 -0.21485083
0.0529143 -0.0061782715 -0.14333671 0.086460225 -0.27902776 0.11498652 0.13786912 0.31115153
0.11224518 -0.055484522 0.20830676 -0.13297707 0.27984422 0.0754317 -0.16643585 0.09684871
-0.1507524 -0.09412102 0.0751376 0.045241 -0.020420391 -0.070570104 0.17650494 -0.20919986
-0.016468946 -0.1113272 -0.15028901 -0.15189587 -0.3045182 0.105467066 0.25654134 -0.04300389
0.14518498 0.2593737 0.22974409 -0.20002687 -0.21467279 -0.08719828 -0.23267104 -0.21642646
0.2554177 -0.046295475 0.022757392 -0.16701557 0.28627005 0.10277059 0.19306733 -0.098969944
0.23957431 -0.16345821 0.15397634 0.051688466 -0.08296262 -0.229895 -0.04221574 -0.27277973
0.15166086 -0.20874207 -0.022634761 -0.16940057 -0.22375831 0.15313862 -0.24750802 -0.07620709
0.10911815 0.08133611 0.18904382 0.18665181 -0.20708694 0.23928913 0.19233403 0.2138522
0.27153942 -0.19995224 0.26128963 0.082869016 0.026446592 0.18919758 -0.08273637 0.19838925
0.14921808 0.2503389 -0.2848982 0.31395036 -0.29140592 0.0800935 -0.2972233 0.036139827
-0.093872495 -0.28541067 -0.22369696 0.2599616 -0.18871969 -0.19443463 -0.24688447 0.20463459
0.17303903 -0.097478785 -0.09199853 0.031973172 -0.2309416 0.1298713 -0.32464716 0.07379453
0.30647564 -0.03286442 -0.054962173 -0.23830391 0.22862802 0.09490211 -0.034300838 -0.15257324

linearD1.bias f4 [256]
00000000: 3f5c ff3d 96e6 8abe b816 843e 1b94 613e
00000010: 809e 80be 36bb 42bd 83bb 1dbe d377 7fbe
00000020: ca63 803e 1a87 7ebe 9978 843d b5b7 853d
00000030: 5a9e 85be 878d 2ebe 6027 663e 82c5 6a3e
00000040: 3603 e93c 0236 e83d aad2 4d3e 2b8d 923d
00000050: 90ac 71be 5d19 883d 7222 b6bd 89a8 d4bd
00000060: 1395 593e 6a49 c53c 4275 323e fbe6 473e
00000070: 95b1 2e3d 39fd d1bc 93fd 91bd ef69 353e
00000080: 3441 63be f4bd 5dbe 80ad d8bd 5899 59bc
00000090: 59e6 633e 2b2c c0bd 1973 92be 04d6 28be
000000a0: f919 483c f233 8dbd 4317 903e 7ff9 1c3d
000000b0: 5250 4bbe 2517 0a3e d57f 3a3e aea2 363e
000000c0: 14e2 5bbe 7804 1dbd ce18 b13d c80c 0a3e
000000d0: 96e6 9d3e aff0 46be 5b7a 973e ebd0 803d
000000e0: a880 93bc 0d7d 2d3e e1bc fe3d 514f 1fbe
000000f0: 184a fd3c e8aa 443e baaa 9d3d 654e 433d
00000100: 63ab 3cbe c127 243d 7645 aabd d4e0 73be
00000110: 6448 29bd 5dfb 00bc abab 7bbe a184 25be
00000120: f622 86be d45d 263e 0fdd 5b3e 3665 13be
00000130: 58c8 093e 1526 993e 3b20 84bd 0508 b83d
00000140: 8001 a1be 32ed 99be 415b 69be 0e47 66bd
00000150: d7f4 53be f35f 88be b05b 813e 437e 953d
00000160: f7a1 b83d ae39 4f3e e633 dbbd 2f3d 3a3e
00000170: 3fbb 80be cc8a a93d 113e 3a3e d961 9e3e
00000180: c5a0 883e 629e af3c 5df8 8cbe f9c7 51be
00000190: 0ffe 9abd 1cd8 993e 81a2 763e a4c2 f33d
000001a0: f86a aebd 9e77 64bd 1ea1 6dbe d5f8 9e3e
000001b0: 0553 a03d 5e85 b33d 32db 1abe 92bd 89bc
000001c0: aac2 84be 5fe9 27be 144c 3d3e 2c89 7fbe
000001d0: baf3 00be 915b 243e f625 903e 014f 1d3e
000001e0: 7cf9 a2bd fb10 6c3e 49db 51bd ff60 cf3b
000001f0: 7fb8 413e 522b 66bb 0a99 de3d 0d12 b6be
00000200: bc80 783e b89d 3f3e 20ba 8abe b690 823d
00000210: c1cd d63d a4f6 533e 8661 3bbe a098 eabd
00000220: bef8 d93d bef0 823e c1fa e93d 09c4 60be
00000230: e28a 5a3d 4074 2c3e aaa7 6c3e 8b74 e23d
00000240: 8ebe 6c3b 4728 713e 5a4d 90bd 3ea7 993e
00000250: 8c80 b7be c486 ce3d 5a65 4f3e 2802 5bbe
00000260: 6eac 71be f706 953e ef4d 89bc 872b 25be
00000270: 9ebd a43e 261c 1bbe 17bf 63bd d705 3ebe
00000280: b013 40be c3ba 84be ab07 45be b5ae 8f3e
00000290: ecd1 b5bd 962d a33e 9d49 283e 32b8 f5bc
000002a0: d99e 383e 7d80 383d b1a4 623d 5849 6fbc
000002b0: 4c8e 16be 0246 51be 92e9 92be 022a 60bd
000002c0: 89e5 a23d 2108 c3bd 184a 283e 174e fbbc
000002d0: 5d84 013e b160 40be 13f8 aabd db6d 6f3d
000002e0: 763d 05be 2170 95bc 3fd5 70be 75b2 213e
000002f0: 978d 8bbe b35c 62be eb8b 68be 39bd 7dbe
00000300: d250 dc3d c624 83be cfca a1bd 5cb9 65bd
00000310: bd44 9b3e b707 efbd e6ce e9bd 8892 d7bd
00000320: b27b 97be a8f7 b3bc 6df0 1e3e 05f7 15be
00000330: 8d06 49be cb8a 3e3e 2f0f 71bd f161 a33d
00000340: 55e3 26be d015 043e 826c 953e 2431 a6bc
00000350: 2899 5bbe 7703 8c3d 86ab cb3d a206 c73d
00000360: 8e9b 5f3e 47d7 8ebe f90a 2d3e 39a4 943e
00000370: 7525 97bc ad48 a43c bb9e b13d 807d 98be
00000380: d570 883d c29c c83d 7781 3ebd 32d2 cd3e
00000390: daae 993e 06c7 7e3e fd31 aabe 6935 483e
000003a0: 9f37 16be 7b9a 693e 38b1 b53c 9dae 7d3e
000003b0: 8cc9 f83d e6f7 05be 12df a53d 211a 223e
000003c0: 6db3 a33e 7bb0 41be 5be0 86bb 0f22 163d
000003d0: eb81 043d fd1a a3be d3e9 99be 825a 9dbe
000003e0: db84 8ebe 720d 17be 1f93 3e3e cefa 48bb
000003f0: 61fb 22be 16a2 923e c1b3 5ebe 513e 1b3e
0.124687664 -0.27129048 0.25798583 0.22029154 -0.25120926 -0.04754182 -0.15403561 -0.24948053
0.25076133 -0.24856225 0.06468315 0.0652918 -0.26097375 -0.17046176 0.22475958 0.22926906
0.028443914 0.11338426 0.20099893 0.07155832 -0.23600984 0.06645463 -0.08893289 -0.10383708
0.21248274 0.024082858 0.17427543 0.19521706 0.042649824 -0.025633441 -0.071284436 0.17716192
-0.22192842 -0.21654493 -0.105799675 -0.013281189 0.2225584 -0.09383424 -0.28603438 -0.1648789
0.012213224 -0.068946734 0.28142747 0.038323876 -0.19854859 0.13485391 0.18212827 0.17835495
-0.2147296 -0.03833434 0.08647309 0.13481438 0.30839986 -0.19427751 0.29585537 0.06289848
-0.018005684 0.16942234 0.124383695 -0.155576 0.03091912 0.1920582 0.07698579 0.047682185
-0.18424754 0.040076975 -0.0831403 -0.23816234 -0.041328803 -0.00787243 -0.24577205 -0.16163875
-0.26198548 0.1624673 0.21471046 -0.14394078 0.13455331 0.29911867 -0.0645146 0.089859046
-0.31446457 -0.30063778 -0.22788717 -0.056220107 -0.20698868 -0.26635703 0.25265265 0.07299473
0.09015267 0.20236847 -0.10703258 0.18187402 -0.25142857 0.082784265 0.18187739 0.30934027
0.26685157 0.021437827 -0.27533236 -0.2048644 -0.07567989 0.3004769 0.24085428 0.11902359
-0.085164964 -0.05577814 -0.23205993 0.3104922 0.07828335 0.08765672 -0.15122679 -0.016814027
-0.25929767 -0.16397618 0.18486053 -0.2495467 -0.12592974 0.16050555 0.28153962 0.15362169
-0.079577416 0.23053353 -0.051234517 0.0063287015 0.18918036 -0.0035121036 0.10869034 -0.35560647
0.24267858 0.18712509 -0.27095127 0.06375258 0.10488463 0.20699555 -0.18298921 -0.11454892
0.10643147 0.25574297 0.11424781 -0.21949781 0.053355105 0.16841221 0.23110834 0.11057385
0.0036124322 0.23550521 -0.07046004 0.30010408 -0.3584026 0.10084298 0.20253506 -0.21387541
-0.23600933 0.29106876 -0.016760794 -0.16129886 0.32175916 -0.15147457 -0.05560216 -0.18556915
-0.1875751 -0.25923738 -0.19241206 0.28062978 -0.0887793 0.31870717 0.16434331 -0.029995058
0.18029346 0.04504441 0.055332843 -0.014604889 -0.1470272 -0.20436862 -0.28693825 -0.05472756
0.079539366 -0.09523035 0.16434515 -0.030676885 0.12648149 -0.18786885 -0.08348098 0.058454376
-0.13011727 -0.018241944 -0.23518847 0.15790732 -0.27256462 -0.22105674 -0.22709624 -0.24779214
0.10757603 -0.25613993 -0.07900011 -0.056084976 0.3032588 -0.11671393 -0.11416416 -0.105259955
-0.2958656 -0.021968678 0.15521403 -0.14645012 -0.19631405 0.18607633 -0.05885237 0.07977665
-0.16297658 0.12898946 0.29184347 -0.020287104 -0.21445143 0.06836598 0.09944825 0.09718062
0.21836683 -0.2789862 0.16898717 0.29031542 -0.018450478 0.020054186 0.086728536 -0.2978325
0.06662146 0.09795524 -0.046510186 0.4019943 0.30016214 0.24880609 -0.33241263 0.19551624
-0.14669655 0.22812836 0.022179231 0.24773641 0.12147817 -0.13082847 0.08099188 0.1583028
0.31972829 -0.18914978 -0.0041161007 0.036653575 0.032350462 -0.31856528 -0.30061206 -0.30733114
-0.27835736 -0.14751223 0.1861081 -0.003066707 -0.15916206 0.28639287 -0.21748258 0.1516049

linearK2.weight f4 [12, 256]
00000000: 89fd b13d 9d1e cf3c 0e76 ea3c 7158 1b3d
00000010: 1d20 05bc 8863 073e 2bda 96bc 5799 193c
00000020: b46f cf3d dec7 cc3c b995 82bd 1d35 7c3d
00000030: 078b 14bc 5aa0 de3b 1100 beba 33c6 edbc
00000040: 1c13 38bd dd27 243d a4ed 05bc 3198 b03c
00000050: efaa c0bc 0ca4 c8bd d9b2 d9bc c4ae 4f3d
00000060: 1291 babc 01ca 44bd ec26 463d f59b f4bb
00000070: 1993 8fbc cf6c b0bd 72db 87bd 081f a53d
00000080: a205 bf3c d430 263d eb48 3dbd 9890 c6bc
00000090: 1703 80bb a083 99b9 07ac 633c a6e8 193d
000000a0: da14 0f3c 5b85 34bd 26dc 0a3d e6ae ab3d
000000b0: 889e 77ba 2c00 1a3d e4eb 173c f95a 4fbd
000000c0: 9f36 a13c cf36 d63b 3fad e83b abd9 0c3d
000000d0: 71b8 283d 8d6a 5d3d 9d32 aebc f9b1 b73d
000000e0: 0c1f 7a3d 2276 4ebd 2ef8 adbb 4d50 30bc
000000f0: d87d 753d d844 863d 9a6a fe3c c80f 953c
00000100: f9c8 833c 6a56 7abd 98b5 463d e545 1f3d
00000110: 7794 3bbc 804d 1bbb 0517 b8bd de23 9e3d
00000120: bae7 9ebd 0066 09bd 95d4 573d f4ae 01bd
00000130: 24da 393d f9d3 ebbc 063e 74bc 0d6f fe3c
00000140: daf9 923c 5019 80bd 22bf 85bd 1d7f 233d
00000150: ee85 63bc ad7f fdbc 7d1f 0ebc b6e0 c6bc
00000160: b7d0 dd3b 8d4a c93d c7a6 6cbd d7ad 2ebd
00000170: 7aed cbbc 9f16 9dbd bd16 febc 3270 583d
00000180: 9595 883d 0d75 b73c 10cf 78bd 6923 a6bc
00000190: 188b adbd 9d89 cfbc d088 083d 6314 ff3c
000001a0: a1bb 943c ff15 0b3d 69c8 5ebd b4b0 1cbd
000001b0: 62cc 123d e5f5 17bd 5967 6fba 4c6a 6a3d
000001c0: ea91 48bd e36e 4c3d bf9d 9a3b 8fbb f33c
000001d0: d03f 17bd d635 a6bd d73a 833d 2d26 893c
000001e0: 0985 d2bc d350 8e3c f07b c2bb 42af ae3c
000001f0: 41ee e83c 574c 333d a1bd 09bd a875 1fbb
00000200: 2e71 a3bc 8ea7 dcbc 26a9 84bc 0c28 9c3d
00000210: f418 703b 477b ff3c 2e7e 9c3d a9e7 003d
00000220: 884c a93d 7665 113d b84f 2f3d 18d0 45bd
00000230: a6ec c8bc 9440 2e3d d755 5f3d 2a44 5c3d
00000240: b138 a53c ff79 a53c 5266 74bd 5687 003d
00000250: 6c30 7fbd 23db 9d3c 92c3 19bd f9e2 31bd
00000260: 9286 8bbd b9e2 6b3d d78a f83c 63e9 1fbc
00000270: 87d2 b83c f090 a13c 3bbe 75bd be49 b5bc
00000280: 7932 2fbd 8b10 2cbd e448 d0bd 0dff 6d3c
00000290: 35d3 89bd 32d5 8a3d bbed 4ebd 63a5 7cbb
000002a0: 6f58 7f3d 37e3 85bd 5448 1dbd 7abb 713d
000002b0: 4ebd 1abc 72fd 8cbd 220b 3fbd 2c39 5e3d
000002c0: 0fa1 bebc 9a4a 993d 8e58 863d d3ba efbc
000002d0: ba45 9b3c 56d0 05bd b726 5a3c 2a49 7ebd
000002e0: da88 603c 5a69 883d 9cfd a0bd cd04 553d
000002f0: ca9f cdbd 3755 17bd a3da 5b3b fb54 573d
00000300: eca9 b4bc 2340 8dbc d7f6 e03c adfc 43bd
00000310: 5e69 763d 17af 07bc cc24 193c b3f5 9abd
00000320: 4379 293d 0dc1 3bbd caab 2dbc c4e7 64bd
00000330: eade 363c b5fc f73c ca64 c63c feaa 43bc
00000340: c4b1 083d 1a6d 13bd d5c1 1f3d 7195 00bd
00000350: 0c08 313a bda3 c63b fdd4 1a3d 9339 88bd
00000360: 8ca1 63ba 8970 023d 471a cb3b b551 f33c
00000370: 2134 183d 49d1 90bc 7796 9d3c 9043 b6bd
00000380: a5e0 d03b 5881 7b3c 5819 cf3c 36d3 663d
00000390: 17a5 94bb b7ba e33c 44d8 9fbd cbeb 41bb
000003a0: f733 383d 1816 13bc 5c25 84bd f650 953d
000003b0: cc7f 793d 9c33 0ebd 5ece ce3b 191f 4c3d
000003c0: e9ed 983d fdb0 b5bc 4ae3 a63b daa5 303d
000003d0: 52a0 123d 549d cbba fd41 2abd 29fd 12bd
000003e0: 855c a6bc fcf2 debd f3be 40bd 21c0 7cbc
000003f0: 3f90 2ebd 3319 79bc d7a2 7abd 19b3 a73c
0.08690936 0.025283152 0.028620746 0.03792614 -0.008125332 0.13221562 -0.018414577 0.009374938
0.101287276 0.024997648 -0.063762136 0.06157409 -0.00906635 0.0067940177 -0.0014495869 -0.029025173
-0.0449401 0.04007708 -0.008174334 0.021556946 -0.023519007 -0.097969145 -0.026574539 0.05070378
-0.022774253 -0.04804421 0.048376963 -0.0074648806 -0.017526196 -0.086145036 -0.06633653 0.08062559
0.023318116 0.04057391 -0.046212118 -0.02423887 -0.0039066183 -0.00029280502 0.013895995 0.037575386
0.008732999 -0.04407249 0.033901356 0.083829686 -0.0009445925 0.03759782 0.009272549 -0.050623868
0.019679366 0.0065372954 0.0071007307 0.03438727 0.041191522 0.054056693 -0.021264369 0.089694925
0.061064765 -0.05040563 -0.0053091263 -0.010761333 0.059934467 0.065561 0.031056691 0.018196002
0.016087042 -0.061117567 0.048513025 0.038885016 -0.011448971 -0.0023697317 -0.089887656 0.07721685
-0.07759042 -0.03354454 0.05269297 -0.03166099 0.04537405 -0.0287876 -0.014907366 0.031058813
0.017941404 -0.06254828 -0.06530596 0.039916147 -0.013886912 -0.03094467 -0.0086745 -0.024277072
0.0067692655 0.098286726 -0.05777624 -0.042646255 -0.024893511 -0.0767033 -0.031016702 0.052841373
0.066691555 0.022394681 -0.060744345 -0.020280557 -0.08473796 -0.025334174 0.0333336 0.03113765
0.018155875 0.033956524 -0.054390345 -0.038254455 0.035839446 -0.037099738 -0.00091325265 0.05723028
-0.04896728 0.049910437 0.004718512 0.02975252 -0.03692609 -0.08115737 0.06407707 0.016741836
-0.025698202 0.017372524 -0.0059351847 0.021323804 0.02843392 0.043773975 -0.03362811 -0.0024331603
-0.01995143 -0.026935365 -0.016193938 0.07624826 0.0036635967 0.031186713 0.07641254 0.03147093
0.0826655 0.03549715 0.042800635 -0.048294157 -0.024526905 0.042542055 0.054525223 0.053775944
0.020168634 0.020199774 -0.059667893 0.031379066 -0.062302038 0.019269532 -0.037540026 -0.04342935
-0.068127766 0.057589266 0.030339641 -0.009760234 0.022561325 0.019722432 -0.05999587 -0.02212989
-0.042772744 -0.042007964 -0.10170153 0.014526141 -0.06729738 0.06778945 -0.050519686 -0.0038550727
0.062340196 -0.065374784 -0.038399056 0.059016682 -0.009444548 -0.06884278 -0.046641476 0.054253742
-0.023270158 0.07484932 0.06559859 -0.02926389 0.018954147 -0.032669388 0.013314894 -0.062081493
0.013704503 0.06660719 -0.07860872 0.05200653 -0.10040243 -0.0369465 0.0033547066 0.052571278
-0.022053681 -0.017242497 0.027461452 -0.047848392 0.06015908 -0.008281491 0.009347152 -0.07566395
0.04137541 -0.045838404 -0.01060004 -0.05588509 0.011161545 0.030271867 0.024217982 -0.011942623
0.033372656 -0.03599272 0.039003212 -0.03139252 0.0006753213 0.0060619996 0.037800778 -0.066516064
-0.0008683435 0.031845603 0.006198201 0.029702047 0.03715909 -0.01767792 0.019236786 -0.08899605
0.006374436 0.015350662 0.02528064 0.05635377 -0.004536282 0.027798994 -0.07804921 -0.0029590006
0.044971433 -0.0089774355 -0.06452438 0.07290833 0.060912892 -0.034717187 0.006311222 0.049834345
0.07467253 -0.022179121 0.005093013 0.04312692 0.035797425 -0.0015534558 -0.041566838 -0.035885964
-0.020307789 -0.10886189 -0.047057103 -0.0154266665 -0.042618033 -0.015203762 -0.061190452 0.020471143

linearD2.weight f4 [256, 12]
00000000: 5bea 4fbd 8c92 17be 67db 9dbe 4fd9 05be
00000010: ed86 8c3d abd9 80bd 4ef4 04be 0f9d 073e
00000020: 910c 4ebe a6b5 3dbe eba6 4dbc 6be4 45be
00000030: 595b 1e3e be80 1b3d 0686 2bbe 09ab 34be
00000040: 0099 adbe a29e 183e 2a38 c03d 7b3c 133e
00000050: fd61 a1be 50a7 32be d3d5 8f3e 2731 a9be
00000060: 45ff 823e c67d dc3d e640 e93d f61b 91bd
00000070: ab50 b3bd 7fd9 97bd e9f8 003d 512a 533e
00000080: d6f6 0e3d ff66 86be c5c9 83be 717a 82bc
00000090: 28a0 263e 54ce b9be ec76 913e 5a7d ad3c
000000a0: c6b8 103e c2bd 33be bb6e 523e 1a89 6b3d
000000b0: be5f 453e a402 583e 3b9f 383e a457 413e
000000c0: 482c 75be 7f19 34be 226f c33c 2d9a 7e3c
000000d0: a191 b8bc 5480 803e 5047 0dbe 0c23 3dbe
000000e0: 983c a2bd 2b25 73be 1c91 773e e241 16be
000000f0: 02bf 4fbe cae4 35be c584 06bd 80b8 763e
00000100: 2c08 773e 6c50 003e 3af7 4dbb 4e3c a6bd
00000110: 473f bc3a 4a69 6ebe 878f 5b3d 5bb2 a9bd
00000120: 4799 0bbe 9659 393e beb3 0fbe a98e 03be
00000130: 03c9 a5bd 67f2 82be 35c4 bb3d 09be 863d
00000140: 1924 4fbe e7ae 0d3e 90b2 4fbe 5cd8 713d
00000150: ca18 a93d 726d 363e 1134 f6bd 536b cc3d
00000160: 32ba 22be 5ef6 8bbe 79d7 4a3e 8564 7ebe
00000170: f1c1 4f3e c627 633c a3b2 1bbe f155 1ebe
00000180: 68d1 8cbe a8b2 89be 3201 81bd c172 d63d
00000190: 9388 66be 2d21 e73d f3e6 5cbe d454 c1bd
000001a0: ce2c a73d 4765 65bd c2da 46be 7b9c 7a3e
000001b0: 7bf5 653e 881e ebbc 4ffc 78be c83b 1dbe
000001c0: 03f6 ec3d bae2 8f3e 0a2a 37be bcc5 93bd
000001d0: b6ea 95be ffe8 c4bd fdf5 993e 532c 073e
000001e0: f8df 24be 355f 52bd 6071 5ebe c7af 153e
000001f0: 1f77 5b3d cbaf ea3d 9dd7 24bd 30aa 633e
00000200: f366 7b3d 0ed9 69be e350 42be 7435 51be
00000210: c7d4 8abd 9370 8d3e 27ff 5dbd 9b63 233e
00000220: ca8b e4bd 76a3 413e 447d 1a3d e3ba 013e
00000230: 5990 703e 73a9 b63d b0d2 71bd be71 7d3e
00000240: c402 e6bd ecb2 80be b09d 4fbe da48 8fbe
00000250: 8b46 4c3d 421b 713e 9633 883e 31a4 613d
00000260: 222d ccbd 1866 8f3e c9c6 1bbe c2a1 023e
00000270: 8df3 8d3e 18fe adbd 2845 a7bd 93fa 5fbe
00000280: 937f 743e acba d9bd 82ea 8a3e ed8c 273e
00000290: 65d1 333e b344 fe3d 03c4 8abd 443e 9abd
000002a0: f03f 4dbe dd36 32be b993 04be 9819 30be
000002b0: bfa1 01bd 2d5d 10be a2dd 49be 5bbf 45be
000002c0: 78b0 e63d 27ff 473e 194e 95be 1320 e0bc
000002d0: 15aa 3fbd 65ba 433e 3ba7 b4bc 6fed 243e
000002e0: d5cf edbc 0601 63be ec72 9c3d 5009 113e
000002f0: 3722 973e 2345 143e 39ce 2cbe c242 7abe
00000300: 64a9 603e a5df 3c3e 96e5 1dbe 9de1 793c
00000310: 7e24 9bbd 46c2 663e 9889 223e 89a7 52be
00000320: c41e 6cbe c7e3 593e f081 e73d 8e44 923e
00000330: 4493 753d f424 92be 38b9 39be 1583 48be
00000340: 89d8 13be ba1b 8a3d 38cc 8fbe 89b0 a03d
00000350: 6a5c a4bd 1d30 bf3d d3ee bf3d 3293 143e
00000360: 56e5 fb3d 1dd0 473e 46a0 f7bc fd48 953d
00000370: 3068 b83d 70ec debd 1f3b 113e 9c63 e03d
00000380: 97c3 0e3d 8618 8f3d f795 92bc 398a 183e
00000390: bbd3 7e3e ba99 31be 684a 393e 9b08 30be
000003a0: 3d90 f8bd 0b01 1b3e 82eb 973e c500 a93c
000003b0: 6c71 96bd 635f 8fbe b48f 903e 895b b83c
000003c0: ed84 f7bd 0fea c0be 1d97 c73e e7d7 01bf
000003d0: e7e0 b33e fe5d 99be 91ce e83e dba9 2e3e
000003e0: 0102 783e 0a30 693d 3c14 1b3e 463b 3c3d
000003f0: b54a 2bbe bb1d afbd 8e72 713e 7ed7 3ebd
-0.05076061 -0.14801997 -0.30831453 -0.13071178 0.068616726 -0.06291517 -0.1298382 0.13243507
-0.20121981 -0.18526325 -0.012552003 -0.19325416 0.15464534 0.037964575 -0.16750345 -0.1764337
-0.33905792 0.14904264 0.093857124 0.1437854 -0.31520072 -0.17446637 0.28092822 -0.33045313
0.2558538 0.10766177 0.113893315 -0.07085411 -0.087556206 -0.07414531 0.03148738 0.20621611
0.03490337 -0.26250455 -0.25739875 -0.015927525 0.16272032 -0.36290228 0.28411043 0.021177936
0.14132985 -0.17552856 0.20550053 0.057503797 0.19274804 0.21094757 0.18029492 0.18881088
-0.23942673 -0.17587851 0.023856703 0.015539688 -0.022530379 0.25097907 -0.13796735 -0.184704
-0.079217136 -0.23744647 0.24176449 -0.1467357 -0.20287707 -0.17763057 -0.032841463 0.24093819
0.24124211 0.12530679 -0.0031427876 -0.08116971 0.001436212 -0.23282352 0.053603675 -0.08285972
-0.1363269 0.1810058 -0.1403341 -0.1284739 -0.080949806 -0.25575563 0.09168283 0.06579215
-0.20228614 0.13836251 -0.2028296 0.059044227 0.08256681 0.17815188 -0.1202165 0.09981408
-0.1589134 -0.273364 0.19808759 -0.24843033 0.20288827 0.013864463 -0.15204863 -0.15462472
-0.27503514 -0.26894116 -0.06299056 0.10471106 -0.22513036 0.11285625 -0.21572475 -0.09440008
0.08162843 -0.05600479 -0.19419387 0.24473755 0.22456925 -0.028701082 -0.24314998 -0.15354836
0.115703605 0.28102666 -0.1788713 -0.07215449 -0.29280633 -0.09614753 0.30070487 0.13200502
-0.16101062 -0.051360328 -0.21722937 0.14617835 0.0535804 0.11459311 -0.040244687 0.2223289
0.061377477 -0.22836706 -0.18976168 -0.20430547 -0.06778865 0.2762495 -0.05419841 0.15955965
-0.11159475 0.18910012 0.03771712 0.12668948 0.23492564 0.089190386 -0.059038818 0.2475042
-0.11230996 -0.25136507 -0.20274997 -0.2798527 0.049871963 0.23545554 0.26601857 0.055088226
-0.09969546 0.2800758 -0.1521255 0.12757018 0.27724877 -0.0849573 -0.081674874 -0.2187293
0.2387679 -0.10631308 0.2713204 0.16362353 0.17560346 0.12415447 -0.067756675 -0.075314075
-0.20043921 -0.17403741 -0.12946977 -0.17197263 -0.031648394 -0.14098044 -0.19713452 -0.19311278
0.112641275 0.19530927 -0.29161146 -0.027359044 -0.046793062 0.19114073 -0.022052398 0.16106199
-0.029029766 -0.22168359 0.07639107 0.14163709 0.2951829 0.14479499 -0.16875543 -0.24439529
0.21939617 0.18444689 -0.15419611 0.015251544 -0.0757532 0.22535047 0.158728 -0.20571722
-0.23058611 0.21278296 0.113040805 0.28567928 0.059954897 -0.28543818 -0.18137062 -0.19581254
-0.1443807 0.0674357 -0.28085494 0.078461714 -0.08025439 0.09335349 0.09371724 0.14509276
0.12299602 0.19512983 -0.030227792 0.07289312 0.09004247 -0.108849406 0.14182709 0.10956499
0.034854498 0.06987099 -0.017893774 0.14896478 0.24885456 -0.17343798 0.1809479 -0.17190783
-0.12136886 0.15137117 0.29671866 0.02063025 -0.07345852 -0.28002462 0.28234637 0.022504585
-0.120859005 -0.37678573 0.38982478 -0.50720066 0.35132524 -0.29954523 0.45470098 0.17056982
0.24219514 0.05693058 0.15144438 0.045954965 -0.16727717 -0.085505925 0.23578855 -0.046592228

linearD2.bias f4 [256]
00000000: 7479 803e 7780 173e 2ecb 24be abde 13be
00000010: cbf7 6c3e 4632 193e 9ad1 693d 793a 1d3e
00000020: a30e 5fbd 8172 87bd f5b2 58be 2b41 a8bd
00000030: 0feb 2cbe 49f9 3cbe accf 66be e7cc 8d3e
00000040: 63bc f5bd 4904 823e 7adf 6a3e 0223 7cbe
00000050: c719 1dbe 876d 7bbe 59ae 8b3e c4ec 45be
00000060: 72af e5bb 925e a03d 846d 903e bd94 20bd
00000070: ff1d 153e f3ab 813e 4149 963a fa71 61be
00000080: 31f4 58be 4afa 77be e78c 82ba e3ac 25be
00000090: cde9 bd3d 7e3d 863e d616 8d3d 2f18 30be
000000a0: a398 ff3d aae7 723e c137 7dbd 3413 b93d
000000b0: e8e6 3d3e e07f 903e 8c71 06be 48be 3a3e
000000c0: a075 8d3e fb51 223e a544 5abe dd19 01be
000000d0: f1d6 813e c737 88be 794e 923e 01fd 853e
000000e0: 5143 b93d 135d 7ebc 9e6b 0b3d 4e32 c3bd
000000f0: 9e71 4ebe 5c38 45bd ef5f f0bd 3f44 7cbe
00000100: 94e0 14bd 092b b9bd ec8a c83d 314c de3d
00000110: 8156 303e 1f78 5fbb c678 1ebe e51e 5e3e
00000120: 1c60 fc3d e4c9 263e cf80 933e 1292 57be
00000130: 9af7 da3d 8113 323e 6ea3 753e 6c42 283e
00000140: a1f5 793e 84c3 a2bd bf9c fcbc c6b0 34be
00000150: ef73 07be 5613 78be 1273 a4bd 26e6 313e
00000160: 627f a33d c8f6 29be 90ad b73d 83e6 20be
00000170: de24 843e 9130 85be 6854 8c3e 3668 253e
00000180: 3593 ca3d 966a a53d 13f2 993d cc34 07be
00000190: 302a 003e e9c1 56be f338 e7bd e8da 3c3e
000001a0: 12b1 6cbd 7517 71be 48ed 0bbe 068a 04be
000001b0: 5f94 563e a8f3 9cbe 1923 5c3c d68d 843e
000001c0: 6db1 6bbd 4344 4e3e 4f47 213e 4d5e 2a3e
000001d0: d275 11be 7a2c 19be 52e1 dc3d 5858 953d
000001e0: c642 3b3e fdc0 a5bd a7ff e5bc fe35 1bbd
000001f0: 29ad 093d e3ee e33d e952 343e 3977 5ebe
00000200: 11a0 973e e577 2cbe e521 823e ff67 91be
00000210: 6e21 373e ba28 2f3e 8ee0 a73e b10a 55bd
00000220: 89b0 91be 1af3 803e 4b50 58bd caf9 96be
00000230: 5247 6d3c 60ad c83d 0fd5 40be f1dd 0bbe
00000240: ff88 05be dac6 5cbe b67b 14be 9d9c 223e
00000250: 3353 963e 4985 743e 865d 9f3d fedb 003d
00000260: a7f4 03be 2370 9e3d a416 213e 3ae4 0b3e
00000270: 4eeb 2f3e 2f1d 3ebe 744c 42be 0d7b 89be
00000280: 7e70 583e 19f1 163e 3525 5dbe 75cf 4ebe
00000290: b3a5 423e 3d67 28be 5181 18bd d886 39be
000002a0: 7f72 19bd e26a e7bd 2597 7e3d 22cf 683e
000002b0: 9037 4a3e 6b29 26be af16 3c3e 0656 6c3e
000002c0: f703 f23d 7aef 74be b0cc b5bd 7e76 8abe
000002d0: 7725 2b3e 06fa df3c 8464 73be 697b 8cbe
000002e0: 6f72 67be 9f4d 3abe ba88 b23d 356d d3bd
000002f0: 860b 793e 6b84 8bbe d118 8f3e 005e 3ebe
00000300: 4b90 b8bb 447b 5abd 3753 7a3d d2ed ec3d
00000310: 0bbc ecbc 540d 67be b69f a33d 4cf9 303e
00000320: e717 05bd 04fc 84be 0fa1 823e 4ca9 44be
00000330: abd1 8dbe 8360 69be 631c d4bd 02aa 94be
00000340: f925 8a3e a462 0abe 80e0 d4bd 5635 85be
00000350: 5f59 043e aae1 903e 8f81 973e b5b5 0ebe
00000360: d634 6dbc fb04 283e 9bd6 313e 203f c13d
00000370: b2a5 82be 50cf 13be cd1a a3bd ec94 edbc
00000380: c0e1 ecbc 82c8 2d3e 7c26 7fbe eef1 64be
00000390: 6c1c 6d3e bbcd b93d 6b28 033e 12ba 833e
000003a0: 0702 62be 556b 21be b60f 9c3e 5d5e 11be
000003b0: 382a 59be 33e5 b2bc eba8 013d d5a0 3ebe
000003c0: dfe5 8ebe f21a 8e3e 3505 25bc a975 e2bd
000003d0: 009d 4d3d c934 bd3d 62f1 18bd d096 323e
000003e0: 1170 50be 7cc6 6b3e cc33 1e3c 7bec c63b
000003f0: 9735 ac3e c239 98bd 434d f4bd df59 7c3e
0.2509266 0.14795099 -0.16093132 -0.1444041 0.231414 0.14960584 0.057084657 0.15354337
-0.054457318 -0.06613637 -0.21162017 -0.08215555 -0.16886543 -0.1845447 -0.22540158 0.2769539
-0.119988225 0.25393894 0.22936812 -0.2462273 -0.15341865 -0.245535 0.27281454 -0.193286
-0.00700944 0.07830538 0.28208554 -0.039204348 0.14562224 0.253265 0.0011465923 -0.22016135
-0.21186902 -0.24216571 -0.0009960205 -0.16179232 0.092731096 0.2621879 0.06889121 -0.17196725
0.12480285 0.23721185 -0.06182075 0.09036866 0.18545115 0.2822256 -0.13129252 0.18236649
0.27628803 0.15851586 -0.21315248 -0.12607522 0.253593 -0.26605055 0.28575495 0.2616959
0.09046043 -0.01552512 0.03403818 -0.09531079 -0.20160529 -0.04814945 -0.11737048 -0.24635409
-0.036346987 -0.090414114 0.09792122 0.10854376 0.17220499 -0.0034098697 -0.15475759 0.21691473
0.12323019 0.16287953 0.2880921 -0.21051815 0.106917575 0.17390253 0.23988125 0.16431588
0.24410106 -0.07947448 -0.030836461 -0.17645559 -0.13227819 -0.24226126 -0.080297604 0.17372951
0.07983281 -0.16598046 0.08968651 -0.15712933 0.25809377 -0.26013616 0.27408147 0.16153035
0.09891359 0.0807697 0.07516875 -0.13203734 0.12516093 -0.20972408 -0.11290159 0.18442881
-0.057786055 -0.23544104 -0.13664734 -0.12943277 0.20955037 -0.30654645 0.013436102 0.25889462
-0.057542253 0.20143227 0.15749858 0.16637535 -0.14205101 -0.14958373 0.10785164 0.07292241
0.18287191 -0.0809345 -0.028076006 -0.037893288 0.033612404 0.111295484 0.17609753 -0.21725167
0.29614308 -0.16842611 0.25416484 -0.28399655 0.17883846 0.1710538 0.3278851 -0.05201215
-0.28454998 0.25185472 -0.05281095 -0.2948745 0.014482336 0.09798694 -0.18831275 -0.13658883
-0.13040541 -0.21560231 -0.14500317 0.15880056 0.2936035 0.23878969 0.0778151 0.0314598
-0.12886296 0.07736232 0.15731293 0.1366128 0.17179605 -0.1856582 -0.18974477 -0.26851693
0.21136662 0.14740409 -0.21596225 -0.20196326 0.19008522 -0.16445632 -0.0372327 -0.18117845
-0.037462708 -0.11299683 0.06215586 0.22735265 0.19747758 -0.16226737 0.18368028 0.2307969
0.118171625 -0.23919478 -0.08876932 -0.27043527 0.1671351 0.0273409 -0.23768812 -0.27437904
-0.22602247 -0.18193673 0.08717485 -0.10323564 0.24320802 -0.27249464 0.2794862 -0.18590546
-0.0056324354 -0.05334021 0.061114516 0.11568798 -0.02889826 -0.22563678 0.07989447 0.17282599
-0.0324935 -0.25973523 0.25513503 -0.19205207 -0.27699026 -0.22790723 -0.10356977 -0.29035956
0.26982096 -0.13514191 -0.103943825 -0.26017255 0.12924717 0.28297168 0.29591033 -0.13936503
-0.014477929 0.1640815 0.17367022 0.09435868 -0.2551704 -0.14434552 -0.07964096 -0.029001676
-0.02891624 0.16971019 -0.24917024 -0.22357914 0.23155373 0.09072443 0.12808387 0.25727898
-0.22071086 -0.157636 0.30480736 -0.14196153 -0.21207511 -0.021837806 0.031655233 -0.1861604
-0.27909753 0.27754933 -0.010072042 -0.11057598 0.050198555 0.092385836 -0.037339576 0.17440343
-0.2035525 0.23024935 0.009655904 0.006070671 0.33634636 -0.074328914 -0.11928799 0.24643658

linearK3.weight f4 [12, 256]
00000000: 1031 60bc ffd6 2dbd 5b43 92bb e503 61bd
00000010: 8597 34bd 8f9b 3e3d 014f 24bd 4726 7c3c
00000020: 4695 2c3d 45f7 92bc c717 7fbd 8a65 293d
00000030: f3c0 ff3c 4024 acbb c9e7 a0bd 4229 a0bc
00000040: c995 133d 2212 7b3c 6711 b93c 7fc9 51bd
00000050: fed3 89bd 1a91 153c e8a6 413d ffcf 603c
00000060: 5e04 e63c 59da 51bd d498 a13d 405b c6bd
00000070: 20e9 d2bc b86e fdb9 d7f4 a93d 622d d93b
00000080: 6e30 37bd decc 863d 2fef ea3c bedb d8bb
00000090: 8814 c83c b3b8 493d 1161 db3a dfb0 8abd
000000a0: 0159 1ebd 115f 143d de80 8c3d 86f6 32bd
000000b0: 93b2 d2bc ada8 a03d 107a e4bc 4f5c 94bd
000000c0: 4708 183d 4d3e d73c 42ce b43d 8256 60bd
000000d0: e692 ba3c 8499 3f3d 015d 923d 5258 2dbd
000000e0: 222e 803d e13e 42bd 72a0 8f3d 2241 0b3c
000000f0: 18f4 72bd 7b5b 4fbd 0a4a 3e3d cf71 95bc
00000100: 1e1a 40bd a803 853d 8165 02bd 2320 12bc
00000110: c24d 493c c3f5 c73c f765 373d eda1 1a3d
00000120: 0c66 1abc e237 453c e7bb 0c3d 614b 84bd
00000130: 51ef 58bd 2713 6a3d 1c00 623d f6c9 6f3c
00000140: 6059 2d3d f075 b53c 2eac ed3b 90f7 63bc
00000150: f087 e43c 4be7 173c ceb7 b0bd 4ab6 ac3c
00000160: 60b3 46bc dbc7 813d 85e5 e13c 6967 85bd
00000170: fe2b 7bbc 8209 0d3c d234 9cbc 2403 153d
00000180: 2158 f6bc 2cd1 553d 3aad ec3c 11e8 5e3d
00000190: ab8a c23b 49b4 9d3d 8805 033c 3db9 05bc
000001a0: 14f5 ae3c aca1 98bd 15ed 993c 99e3 533c
000001b0: 7966 1b3c e2d8 59bd 4ab8 7abd d274 b23c
000001c0: c0c8 d3bb ba98 8cbc 95a1 c4ba d31d 4d3d
000001d0: 69c6 9a3d efa0 f83c 419e 81bd ab44 5ebd
000001e0: 7fe0 303d 3eaf 2d3b c191 dfbb b997 8dbc
000001f0: 1e65 66bb b202 ea3d b0ab 2bbd f036 b63c
00000200: 8452 80bc a538 3abd f412 d73d 6b12 2dbd
00000210: 237f 203d eac9 c5b8 b191 1ebd c87b c33c
00000220: 8b3d 753d cc9c 25bd f23d 7fbd 6925 00bc
00000230: 0aa3 833c 1329 8fbd 350e 85bd bd73 b8bd
00000240: ddcb ef3c 9e05 57bd cd6e 2a3c 1631 fa3c
00000250: cbeb de3c 73b3 8b3c 89ad a8bc 41ac 9ebc
00000260: e8c5 95bc e0db 803c 80a3 debc c7b3 383c
00000270: 88ad 373b b793 8f3c aca1 a43c 8a9a 283d
00000280: 7f7a ae3c 2e78 63bd c142 9cbd bf96 b03c
00000290: be09 0e3d 4158 f1bc 52dd 123d fe90 fc3a
000002a0: 0c83 0fbd f948 39bd 7f4a 113c 6532 313d
000002b0: d043 073d 2eee 993c b487 4fbd 1866 adbc
000002c0: d341 52bd 35b2 1bbd 4526 b7bd 76f4 dcbc
000002d0: bf95 8a3d 44cc e2bc 9180 7abd 01ca d33c
000002e0: ee4e ee3c e6ca cd3a d018 2e3d 043e 4fbd
000002f0: d252 27bd 62a5 eb3b 3a08 8fbc 6a8c afbd
00000300: f2e4 4dbd 166f 103d 5624 56bd 4478 8e3c
00000310: e5a0 a93d 3e06 623d fefd 823c d9e4 91bd
00000320: 34d5 f2bc dc61 e7bc 4b65 953d 30e9 543c
00000330: bf83 a4bd 434f 9ebd 5284 7b3c a563 8abd
00000340: 2e7f 3b3d 1db6 913d 0a4f 53bc db83 273c
00000350: 3bb3 d4bc 0f6b 88bd 7204 133d 2166 27bd
00000360: 9e82 fabc 4673 843c 6272 93bb a7ef c23d
00000370: 62c5 afbd 6182 a33c 7c6c a8bd af90 193d
00000380: f78d 893d cf16 043d 7e7f 533d 98a8 4abd
00000390: faf7 fe3b 8392 aabc 1935 8f3d 00ac 823c
000003a0: f04f 8abd a5cb 043d 817b 8e3d 2099 103d
000003b0: 4d29 08bc 7fb4 65bd 504e 4dbd 4eb8 63bd
000003c0: 818e 86bd acdc 3c3d d212 953c 46a3 713c
000003d0: 3d45 8a3d 3164 323c e769 c83b 611f a53c
000003e0: 0746 e3bc fa95 863d 075a 3e3c 3798 ee3c
000003f0: eb4c 9d3d 8e23 bdbc f856 41bd c7c1 103d
-0.013683572 -0.042441364 -0.004463596 -0.054935355 -0.044089813 0.04653507 -0.040114406 0.015389985
0.042134546 -0.017940173 -0.062278535 0.0413566 0.031219935 -0.005253345 -0.078567095 -0.019550923
0.036031518 0.015324147 0.022591306 -0.051217552 -0.067298874 0.009128833 0.047278315 0.013721465
0.028078254 -0.051233623 0.07890478 -0.09685373 -0.025745928 -0.00048338412 0.082986526 0.0066277245
-0.04472392 0.06582044 0.028678505 -0.006617992 0.024423853 0.04924841 0.0016737302 -0.06772017
-0.0386591 0.036223475 0.06860517 -0.043692134 -0.025719916 0.07844672 -0.027890235 -0.07244169
0.03711727 0.026274825 0.08828403 -0.05477 0.022775125 0.046777263 0.07146645 -0.042320557
0.06258799 -0.047423247 0.070130244 0.008499416 -0.059314817 -0.050624352 0.046457328 -0.018242745
-0.046899907 0.06494838 -0.031835083 -0.008918795 0.012286605 0.02440918 0.044774976 0.03775208
-0.009423744 0.012037249 0.034358885 -0.0645969 -0.052962605 0.05714717 0.055175886 0.014635554
0.042321563 0.022150964 0.0072531914 -0.013914004 0.027896851 0.009271453 -0.08628808 0.021083016
-0.012127727 0.063369475 0.027575264 -0.065138645 -0.015330313 0.008608224 -0.019068155 0.03637995
-0.03007132 0.052201435 0.028891195 0.054420535 0.0059369407 0.07700402 0.007996924 -0.00816184
0.021357097 -0.074527115 0.018789807 0.0129326815 0.009484881 -0.05318535 -0.061210908 0.02178422
-0.0064631402 -0.01716267 -0.0015001768 0.05007727 0.07557375 0.030350177 -0.06329013 -0.054264706
0.043182846 0.0026502158 -0.006822795 -0.017284261 -0.0035155485 0.11426295 -0.04191178 0.022242993
-0.015664347 -0.045464177 0.10501662 -0.042253893 0.039183747 -9.4313014e-05 -0.03871316 0.023862734
0.059873145 -0.040432736 -0.062314935 -0.007821419 0.016068954 -0.06990256 -0.064968504 -0.0900645
0.029272014 -0.05249559 0.0104023935 0.030540984 0.027212044 0.017053341 -0.02059056 -0.019369246
-0.018282846 0.015729845 -0.027177572 0.011273331 0.0028027017 0.01752649 0.020096622 0.041163005
0.021298645 -0.055534534 -0.0762992 0.021556256 0.03467726 -0.029461028 0.0358556 0.0019269285
-0.035037085 -0.045235608 0.008867859 0.04326095 0.033023655 0.01879033 -0.050666526 -0.021166846
-0.051332306 -0.03801175 -0.08942846 -0.026972037 0.06766843 -0.027685292 -0.061157767 0.025853159
0.029090371 0.0015700727 0.04250413 -0.050596252 -0.040850468 0.007191346 -0.017459977 -0.08571704
-0.050267167 0.03526219 -0.052280746 0.017391331 0.08282641 0.055181734 0.015990254 -0.07123727
-0.029642679 -0.028244905 0.07294711 0.012995049 -0.08032941 -0.07729962 0.015351372 -0.06757287
0.045775585 0.071148135 -0.012897262 0.010224308 -0.02596437 -0.06661045 0.03589291 -0.040868882
-0.030579861 0.016168248 -0.0044997195 0.09518366 -0.0858257 0.01995963 -0.08223817 0.037491497
0.06716531 0.032248314 0.051635258 -0.04947719 0.007781026 -0.020821815 0.069925494 0.015951157
-0.06753528 0.032420773 0.0695715 0.03530228 -0.008310628 -0.056080338 -0.050123513 -0.05559569
-0.06570149 0.046108887 0.01819745 0.0147484 0.067514874 0.010888145 0.00611614 0.020156564
-0.027743353 0.065715745 0.011618144 0.029125316 0.076806866 -0.023088243 -0.04720208 0.03534105

linearD3.weight f4 [6, 12]
00000000: e308 1abd 537d 5cbe 6bcf 533b 7c7d debd
00000010: 07b4 6a3e 6253 3dbc 55a8 083e aa68 873e
00000020: 3a1d 7dbe 87fa 8d3e 1c3a fe3d a0ac c33d
00000030: c52c cd3d f1dd 8c3e 2d1b 74be 5d9c 79bd
00000040: b9c1 36be cbe5 4fbd ec71 373c 8f9a 3c3e
00000050: d744 7ebe 5725 773e 1a4e 52be 223d 933e
00000060: d1e0 e03d 58bc c9bd 3651 7cbe 7b5e 8eba
00000070: 0cdb 29be eca3 f5bd 5d7d 513d cf33 283d
00000080: b274 f33d af27 4abe 1eb3 073e cdd4 27be
00000090: b402 d7bb 38bd 31be e969 27bd ef84 9abc
000000a0: 0d09 783e 71ca 57be c4ad 0cbe 3fdc cb3c
000000b0: ac35 003e 9d24 443e daa9 54bd 933c 8c3e
000000c0: f577 653c f7f4 443e 2256 cc3d bb35 54be
000000d0: 4780 4f3e 737c 4c3d 36de 1e3e 6696 b4bc
000000e0: 79c5 05bd 110f b2be c373 023e bfd7 923e
000000f0: 8e68 593e d958 863d 02c0 f5bd b0e9 32bd
00000100: 7acc 853e 95ae 3c3e a9af 82be 8ded c7bc
00000110: 4afc 4fbd 9159 f0bd 5f3f a73d a20c 08bd
-0.03760613 -0.21532182 0.0032319676 -0.10863778 0.22920237 -0.011555525 0.13345464 0.2644704
-0.2471818 0.277302 0.12413427 0.0955441 0.10018305 0.27513078 -0.23838492 -0.060940135
-0.17847337 -0.050756257 0.011196595 0.18418334 -0.24830948 0.24135338 -0.20537606 0.28757578
0.1098038 -0.09850377 -0.24640355 -0.0010861898 -0.16587466 -0.11994156 0.051144946 0.041065034
0.11887492 -0.197417 0.13251922 -0.16389771 -0.0065616015 -0.17357337 -0.04087249 -0.018862216
0.24222203 -0.21073319 -0.13738161 0.024885295 0.12520474 0.19154592 -0.051919796 0.27389964
0.014005651 0.19234072 0.09977366 -0.20723622 0.20263778 0.04992337 0.15514454 -0.022044372
-0.032659028 -0.3477712 0.12739472 0.28680226 0.2123129 0.06559915 -0.11999513 -0.043679893
0.26132566 0.18425973 -0.25524643 -0.024405265 -0.05077771 -0.117358334 0.08166384 -0.033215173

linearD3.bias f4 [6]
00000000: dc0c 9bbd 067d 593d ad65 013e 5a7f 85be
00000010: fe92 323e a5f1 313d
-0.07570812 0.053097747 0.12636442 -0.26073724 0.17438886 0.04344334
