pretrained/MLE/MLE2_128.pt (torch, 13587 bytes, 9 tensors)

linearK1.weight f4 [2, 8]
00000000: 9ff8 8d3c c7d0 873d 2ed7 b23d f6c4 9e3e
00000010: 394a 503b b71c 29be 9652 27bc 01c8 b2bd
00000020: 9ae5 5fbd 4b27 8cbe 3578 ce3c e735 13bd
00000030: a137 f5ba 92ab 643d f128 103e 65c8 c83d
0.017330466 0.06631618 0.087324485 0.31009644 0.0031782521 -0.1651486 -0.010212561 -0.08729554
-0.054662324 -0.27373728 0.025203804 -0.035940077 -0.0018708595 0.055827685 0.14078118 0.09803847

linearD1.weight f4 [256, 2]
00000000: 39a4 51be da93 033f 5f32 84bd e04b febc
00000010: 8508 273e bf03 b13e a0cb ba3d 3abc a53e
00000020: 6536 1bbe 1ec9 d2be d1a3 6bbe cf85 f8be
00000030: 5271 653e c341 b7be 1e79 193f 6ff3 0a3c
00000040: 6a33 553f 36d5 19bd ff33 303f e015 f7bd
00000050: 759b 0cbf 574e 313e 5c9b f83e bdc2 e73e
00000060: af52 0dbf bd5f 2f3f 7e13 083f 5c65 143f
00000070: 7d55 153f 4880 ff3e 0a56 5dbf b4fe 0a3f
00000080: 7543 a33e 67e0 7d3e 26f8 34bf 8f35 b7be
00000090: b883 e3be 3acb 2b3e 6f0f 94bd d418 e3be
000000a0: c40d 203e c629 153f a0ea 6ebe af7d c53e
000000b0: 31ee 4cbe 965c c73e 61a7 84bd c384 7fbf
000000c0: 2261 ac3e 0298 9d3e 4aee 363d 06ee c3bd
000000d0: 0e2c 1a3f 23fe 203f 311d f93e 1141 103e
000000e0: af92 353f 5de3 e23e 34d4 b73d 9d53 a5be
000000f0: a13d 4e3e 5364 b7be 3978 b33e 5460 45bf
00000100: b142 233f 03b7 68bf df71 e1be 09d1 89bc
00000110: 1959 b8be c01b f7be 7699 8fbd 38f9 70bc
00000120: 916a 2f3f 6502 b23d 0631 a53d f461 c9be
00000130: 8094 acbe d1cd 6a3e 193c 8e3e cfb6 8a3e
00000140: 4fd7 c5be 9d78 38bf 54fc 08bf fc49 2d3e
00000150: 5ffc e53e f263 8f3e 38dd c43e c93c f3be
00000160: e96b a7bb 18bb f9be a88a 163f 8cd8 8e3d
00000170: 75f9 173f 7a19 4fbe b149 a33d 90cc cf3e
00000180: 778f e2be 0353 f4be 7965 bd3e 7ee1 09bf
00000190: 7e6d a7be d45a 28bf 843c 05bf 5f96 863e
000001a0: 135b c2be 1248 2b3d ef1c a53e ddb7 02be
000001b0: 1aef 03bf 33c5 823e f4ce d43e e068 ab3e
000001c0: 7a96 73bd 12d8 11be e6b6 99be 6c81 f2be
000001d0: 3ce3 0fbf 5537 163f 5124 c33e 139a 0cbf
000001e0: e367 98be 616c 7b3e b250 35bf 89b3 6d3e
000001f0: 68c6 a9be 5582 0bbf da40 6d3e 622c 94bd
00000200: 60a1 a1be 325c 3ebe 665f b7be b020 1dbe
00000210: f341 63be b75e d1be 7306 05be 05ab 89be
00000220: a722 c5bd e346 9bbe c1b5 25bf e784 d83e
00000230: 5c02 03bf 9a2e 903e 71bc 9cbd faa3 b3be
00000240: ef74 0dbf 027d 2ebf 55b5 80be 1309 d3be
00000250: 8c31 0f3f e0f9 093e 51fd 353f d8ef fb3e
00000260: ddbf 913e 142a d1be a8ee 9b3e 5e01 15bf
00000270: 9451 a4be 957a c53e ff73 96be 43cf 5cbf
00000280: 3889 f03e d338 b2bd 20eb 173f 0a1f bfbe
00000290: a6d9 a7bd 528a 85be 3ff6 31bf 0aab bb3e
000002a0: 0091 d03e 4ef9 41be d830 423f bea0 4bbf
000002b0: 158e 0e3f 65c2 023d a80a b13e 96b0 6a3e
000002c0: 8f25 293f d0c3 a4be 76d8 fd3c 8a78 3c3f
000002d0: 244b cbba 5f8c 39bf daf3 973e e091 d5be
000002e0: 0dcd 043f 6602 bc3e 0e4f 5bbe 2cae eebe
000002f0: 44ee e73d 65b9 0abf 1fce 413f e855 b53e
00000300: aa48 c13e decc b43e 11f3 4d3f e2bd 6ebf
00000310: a562 243f e08e c03e 68ae 3ebf 037b c93e
00000320: 225d 193d 0eb7 1f3f 7dda f3be 9a7d 223e
00000330: 32c0 163f adde 233f 6aee 1f3f b680 f23e
00000340: 3d88 353b 76df 87be 86ce 94be cd2f ff3e
00000350: 887a 153e 1294 a2be 48c7 fb3e e5c3 1bbf
00000360: 6c4b 163f 7237 2d3e 8a90 b2be 7dc8 973e
00000370: 353a 403f 33e8 ba3b 93ad 7bbf 28a7 f73e
00000380: 5ba8 76be 713c c83e 1271 933e ad0c bf3e
00000390: eaa6 e93e 442a aa3e 6f2d 123f 1a4a ff3e
000003a0: 1425 e73e 5547 053f 1ee7 3ebd d7ee c1be
000003b0: d3e7 3dbd ff76 5fbe 6b87 213e a7a9 e33e
000003c0: d4cc 663e 2827 1bbf 9352 433e c0e8 c03e
000003d0: 0487 913e c2fb db3d 164b 37be 95fe e2be
000003e0: 255a 44bd 6203 35bf 5a87 143c 44ca b13e
000003f0: 8f42 f83e fc32 b2be f44f da3d a7f5 3cbe
-0.20472802 0.5139748 -0.0645492 -0.03104204 0.16311844 0.3457317 0.0912087 0.32370168
-0.15157469 -0.41169065 -0.2301171 -0.48539588 0.2240651 -0.3579236 0.59950435 0.008480891
0.83281577 -0.03755685 0.6882934 -0.12064719 -0.5492471 0.1731504 0.4855603 0.4526576
-0.5520429 0.6850546 0.5315474 0.5796716 0.5833357 0.49902558 -0.8645941 0.54294896
0.31887403 0.24792634 -0.70691144 -0.3578305 -0.4443643 0.16776744 -0.07229506 -0.4435488
0.15630251 0.58266866 -0.2333169 0.3857245 -0.20012738 0.38937825 -0.064772375 -0.99811953
0.33667856 0.30780035 0.044660844 -0.09566884 0.6022347 0.6288778 0.48655084 0.14087321
0.70926946 0.4431409 0.089760214 -0.32290354 0.20140697 -0.3581873 0.3505266 -0.7710011
0.6377364 -0.90904254 -0.4403219 -0.016823309 -0.36005476 -0.4826336 -0.07011692 -0.014707856
0.6852198 0.08691863 0.08065991 -0.39332545 -0.33707047 0.22930075 0.27780226 0.27092597
-0.3864083 -0.7205904 -0.5351002 0.16922754 0.44919106 0.2800594 0.38450027 -0.47507313
-0.0051092994 -0.48775554 0.5880532 0.06974897 0.59365016 -0.20224562 0.0797304 0.40585756
-0.4425008 -0.47719583 0.3699148 -0.538597 -0.32700723 -0.6576359 -0.52045465 0.262866
-0.3796011 0.04181678 0.32248637 -0.12765451 -0.51536715 0.25541076 0.41564143 0.3347845
-0.059469678 -0.1424258 -0.30022353 -0.47364366 -0.5620611 0.5867818 0.38113645 -0.549226
-0.2976676 0.24553062 -0.70826256 0.23213018 -0.33159184 -0.54495746 0.2316927 -0.07235028
-0.31568432 -0.18589857 -0.3581497 -0.153445 -0.22193126 -0.40892574 -0.12990741 -0.2688829
-0.0962575 -0.3032752 -0.6473046 0.42288896 -0.51175475 0.28160554 -0.0765313 -0.35086042
-0.5525655 -0.68159497 -0.25138345 -0.4121786 0.5593498 0.13474226 0.71089655 0.49206424
0.28466693 -0.40852416 0.30455518 -0.5820521 -0.3209349 0.38570085 -0.29385373 -0.86253756
0.4697969 -0.087022446 0.5934315 -0.37328368 -0.0819581 -0.26082093 -0.69516367 0.3665393
0.40735626 -0.18942758 0.7585578 -0.7954215 0.5568555 0.03192367 0.34578443 0.22918925
0.66072935 -0.32180643 0.030987006 0.7362143 -0.0015510065 -0.72479814 0.2967823 -0.41712856
0.5187538 0.3672058 -0.21416876 -0.46617258 0.113247424 -0.5418914 0.7570514 0.35417104
0.3775075 0.3531255 0.80449015 -0.9325849 0.6421302 0.37609005 -0.7448487 0.39351663
0.037442334 0.62388694 -0.4762763 0.15868226 0.58887017 0.6401165 0.62473166 0.47363824
0.0027699613 -0.26537675 -0.29063815 0.49841157 0.14597523 -0.31753594 0.49175477 -0.60845786
0.58708835 0.16915682 -0.348759 0.29645148 0.75088817 0.00570395 -0.9831173 0.48369718
-0.2408766 0.39108613 0.28797203 0.37314358 0.45635158 0.3323537 0.57100576 0.49861223
0.45145476 0.5206197 -0.04660713 -0.37877533 -0.046363663 -0.21822737 0.15774314 0.44465372
0.22539073 -0.6060662 0.19074468 0.37677574 0.2842332 0.10741378 -0.17899737 -0.44334856
-0.04793753 -0.70708287 0.009065473 0.3472463 0.4848828 -0.34804523 0.10659781 -0.18453084

linearD1.bias f4 [256]
00000000: 8203 20be 7701 2cbe 2cfc b3be fc17 133f
00000010: 7bed bbbc a79f 01bf 7a69 1dbf 9ace 38bf
00000020: dac6 21bf a3c0 ffbd 92db 16bf 4ad0 b3be
00000030: 456d 103f f983 ef3e 3053 6cbe 0299 243f
00000040: 1b6a 0a3f 9337 0a3e 85bc fdbe 3202 dd3e
00000050: 6ceb 0abf 8533 1f3e a2da ffbe 3960 6b3e
00000060: 6766 8b3e b8d6 d5be 5af7 1d3f 09f8 16bf
00000070: b9a8 c7be c337 c13e ca3c 7e3e 17ad 43bf
00000080: b24c bd3e 9b94 8a3e 5fd4 1cbd 1488 823e
00000090: 5f7d ccbe 9d44 f03e 2b66 97bd e056 29bf
000000a0: d563 29bf 0845 fabe fb2b 943c eb42 c83e
000000b0: 875a 943e 0ade e83d ed1d 923e fecd d53e
000000c0: dfc5 9a3e 7945 9fbe f68d f9bd 8d5f e5be
000000d0: 581b bf3e beaa 033f 7589 5ebe 7fc3 debd
000000e0: c5e8 5fbe 2007 03bf 1a6a 043f ee65 5cbe
000000f0: 590a adbe bf65 6b3c 74b2 353f d1dd 873e
00000100: 4049 8dbe f9b2 873e 48c3 76be a385 ed3e
00000110: 83cc da3e 980b 823e 78f6 0a3f f1f8 bcbc
00000120: 90af f83d ecd0 3abc aab5 c2be 7c13 0d3f
00000130: a9c8 373e 2fe3 733e 9ae4 05bf ef7b 063f
00000140: 1cec 243e bcce a9be 6964 90bc b71b 393d
00000150: f7ec 173e 979a 773e 35d2 d3be 8066 b43e
00000160: 1ad6 1d3f 8c0a babe 4a51 2cbf 5876 b53e
00000170: 3c58 1e3f bdc6 1f3f 1d12 0b3f 3b44 1a3d
00000180: 105e 09be b5e7 d1bd 27f2 1fbf e801 adbc
00000190: 6c2b 3abf 42eb c7be a2ba 393f 055b e1bd
000001a0: 1238 023e 7367 20bf d88f 0ebf 1057 ff3e
000001b0: 870b a8bd d37c a7bd cd53 e8be 2c77 08bf
000001c0: fd8c 2c3c 972f c9be 62ba 01bf 1fb4 b83e
000001d0: 86d5 2cbf b93d 553e 6f3e 363e 35bf 34be
000001e0: b3fd 14bf 33a7 a13e fa3d 37bf c119 f73d
000001f0: b3fc 1e3f 60da 35bd ae85 573c b434 83bd
00000200: 0284 033f 481a 61bc 6d84 09be 421c 9fbe
00000210: 7ef8 ac3e 1a13 aabe 092a b33d 52e4 85bd
00000220: 4fb1 b4be b10f 8f3e e915 c93e 5957 d03d
00000230: b712 3abf 6910 2d3f 1450 d3be 4589 86bc
00000240: aa06 0b3f 24eb 683e 08f3 49be 1f65 80be
00000250: a397 17be 52cb 153f fdad 93bd b9db a33e
00000260: e222 c8bc ea1c 0f3f 7a49 c4be 84fb ef3e
00000270: 8d23 953e d289 b3bc 5a0c e9be b49b 6a3a
00000280: c938 57bd fb9e abbe c8a5 113e 60cc 973d
00000290: 2f7c cd3e 1d2b 863e ff02 01bf 5e82 293c
000002a0: 8f10 db3c b26b e9be 8951 70be 93c9 ca3e
000002b0: 47bd 373f 46ee 3cbf eb90 103d 166c 09bc
000002c0: 69e4 df3e 2536 9bb7 5b60 343f 76fc 0bbd
000002d0: 7cce ebbd fe5e d4be 1c42 e3be 679f df3e
000002e0: 4afd bd3e 0e80 afbd 89e4 f23e b08c 13bd
000002f0: de3a d03d d541 083e d053 0fbf 4850 1b3f
00000300: cd1c 1c3f 7831 0dbf b979 e1be 2337 37bf
00000310: cf31 66bd 823f 9f3e 25ed 01be d2de ff3e
00000320: d77a 17bf 3348 923e 0749 adbe 4706 d13d
00000330: 7e58 273f bc73 0cbf 75bb 283f a5eb f73d
00000340: eddf 303e 9f4f 07be e4bf 413e a73e 20bf
00000350: 3216 5d3e 9071 25bf a302 1c3e 312e a43e
00000360: 053d 13bf 4b62 fe3e 19e8 82be a33a 1f3f
00000370: b251 f0bd ea2b cc3e 7da1 473e 6c4a c8be
00000380: ee6c 6dbe 946e bf3b 9b3a 8ebd cbed c93a
00000390: 59f0 913e 5c1f d73d d9cb 49bd 44d5 6e3e
000003a0: a973 81be bc3a 303f fe62 ccbe 1473 133f
000003b0: e392 59be 57e1 26bf a05d eebe 0a73 b7be
000003c0: 5bfa b0be 0869 20bf 4145 ed3e b90f 9a3e
000003d0: 0f32 56bd 11a5 d93e eebb 8cbd 8eb4 463e
000003e0: 2565 ff3e b55b 1f3e 7b7f fc3e 1560 03bf
000003f0: 3692 023f 32ef 0ebe 76ba 36be abf1 313f
-0.15626338 -0.16797434 -0.3515333 0.5745847 -0.022940388 -0.50634235 -0.6148907 -0.7219025
-0.6319405 -0.124879144 -0.5892879 -0.3511985 0.5641673 0.46780375 -0.23078609 0.6429597
0.54068154 0.13497762 -0.4955789 0.43165737 -0.54265475 0.15546997 -0.4997149 0.22985925
0.27226564 -0.4176538 0.61705554 -0.5897222 -0.38995913 0.37737855 0.24827877 -0.7643599
0.36972576 0.27066502 -0.03828847 0.25494444 -0.399394 0.46927348 -0.07392534 -0.66148186
-0.66167957 -0.48880792 0.018087378 0.39113554 0.28975317 0.113704756 0.28538457 0.41758722
0.3022909 -0.3110769 -0.1218528 -0.44799462 0.3732555 0.51432407 -0.21732123 -0.10877132
-0.21866138 -0.51182747 0.517244 -0.21523258 -0.33796957 0.01436752 0.7097542 0.2653642
-0.27594948 0.26503733 -0.24097931 0.4639102 0.42734155 0.2539947 0.5428233 -0.023067923
0.12142861 -0.01140235 -0.38029224 0.55107856 0.1794764 0.23817132 -0.52301943 0.5253286
0.16105694 -0.33165538 -0.017626004 0.045192447 0.14836489 0.24180065 -0.41371313 0.3523445
0.6165482 -0.36336172 -0.6731154 0.35441852 0.61853385 0.62412626 0.54324514 0.037662726
-0.13414788 -0.10249273 -0.6247887 -0.021119073 -0.72722507 -0.39046675 0.72550404 -0.11003689
0.12716702 -0.6265785 -0.5568824 0.4987111 -0.08205324 -0.08178105 -0.45376435 -0.5330684
0.010531661 -0.3929412 -0.5067502 0.3607492 -0.6751331 0.20824327 0.17797254 -0.17651065
-0.58199614 0.31572875 -0.71578944 0.12065459 0.6210434 -0.04439771 0.01315443 -0.06406537
0.513733 -0.013739176 -0.13429423 -0.31076247 0.33783334 -0.33217698 0.08748252 -0.06537689
-0.35291526 0.2794166 0.3927453 0.1017291 -0.72684807 0.67603165 -0.41272032 -0.016422877
0.54307044 0.22745949 -0.19721615 -0.2507715 -0.14803939 0.5851337 -0.0721092 0.32003573
-0.024430696 0.55903494 -0.38337308 0.4687158 0.29128686 -0.021916304 -0.45517236 0.0008949593
-0.05254439 -0.3351973 0.14223397 0.07412028 0.40133807 0.26204768 -0.50395197 0.010346023
0.026741294 -0.45589978 -0.23468603 0.39606914 0.7177319 -0.73801076 0.035294455 -0.008387586
0.4372895 -1.8502653e-05 0.70459527 -0.034176312 -0.11513993 -0.41478723 -0.44386375 0.43676302
0.37107307 -0.08569346 0.47439983 -0.036022842 0.10167478 0.13306363 -0.5598726 0.60669374
0.60981447 -0.5515361 -0.4403818 -0.71568507 -0.056199845 0.3110314 -0.1268812 0.49974686
-0.59171814 0.2857071 -0.33844778 0.102062754 0.65369403 -0.54864097 0.65911037 0.121054925
0.17272921 -0.13213967 0.18920857 -0.625956 0.21590498 -0.6462641 0.15235381 0.3206649
-0.57514983 0.49684367 -0.255677 0.6219885 -0.11734332 0.39877254 0.19495197 -0.3911928
-0.23186085 0.0058420394 -0.06944772 0.0015405951 0.28503683 0.10504028 -0.04926667 0.23323542
-0.25283554 0.6883962 -0.39919275 0.5759747 -0.21247439 -0.6518759 -0.46555805 -0.35829955
-0.34566006 -0.62660265 0.463419 0.3009012 -0.052293833 0.42508748 -0.06871782 0.19404814
0.49881855 0.15562327 0.4931601 -0.51318485 0.5100435 -0.13958433 -0.17844567 0.6950938

linearK2.weight f4 [2, 256]
00000000: 3e14 5fbd 3d92 743d 87c1 4f3c 88fe 91bd
00000010: dca4 433d fe17 cf3d e9fe ba3c 5a74 bfbc
00000020: 33d9 83bd 4b66 edbd 805b 113d 0b65 85bd
00000030: 75ee db3c c9b8 1abe 7eb7 8cbd 87ed 753d
00000040: ab99 98bd 142b 1e3d 008c f6bc 5d59 2abd
00000050: 55a9 87bb b4bf 0638 dc37 37bd 6163 d4bd
00000060: 546b 17bd b5b2 143d c92f 78bd 11df 10bd
00000070: f09a c23c df9b 2ebd 8151 243d 2b7b 133d
00000080: 747a ea3b 58a7 e73c c4b8 733d fa87 683d
00000090: 0a50 5ebd 7fc4 4c3d fb33 893b 4671 50bd
000000a0: 8c4c 0f3e bb68 4b3d a4eb 10be 1beb 4b3d
000000b0: 1830 0ebc 7dc9 47be 1335 aebd ca4d 9abd
000000c0: 854e a3bc 4e53 223d d254 ef3c 9af2 183d
000000d0: 91d0 043c 9779 213d 3d3e 1e3d 2f09 cabc
000000e0: 9db0 1c3d 7161 4c3c 2fa5 1a3d 7af1 30bd
000000f0: cfa5 4e3d c2c9 0c3e 9ebb c13c 3811 8dbd
00000100: 77ba 8e3d b4b8 b33d 6b4f 153d faf4 673d
00000110: 58e6 18bd 47c0 823d 2523 d3bb 22af 133e
00000120: 65fc b1bc eee6 023d 0af1 6abd 630e e6bc
00000130: e3c5 923a c71b 2bbd 606e 4d3c 8735 9ebc
00000140: 5d65 9fbd 66f0 70bd 75c3 a73d 75df 2c3e
00000150: b7c4 85bd da91 3c3d d89c a4bd a6cc f3bd
00000160: 2df2 0f3d 866c 343d 90c7 ac3d c872 9d3c
00000170: 461e babd 8deb b3bc 3c0b b93b 44b4 07be
00000180: 848b 7bbc 9d69 05be c2b2 a7bc 9c63 1c3e
00000190: d426 fe3c 77a2 693d a161 65bd f827 84bd
000001a0: 7a9a 283d 7d22 1b3c 8a39 b53c 6554 b5bb
000001b0: 3783 71bd 0dd0 a9bb bbab 3ebd fcf8 0cbd
000001c0: d6ca 9b3c db6e 9bbc f566 aabd dbdd 29be
000001d0: 1edc 82bd 83c3 393d c3f3 923d 4abf c5bc
000001e0: 52e0 05bd b574 d2bc 6c96 203d 895e 803d
000001f0: 4035 5a3c fe29 99bc a514 06bd ccbe 973c
00000200: b643 753c 6aea 563e 9b6b f1b9 9608 95bd
00000210: 12a5 2ebd 6fac 143e ae5e 963c f01b cd3d
00000220: 7cf8 b6bd 0e81 4f3d 077e 2ebd 3d8a 09bd
00000230: 0c66 1ebc e9f1 053d b909 b73b 2045 f63d
00000240: 9242 79bb 55e4 dfbc 3e5e 033e 1c56 c3bc
00000250: 7f37 1c3d f420 383c 2378 a9bc 487c d1bd
00000260: a525 19be 6283 1bbd e3fe d93c a1b1 bb3c
00000270: caad 9c3d 3422 cebc 3a8f 72bd f70d 47be
00000280: 0c77 7bbb 12a2 0c3d 51b3 06be 7db5 2cbd
00000290: 72b7 8a3b 5ecc 34be d4c5 773c f6b6 b8bd
000002a0: 0b73 59be f7b8 6eba bac1 e4bd 612c de3c
000002b0: d10b afbc 0e74 f23c 3fbc 28be ef6e 483d
000002c0: 7fbf 883d c742 9335 5e2e 92bc 36a5 8bbd
000002d0: cba1 b0bc 25fd 9dbd fdf0 353d a7cd 073d
000002e0: 8074 683d 89a5 103d 7219 3cbd 8d08 143e
000002f0: 5f97 a8bd ab6a 123e bc5c 9b3c 3cc4 4ebc
00000300: 782c b03c 19ea f8bc a30d 46bd aadf 7a3c
00000310: 197e 2b3e bede 743b 4a48 88bd a63d 5f3d
00000320: 4d1f 93bc be23 1e3b d5c7 373c 7154 893c
00000330: 3ea2 3abc b87f b63c 0be5 c03b 15ab 6bbd
00000340: f73a 8dbd 27bf de3d f26b e23d b64d 86bc
00000350: d37a 08be a3a3 68bc 1067 ff3d 4e9d 7a3d
00000360: 6590 1e3d b887 09bd ccf4 763c b390 21bd
00000370: 75d8 7bbb 6793 773d 05a6 6aba 7502 b33d
00000380: 07a5 5dbd 0779 bebd c5a5 bbbd e491 573e
00000390: 8f28 c0ba 0dc2 44be 02cd c23d 9594 cbbd
000003a0: d384 b3bc f53c 563a cfe2 793c 10d8 f93b
000003b0: 3401 e4bd cc80 9fbc 3892 863b 585c 77b8
000003c0: c114 b03c a145 27bd 190a ffbc 5f37 c1bd
000003d0: bee9 28bd b2b8 7cbc 94e5 2d3e ae14 dc3c
000003e0: a314 45bd 7a6d a83d 051b 47bd c777 073c
000003f0: 3bcd 30bc 2648 b63b 9aa4 b4bd 2291 433d
-0.054462664 0.059709776 0.012680418 -0.07128626 0.047764644 0.10111998 0.022826629 -0.02337091
-0.06437912 -0.115917765 0.03548765 -0.06513413 0.026847104 -0.15109552 -0.06870936 0.060040977
-0.07451185 0.0386153 -0.030096054 -0.04158913 -0.004140059 3.2126627e-05 -0.044731006 -0.103705175
-0.03696759 0.03630324 -0.060592446 -0.035368983 0.02375552 -0.04262912 0.04011679 0.036006134
0.007155711 0.028278038 0.059502378 0.056770302 -0.05427555 0.04999208 0.0041871048 -0.050889276
0.13994044 0.049660426 -0.1415239 0.04978476 -0.008678459 -0.19510455 -0.08506217 -0.07534368
-0.019934902 0.039630227 0.02921525 0.037340738 0.008106367 0.039422598 0.038633574 -0.024662582
0.03825437 0.012474404 0.037755188 -0.04319904 0.050451096 0.1374884 0.023649033 -0.0688805
0.06969159 0.08775464 0.036452692 0.056630112 -0.037329048 0.0638433 -0.0064433985 0.14422277
-0.021726796 0.031958513 -0.05735878 -0.028083032 0.0011197891 -0.041774537 0.0125385225 -0.019312633
-0.077830054 -0.05882301 0.08191577 0.16882117 -0.06531661 0.046037532 -0.08037728 -0.11904268
0.035143066 0.04404881 0.08436501 0.019219771 -0.090878054 -0.021962905 0.005647091 -0.1325236
-0.015353087 -0.1302857 -0.02047098 0.15272373 0.031024374 0.057039704 -0.05600131 -0.06452936
0.041162945 0.009468672 0.022122163 -0.0055337423 -0.058963027 -0.0051822723 -0.046550494 -0.034417138
0.019017618 -0.018973758 -0.08320419 -0.16588537 -0.0638964 0.04535247 0.071754 -0.024139065
-0.03268463 -0.025690416 0.039205953 0.06268031 0.01331836 -0.018696781 -0.032734532 0.018523596
0.014969757 0.2098786 -0.00046047274 -0.07277028 -0.042637892 0.14518903 0.018355694 0.10015094
-0.089341134 0.050660186 -0.042600658 -0.0335791 -0.009667885 0.032701407 0.005585876 0.12024903
-0.0038034064 -0.027330557 0.1282892 -0.023844771 0.038138863 0.011238325 -0.020687168 -0.10228783
-0.14955766 -0.037967093 0.026610797 0.022911849 0.07650335 -0.025162794 -0.059218623 -0.19438921
-0.0038370518 0.03433425 -0.13154341 -0.04216527 0.004233294 -0.17656085 0.0151228495 -0.09019272
-0.21235292 -0.00091065414 -0.11169763 0.02712077 -0.02136794 0.029596355 -0.1647806 0.04893392
0.0667715 1.0971788e-06 -0.017844375 -0.06818621 -0.021561524 -0.07714299 0.044419277 0.03315511
0.056751728 0.035314117 -0.045922704 0.14456387 -0.08231997 0.14298503 0.018965118 -0.012620028
0.02150558 -0.030385064 -0.04835285 0.015312115 0.16747321 0.003736421 -0.06654413 0.054502152
-0.017959261 0.002413019 0.011217077 0.016763898 -0.011391221 0.022277698 0.005886679 -0.057536203
-0.06896012 0.10876303 0.11055745 -0.016394477 -0.13328104 -0.01419917 0.124708295 0.061185174
0.038711924 -0.033576697 0.015073013 -0.039444637 -0.003842858 0.06044331 -0.00089511304 0.08740703
-0.05411246 -0.09300428 -0.091624774 0.21051747 -0.0014660525 -0.1921465 0.095117584 -0.09940449
-0.021913921 0.00081725355 0.015251829 0.0076246336 -0.11133042 -0.019470595 0.004106786 -5.897539e-05
0.021494271 -0.040837888 -0.031132745 -0.09434389 -0.04123854 -0.015424894 0.16982108 0.02686533
-0.048115384 0.08224006 -0.048609752 0.008268303 -0.010791118 0.0055628 -0.08820458 0.04774583

linearD2.weight f4 [256, 2]
00000000: ae74 f73d 9805 073f a4e5 03bf 0c4f e4be
00000010: 505a e7be b4be cd3c 65b3 a83e 62dc 15bf
00000020: 845c 8cbd 6b44 6f3e 375c 0a3f 23ef 363f
00000030: 61bb c93e 914e 95be 9460 383e a9bf c03e
00000040: 5048 1fbf 4d73 37bf 0013 423e f93c 233f
00000050: bc9c debe 4516 953e 463d 203f e6ae 3c3f
00000060: 3584 a73d 13a6 843d 5724 173f c272 073f
00000070: 4ed7 e43d 6a4a 163f b276 09bf 34d3 1cbe
00000080: cf99 063f 108d 8f3e c299 97bd 6e68 ecbe
00000090: dd77 0a3f 7ebe af3e ccf1 4abe ee5b 1dbf
000000a0: 8708 e53e 1eae 83bd 23db ac3d 92b9 f73e
000000b0: fa16 bcbe 14fc 283f 9c43 aebe 9bdb 823e
000000c0: d6b7 3a3d bc99 2b3e edba bebe e49b 393d
000000d0: 262c 113f f3a5 823e 5cfb 3cbf c3c1 0ebf
000000e0: 69d4 ad3e 32f0 afbd 2469 053e efca 0ebe
000000f0: 13fa 0c3f c995 04bf 0e22 0fbe 772d 0e3f
00000100: d92f 773c 9199 033f 9977 8f3d de91 053f
00000110: 7207 163e 7551 dd3e 7ebf 04bd 114b 3c3f
00000120: fe29 483e d453 c6bc aad9 b93d 0890 a73e
00000130: f82f d13e 5e89 04bf 86cb 0bbf bad9 b2be
00000140: a062 9dbe 6e99 fb3e 0d6b 97be 3ea8 4b3e
00000150: eb07 ee3d c255 f33e 7fd0 f6bd 2c8a de3d
00000160: ca56 05bf a76b c03e 60e7 d0be 1374 313c
00000170: 5d5a babd 203c debe 33e4 783d 99a0 50be
00000180: a11a 21bf 11b8 fb3e c8a6 e43e 44f0 1bbf
00000190: cd06 fdbd a60f e5be ce83 b3be 621d 183e
000001a0: 4155 96bc 5be2 b6bd 0f21 093f 005c eabe
000001b0: db74 11bf 3e1b 81be 5220 e13e ca04 eebd
000001c0: af9f 22bf 9c7b 223f 0e4a 023f 5572 3d3e
000001d0: 902c 313f 8af6 ae3d b8f7 1ebe d0b2 9c3e
000001e0: 26eb d13e e404 d4bb ffcf 723e 51f9 60bc
000001f0: b9d3 13bf 0587 b3be f9b9 f8bd 59bf 03bf
00000200: 10b2 f63d d45a f33e b585 ba3d 394d e73e
00000210: 74cd 3f3d ce8f ac3e c4ad 74be f329 d83e
00000220: cca9 1a3f 497a 893e f3d2 cabe 713f 013f
00000230: 6ce2 9fbb f959 883d 1bd2 a0be 3ad1 cb3e
00000240: 8df0 bf3d 192d 1f3f 7ec8 12bf 99f9 29be
00000250: 2ec0 17bf 4d52 01bf 5a02 52bb f7b3 0cbf
00000260: 1675 67bd 5a34 e7be a090 06bf 5c34 2bbe
00000270: 1af8 973e a83c 45bd df24 193f 5fa9 8b3e
00000280: 42a6 34bf 1e19 dfbd d665 e23e b5a8 7ebe
00000290: 46c4 65bd 65d5 9c3b 451b 1abe 4d7e 4fbd
000002a0: c728 ad3e 3b02 64bb 14a2 e7be 62a9 0ebc
000002b0: a61d 2bbf 40a7 4abf 1ab0 0a3f 92b0 0c3e
000002c0: d163 e8be 9cbc 983e 0331 0b3e 5e3d 473e
000002d0: f4e3 313f da63 373f a160 823e d449 82be
000002e0: b076 12bc 05f8 313e 7962 ca3e 041a b9bd
000002f0: 6af0 96be 97cf 39be e18f 603d 2675 e83e
00000300: 4007 17bf 1543 ca3e fa32 9d3c b609 39be
00000310: f9b5 a0be 6f42 b33e a703 ed3e 21e8 37bf
00000320: 972a 023d 1a8b a93e c833 8d3e 0d2b 4dbe
00000330: 06ef ad3d fd95 253e 49b1 343f 1317 903e
00000340: 1e51 c9be 7a74 063f 3e58 7a3e 62d7 343f
00000350: 1e29 a53b efd5 4bbe d3d3 a1be ca83 9c3e
00000360: d354 08bf 6b1d ddbc 9140 0dbf 3414 863e
00000370: 412d 8f3e 20d3 36bf 749f fbbe 5e71 103f
00000380: 2cb1 3c3f 1e21 523f ce4a f23e e691 c2bd
00000390: c6a8 fabe 51d2 a1bd ff7a 8d3e 98e9 e2bd
000003a0: 3360 023f 8980 113f f779 01be 4c7e 843e
000003b0: f741 623e 220f 05bf 6793 033f f045 03be
000003c0: face 9c3e fafb 02bf b6c6 b2be 5f5d 9c3e
000003d0: 1bce 19bf f2ad 283f b66c 08bf 1d72 96bc
000003e0: 256e 93be a179 82bd 728a 133f 3787 ca3e
000003f0: 929a ee3d ba36 fd3e 1086 443e 9065 463f
0.12082802 0.5274291 -0.5152228 -0.44591558 -0.4518609 0.025115348 0.32949367 -0.585394
-0.068535835 0.23365943 0.5404696 0.71458644 0.3940077 -0.29161504 0.18005592 0.37646225
-0.62219715 -0.7166031 0.1895256 0.6376491 -0.43478954 0.29118553 0.62593496 0.73704374
0.08179513 0.06476989 0.59039825 0.5290948 0.111738786 0.58707297 -0.5369674 -0.15314943
0.52578443 0.2803731 -0.07402374 -0.46173424 0.54089147 0.34325022 -0.198188 -0.614684
0.44733068 -0.064296946 0.084402345 0.48383766 -0.3673628 0.6600964 -0.34035957 0.2555817
0.045585476 0.16757864 -0.37251988 0.045314685 0.5670799 0.25517234 -0.73821044 -0.55764407
0.3395112 -0.085907355 0.13028389 -0.139446 0.5506908 -0.51791054 -0.13977835 0.55538124
0.015087091 0.514062 0.07005233 0.521757 0.14651278 0.4322621 -0.032409184 0.7355204
0.19547269 -0.024209894 0.09074719 0.32727075 0.4085691 -0.51772106 -0.5460743 -0.34931737
-0.30739307 0.49140495 -0.2957386 0.19888398 0.11622604 0.47526366 -0.12051486 0.10866198
-0.52085555 0.37582132 -0.40801525 0.010830897 -0.09099267 -0.43405247 0.060764503 -0.20373763
-0.6293126 0.4916387 0.44658494 -0.6091349 -0.12354813 -0.447385 -0.35061496 0.14854959
-0.0183512 -0.08929893 0.5356607 -0.45773315 -0.5681893 -0.25216097 0.4396997 -0.11622007
-0.6352491 0.6346986 0.5089425 0.18500645 0.6920862 0.08543117 -0.15524185 0.30605173
0.40999717 -0.0064703096 0.23712157 -0.013731317 -0.5774494 -0.3506395 -0.121448465 -0.5146385
0.120456815 0.47530234 0.09107534 0.45176104 0.046826795 0.33703464 -0.23894411 0.42219505
0.6041534 0.2685111 -0.39614066 0.5048743 -0.0048792865 0.06657786 -0.31410298 0.39808065
0.09372053 0.6217819 -0.57337177 -0.1659912 -0.5927762 -0.50516206 -0.0032044859 -0.54962105
-0.056508146 -0.4515713 -0.5256443 -0.16719192 0.29681474 -0.04815355 0.59821886 0.27277657
-0.7056619 -0.108934626 0.4421832 -0.24869044 -0.056095384 0.004786181 -0.15049465 -0.05065756
0.33820173 -0.0034791369 -0.45240843 -0.008707376 -0.66842115 -0.79161453 0.5417496 0.13739231
-0.45388654 0.29831398 0.13592915 0.19457003 0.69488454 0.71636736 0.25464347 -0.2544695
-0.00893943 0.17379768 0.39528254 -0.09038165 -0.29480296 -0.18145595 0.054824714 0.45401877
-0.5899544 0.39504305 0.019189347 -0.1807011 -0.31388834 0.35011622 0.4629185 -0.71838576
0.031778898 0.3311394 0.27578568 -0.20035954 0.08492856 0.16170497 0.70583016 0.28142604
-0.393197 0.5252148 0.24447724 0.7064115 0.005040302 -0.19905828 -0.31606922 0.30569297
-0.5325443 -0.026991567 -0.55176646 0.2618729 0.27964213 -0.714159 -0.4914509 0.56422985
0.7370784 0.8208178 0.47322696 -0.09500484 -0.4895689 -0.07901443 0.276329 -0.11079711
0.5092804 0.56836754 -0.12644182 0.25877607 0.22095476 -0.51976216 0.51396793 -0.12819648
0.3062666 -0.51165736 -0.3491723 0.30539986 -0.60080117 0.6589042 -0.5329088 -0.01836496
-0.2879497 -0.06370855 0.57633126 0.39556286 0.11650576 0.49455816 0.19191766 0.7749872

linearD2.bias f4 [256]
00000000: 3edc 6ebf 9e73 e1be e575 2d3f 7b5d b03e
00000010: 0482 053e 0110 c9bd 8151 cf3e 390e 9d3e
00000020: d689 9c3e 64a5 b53e 8f5a d7bd 5539 4cbe
00000030: 1597 5cbe 84a9 3dbe cac8 253f f31f 1a3f
00000040: 61e5 1f3c 58dd 12bf 6d00 e1be d9ac 203e
00000050: 7bb6 803e 0d8a 263f 2312 70be 8da7 47be
00000060: cb93 293e 86e1 f73e 6f81 06bf d348 063f
00000070: fe87 fabe ad21 30bd 25a3 353f cbb9 1abf
00000080: fea7 92be d9df 00bf 9506 09bf 9507 a9bc
00000090: bf31 583e 5cda 303e 9561 153f 2ca6 eb3d
000000a0: 3d39 bbbe 8aef bd3e eae0 323f 2e8f 8c3e
000000b0: aa5e 2ebf a257 223f 2fba fbbe 62a0 02bb
000000c0: c429 1abf 1254 243f fda8 2ebf d81a 10bf
000000d0: 1dc7 9cbe 9956 91be f490 9bbe 2715 5cbf
000000e0: 9a59 20be ef45 b7be b05d 163f 5ad6 403f
000000f0: 4fb8 fc3e e2e1 c63e f5d2 05bf 4667 38bf
00000100: e9fc eb3e 2c59 6a3e f5ab cf3e d595 84be
00000110: c561 033e d598 d2be ded6 e4be c296 033f
00000120: 585b 0cbd 4be9 f0bd 3dc5 3b3e 3521 d53c
00000130: 815e d5bd 8801 88bd d836 e8be 90cf a93e
00000140: f6c7 dbbe 51a3 143f dfe3 e13e 3f8e cdbc
00000150: d298 4cbe fc71 fa3e b138 11bf 7045 1f3e
00000160: 0fc0 19bf 452b 833e 952e b7be d865 743e
00000170: fd02 a7bd f7c5 0cbf 7e22 053f 5e67 cc3e
00000180: fc3b 1cbd 1963 1ebe 5151 1b3d 1243 8f3e
00000190: 800f 093f a70f 0d3e bbd8 9dbe 2cfc 34bf
000001a0: d3b4 82bd c406 b03e 2d9e 783d 3951 18bf
000001b0: d06e 403f dde2 40bf 3b7a c7bd f4f4 de3e
000001c0: 1cba bdbe f92d 153f ebd9 c6be 6059 d5be
000001d0: 25a7 2c3e 6eba dd3e 238d b93e c8a8 163f
000001e0: c5b0 a93e e399 01bf c722 a4bc 3a3c 2abf
000001f0: 8d73 863e 3170 a9be 20b2 b33e 1621 2fbf
00000200: b62c 243f 8a73 00bf 02b6 603e 369a 3e3e
00000210: df82 8b3e dde1 29bf d4d6 3f3f f338 083f
00000220: 75f5 d63e 4643 39bf cc69 f3be b4a3 b73e
00000230: 4b8c c33e 7fe2 f53e f56f 453f 3d9f 6c3d
00000240: bab2 393f f9bc 293f 628b 4f3f a900 413d
00000250: 25ca 233f 3de4 fcbd e9ef c2bc 3ca0 e3be
00000260: 4941 233e 452b d33e 23d4 073e 2cc3 0cbf
00000270: a59e a6be 6686 b83e 7904 2dbf d84b 1abf
00000280: cefd 49bf 623c 833e eac9 143f f4dc f0be
00000290: 2d9d 053f a491 97be c658 553f 4422 33bf
000002a0: da7a 113f fde2 2fbf feb5 33bf 14c0 f5bd
000002b0: 9a29 fdbd 79f2 ddbe 4858 11bf 9f42 0abf
000002c0: afcc 193f 9817 90be ae23 20be ff7f ecbe
000002d0: 17eb 633e 0ec1 163f c4d1 aebd 3d09 123e
000002e0: 4955 edbc dbc2 eabb c246 fa3e cda8 3d3f
000002f0: 4a94 173f f4de 24bf a2e6 de3e e0ed e83e
00000300: 38d5 e8be 03a3 e5be b7fe 383f e6e3 dd3e
00000310: 4548 b5bd ad69 4d3f ef1e 40bf a1d1 0fbf
00000320: 6958 cb3e 2f02 79be 2245 163f a31b 6ebd
00000330: 6746 b7bd bedb 8b3d a3e6 d6be 14a9 75be
00000340: 6982 0f3f 11e4 2cbf 24ee 6cbd 1420 6c3e
00000350: 3613 e53e fd51 a53e e9b2 1fbe 9d28 eabe
00000360: 00f8 043d bcaa f7be 863d c5be 794c 2d3f
00000370: 3671 4fbf 3b29 4d3d c9cd 55bf 347b 363d
00000380: 1564 5b3d d61d 13be 5ce9 293f 5585 123f
00000390: 896f 40bf cca9 493e cd3b f1be e032 15bf
000003a0: 867b 19be 9212 3e3f b212 e6be ed10 a4be
000003b0: ac1d 2c3f 0d2e 25bf 0fc4 d5bd 2835 ce3e
000003c0: 6bc3 ab3e 6ef9 1fbf 2fc2 8b3e 6f26 ce3e
000003d0: 25d5 8fbd c6c3 ee3d 70db 22bf 5265 0fbf
000003e0: 33ca 973e 4a8e 2b3f eead 21bf e42a 083e
000003f0: bb8e 163f e8fa 3abf bee2 c0ba efc2 2c3f
-0.9330481 -0.4403352 0.6775802 0.3444632 0.13037878 -0.09817506 0.4049187 0.30674914
0.3057391 0.35477746 -0.105153196 -0.19943745 -0.21542008 -0.18521696 0.64759505 0.60205
0.009759278 -0.57368994 -0.43945637 0.15690936 0.25139222 0.650544 -0.23444419 -0.1949751
0.16560285 0.48414248 -0.5254125 0.5245487 -0.4893188 -0.043000866 0.70952064 -0.6043975
-0.28643793 -0.50341564 -0.5352567 -0.020633498 0.21112727 0.17270797 0.58352023 0.11506304
-0.36567107 0.37096816 0.6987444 0.27452987 -0.68113196 0.6341497 -0.49165484 -0.0019932021
-0.6021998 0.6419078 -0.68226606 -0.5629096 -0.3062066 -0.2838638 -0.30384028 -0.85969776
-0.1565918 -0.35795543 0.58736706 0.75327075 0.49359366 0.3884421 -0.5227502 -0.7203258
0.46091393 0.22885579 0.4056088 -0.25895563 0.12830265 -0.41132227 -0.4469518 0.51401913
-0.0342668 -0.11763247 0.18336959 0.02601681 -0.10418416 -0.06640917 -0.45354342 0.3316617
-0.42925996 0.580617 0.44119164 -0.025092242 -0.19980171 0.48915088 -0.5672713 0.15553832
-0.60058683 0.2561895 -0.35777727 0.23866975 -0.08154867 -0.5498957 0.52005756 0.39922613
-0.038143143 -0.1546749 0.037919346 0.27980858 0.53539276 0.13775502 -0.30829415 -0.70697284
-0.06382146 0.34380162 0.060697723 -0.59498936 0.75169086 -0.75346166 -0.097401105 0.4354626
-0.37056053 0.58273274 -0.38838133 -0.4166975 0.16860636 0.43306297 0.3624049 0.5885129
0.33142677 -0.5062544 -0.020036114 -0.6649815 0.26260033 -0.33093408 0.35096836 -0.6840986
0.64130723 -0.501763 0.2194443 0.18613514 0.27248284 -0.66360265 0.74937177 0.532119
0.41984144 -0.72368276 -0.47541654 0.35867083 0.38192973 0.48024365 0.7712396 0.05776905
0.7253834 0.66303974 0.81072056 0.04711977 0.63980323 -0.123482205 -0.023796039 -0.44458187
0.15942873 0.4124395 0.13264517 -0.5498531 -0.3254291 0.36040038 -0.6758495 -0.6027198
-0.789029 0.25632006 0.58120596 -0.47043574 0.52192956 -0.29603302 0.8333858 -0.6997416
0.5682808 -0.6870573 -0.70199573 -0.119995266 -0.123614505 -0.43349054 -0.5677533 -0.54007906
0.6007795 -0.28143 -0.1563861 -0.46191403 0.22257648 0.5888833 -0.08536103 0.14261337
-0.028971331 -0.007164342 0.4888211 0.74085695 0.59210646 -0.644027 0.43535334 0.45493984
-0.45475173 -0.4485093 0.72263664 0.43337935 -0.08851675 0.80239373 -0.750472 -0.56179243
0.3971589 -0.24317239 0.5869924 -0.058131825 -0.08948975 0.06829022 -0.41972837 -0.2399028
0.56058365 -0.675355 -0.057844296 0.23059112 0.4474122 0.32289115 -0.15595593 -0.4573411
0.032463074 -0.48372447 -0.385235 0.67694813 -0.8103212 0.05008815 -0.8351713 0.04455109
0.053562243 -0.1436685 0.66371703 0.572347 -0.7517019 0.19693679 -0.47115937 -0.58280754
-0.14988527 0.74247086 -0.44936138 -0.32044163 0.67232776 -0.6452339 -0.10437786 0.4027493
0.3354753 -0.62489974 0.27296588 0.40263698 -0.07023076 0.116584346 -0.63616085 -0.5601398
0.29646453 0.6701399 -0.6315602 0.13297611 0.5881154 -0.730391 -0.0014716012 0.67484945

linearK3.weight f4 [2, 256]
00000000: 7ef5 e6bc 2642 2bbd 7194 a13c cb54 6abd
00000010: cf89 fd3c e532 773d 2eca 86bd 2421 4d3d
00000020: 6609 80bd b9a5 dd3c af12 083c c253 cd3d
00000030: d6df 40bd 3d43 6b3c baac 373d 9e64 8abd
00000040: a60b 2c3d 04b4 e3bd 575c d93c 9d70 d5b9
00000050: 9835 6bbd 3f5a 0f3e 035f 113d f203 6a3d
00000060: d909 083e 67b0 943d 3db3 963d cda1 0bbd
00000070: 3a1c b7ba c163 9ebd 749d 3abd c85a 37bb
00000080: 96c1 40bc 68be 42bd 9702 72bd 1934 37bd
00000090: 1396 92bd c908 0f3d 407c 07bd 82c8 d6bb
000000a0: 4292 303d 7ed2 693d 6a37 453e 464e e43d
000000b0: 0a5b 633d 31e6 233b f4c9 d5bd 75b0 82bd
000000c0: 0fc0 2a3d d58b 79bd 18e0 84be 1ab0 ab3d
000000d0: c02a b0bc bb73 553c 5f2f 8abc c1ae a2bc
000000e0: 68e2 4fbd 8120 9bbc 0914 25bd 49bd f23d
000000f0: 1e28 d5bd bc60 35bd 16c8 cfbc 4959 2abe
00000100: 4a5c 443d 4bf4 123d 35dd 3d3e 9e33 08bd
00000110: c392 3dbd 6d5e c23b 789d 223d 633e 2f3b
00000120: 8232 1ebd 0dd0 0fbd f65d 03bd 694e 31bd
00000130: 3509 91bd cc43 ad3c b171 533b 1e8c 263d
00000140: edd4 bbbb ce61 72bd d9d4 7e3d e81e d2bb
00000150: 66e1 acbd 6424 a4bc faec 903d 3a90 ff3c
00000160: 7b82 36bc 66d8 633d 302e 943d 6f59 86bc
00000170: b077 9f3c 07fc 99bd 4ee4 fe3c 607c 823d
00000180: c47b 083c 1b14 7ebd 4be0 e6ba 518c fe3c
00000190: ad5b 2a3e 4a14 cfbd 778f 213d 2b94 613d
000001a0: fd40 14bd 35af e93c d67c b1bc 1108 dbbb
000001b0: 53e6 36bc cd26 0f3d 78a7 873c 341b 523b
000001c0: 7a3d eb3c f115 b2bd 2853 d03d 922c c3bd
000001d0: 3de6 ab3c 841b 013e b767 d0bc 98ef 90bd
000001e0: 7727 f0bb 152d 76bc 3908 88bc 69de d53d
000001f0: 9ca0 b23a 0cbb 9e3d 2719 4c3c f427 85bc
00000200: d63c a3bd 6bc4 283d 57f0 61bd d81a 42bc
00000210: b479 4dbd 41d7 293d 3bf0 743e c7e3 be3d
00000220: 9355 94bd faa3 47be 737f 78bd ffcb 733c
00000230: 4234 b53d 4c78 2abd 1021 30bd 8378 a93c
00000240: 0d2d b63c c3d2 03bc 5cd4 bb3d 3ad5 f33b
00000250: e0f0 0f3d 4e49 01bd 705f 4d3c cbe8 133d
00000260: 5681 8fbd 5a4b 973c cf2c 763d 5c5f 83bd
00000270: f489 ad3b 9940 e1bc 48ec bcbd 8d63 4f3d
00000280: 020b e3bd 91c5 353d 229b aabd d2d5 d73a
00000290: efa4 3cbc 9d27 103d 4e73 3a3d 2f3d b7bd
000002a0: c081 3e3d 24f9 06be ade0 a63d 710f fcbd
000002b0: bbf7 4fba 8c20 28bd 5302 edbc 3ded 80bd
000002c0: 96da 45bd 281d 6dbb ffa5 dc3c 6a9f 0dbe
000002d0: 99f5 e3bd 374d dcbd 5e79 8dbc e228 6b3c
000002e0: 0b03 b0bc d52c 68bd 639e 913d 99ef a93d
000002f0: 6afd 213d 6725 703c d966 813c 6a3e 4a3d
00000300: a949 2ebd 643e e03c 3fec 373d 260a 15bd
00000310: 3b74 24bd 247b 0e3c 24ca 5ebe c66b 393d
00000320: 15f6 6fbd 0788 c439 4fc3 643d b4cd 873c
00000330: abae bdbc 46fb 033e b7d4 e6bc af12 fd3c
00000340: 9f95 f43b fdc9 83bc 2c6f 2abd 2d47 9f3d
00000350: aa8d e7bc 1f77 e0bb 1ce9 18bb 9ada 92bc
00000360: 0264 843d 2020 553d fc8b fd3c c296 fb3c
00000370: 41a3 27bd b095 473c 5c15 4b3d e13b 283d
00000380: 443e 8bbd 4499 4bbd 6960 853d 811f 54bd
00000390: b7a6 9c3d d4ef 3a3c 06e6 9cbb fdf0 94bd
000003a0: 4e6f 613d 8001 8cbc 9a03 2cbd c761 f6bc
000003b0: af1a 4e3d dac3 433d 06f8 1d3c a522 5e3a
000003c0: 8e31 733d 77db 5cbd 5626 f13c cae6 53bd
000003d0: bf5e 913d 3c9d 8e3c eaa8 193d c9dc 5bbd
000003e0: e045 ae3d e925 133d 94d3 38bc 4023 65bd
000003f0: fa08 d3bc 4622 42b8 609b 103c 84a0 97bd
-0.028193232 -0.04181113 0.019724103 -0.05720977 0.030949501 0.06035127 -0.065815315 0.050080433
-0.062517926 0.027056562 0.008305236 0.10025741 -0.047088467 0.014359293 0.04484246 -0.067574725
0.042003296 -0.1111832 0.026533289 -0.0004071043 -0.057424158 0.1399927 0.035491 0.05713267
0.13285007 0.072602086 0.07358406 -0.034089852 -0.0013970204 -0.0773387 -0.045560315 -0.0027977694
-0.0117649045 -0.047544867 -0.0590845 -0.04472742 -0.07157531 0.034920488 -0.03307748 -0.006554664
0.043108232 0.057085507 0.1925942 0.11147742 0.055506743 0.002500903 -0.1043891 -0.06381313
0.041687068 -0.06092437 -0.2595222 0.08383198 -0.02150476 0.013028081 -0.016868291 -0.01985872
-0.050753027 -0.018936398 -0.04030231 0.118525095 -0.10408042 -0.044281706 -0.025363963 -0.16635622
0.047939576 0.035877507 0.18541415 -0.03325235 -0.04628254 0.0059316666 0.039700955 0.0026740066
-0.038622387 -0.035110522 -0.03207203 -0.04328767 -0.07081834 0.021150492 0.003226381 0.04066097
-0.00573217 -0.059175305 0.062214706 -0.0064123757 -0.08441429 -0.020036884 0.0707645 0.031196702
-0.011139507 0.055626296 0.07235372 -0.016400067 0.019466251 -0.075187735 0.031114724 0.06371379
0.008330289 -0.062030893 -0.0017614452 0.031072767 0.16636534 -0.10111292 0.03944346 0.055072945
-0.03619479 0.028525928 -0.021665972 -0.006684311 -0.011163312 0.034949113 0.016559348 0.0032059671
0.028715838 -0.08695591 0.10172111 -0.095299855 0.02098381 0.12608153 -0.02544008 -0.07076949
-0.0073289233 -0.015025397 -0.016605483 0.10442812 0.0013628188 0.0775052 0.012457169 -0.016254403
-0.07970588 0.041202944 -0.055160847 -0.01184722 -0.050164893 0.041465048 0.23919766 0.09320789
-0.072428845 -0.19496146 -0.06066842 0.014880179 0.08847858 -0.04161863 -0.04300028 0.020687347
0.022238279 -0.008045855 0.09171364 0.00744119 0.035141826 -0.03156405 0.012534961 0.03611068
-0.07007091 0.018468548 0.060101327 -0.06414673 0.0052959863 -0.027496623 -0.092247546 0.05063205
-0.11086084 0.044377867 -0.083303705 0.0016466922 -0.011513933 0.03519403 0.04552012 -0.08947217
0.046510458 -0.13180977 0.08148322 -0.12307633 -0.0007933338 -0.041046664 -0.028931772 -0.062952496
-0.048304163 -0.0036180709 0.026934622 -0.13830343 -0.111308284 -0.10756915 -0.017269786 0.014353009
-0.021485826 -0.05668338 0.07110288 0.08297653 0.039548315 0.014657355 0.015796112 0.04937593
-0.042550717 0.0273735 0.044903036 -0.03638663 -0.04014991 0.008696351 -0.21756798 0.045268796
-0.05858429 0.00037485381 0.055850323 0.01657758 -0.023154577 0.12888822 -0.028177602 0.030892698
0.0074641253 -0.016087526 -0.041609928 0.077772476 -0.028265793 -0.006850138 -0.0023332303 -0.017926503
0.064643875 0.05203259 0.030950539 0.030711535 -0.040927175 0.012181684 0.049580917 0.04107273
-0.067989856 -0.049706712 0.065125294 -0.051787857 0.07648986 0.011409719 -0.004788163 -0.07272527
0.05503779 -0.017090559 -0.041995622 -0.03007592 0.050318416 0.0477942 0.009641653 0.00084737904
0.05937343 -0.053920235 0.029437225 -0.05173377 0.070981495 0.01740896 0.037514605 -0.053677354
0.08509421 0.035924826 -0.011280913 -0.05594182 -0.025761116 -4.6285124e-05 0.008826107 -0.07403663

linearD3.weight f4 [6, 2]
00000000: e5df f0bd 0eba c43c 27e5 dbbe c464 653e
00000010: 0b22 1a3d eaac 02bd cef9 5a3e 83a3 6ebe
00000020: 7386 1ebf c217 9abe 7386 1ebf c217 9abe
-0.117614545 0.024014499 -0.42948267 0.2240172 0.037630122 -0.031903185 0.21384355 -0.23304562
-0.61923903 -0.3009625 -0.61923903 -0.3009625

linearD3.bias f4 [6]
00000000: 3416 9bbd 0124 013e ddec 3ebd 673d d7be
00000010: 8d68 50bf 8d68 50bf
-0.07572594 0.1261139 -0.04661261 -0.42039034 -0.8140953 -0.8140953
