pretrained/MLE/MLE8_128.pt (torch, 33884 bytes, 5 tensors)

linear1.weight f4 [256, 8]
000000 00 20 a7 be ba 5a 17 bd a9 63 67 be d9 ef b2 3d
       -0.32641602 -0.036951758 -0.22596611 0.087371536
000010 71 37 32 3e 09 58 6a 3e 85 bb 5a 3e f5 12 5b be
       0.17403962 0.22885145 0.21360596 -0.2139395
000020 97 fa 3c 3c cd 22 0b be 9b ef 7a be fe 72 15 3e
       0.011534355 -0.13587494 -0.24505465 0.14594647
000030 2f da 02 3e c2 6f ee 3d 4a 0c 0b 3e 5c 54 a2 3e
       0.12778543 0.1164241 0.13578907 0.31704986
000040 5f fa 54 bc 0e 19 22 3e 8a 78 a6 3e 59 bc 80 be
       -0.012999146 0.1582987 0.3251384 -0.25143698
000050 1b 3c 9b be ed 22 bc 3d 8e 23 60 3e 00 28 8a bd
       -0.30319294 0.09186349 0.21888563 -0.06745911
000060 7b bd 8a bd 32 60 25 be 37 7d 34 3e 72 cb 44 ba
       -0.06774422 -0.16149977 0.1762589 -0.00075071224
000070 ac 22 8a be d9 78 97 3e d1 d7 71 bc bc 95 d4 3d
       -0.26979578 0.29584387 -0.014760927 0.10380122
000080 d4 6f 1e be d2 3d 7a 3e 14 c2 15 be 83 47 59 be
       -0.15472347 0.24437645 -0.14624816 -0.21218686
000090 8f 86 e9 3b ab 09 32 3e e2 c5 9f 3e 37 a4 d6 bb
       0.0071266363 0.173865 0.3120566 -0.0065503377
0000a0 b8 0a 03 3e 39 a3 15 be a5 a6 b4 bd d7 74 33 be
       0.12797058 -0.14613046 -0.088208474 -0.1752504
0000b0 ff cc ac bd 78 d1 67 be 05 f4 4f be ee 4c 9d 3e
       -0.084375374 -0.226385 -0.2030793 0.30722755
0000c0 eb 20 b0 bd bc a9 9c 3e 5c cc 71 3e 32 fe 64 3e
       -0.086000286 0.30598247 0.23613113 0.22362593
0000d0 62 72 89 3d cc 22 a7 3e d6 04 49 be 66 0c 20 3d
       0.0671127 0.32643735 -0.19630751 0.039074324
0000e0 f5 03 a2 be 9c 27 15 3e f6 4f e2 bd 54 7f 1e be
       -0.31643644 0.14565891 -0.110504076 -0.1547826
0000f0 9c d5 90 be 13 c9 a5 be 33 ea a3 be 20 8d 63 be
       -0.2828797 -0.3237997 -0.32014617 -0.22221804
000100 35 5f b1 bd 07 50 15 3d 45 06 07 be 16 a8 36 be
       -0.086607374 0.036453273 -0.13185985 -0.17837557
000110 79 32 b5 be 63 b5 83 3e 34 00 8b be 86 a6 92 3e
       -0.3539007 0.25724325 -0.27148592 0.28642672
000120 80 26 8c be 18 5f aa 3e b8 0d 91 3e 9a 94 64 be
       -0.27373123 0.33275676 0.2833078 -0.22322312
000130 57 62 2c be cd e0 01 3e 1e 85 9f 3d b0 54 fa 3b
       -0.16834389 0.12683411 0.07789062 0.00763949
000140 0f ee 23 3d 1c c6 79 bd 16 d5 01 bf 19 56 4f 3e
       0.040021952 -0.060979947 -0.5071577 0.20247687
000150 b8 41 a3 be 43 84 80 be e8 6a 1a 3e 70 e3 18 be
       -0.31886077 -0.25100908 0.15079844 -0.1493051
000160 1b df 39 be fa 66 4d 3b f9 b1 b5 be 95 e5 6d 3e
       -0.18151514 0.0031341896 -0.35487345 0.2323211
000170 2e 5c 0d 3c 8c 97 b1 3d 5f f8 42 3d 73 a7 fd bd
       0.008627934 0.086714834 0.047600146 -0.12385454
000180 e6 57 ec 3d dc 68 8e bd 5b 65 13 3f 17 39 63 3e
       0.11540203 -0.06953594 0.5757653 0.22189747
000190 26 c6 98 3c 7c 10 b5 bd d8 54 b6 3e 36 0c 68 3e
       0.018649172 -0.08841035 0.35611606 0.22660908
0001a0 5c 0e 1b bd 65 eb 0f be dc 90 16 3e 6a e6 84 bd
       -0.03785549 -0.1405464 0.14703697 -0.064892605
0001b0 d1 16 96 be 59 32 bb be da 36 39 be a8 8b 67 be
       -0.29314283 -0.3656185 -0.1808733 -0.22611868
0001c0 21 cc c0 be 48 49 99 3b 80 dd a9 be d3 23 48 ba
       -0.37655738 0.0046779253 -0.33176804 -0.0007634733
0001d0 64 b8 06 3e 72 32 cd 3e f9 3e aa 3e 32 f6 bb 3e
       0.13156277 0.4007755 0.3325117 0.3671127
0001e0 f0 8b 33 bd 6d 6a 62 3e 6e d1 98 3c e1 18 25 3d
       -0.043834627 0.2211091 0.018654551 0.04030693
0001f0 a6 60 86 be 04 02 04 3e 8d e1 87 3d 7c c6 3d bd
       -0.26245612 0.12891394 0.06634817 -0.046331868
000200 1a 41 06 be 20 71 b4 3d fa 71 2f 3e 4c b8 c2 3d
       -0.13110772 0.088106394 0.17133322 0.09507808
000210 eb 53 73 be ff cc 8b be 1b bc bf 3d 97 c3 33 bd
       -0.23762481 -0.27304837 0.0936205 -0.0438877
000220 b7 52 14 3c e1 70 6d be 15 2f 3a be c3 67 a7 3d
       0.009052924 -0.23187591 -0.18182023 0.08174088
000230 c4 b9 ee bd 55 ae 86 be 96 c7 31 be a4 37 5d bc
       -0.11656526 -0.2630488 -0.17361292 -0.013502035
000240 d3 be 42 3e e9 99 2f bd 81 14 94 3c ff bf 37 3e
       0.19018106 -0.04287139 0.018076183 0.17944334
000250 ad c1 bf 3e 78 d0 88 be 20 d3 18 3e 9e 31 be 3e
       0.3745245 -0.2672155 0.14924288 0.3714723
000260 7e 37 0c 3e 87 05 24 3e 32 72 56 3e 69 80 2d 3e
       0.13693044 0.16017734 0.20942 0.16943516
000270 73 c9 6a 3e 7a 78 47 3e ae 1d a5 3e 10 10 8b 3e
       0.2292841 0.19479552 0.32249206 0.27160692
000280 ba 8e e2 3c 2c 3f 49 be 4b bf 9f bd a9 12 99 3d
       0.027655948 -0.19653004 -0.07800158 0.07474262
000290 ea 9d e7 bd 32 a6 96 3d a4 a9 3c 3e 1f a0 bc be
       -0.113094166 0.07355918 0.18424088 -0.36840913
0002a0 d5 5a f5 bd 23 a4 16 3e 27 4b 36 be 27 db 92 be
       -0.119802155 0.1471105 -0.17802106 -0.28682825
0002b0 f0 b8 c7 3d a6 cc 57 be dc 41 2c 3e 2f 33 96 3e
       0.09752071 -0.21074161 0.16821998 0.29335925
0002c0 c9 f5 6a 3c 84 ef 54 be 10 79 7a bd aa 5d 90 bd
       0.014340826 -0.20794493 -0.06115061 -0.07049115
0002d0 76 87 23 3e de f8 1f be 19 eb 7b bd 77 5e 90 be
       0.15969643 -0.15622279 -0.061503503 -0.2819707
0002e0 0a 93 27 3e ab 4c 2c 3d 2a 6f cf bc 3b bd c0 3c
       0.16364685 0.042065304 -0.025321562 0.023527732
0002f0 3d 77 64 3d 9e 52 f6 3d 8b c2 1b bd 41 80 de 3c
       0.055777777 0.12027477 -0.038027328 0.027160766
000300 ca 8f 59 be 9a a8 2c 3e 04 4d 91 3d cb b7 80 bd
       -0.21246257 0.16861191 0.07094768 -0.06285056
000310 93 80 87 be 6b c4 96 bc 63 87 02 3e 73 ed f5 bd
       -0.26465282 -0.018404206 0.12746958 -0.120081805
000320 ef ae cb bd e9 05 d5 bd 0a 7b 1e 3c 5d b4 29 3e
       -0.09945475 -0.10401518 0.0096728895 0.1657271
000330 34 23 ae be 13 a8 4a be d4 61 04 be 7f 6a 13 3e
       -0.34011233 -0.19790678 -0.12927943 0.14396094
000340 15 2d 0f 3e c4 4c b8 bd 79 74 d7 bd 9a e5 68 be
       0.13982041 -0.08999017 -0.10520262 -0.22743836
000350 7d a0 38 bd 29 4f 2c 3e 00 b0 20 be ce b3 07 3e
       -0.04507493 0.16827072 -0.15692139 0.13252184
000360 a3 14 68 be e0 bb 5e 3e c5 94 81 3e 4d 74 e8 bd
       -0.22664122 0.21751356 0.25308815 -0.113503076
000370 0d 03 8e 3e f0 c2 c2 bd 59 86 2f 3e 32 41 81 3e
       0.27736703 -0.095098376 0.17141093 0.25245053
000380 68 be 67 3c b9 3e f0 3d 7e 07 07 3c 6b b1 d6 bc
       0.0141445175 0.117307134 0.008241532 -0.026207646
000390 5e a0 48 3e 9a b3 82 be 1a c7 fc bd 1e f0 68 3e
       0.19592425 -0.2552765 -0.12342663 0.22747847
0003a0 db 22 d3 3d 12 2b 5b 3e 37 0a 0e be 7e db ee 3d
       0.103093825 0.21403149 -0.13871084 0.116629586
0003b0 7b a1 07 3e a9 5e 87 be 5b 40 35 be 28 18 06 be
       0.13245194 -0.26439407 -0.17700331 -0.13095152
0003c0 5f eb 85 bc 73 5a 8a bd 58 1b 24 3e 79 db 67 3e
       -0.016347585 -0.06755533 0.16026056 0.22642316
0003d0 77 b2 2c 3e 00 da d4 3d 16 0a f7 bd 1a d3 03 3d
       0.16864954 0.10393143 -0.120624706 0.032183744
0003e0 73 cc 4e be 9a fa 87 be 11 4f c6 bd 69 03 84 be
       -0.20195179 -0.2655838 -0.096830495 -0.25783852
0003f0 6f 23 22 3e e8 a9 9a bd 17 5e 0a 3e aa de 8a be
       0.1583383 -0.07551938 0.13512455 -0.27123004

linearK2.weight f4 [8, 256]
000000 83 60 4b 3d df e6 40 3d 9e a3 00 3d a2 d6 27 3d
       0.049652588 0.047095176 0.031406038 0.040976174
000010 b4 58 19 bc c7 28 3a 3c 22 99 a6 bb ee c6 06 bd
       -0.009359527 0.011362261 -0.005084173 -0.032904558
000020 06 a9 79 3d ba 9f fe 3c 9e 5a b2 bb b7 68 88 bc
       0.06095221 0.031082023 -0.0054429313 -0.016651494
000030 a2 dc fe 3c 03 da 18 3d a6 24 32 3c 9a cc 66 bd
       0.031111065 0.037317287 0.0108729955 -0.056347467
000040 11 03 3d bd 33 32 81 bc 80 77 91 bc 2a 0a 05 3d
       -0.046145502 -0.015771007 -0.017757177 0.032480396
000050 b0 ef 05 3d 50 33 b2 bc 69 eb 2b 3c 6e 09 81 3d
       0.032699287 -0.021752983 0.010493138 0.06300627
000060 cd 42 cc 3c b9 cc ab 3c 64 be 6c bc 70 79 78 3c
       0.024934197 0.020971643 -0.01444969 0.015165672
000070 fd 66 b9 bc eb 8e 36 bd 5e 26 b3 bc d9 be 18 3d
       -0.022632116 -0.04456989 -0.02186888 0.03729138
000080 e1 4a 05 3c d0 a4 76 bd a2 32 cf bc af c0 2a 3d
       0.008135528 -0.06021577 -0.025292698 0.041687664
000090 b3 e2 c0 bc ba af 2d bd 06 f3 7d 3d 7e 3c 86 bb
       -0.023545599 -0.042403914 0.061999343 -0.0040965667
0000a0 49 9d 09 bd 58 e1 52 bd 64 f1 68 bc 2d 35 54 3d
       -0.033597264 -0.051484436 -0.014217708 0.051808525
0000b0 40 a1 6f bc e1 9b 98 3d dc 5e 50 bd c2 49 b1 3c
       -0.014625847 0.074516065 -0.050871715 0.021641616
0000c0 bd ad 1b bd 0d 89 4c 3d 2f 45 fd 3b 3c 51 84 bd
       -0.038007487 0.04993539 0.0077291946 -0.06460807
0000d0 b6 7a 5d 3d f2 9e 1f bd 28 dd 77 bd 04 d0 86 3d
       0.054072104 -0.03896994 -0.060513645 0.065826446
0000e0 30 d0 42 bd 68 fa 9a 3c aa 96 be 3d 95 8f be bc
       -0.047561824 0.018918231 0.09306081 -0.023261825
0000f0 1c 55 a2 bd be 53 84 3d 40 09 db bb e0 64 8b bc
       -0.079263896 0.06461285 -0.0066844523 -0.017015874
000100 22 1d 54 3b ef ef ef 3c 52 54 3b 3d d4 27 54 bd
       0.0032365997 0.029289214 0.04573471 -0.051795796
000110 10 2b 0b 3d 17 1f 75 3d 18 10 ea 3b 0c 15 44 3c
       0.033976614 0.059844103 0.007143032 0.011967909
000120 ca 41 6c bc cc 84 34 bc d3 b6 fc 3c 4a d1 f9 bb
       -0.014419982 -0.011017989 0.030848896 -0.007623826
000130 04 04 28 3d fb e6 8e 3d 4b 71 9d bd fc 48 66 3b
       0.041019455 0.0697765 -0.076876245 0.0035138717
000140 83 7e 66 3d d6 ee 34 3d cc bb a6 bb d2 7e 91 bd
       0.056272995 0.044173084 -0.005088305 -0.07104267
000150 dc c1 9c 3c 3c bb 7f bc 88 3a 2f 3c 22 c0 1f 3d
       0.019135408 -0.015608605 0.010695107 0.03900159
000160 c5 f6 39 bd 0d b6 67 3a 6c 97 a4 3c 1a 26 f1 bc
       -0.045401353 0.00088390784 0.020091735 -0.029437114
000170 f3 1f 0a 3d fd 1a 22 3d 0e ba 49 3b 0d 1d ec 3c
       0.033721875 0.03957652 0.0030781063 0.028822446
000180 70 20 8a bd 05 75 b0 bc 9d a2 14 bb 61 f8 cb bd
       -0.06744468 -0.021540174 -0.0022679933 -0.09959484
000190 30 73 63 3c 3f 52 2b 3d 75 35 17 bc bd 76 a1 bc
       0.013882443 0.041826483 -0.009229054 -0.01970994
0001a0 e6 a7 10 bd 67 51 70 3d 3d 61 19 3d f1 82 44 3d
       -0.03531637 0.05867138 0.03744625 0.047976438
0001b0 10 9a df bc 23 06 2b bd 1d fa 27 3c cd 67 0c 3d
       -0.027295142 -0.0417539 0.010252503 0.03427868
0001c0 ba 0f 98 3c ec 43 a0 3c 63 fa 83 bd 98 df 90 bc
       0.018562187 0.019563638 -0.06444242 -0.017684743
0001d0 a1 68 02 3d 83 01 b4 3c a0 c9 25 bd 5a 84 56 bc
       0.031838063 0.021973377 -0.040475488 -0.0130930785
0001e0 7d 1b a4 bb 3c 56 0c 3d bb 10 81 3d a6 2b 6b 3d
       -0.0050081597 0.034261927 0.06302019 0.057414673
0001f0 9a 46 e6 3c 88 75 aa ba 10 12 a0 3a 9d 2c b9 3c
       0.028109837 -0.0013004998 0.0012212414 0.022604281
000200 0b e4 0a be eb ac cd bc e7 e6 45 bd 1c c6 fb bc
       -0.13563554 -0.025106868 -0.04831591 -0.030734114
000210 dd 0d 82 3d e6 56 f6 bc a1 08 4e 3d 1c e8 80 bc
       0.063503005 -0.030070733 0.050301198 -0.015735678
000220 50 0b 58 bd be 26 55 3c f2 d0 39 bd c3 80 1e 3d
       -0.052745163 0.013009725 -0.04536528 0.038697015
000230 25 91 3f bc 48 39 ef 3c b8 27 5d 3d 44 18 14 3d
       -0.01169232 0.029202119 0.053992957 0.036155954
000240 8c 1e 89 3c d4 20 d4 bc 4b 7a a7 bc 98 84 20 3d
       0.016738199 -0.02589456 -0.020444056 0.03918895
000250 d6 bf 84 bd 64 d7 11 bd a7 da 75 bb 2b de 3f 3d
       -0.06481902 -0.035605803 -0.003751436 0.046842735
000260 93 23 bb 3c c9 02 40 bc 02 c2 56 3d cb 09 a5 bc
       0.022844112 -0.011719414 0.052431114 -0.020146271
000270 73 b7 b0 bb 0a ed 06 bd 19 f9 75 bd 16 31 33 3d
       -0.0053929626 -0.0329409 -0.06005201 0.043747984
000280 74 5b 15 3b 14 86 84 bc c0 3a 8b bd 33 64 69 3c
       0.0022790106 -0.016177215 -0.06798315 0.014245081
000290 23 8e be bc 86 ae 9f 3a 4b 7c 61 3d f0 03 10 3d
       -0.023261135 0.0012182749 0.055050176 0.035160005
0002a0 8b 6f fb bc 1b 1f 20 bd d7 ea 4c 3d a5 2a 15 3d
       -0.030692836 -0.039092164 0.05002865 0.036417622
0002b0 87 54 51 bd 82 0c cc 3c 2b b0 85 bc 8f d0 48 3c
       -0.051106002 0.024908308 -0.016319355 0.0122567555
0002c0 0d cf 74 bb 10 26 95 bb 59 bf e0 3c 26 c1 21 3d
       -0.0037354857 -0.0045516565 0.027434992 0.03949084
0002d0 4b f2 0e 3d 0d a1 17 3d cf 5d 43 bd 54 c0 8f 3d
       0.034899037 0.037018824 -0.047696885 0.070191056
0002e0 bf 08 6e 3d fa 79 68 bd 60 ec 32 3d 10 5e e1 3c
       0.05811381 -0.05675695 0.043682456 0.027510673
0002f0 77 09 19 bd fc 51 27 bc 8d 94 2a bd fe 6a 35 3d
       -0.037362542 -0.010212418 -0.041645575 0.04429149
000300 8d 46 1e bd 3a d8 0e 3d f6 ea f5 3c e0 51 46 bc
       -0.0386415 0.03487418 0.030019265 -0.012104481
000310 1f 45 3c 3c 27 01 3e 3d a8 83 1d 3b e6 e2 88 3d
       0.011491089 0.046387818 0.0024034772 0.066839024
000320 6c 83 3d 3d dc 19 80 3c 63 43 83 bc 4a 5e a2 3b
       0.04626791 0.01563733 -0.016023343 0.004955088
000330 f4 99 ac bc 18 b3 f7 3c d9 ee 3f 3b 12 f0 a6 3d
       -0.021069504 0.030236766 0.0029286651 0.081512585
000340 12 9e 99 bc 11 9a 34 3c 65 5e a7 bc 97 67 c0 bd
       -0.018752132 0.01102306 -0.020430753 -0.09394758
000350 1d 62 66 3d 59 3c c0 bc e6 92 69 bd 0e 15 f0 3c
       0.056245912 -0.023466276 -0.05702486 0.029306915
000360 33 63 33 3d 47 a3 6d 3d db ab 45 3c fe 80 4d bd
       0.043795776 0.05801704 0.012064899 -0.050171845
000370 2b f1 d6 bc 94 a1 50 3c 43 bd 0e bb 71 02 ba bc
       -0.026238045 0.012733836 -0.002178029 -0.022706242
000380 68 69 a8 bc 0d 0e 82 bd 9b b0 7a 3d 54 2b 04 bd
       -0.020558074 -0.06350336 0.06120358 -0.032267883
000390 63 9c 05 bd 1f 02 25 3d aa bc 12 3c c6 62 99 bd
       -0.032619845 0.040285226 0.008956114 -0.07489543
0003a0 3e 5a 47 3d 03 80 81 bd fc 2d 87 3d d7 cb 38 3d
       0.048670046 -0.063232444 0.06600568 0.04511627
0003b0 1a a6 0a bd df cd 55 bb fd 9b e9 bc f7 07 13 bc
       -0.033849813 -0.003262393 -0.028516764 -0.008974067
0003c0 ac e6 0e bc 7c 08 26 3d 69 a1 52 bd 97 67 28 3d
       -0.008721989 0.040535435 -0.051423464 0.041114416
0003d0 81 32 52 bc 75 28 8b 3d ba 93 16 3d 88 cb 99 3d
       -0.012829424 0.06794826 0.036761977 0.07509524
0003e0 ed 44 32 bd 9d eb 08 3c 7e 51 86 bd de ea 53 bd
       -0.043522764 0.008356956 -0.06558512 -0.05173766
0003f0 79 a0 91 3d d6 e4 a6 bd c4 46 fc 3a b8 3c 54 3d
       0.07110686 -0.08149116 0.0019247164 0.05181572

linearD2.weight f4 [256, 8]
000000 a4 65 ec bd 7d 6e 90 3d 71 31 25 3e a8 e6 66 be
       -0.11542824 0.07052324 0.16132142 -0.22548926
000010 93 81 9c bd 36 5d 9c be 07 16 62 3c ee 10 1c 3e
       -0.07641902 -0.30539864 0.013799197 0.15240833
000020 0b a0 7a be cc 50 12 3d 59 50 e5 3d 89 41 b1 be
       -0.24475114 0.035721585 0.11196966 -0.34620312
000030 18 a5 96 bd f7 6d 0e be a7 49 d9 3d 4d 91 53 3e
       -0.07355708 -0.13909136 0.10609751 0.20660897
000040 3d fa 4d 3e d4 a3 65 be f5 fb 91 3e f5 89 a2 3e
       0.2011499 -0.22425777 0.2851254 0.31745878
000050 05 46 40 ba e9 b5 92 3d 45 b0 9a 3d c0 40 82 3e
       -0.00073346525 0.07163603 0.07553152 0.25440025
000060 1a 9d 87 3e 28 53 8c be 25 86 84 be 05 bc 42 3e
       0.26487046 -0.27407193 -0.25883594 0.19017036
000070 eb e1 b1 bc f0 d9 05 be 7b c0 05 be b9 a3 00 3e
       -0.021714171 -0.13071418 -0.13061707 0.12562455
000080 ed 21 4e 3e f1 42 b2 3e 34 d9 6f 3d e2 18 93 be
       0.20130129 0.34816697 0.05855675 -0.28729922
000090 d1 9b 88 bd 96 b2 db 3c f6 97 25 3e f1 3f b0 3e
       -0.066703446 0.026818555 0.1617125 0.34423783
0000a0 19 69 ea bd 07 d1 55 3d 93 25 80 bd 95 d6 ac be
       -0.11445827 0.052201297 -0.06257167 -0.33757463
0000b0 94 53 9c 3e 29 1c bc bc a7 31 c7 3d 91 8f 81 be
       0.30532515 -0.022962647 0.09726267 -0.25304845
0000c0 b5 33 de bb 7a 77 b8 3c 4e 87 fc 3d 07 72 8f bd
       -0.0067810663 0.022517908 0.12330495 -0.07004171
0000d0 07 34 76 3e bb 2c 39 bc 54 4e 6d 3e 53 d9 b5 3c
       0.24043284 -0.0113021685 0.23174411 0.022198355
0000e0 f6 14 45 3e 50 b9 b8 3e 87 96 4a be ec 04 16 3e
       0.19246277 0.36078882 -0.19783984 0.14650315
0000f0 90 1b 79 3e 15 2f 83 be 33 a3 9c 3c 18 9c 05 be
       0.2432692 -0.25621858 0.019120788 -0.13047826
000100 62 e6 9c be c5 47 90 3e 4b fc 66 3e 93 3e 80 3e
       -0.30644518 0.28179756 0.2255718 0.2504774
000110 e9 b2 9d 3e 79 35 97 3e d3 4e 90 be 55 09 63 be
       0.3080056 0.29532984 -0.28185138 -0.22171529
000120 44 7d 43 3e 23 3c 9e 3d ef cd a3 3e f1 aa 98 3d
       0.19090754 0.07726314 0.31993052 0.074544795
000130 d3 a7 f5 3c aa 44 22 be 7b 39 23 3e 64 89 3a 3e
       0.029987251 -0.15846506 0.15939896 0.18216473
000140 c4 4c 9d be 5b 38 ad be db e6 73 be c2 3e 99 3e
       -0.3072263 -0.33832058 -0.23818533 0.29930693
000150 ef 9b 0c bc 6e 3c 55 3e 47 b9 b6 3e d3 28 5a 3c
       -0.008582099 0.20823833 0.3568823 0.013315397
000160 2b d4 94 be 70 f4 ae 3e 01 3d 46 3e 14 31 b8 be
       -0.2906812 0.34170866 0.19359209 -0.35974944
000170 c9 52 30 be f3 a5 95 3e 5a 6e 6b 3e 16 19 ec 3d
       -0.1721908 0.29228172 0.22991315 0.11528222
000180 05 1c 43 bd 11 27 73 3d 5e 96 58 3c be 6b 42 bc
       -0.047634143 0.05936343 0.013219444 -0.011866508
000190 28 b7 18 3d b5 cd 4d be 32 99 67 3e ef 64 36 3d
       0.037284046 -0.20098002 0.22617033 0.04452985
0001a0 ba 58 95 3e 13 76 15 be 10 b2 bb 3e 49 c6 66 3c
       0.29169255 -0.14595823 0.36659288 0.014085361
0001b0 55 d4 9d 3e 9d 36 8f be 75 74 6a be dd 7c 89 3d
       0.3082606 -0.27971354 -0.22895987 0.06713269
0001c0 52 c1 89 be f7 e5 87 3e ae f0 9b 3e 92 ac 73 be
       -0.26905304 0.26542637 0.30457062 -0.23796299
0001d0 60 d2 22 be ab 43 7f 3d 91 ef 7d be 38 b2 96 be
       -0.15900564 0.062320393 -0.24798419 -0.29432845
0001e0 1e b5 3b 3e ad 70 81 be 6f c8 1e 3e e5 b2 3e 3e
       0.1833081 -0.25281277 0.15506147 0.1862293
0001f0 c3 82 82 3e 5b df 22 3d 55 ca a4 be a6 a9 28 be
       0.25490388 0.03976379 -0.32185617 -0.16470966
000200 be 55 64 3d cb ae 9a be 63 35 01 be f0 c7 cf 3d
       0.055745833 -0.3021148 -0.12618022 0.10145557
000210 fd f2 ff bd de 3b c6 be d0 11 94 3d 91 85 4d 3d
       -0.12497518 -0.3871755 0.0722996 0.050176207
000220 2f 7b e5 bd fd 49 09 3e 4b 4f a8 3d d8 f0 3c 3e
       -0.11205136 0.1340713 0.08218249 0.1845125
000230 e7 5b 1e bd 89 7b 31 3e 13 c0 93 bd 28 da 34 3e
       -0.038661864 0.17332281 -0.072143696 0.17661345
000240 a6 78 2c 3e 25 c1 bc bd d9 bf b1 bd 72 d8 36 3e
       0.16842899 -0.09216527 -0.0867917 0.17856005
000250 03 eb a4 3d ce 2b 80 3e 4a 5a 5a 3d 2d 81 94 be
       0.080526374 0.2503342 0.053308763 -0.29004803
000260 00 18 16 bc 54 c4 e5 bd 0b 0b a5 3e 63 8c 0f be
       -0.0091609955 -0.11219087 0.32234988 -0.14018397
000270 36 e7 97 3e 46 4b 88 3d 85 0f eb 3d 34 87 bb bd
       0.29668587 0.06654982 0.114775695 -0.09156647
000280 67 a1 84 be 10 9c c9 bd 0b a2 50 be 64 54 98 3e
       -0.2590439 -0.0984422 -0.20374314 0.29751885
000290 ae df da 39 e6 3f 7d 3d 53 7f 05 3e f8 a5 d7 3d
       0.00041746855 0.061828516 0.13036852 0.10529703
0002a0 76 0a 01 3f 2f 13 c4 be cf 62 aa be 0b e5 44 be
       0.5040659 -0.38295886 -0.3327851 -0.19227998
0002b0 52 db bb be cc 76 8a be 92 4f 55 3e 04 06 f1 3d
       -0.36690766 -0.2704376 0.20831135 0.117687255
0002c0 a6 c9 44 be c1 59 2f be 7b eb 8f 3d fb ae 96 bd
       -0.19217548 -0.17124082 0.07027336 -0.073575936
0002d0 45 60 10 3e c2 81 fd 3d 7b 97 a6 be da cd 88 3e
       0.14099224 0.12378265 -0.32537445 0.26719552
0002e0 11 aa 3c be 9d 14 de bd 52 29 92 3d f5 e9 55 be
       -0.1842425 -0.108437754 0.071367875 -0.20890029
0002f0 d3 e5 bd be c7 40 57 3e ef a0 24 be 35 71 7c bd
       -0.37089404 0.21020804 -0.16077016 -0.0616314
000300 ea e5 85 3d d5 7e 57 bd bd f8 88 3e 39 08 36 be
       0.06537993 -0.05261119 0.26752272 -0.17776574
000310 d5 0d bc be 29 8f b3 bd 8a a6 8a 3d 13 5b 9e 3e
       -0.36729303 -0.0876754 0.06770046 0.3092886
000320 94 83 9d be ef a7 60 3e 91 0b 34 be a3 18 22 3e
       -0.3076445 0.21939062 -0.17582537 0.1582971
000330 73 2a d8 bd 33 a8 03 3d a7 91 f2 bd 60 3f 46 3e
       -0.105549715 0.03214283 -0.11844187 0.19360113
000340 6d 55 96 be fa 9b a8 3d 35 7b 4c be 36 d8 93 be
       -0.2936205 0.08232875 -0.19968875 -0.28875893
000350 cd b0 46 bd c6 9d 14 be a3 fa 16 be 32 41 22 be
       -0.048508454 -0.14513311 -0.14744048 -0.15845183
000360 66 e3 20 3e 8b 6e 3f 3e 9e 04 83 3e 5f f3 bd 3d
       0.15711746 0.18694513 0.2558946 0.09274935
000370 fa be 44 bd c2 ff 93 3d 3c e4 89 3e 22 42 86 3e
       -0.048033692 0.07226516 0.26931942 0.2622233
000380 85 53 9c bd 42 39 52 bd 38 57 40 3d 62 95 ba be
       -0.076331176 -0.051324137 0.04695818 -0.36442095
000390 15 e7 88 3e 7b 27 ce bc bf 1a 93 3e dc 68 58 be
       0.26738802 -0.02516531 0.28731343 -0.2113375
0003a0 06 81 b5 3e 15 ae 31 be 4c e5 97 be d3 85 8b be
       0.3545 -0.17351563 -0.29667127 -0.27250537
0003b0 7f 1d 4a bd 84 61 db be 94 f0 e8 bc 03 d1 86 3e
       -0.049344536 -0.42847836 -0.02843503 0.26331338
0003c0 db 97 1f 3e e5 22 66 be 08 06 a0 be ad cc 1d 3c
       0.15585272 -0.22474249 -0.312546 0.009631318
0003d0 4d a6 31 be d7 87 90 3c 9d b3 ae 3e f3 8e 44 be
       -0.17348595 0.017642898 0.3412141 -0.19195156
0003e0 3e a7 6f 3e 8d b9 68 3e 98 58 81 bd 90 64 1f 3e
       0.23403642 0.22727032 -0.06315726 0.15565705
0003f0 6b 31 f5 bc 28 4c fa bd a1 be 93 3e 37 a1 62 be
       -0.02993079 -0.12221557 0.28856376 -0.22131811

linearD2.bias f4 [256]
000000 c3 56 92 bd b6 e4 20 3e 5f 49 b5 bd 68 be b3 3d
       -0.07145455 0.15712246 -0.08851885 0.087765515
000010 28 ac de bd eb fc 83 3e 09 d3 86 be d4 47 08 be
       -0.1087268 0.257789 -0.26332882 -0.1330865
000020 9b 80 94 be 6a 8b b2 3d 03 15 c9 bd c9 40 9b be
       -0.29004368 0.08717997 -0.09818461 -0.30322865
000030 85 86 11 3e 8d 6f a8 3d 5b ab 68 3e f0 9c 5d 3e
       0.14211471 0.082244016 0.22721617 0.21641898
000040 64 da 40 3e 5b 0e a0 be b9 a2 5a 3c b2 db 74 be
       0.1883331 -0.31260952 0.01334446 -0.23911932
000050 73 03 84 3e bf 9c 0b 3e 88 3a d7 3e 42 8f 7b be
       0.25783882 0.13634013 0.42036843 -0.24566367
000060 07 7c 6e bd 50 96 d0 bc 9e ee 92 3d 34 ad 93 3e
       -0.05822375 -0.0254623 0.07174419 0.2884308
000070 06 36 47 be d9 06 0f be a5 e9 e8 3d 8e 39 a8 be
       -0.19454202 -0.13967456 0.11372689 -0.3285641
000080 bb 6c 14 be 73 d2 18 3e c2 72 a8 bd d0 54 9a 3d
       -0.14494602 0.1492403 -0.08225013 0.07535708
000090 e9 c5 d9 3d c8 ee 07 be bc ca d3 be 52 c3 cb 3e
       0.106334515 -0.13274682 -0.41365612 0.39797455
0000a0 fa 04 73 3e 28 1a 0a be fa 94 4d ba d2 33 94 3e
       0.23732367 -0.1348654 -0.00078423286 0.28945786
0000b0 92 95 98 bd 05 6f bf 3d 45 a3 78 be aa 10 4a 3e
       -0.07450403 0.09347347 -0.24281032 0.1973292
0000c0 39 ca 5d bc 70 da 0d be 57 36 29 3e af ce ff bd
       -0.013536983 -0.13852859 0.16524635 -0.12490594
0000d0 a0 9d 3b be 2c c1 d0 bd ae b5 53 3e 17 b9 9e be
       -0.18321848 -0.101930946 0.20674774 -0.31000587
0000e0 7e da 85 bc 3d c9 ca 3d 03 9a b0 bd b0 2a 29 3e
       -0.016339537 0.099016644 -0.086231254 0.1652019
0000f0 0b 0e ba 3e 5a a1 55 bd 69 8d 45 3e 4c 9c 76 be
       0.3633884 -0.05215583 0.19292225 -0.2408306
000100 92 83 19 be 48 57 61 be 0a 16 61 be 0b 3a b2 3d
       -0.14991596 -0.22005951 -0.21981063 0.08702477
000110 b6 38 9f be 65 f1 52 3e ab f0 75 bd 5b 72 78 bd
       -0.31097955 0.20599897 -0.060043972 -0.060655933
000120 ca 4c 7b 3d 5d 73 10 be d4 87 50 be 89 f3 2b 3d
       0.06135253 -0.14106508 -0.20364314 0.0419803
000130 5d 81 97 be 6e 05 8d 3e 8d 9f e8 3c c9 91 64 3d
       -0.29590884 0.27543205 0.028396392 0.055803094
000140 be 33 20 bd 10 5b a4 be a2 84 d0 bd 80 25 44 bd
       -0.039111845 -0.32100725 -0.10181548 -0.047887325
000150 41 ab f3 bd 9b c0 44 be 2e d3 68 3e 0a 5f b7 3d
       -0.118978985 -0.19214098 0.22736809 0.08953674
000160 1a dc d2 3d 42 1d 1e be 3b 99 4b be eb f3 ed 3d
       0.10295887 -0.15440848 -0.19882672 0.11618789
000170 4d 7d 46 3e a2 18 84 bc 24 18 01 be 78 e1 f2 bd
       0.19383736 -0.016125027 -0.12606865 -0.11859411
000180 8e b5 85 be e2 73 5c 3e 38 dc a6 3e 9d 8d 73 be
       -0.26115078 0.21528581 0.3258989 -0.2378449
000190 18 53 a4 3e 13 0d 57 3e 8d 2f ac 3e fc af c1 b9
       0.32094646 0.21001081 0.33630028 -0.00036942947
0001a0 93 6f 0c be e0 72 83 be 81 79 52 3e 9a 53 9e bc
       -0.13714437 -0.2567358 0.20554163 -0.019326974
0001b0 ef f7 08 3e 37 27 b1 3e 8b ec 39 be 23 15 6a be
       0.13375829 0.3460023 -0.1815664 -0.22859626
0001c0 5a 98 28 be 35 b1 0b be 8a 82 03 be 3b 8f 9d 3e
       -0.16464368 -0.13641818 -0.12842765 0.3077334
0001d0 8c 02 68 3e 0a 49 45 be 70 e4 e4 3d db 4f 1c 3c
       0.22657222 -0.19266143 0.111763835 0.009540523
0001e0 1e 21 a9 3e 78 e6 4d be 3f aa ac 3e 49 50 04 be
       0.3303308 -0.20107448 0.33723637 -0.12921251
0001f0 c7 68 d8 bd e4 e0 a2 3e c2 e9 8c be 04 dc 5b 3c
       -0.1056686 0.31812203 -0.27522093 0.013419155
000200 29 14 04 be d7 f0 59 bd 64 22 0f be 1e 87 9f 3d
       -0.12898315 -0.0532082 -0.13977963 0.077894434
000210 d6 3a bf 3c bf 9e 96 3c 67 a7 a2 be d0 31 81 be
       0.023343485 0.018386243 -0.31768343 -0.25233316
000220 9d c9 02 3d c3 12 23 3d d5 dd 70 bd e8 56 8d be
       0.031930555 0.039812814 -0.058805306 -0.27605367
000230 c9 e5 66 3d c1 52 a8 3e 34 fb 3e bd 64 11 b3 be
       0.056371484 0.32875636 -0.046626285 -0.34974205
000240 8d 25 59 3e f9 5e 65 3e 68 75 9a 3e 3b cd 6d 3e
       0.2120573 0.2239951 0.301677 0.2322282
000250 a4 c7 75 bd 91 ad 53 3d e6 44 5b be 36 80 8f 3e
       -0.060004845 0.051679198 -0.21413001 0.28027505
000260 51 58 bb bc bd 2e a3 3e 10 12 11 3e 31 09 ad be
       -0.022869261 0.31871596 0.14167047 -0.33796075
000270 f2 a3 a9 be 3c b0 86 3e c8 f4 2c 3e ea 77 c0 3e
       -0.33132893 0.2630633 0.16890252 0.37591487
000280 36 22 8f bd ac 50 58 be 56 c9 4d be cc aa 25 3e
       -0.06988947 -0.21124524 -0.20096335 0.16178435
000290 a1 69 8c 3e 42 7f 54 39 71 aa 85 be 09 bd a4 3e
       0.27424338 0.00020265303 -0.261066 0.32175472
0002a0 d5 f0 11 be 11 f2 5c 3e f5 d1 6d 3e 37 97 8e 3d
       -0.14252026 0.21576716 0.23224624 0.06962436
0002b0 05 08 9c 3e bc 66 ad be 7b c3 95 3e 21 7d 8f be
       0.30474868 -0.33867443 0.29250702 -0.28025153
0002c0 38 f8 8e be 81 69 9d bd 5d 7b 96 3d 3a c9 59 3e
       -0.2792375 -0.07686139 0.073477484 0.21268168
0002d0 a3 91 5e be 42 9d 2b 3d 8d 01 f6 bb 91 af 88 3e
       -0.21735243 0.04189802 -0.007507509 0.26696447
0002e0 62 52 48 3c 51 76 79 3e 38 2d bd 3e 31 96 0b be
       0.012226673 0.2436154 0.36948562 -0.13631512
0002f0 84 11 3c bb 47 9a 0a 3e ac 8a 3d be 0c 8b 1c 3e
       -0.0028696964 0.13535415 -0.1850993 0.15287417
000300 0d d4 ac be 77 38 0e be 23 ed 96 be a1 9f 09 3e
       -0.33755532 -0.13888727 -0.29477796 0.134398
000310 89 ff b1 be 4f a1 81 be d0 19 a2 bc b4 bf 92 3e
       -0.3476527 -0.2531838 -0.019787699 0.28661883
000320 7e 64 d7 3e c8 6a b9 3e 71 1d 5b be 5d 59 0f 3e
       0.42068857 0.3621428 -0.2139795 0.13998933
000330 d5 35 39 bd 4b e1 bd bd 57 ea b4 3d 58 fd a4 3e
       -0.045217354 -0.09271487 0.08833759 0.32224536
000340 33 51 a3 be 95 07 21 3e 44 a1 99 3e 61 18 88 3e
       -0.31897888 0.15725549 0.30005848 0.265811
000350 fe 64 3d 3e c9 71 b3 be 4e 46 e4 3d 95 d0 99 bd
       0.18495557 -0.3504775 0.11146222 -0.07510487
000360 aa 83 03 3e cf 2f d8 3d 8a cd 56 3d fc f0 01 3e
       0.12843195 0.10555994 0.05244211 0.12689584
000370 76 38 b5 bd b1 39 ba be 7b 70 14 be f9 72 89 be
       -0.0884866 -0.3637214 -0.14496033 -0.2684553
000380 6f b1 69 be a5 b7 1b be d9 ac 2b 3e 3e 5d 1a be
       -0.22821592 -0.15206774 0.16765155 -0.15074632
000390 5f d5 7e be 84 1e c2 3e 79 e1 02 be b2 68 6e 3e
       -0.24886082 0.37913907 -0.12781323 0.23282126
0003a0 fd 8f 99 3d aa e2 a4 be 57 15 9e be 7d fb 25 bd
       0.07498167 -0.3220418 -0.30875656 -0.04052304
0003b0 91 f8 b4 3e 51 e0 84 be 58 d2 a3 3e 60 24 39 be
       0.3534589 -0.2595239 0.31996417 -0.18080282
0003c0 dd be db 3e a2 f9 3b be e2 58 af 3e 04 a9 3d be
       0.42919055 -0.18356946 0.342475 -0.18521506
0003d0 1e de 80 be cd 9b 38 be c4 aa 98 3e f6 46 b2 be
       -0.25169462 -0.18028183 0.29817784 -0.34819764
0003e0 03 1d 3c 3d 16 d2 72 3e bd 23 9f be 33 2c 59 be
       0.045926105 0.23712954 -0.31081954 -0.21208267
0003f0 46 47 e2 bc 3e d4 7e 3d a9 55 ab bd f4 4a c7 3d
       -0.027621876 0.06221413 -0.08365948 0.09731093

linear3.weight f4 [6, 256]
000000 c0 68 48 3d d4 78 f7 3c 50 47 ad 3d 52 81 86 3c
       0.048928022 0.030208983 0.084608674 0.016419087
000010 9c fc 97 3d 07 85 58 bd 8c d1 35 3d 94 ad 34 bd
       0.07421228 -0.05286124 0.044389293 -0.04411085
000020 d7 0d 5e bd 00 03 29 3d 61 07 3f bc b7 a5 22 bc
       -0.054212417 0.041262627 -0.011659474 -0.009927205
000030 5c 16 92 3d 81 3e 8f 3c 4a 64 67 bd 9f a7 07 3d
       0.07133171 0.017485859 -0.056492127 0.03311884
000040 1a 9b 4f 3d df 39 1c 3d 71 0e be bd 56 69 db bc
       0.050685026 0.038141128 -0.09280098 -0.026783627
000050 16 05 18 3d ca 47 3d bd 8a 75 8d 3c ce bf d1 bd
       0.037114225 -0.04621104 0.017267961 -0.10241662
000060 42 18 3b 3d bb 85 9a 3d 6f 3a 5d bd 8e 0f c2 3d
       0.04567743 0.07545038 -0.054010805 0.09475623
000070 d0 b0 ad bc 92 95 17 3c f5 b4 61 bd 77 26 e7 bc
       -0.021202475 0.009251969 -0.055104215 -0.028216584
000080 dc 0c a8 ba 1c fc 85 bd 83 c9 22 3d 0a 2e 59 bd
       -0.0012821215 -0.06542227 0.039742958 -0.053022422
000090 48 ab 6b 3c 8e 07 e7 bb ed b5 02 3d 26 1f 1b bd
       0.014384098 -0.007050461 0.03191178 -0.037871502
0000a0 44 cb 13 3d d2 68 b0 3d 8e c2 9c bd 8b f1 aa bd
       0.03608252 0.08613743 -0.07654296 -0.08346852
0000b0 18 68 c5 3d 8c 3d 4a bc b9 ab c5 bb b0 47 bd 3d
       0.09638995 -0.0123437755 -0.006032434 0.09242189
0000c0 92 e3 3d 3d 1d 4d af 3d 3f fe 05 3d 9b 65 09 3d
       0.046359606 0.0855963 0.03271317 0.033544164
0000d0 72 2b ce bd a4 64 33 bc 24 67 08 3d 67 d8 f8 3c
       -0.1006688 -0.010949288 0.033301488 0.030376626
0000e0 6b e3 ca 3c 16 14 60 3c 8b 68 89 bd 8a d2 07 3d
       0.024766644 0.013676664 -0.06709393 0.03315977
0000f0 fc 8f 70 bc a4 93 05 3d a5 60 a2 bc 9b 89 ad 3d
       -0.014682766 0.032611504 -0.019821474 0.08473512
000100 3f 2d 3f 3d ce 20 59 3d 6a c9 03 bd d9 c7 5b bd
       0.04667401 0.0530098 -0.032174505 -0.053657386
000110 5a 93 85 3c ca b2 0f bd 92 e8 8d 3d ca 85 46 3d
       0.016305614 -0.035082616 0.06929125 0.048467435
000120 c4 8f 5e 3d c3 a5 d2 3b e5 25 63 bc d9 f4 fd 3a
       0.054336324 0.0064284517 -0.013864015 0.0019375338
000130 30 35 d4 3c cd ab ad bb 95 ae ce 3d c6 d7 80 3c
       0.025904268 -0.0053000213 0.10091893 0.015727889
000140 73 2b 53 bd 62 1f 2b 3d f9 6e a7 bd 19 c5 40 3c
       -0.05155511 0.041777976 -0.08175463 0.011765742
000150 c7 c1 04 bd 49 e5 47 3a 38 d0 d1 bc cb 0f a2 3d
       -0.032411363 0.0007625414 -0.025611982 0.079131685
000160 15 1a 79 3d 0d b6 55 3d de 9a bf 3c 05 bb 00 3b
       0.06081589 0.05217557 0.023389276 0.0019642722
000170 90 52 3f bd 39 ff 25 3c f9 9b 37 bd e2 56 81 3c
       -0.046709597 0.010131651 -0.04482648 0.0157885
000180 56 59 b3 bd a2 f3 c4 bc 18 25 44 bc dc 77 b6 bc
       -0.08757274 -0.024041954 -0.011971734 -0.02227395
000190 ed 8e 6f 3c 3b 26 c9 bc ed 71 68 bd 10 49 14 3c
       0.0146214785 -0.024554363 -0.056749273 0.009050623
0001a0 4c 9f 0f bd da 77 89 3d f0 46 25 3c ab 65 d5 bc
       -0.035064027 0.06712313 0.010087714 -0.026049456
0001b0 6b 21 c6 bd 2a b4 4b 3b 5f 04 b5 bc c9 64 47 3d
       -0.09674343 0.0031082728 -0.02209681 0.0486801
0001c0 3f 1a b4 bc f9 71 9a bd 60 7f b0 3c 5e f2 60 bd
       -0.021985171 -0.0754127 0.021545112 -0.05491864
0001d0 26 93 72 3c b0 ae e0 bc 54 d6 24 bd ca 5b bd 3d
       0.014805591 -0.027427047 -0.04024346 0.09246023
0001e0 40 19 d1 bb 5e 59 9a bb 76 5a 89 3c 6c 41 7c 3c
       -0.006381184 -0.0047103604 0.016766768 0.015396457
0001f0 19 18 93 3a a7 27 f7 bd 87 d2 00 3e d6 35 b2 bc
       0.0011222392 -0.1206811 0.1258031 -0.021754187
000200 96 08 b5 bc 33 12 89 bd a3 06 1b bb ef f4 4f 3d
       -0.02209882 -0.06692924 -0.002365508 0.050770696
000210 a7 04 b5 bd bf 1a a6 3d 99 12 9c bd 89 fc 2b bd
       -0.08838778 0.0811057 -0.07620735 -0.041988883
000220 64 60 cb bd 8a 75 3e 3d cb 51 40 bc 89 75 3c 3d
       -0.099304944 0.046498813 -0.011738251 0.046010528
000230 51 97 cc 3d a0 33 93 3d 71 e2 9d 3b f8 ca 11 bd
       0.09989799 0.07187581 0.0048182537 -0.035593957
000240 d6 67 41 3b 04 67 d8 ba 37 fb ae bd 21 69 a5 3c
       0.0029511354 -0.0016510193 -0.08544009 0.020191731
000250 b9 85 b0 3d 6e 5a ec bd 17 03 0d be 4f cf 27 bd
       0.086192556 -0.115406856 -0.1377071 -0.04096919
000260 bd ff 5e 3b e6 5d 5e bd d9 4c af 3c 4e c3 0c bd
       0.0034026944 -0.054288767 0.021398949 -0.034365945
000270 c1 a6 c9 3c bf f2 47 3c 11 7f 97 3d aa 4c 55 bd
       0.024615647 0.012203871 0.07397283 -0.052075066
000280 f4 11 5d 3d 00 a0 97 3b bb 87 82 3c 7c 41 4d 3d
       0.0539722 0.004627228 0.015933862 0.05011128
000290 03 6a b5 3b 41 c9 0c 3d 32 bf 9b bd 39 df 13 bd
       0.005536319 0.03437162 -0.07604827 -0.036101554
0002a0 37 cd 50 3d 28 c8 c2 bc 3e 7f 25 bd 93 85 33 3d
       0.050976958 -0.023777083 -0.04040455 0.04382856
0002b0 2e fd 07 bd b1 28 73 bc 30 eb c2 3d 22 b3 13 3b
       -0.033200435 -0.014841245 0.09517515 0.0022537191
0002c0 b5 74 95 bd 81 cf 1a bc 75 85 ed bc d6 95 5a bd
       -0.07297651 -0.009448887 -0.028994301 -0.05336555
0002d0 d3 eb f7 3c 3e 09 16 3a ae e0 27 3d 32 0c a2 bb
       0.030263817 0.0005723423 0.040985756 -0.0049453015
0002e0 99 a7 11 bc 36 4a ca 3b 39 74 a2 3d 6c b4 4e bd
       -0.008890056 0.0061733974 0.07932324 -0.050465032
0002f0 9c f6 85 bd 4b 37 9c 3d aa 41 a7 3d aa c5 a6 bd
       -0.06541178 0.07627734 0.08166821 -0.0814317
000300 ef 27 4d bd f1 bc 82 bd af c4 8e 3c f9 48 ec 3b
       -0.05008691 -0.06383694 0.01742777 0.0072108475
000310 69 a8 6c bd 0c 9a 61 bd 88 f0 b8 bd ce af 72 3c
       -0.057777796 -0.05507855 -0.09030253 0.014812423
000320 71 a6 51 3b be 77 8f 3d d3 40 92 bc d5 1c a8 3b
       0.0031990076 0.07005261 -0.017853176 0.00513039
000330 28 78 7f 3d c9 0c 6a bc a4 b2 c7 3c b9 27 da 3d
       0.06237045 -0.014285275 0.024377175 0.10652108
000340 ca b6 49 3d 47 ec b0 3d 18 08 f8 3c f3 3d 63 bd
       0.049246587 0.08638816 0.030277297 -0.055479
000350 da 10 9f bc a9 90 95 3b b0 87 f2 bc 82 9e 23 bd
       -0.019417215 0.004564364 -0.029605716 -0.039946087
000360 51 e6 c2 3c d9 53 e2 ba 5f 53 ca 3b a2 e3 88 3d
       0.023791464 -0.001726742 0.0061744894 0.066840425
000370 4b 73 c2 3d 06 ee d5 ba 08 5a 97 bb 95 11 1e 3d
       0.09494647 -0.0016321547 -0.004618887 0.038590986
000380 9c 38 66 3c 00 e3 31 3e eb d5 64 3c f2 6b 37 bd
       0.014051583 0.1737175 0.013967018 -0.04478068
000390 a7 0b 57 3d bf 61 9f 3c 53 37 cd bd 38 4d 7e 3d
       0.052501347 0.019455789 -0.10020318 0.06208536
0003a0 62 64 ae 3d c8 e2 aa bd e8 e5 71 3c 73 9c d6 3c
       0.0851524 -0.08344036 0.014764287 0.026197648
0003b0 5b 71 aa 3c bf fc 84 bc 6c 35 7f bd ea 85 e4 3c
       0.020806005 -0.0162338 -0.062306806 0.027895886
0003c0 81 4a 13 bc 34 0a f2 bb 2b 5a b8 bc 52 b8 e7 3d
       -0.008989931 -0.00738647 -0.022503933 0.11314453
0003d0 f6 ad 9c bb 7a 68 8d bd 45 b3 ab 3d 36 eb 60 3d
       -0.00478148 -0.06904693 0.08383802 0.054911815
0003e0 cc b1 08 3e 4f 5c 76 bd 24 86 75 3c d5 ab 37 3c
       0.13349074 -0.060146626 0.014985595 0.011210402
0003f0 b5 1d 42 3d e8 06 0b be 82 1e e6 3c 22 a0 2c 3d
       0.047391612 -0.13576853 0.02809072 0.042144902
